models/all_td3/TD3_TradingEnvNorm_tts_42_1800_critic_2.pth (torch, 591903 bytes, 5 tensors)

layer_1.weight f4 [400, 66]
0	0xbe0eaa03	-0.13932042
1	0xbd1f5685	-0.03890087
2	0x3dc0b7ef	0.094100825
3	0xbddd5721	-0.10807634
4	0xbc974587	-0.01846577
5	0xbceacb8e	-0.028661516
6	0xbd35c91a	-0.04438124
7	0xbd680a1d	-0.05665027
8	0x3d007759	0.03136382
9	0x3dad5d66	0.0846508
10	0x3dc066b3	0.09394588
11	0xbda52802	-0.080642715
12	0xbdcbcce2	-0.09951188
13	0x3be9015f	0.007110759
14	0xbd7f83b0	-0.062381446
15	0x3d18b8a2	0.037285455
16	0xbcc3bb75	-0.023893097
17	0xbdc187ff	-0.09449767
18	0xbd9b6dec	-0.07589325
19	0xbdf8a181	-0.121401794
20	0xbe0539c7	-0.13010322
21	0x3c8837df	0.016628204
22	0x3c298fd0	0.010349229
23	0x3ccf18c4	0.025280364
24	0xbd9a6f5a	-0.0754077
25	0xbc1d9281	-0.009617449
26	0xbc24bd2e	-0.01005487
27	0xbd50118d	-0.050797988
28	0xbd09a8ca	-0.033608235
29	0x3d096fd8	0.033553928
30	0xbcf4b6e2	-0.029872362
31	0xbe07c32f	-0.1325805
32	0xbdd9be59	-0.10632009
33	0xbc76bd3d	-0.015059766
34	0x3d4b25f1	0.04959673
35	0x3d9a7f45	0.07543806
36	0xbd767eb4	-0.060179427
37	0x3dade3b4	0.084906965
38	0xba5df043	-0.0008466283
39	0x3bb3a104	0.005481841
40	0xbd286b5a	-0.041118003
41	0x3d26cf8a	0.04072527
42	0xbd8e3333	-0.06943359
43	0xbadd842b	-0.0016900351
44	0x3cbff3fa	0.023431767
45	0xbdd32fad	-0.10311828
46	0x3d8c586f	0.06852805
47	0xbb6f7ef2	-0.003654417
48	0xbdc309d5	-0.0952336
49	0xbc05660b	-0.008142005
50	0x3c580c3e	0.0131865125
51	0xbd95da8d	-0.07317076
52	0x3bf378ae	0.0074301576
53	0x3d6cecb1	0.057842914
54	0xbcbd15d9	-0.023081707
55	0x3d08b434	0.03337498
56	0xba420b00	-0.0007402152
57	0x3d927a0c	0.07152185
58	0xbcb237b4	-0.021755077
59	0xbda9106c	-0.08255085
60	0x3d8836c3	0.0665107
61	0xbd3da1c9	-0.04629687
62	0x3d99b102	0.07504465
63	0x3cab49d1	0.020909222
64	0xbdca5d5f	-0.098810904
65	0xbcceffaf	-0.025268404
66	0xbeb26263	-0.34840688
67	0xbe44f510	-0.19234109
68	0x3e6f9709	0.23397459
69	0xbeb7c519	-0.3589256
70	0x3ed46fe5	0.4149162
71	0x3c2ee0c5	0.010673706
72	0xbf002677	-0.5005869
73	0x3d03e75f	0.032203075
74	0x3d0188f4	0.03162475
75	0xbea71369	-0.32631996
76	0x3e27b20b	0.16376512
77	0x3ecf4817	0.40484688
78	0x3f2d42cd	0.67680055
79	0xbc5c01ad	-0.013428134
80	0x3f56e035	0.8393586
81	0x3f4128ba	0.7545277
82	0xbe11ff38	-0.14257514
83	0x3d74ff07	0.059813526
84	0x3c32622b	0.010887663
85	0x3d82b926	0.063829705
86	0xc03bc976	-2.9341712
87	0x3e706727	0.2347685
88	0xbfeaea53	-1.835276
89	0xc03588b6	-2.8364692
90	0x3e70cd0d	0.2351572
91	0xbe5adc0b	-0.21373002
92	0x3e27b9e8	0.16379511
93	0x3f11298a	0.5670401
94	0x3d6b7103	0.057480823
95	0xbe4cf729	-0.20016159
96	0xbf76a82a	-0.9635035
97	0x3e802fa9	0.25036362
98	0x3f3043f6	0.688537
99	0xbf852f7f	-1.040512
100	0xbf583543	-0.8445627
101	0xbcc4f394	-0.024041928
102	0x3e390e18	0.18071783
103	0x3ec8c361	0.39211562
104	0x3cf152d0	0.029458433
105	0xbe89c2f4	-0.2690655
106	0x3f220c1b	0.6329972
107	0xbe947fd5	-0.29003778
108	0x3fbcbe9c	1.4745669
109	0x3f295638	0.66147184
110	0xbe8aa39f	-0.27077958
111	0xbec27f06	-0.37987536
112	0x3ed1d02d	0.40979138
113	0x3e2f2b53	0.1710637
114	0x3cc9ef54	0.024650253
115	0x3e3623be	0.17787072
116	0xbfc5445e	-1.5411489
117	0x3ea35ab7	0.31905147
118	0x3f059ffc	0.5219724
119	0x3f2b2fcb	0.668698
120	0x3e3114f4	0.17293149
121	0xbdc1e78d	-0.09467993
122	0xbd8e2fbf	-0.069427006
123	0x3dc400bc	0.095704526
124	0x3dd99256	0.106236145
125	0x3d309564	0.04311122
126	0x3c3047c3	0.010759297
127	0xbd3b40aa	-0.045715965
128	0xbc9d9019	-0.01923375
129	0xbce4b239	-0.027917014
130	0x3d656872	0.05600781
131	0x3e13751b	0.14400141
132	0xbe5511f3	-0.20807628
133	0xbf130ea7	-0.5744423
134	0xbe1320c1	-0.14367963
135	0x3e52571c	0.20541042
136	0xbffee019	-1.9912139
137	0xbdcbddbf	-0.09954404
138	0x3ebe9c39	0.37228563
139	0xbf4c9f07	-0.79930156
140	0xbdaf9822	-0.08573939
141	0xbdecf603	-0.115703605
142	0x3eb2418e	0.3481564
143	0xc0d7dd4b	-6.7457633
144	0x3ec2237e	0.37917703
145	0x3eee41d0	0.46534586
146	0xbf18a1b7	-0.5962176
147	0xbd832234	-0.06403008
148	0xbe5b322b	-0.21405856
149	0xbe69180e	-0.22763082
150	0x3cc37370	0.023858756
151	0xbeef85ba	-0.46781713
152	0x3e616711	0.22011973
153	0xbf2ff5d1	-0.6873446
154	0x3e1457ee	0.14486668
155	0x3e21e1b6	0.15808758
156	0x3fbca622	1.47382
157	0x3f4ef3af	0.8084058
158	0xbe6beecf	-0.23040317
159	0x3e4069b1	0.18790318
160	0x3cf153e2	0.029458944
161	0xbdea13d5	-0.11429564
162	0xbf6cff66	-0.9257721
163	0xbff9ad2f	-1.9505976
164	0x3e8ff40a	0.28115875
165	0xbf5cb11d	-0.86207753
166	0xc04b2074	-3.1738558
167	0xbf90ae71	-1.1303235
168	0x3f326b76	0.6969522
169	0xbf2b2b0c	-0.6686256
170	0xbe0644ce	-0.13112184
171	0xbecf29f5	-0.40461698
172	0xbfd1d19d	-1.6392094
173	0xbff6b0ad	-1.9272667
174	0xc0051e2f	-2.0799673
175	0xbfd78593	-1.6837639
176	0x3f37e692	0.718362
177	0x3f2f4f7b	0.6848065
178	0x3fa27451	1.2691747
179	0x3e55fe8c	0.20897883
180	0x3d42f44d	0.047596265
181	0xbef7fc94	-0.4843489
182	0xbf7f6330	-0.99760723
183	0xbe998e6f	-0.2999148
184	0xbed542dd	-0.41652575
185	0xbf66c82a	-0.90149176
186	0xbd759fab	-0.059966724
187	0x3d367ee8	0.04455462
188	0xbca8ef10	-0.020621806
189	0xbcf594bc	-0.029978149
190	0x3d8f04c6	0.06983332
191	0xbdd5f5f2	-0.10447301
192	0xbc42577d	-0.011861679
193	0xbe098022	-0.13427785
194	0xbe847f14	-0.25878203
195	0x3d8eba1d	0.06969092
196	0x3e86fa50	0.26362848
197	0xbcb5fd70	-0.022215575
198	0xbf54b8c0	-0.83094406
199	0xbdc277cb	-0.09495505
200	0xbf17fde8	-0.59371805
201	0xbf40d145	-0.7531932
202	0xbec6ad0e	-0.38803905
203	0xbd294388	-0.04132417
204	0x3e90b5dc	0.28263748
205	0x3ec983cb	0.39358363
206	0x3c9abb00	0.018887997
207	0xbe8ca3ae	-0.27468628
208	0xbefe9a0e	-0.4972691
209	0xbbb9e921	-0.005673543
210	0xbf7c82d8	-0.9863715
211	0xbe9601de	-0.292983
212	0x3d59fd89	0.053220306
213	0x3b85633c	0.0040706675
214	0xbdd7ef5d	-0.10543702
215	0x3f84e982	1.0383761
216	0xbc950241	-0.018189551
217	0x3e0dab96	0.13834986
218	0x3f0ff5ba	0.56234324
219	0xbd0b4983	-0.034005653
220	0x3f942911	1.1575032
221	0x3ea549f2	0.32282978
222	0x3ea5a682	0.32353598
223	0x3d8b3f30	0.067991614
224	0xbe0e5a8f	-0.13901733
225	0x3f771e53	0.96530646
226	0xbd84f419	-0.064918704
227	0x3d84a0f4	0.06476012
228	0xbf8adeb6	-1.0849216
229	0xbd66dff5	-0.056365926
230	0xbeed1a15	-0.46308962
231	0xbf7576fa	-0.9588467
232	0x3e610a11	0.21976496
233	0xbe3dc064	-0.18530422
234	0x3e1df2b5	0.15424617
235	0x3fc00468	1.5001345
236	0xbd981088	-0.07425028
237	0x3dec315e	0.115328535
238	0x3f3c2d6f	0.73506826
239	0xbc9251a4	-0.017861195
240	0x3fab6080	1.3388824
241	0x3f311cad	0.6918438
242	0x3e5a8cc2	0.21342757
243	0x3c28b45a	0.010296905
244	0xbe1581ce	-0.14600298
245	0x3fa82167	1.3135194
246	0x3d5c42a4	0.05377449
247	0xbde70258	-0.11279744
248	0xc002d62b	-2.0443218
249	0x3f289336	0.65849626
250	0x3f9addaa	1.2098897
251	0x3fde9c39	1.7391425
252	0xbeaa92b0	-0.3331504
253	0xbc72fcc8	-0.014830776
254	0xbd18026c	-0.037111685
255	0xbd667ac8	-0.056269437

layer_1.bias f4 [400]
0	0x3b9564c1	0.00455913
1	0x3f50f2ca	0.81620467
2	0xbed21046	-0.4102804
3	0x3fb86234	1.4404969
4	0x3ea63bbf	0.32467458
5	0x3fcd4a8d	1.6038376
6	0x3f0651b7	0.52468437
7	0xbda44cc0	-0.080224514
8	0x3ed3ae5b	0.4134396
9	0xbe64b8c9	-0.22336115
10	0x3e8c6495	0.27420488
11	0xbdae08ab	-0.08497747
12	0x3f652be7	0.89520115
13	0xbbe75e80	-0.007060826
14	0x3f60ddbf	0.8783836
15	0x3f039f4a	0.5141493
16	0x3eeb239f	0.45925614
17	0x3da40541	0.080088146
18	0x3f3fe3bd	0.74956876
19	0x3eb37bcd	0.3505539
20	0xbdafd406	-0.08585362
21	0x3fadb956	1.3572185
22	0xbe079eda	-0.13244191
23	0x3e890ed5	0.26769128
24	0xbe95078b	-0.29107317
25	0xbfaefb68	-1.3670473
26	0xbd471301	-0.048602108
27	0xbcb6013a	-0.022217382
28	0x3f72cbd5	0.94842273
29	0xbecf6731	-0.40508416
30	0x3f12cf53	0.573476
31	0x3fd5221f	1.6651038
32	0x3f4b248e	0.79352653
33	0x3e6e23fc	0.23255914
34	0x3f219c8e	0.6312951
35	0xbe2708be	-0.16311929
36	0x3fa28c91	1.2699147
37	0x3f18faec	0.59757876
38	0x3dcf2bf1	0.10115803
39	0xbd046e7e	-0.032331936
40	0x3f0762e4	0.5288527
41	0xbebc79a3	-0.3681155
42	0xbe95f8b8	-0.2929132
43	0x3e9c0e28	0.3047955
44	0x3fdb8139	1.7148811
45	0x3fcc4867	1.5959595
46	0xbdacae04	-0.08431628
47	0x3fbaf60c	1.4606338
48	0xbdf57965	-0.11986045
49	0xbe5f739e	-0.21821448
50	0x3f06c148	0.52638674
51	0xbeb26f3d	-0.34850493
52	0xbc870dab	-0.01648601
53	0x3fc3caff	1.5296324
54	0x3ed1eab8	0.4099939
55	0x3f825eec	1.0185218
56	0x3f8ac0d8	1.0840101
57	0x3eba389a	0.3637131
58	0x3eb65467	0.3561127
59	0xbe75fb40	-0.24021626
60	0xbfa819f0	-1.3132915
61	0x3ebe8990	0.37214327
62	0x3ed9f4cc	0.42569578
63	0xbc2a685e	-0.01040086
64	0xbf421a7e	-0.75821674
65	0x3db8b325	0.09018544
66	0x3f00ed12	0.5036174
67	0xbe1dee2c	-0.15422887
68	0x3f017703	0.5057222
69	0x3fa36791	1.2765981
70	0x3fbad524	1.4596295
71	0x3fbf6f1f	1.4955786
72	0x3f8d7a51	1.1052953
73	0xbf451437	-0.7698397
74	0x3f534014	0.8251965
75	0xbe96758a	-0.2938655
76	0x3f94d8e0	1.1628685
77	0xbc8ad432	-0.016946886
78	0x3f75d2ff	0.9602508
79	0xbd71c9d3	-0.059030365
80	0x3fb3d8d5	1.4050547
81	0x3f0ddee1	0.5541821
82	0x3f4446e6	0.7667068
83	0xbd227de1	-0.03967083
84	0xbd9cc3d9	-0.076545425
85	0xbc0a4f0d	-0.008441699
86	0x3fedb21d	1.8569981
87	0xbf75e64e	-0.9605454
88	0x3fa4d78f	1.2878283
89	0xbca79de7	-0.020461036
90	0xbdc55d7a	-0.0963697
91	0xbe8eb5c9	-0.27873066
92	0xbde61f76	-0.112364694
93	0xbe0b0eba	-0.13579836
94	0x3f9ca32a	1.2237294
95	0x3d3a4863	0.04547919
96	0x3f7bbfc8	0.9833951
97	0x3c86106c	0.016365252
98	0x3fad5d70	1.354414
99	0xbe01f2af	-0.12690233
100	0xbd6384e5	-0.05554666
101	0x3fa8898b	1.3166975
102	0x3f2a5302	0.6653291
103	0x3edaec22	0.4275828
104	0x3f66c178	0.9013896
105	0x3f53bfef	0.8271474
106	0x3fb76650	1.4328098
107	0x3f722bda	0.9459816
108	0x3b98e58b	0.0046660355
109	0x3f1de590	0.6167841
110	0xbebce806	-0.3689577
111	0x3f6e15e5	0.9300216
112	0xbe670de2	-0.2256389
113	0xbd673f9d	-0.05645715
114	0xbf04c03d	-0.5185583
115	0x3fb75275	1.4322039
116	0x3f80d411	1.0064718
117	0xbee0628f	-0.43825194
118	0x3fc8b5fd	1.5680538
119	0xbe44d6ea	-0.19222608
120	0xbe959564	-0.29215539
121	0x3f350539	0.70711094
122	0x3e8fc8a2	0.28082758
123	0x3f9eff62	1.2421687
124	0x3fda069a	1.7033265
125	0xbf60fcea	-0.87885916
126	0x3fa360be	1.2763898
127	0x3f9f64f1	1.245268
128	0x3f28b256	0.6589712
129	0xbf06e2fc	-0.526901
130	0xbde0a541	-0.1096902
131	0x3f8ed765	1.1159483
132	0xbdb6e70c	-0.089307874
133	0x3ebe60b3	0.3718315
134	0x3f5374e9	0.82600266
135	0x3e73f12c	0.23822469
136	0x3fb9bf31	1.4511472
137	0xbdf380e7	-0.118898205
138	0xbcdffb02	-0.02734137
139	0xbf491f30	-0.78563213
140	0x4002e584	2.0452585
141	0x3e4ec6cf	0.20193027
142	0x3f2202d7	0.63285583
143	0x3f2c22f9	0.67240864
144	0x3ee908b5	0.45514455
145	0x3f25978f	0.64684385
146	0xbf0df219	-0.55447537
147	0x3f309f38	0.6899295
148	0x3e94dc44	0.290743
149	0xbdc27017	-0.09494036
150	0xbd1e9911	-0.038720194
151	0x3fa9dbce	1.3270204
152	0x3f86991e	1.0515478
153	0xc06a35b9	-3.659529
154	0x3fabe340	1.3428726
155	0x3f29e32e	0.66362274
156	0xc05ab2ed	-3.4171708
157	0x3f3e2029	0.7426782
158	0x3f8a1229	1.0786792
159	0xbe78ee1f	-0.24309586
160	0x3f6fe562	0.93709385
161	0x3f63a552	0.88924134
162	0x3f312ec8	0.6921201
163	0x3f7f742e	0.9978665
164	0x3f192f0b	0.59837407
165	0xbded76d1	-0.11594928
166	0x3f81ecce	1.0150392
167	0xbf169361	-0.5881863
168	0x3fdeb932	1.7400267
169	0x3f5fda6f	0.8744268
170	0x3fe1675e	1.760967
171	0xbd64db98	-0.055873483
172	0x3f0c81f5	0.548858
173	0x3fe6730b	1.8003858
174	0x3fb3a9bb	1.4036173
175	0xbe82634f	-0.2546639
176	0x3f6f62c3	0.93510073
177	0x3edf3a28	0.43599057
178	0x3ec5b3d0	0.3861375
179	0xbe06d095	-0.13165505
180	0x3f6723bf	0.9028892
181	0xbdc8fd67	-0.09813958
182	0x40032b4b	2.0495174
183	0xbe8bf0ae	-0.27332062
184	0xbe064f9a	-0.13116303
185	0x3e9761f1	0.2956691
186	0xbe8be774	-0.27325022
187	0xbe8419d7	-0.25800964
188	0x3ffe2a94	1.9856744
189	0x3f6655c7	0.89974636
190	0xbf34325d	-0.7038935
191	0x3fa0570e	1.2526567
192	0xbc52822d	-0.012848419
193	0x3fa40d52	1.2816565
194	0x3ed729e8	0.4202416
195	0x3f3c01ba	0.73440135
196	0x3fa11d8d	1.2587143
197	0x3f757a0d	0.9588936
198	0x3f180bdf	0.59393114
199	0x3f92d8e2	1.1472437
200	0x3ccb47a4	0.024814434
201	0x3f688685	0.9083026
202	0x400133c2	2.018784
203	0xbd9d8998	-0.076922596
204	0xbe2a5422	-0.16633657
205	0x3fd7d64b	1.6862272
206	0x3fa02df4	1.2514024
207	0xbe06bcf9	-0.13158025
208	0x3f57df0c	0.8432472
209	0x3f85aadc	1.0442767
210	0x3fcfb7e4	1.6227994
211	0x3fba257c	1.4542689
212	0xbd0960da	-0.03353963
213	0x3fa41c6c	1.2821174
214	0xbf85be7b	-1.0448755
215	0x3f09f2ef	0.5388631
216	0xbe949a1d	-0.2902383
217	0xbfb7def3	-1.4364914
218	0x3e4d35f1	0.20040108
219	0x3de65339	0.11246342
220	0x3e87892c	0.2647184
221	0x3f95f497	1.1715268
222	0xbe12b0ad	-0.14325209
223	0xbea76bca	-0.32699424
224	0xbef1d1c3	-0.47230348
225	0x3f272290	0.65287113
226	0x3f478d62	0.7795011
227	0x3f06cc74	0.5265572
228	0xbe353f37	-0.17699896
229	0xbf3ff6fd	-0.7498625
230	0x3f35a87b	0.70960206
231	0x3f427b21	0.7596913
232	0x3f830200	1.0234985
233	0xbb00a2db	-0.001962832
234	0x3cf435d4	0.029810824
235	0x3f950c0e	1.1644304
236	0x3f6f45f6	0.93466127
237	0x3fde11d3	1.734919
238	0x3f1491f2	0.58035195
239	0x3e123cf8	0.1428107
240	0x3fb632ae	1.4234216
241	0x3edd54f8	0.4322889
242	0xbeff2daf	-0.4983954
243	0x3e289057	0.16461311
244	0x3f413d09	0.7548376
245	0x3f2f24ca	0.6841551
246	0xbdd1f904	-0.10252574
247	0x3f083604	0.5320742
248	0x3fa08d57	1.2543133
249	0xbdaff024	-0.08590725
250	0x3fb320ee	1.3994424
251	0x3f4c8afc	0.79899573
252	0x3faa0487	1.3282632
253	0xbf4ea70e	-0.80723655
254	0x40026a42	2.0377355
255	0xbdf91ffd	-0.121643044

layer_2.weight f4 [300, 400]
0	0xbb87d3b6	-0.004145111
1	0xbf0426ec	-0.5162189
2	0x3eb45718	0.35222697
3	0x3e34aa9d	0.17643209
4	0xbe87897d	-0.26472083
5	0x3ec7ad17	0.38999245
6	0x3e6ec219	0.2331623
7	0x3e2ec6cb	0.17068021
8	0x3e238b2c	0.15971059
9	0xbee1e8e5	-0.44122997
10	0x3e431e33	0.19054489
11	0x3c722b4f	0.014780833
12	0xbea718b1	-0.32636026
13	0xbe17df3a	-0.14831248
14	0xbe219459	-0.15779246
15	0x3e710822	0.23538259
16	0xbeab3bb0	-0.33443975
17	0xbd5644b1	-0.052311603
18	0x3e5edba4	0.21763474
19	0x3e668338	0.22510993
20	0x3e249aba	0.16074648
21	0xbbbbf2af	-0.0057357172
22	0xbcd9d4fb	-0.026590815
23	0xbf329409	-0.69757134
24	0xbeb66b3f	-0.35628697
25	0x3ca27a36	0.019833665
26	0xbb8a90f6	-0.0042287065
27	0x3e1ffe70	0.15624404
28	0xbe9eec06	-0.31039447
29	0xbdd21072	-0.10257043
30	0xbf29c1e8	-0.663115
31	0xbe762e25	-0.2404104
32	0xbf10fd54	-0.5663655
33	0xbf2ab24f	-0.6667833
34	0x3e47d983	0.19516568
35	0xbbf0bcb0	-0.007346712
36	0x3ec7682e	0.3894667
37	0xbe883bfd	-0.26608267
38	0xbeef1ab5	-0.46700063
39	0x3d4b9b18	0.049708456
40	0x3db1d8c0	0.0868392
41	0xbe76b4e7	-0.24092446
42	0xbda88a79	-0.082295366
43	0xbefebab0	-0.49751806
44	0xbf5c342a	-0.86017096
45	0xbeb4abab	-0.35287222
46	0x3d8a7258	0.067600906
47	0xbf6eae21	-0.9323445
48	0xbed23fe6	-0.41064376
49	0xbdf0d5c5	-0.11759523
50	0xbe088de5	-0.13335378
51	0xbe83fdfe	-0.25779718
52	0xbbeebfe7	-0.00728606
53	0x3ec38e22	0.38194376
54	0x3e5d3dfd	0.21605678
55	0x3e24e925	0.16104563
56	0xbf19ae2c	-0.6003139
57	0x3f14af1e	0.5807971
58	0xbe866c27	-0.2625439
59	0xbc8ca8b3	-0.017170286
60	0xbe8bd34e	-0.2730965
61	0xbe2c62fc	-0.16834635
62	0xbf4c71c5	-0.798611
63	0xbd6e666d	-0.05820315
64	0xbe9f8466	-0.311557
65	0x3e4795f0	0.1949079
66	0xbd89fa73	-0.067372225
67	0x3c2d6ace	0.010584546
68	0x3e4624ed	0.19350024
69	0xbed3e7fe	-0.41387933
70	0xbe61ded4	-0.22057658
71	0xbf53f08d	-0.82788926
72	0xbed0eea2	-0.40807062
73	0x3d90e016	0.07073991
74	0xbf01297e	-0.5045394
75	0x3e370366	0.1787239
76	0x3ef8863c	0.48539913
77	0x3e6ea4e0	0.23305082
78	0x3e4e5e94	0.20153266
79	0x3d064061	0.03277624
80	0x3cb9dfc5	0.02268971
81	0xbeb2c066	-0.34912413
82	0xbe82a294	-0.25514662
83	0x3c7da7dd	0.015481916
84	0xbeaa99b0	-0.3332038
85	0x3c8a4ff3	0.016883826
86	0xbaf7c389	-0.0018902879
87	0xbdf64404	-0.12024692
88	0x3e080197	0.13281856
89	0x3cb715a6	0.02234919
90	0x3e35be01	0.17748262
91	0xbe9cca99	-0.3062332
92	0x3d04d2d1	0.032427613
93	0xbcb95fca	-0.022628684
94	0xbe86e8c9	-0.26349476
95	0x3e3d64ba	0.18495455
96	0xbe71bce9	-0.2360722
97	0x3adc6329	0.001681422
98	0x3e4bc3a9	0.19898857
99	0x3d2de393	0.04245336
100	0xbd585ab0	-0.05282086
101	0xbe09d16c	-0.13458794
102	0x3df0e3cf	0.11762201
103	0x3d7e3a21	0.062067155
104	0xbe73cef8	-0.23809421
105	0xbe14bd12	-0.1452525
106	0xbe204c0a	-0.15654007
107	0xbee1028c	-0.43947256
108	0x3c56b9e6	0.013105845
109	0xbe34da6a	-0.17661443
110	0x3dd38203	0.10327532
111	0xbec08793	-0.37603435
112	0x3ed15c2d	0.40890637
113	0x3d3542a1	0.044252995
114	0xbee25524	-0.44205582
115	0x3e165875	0.14682181
116	0xbd07587d	-0.033043373
117	0xbe8e136d	-0.27749196
118	0xbe846727	-0.2585995
119	0x3dfeea6c	0.12447056
120	0x3e1413d6	0.14460692
121	0xbeca6f25	-0.39537922
122	0xbe841804	-0.25799572
123	0x3c9a6ab7	0.018849714
124	0x3bd13c14	0.0063853357
125	0xbe4c6418	-0.19960058
126	0xbf5f8db8	-0.8732562
127	0xbef2aa3d	-0.47395507
128	0xbf0bd8b5	-0.54627544
129	0x3c59e42b	0.013299028
130	0x3b8b466f	0.0042503397
131	0xbdf4d6b7	-0.11955016
132	0xbd2c534b	-0.042071622
133	0xbf02cca6	-0.5109352
134	0xbe766d97	-0.24065243
135	0x3e56b00b	0.20965593
136	0xbf09e5c2	-0.5386621
137	0x3dab2831	0.08357275
138	0xbe9422ad	-0.28932706
139	0x3d430331	0.047610465
140	0xbe8630da	-0.26209146
141	0xbd336922	-0.043801434
142	0xbe5d2756	-0.21597037
143	0xbe81c225	-0.25343433
144	0xbee70328	-0.45119596
145	0xbeba4952	-0.36384064
146	0xbe276e15	-0.16350587
147	0xbddb9bff	-0.10723113
148	0x3d8e8ec3	0.069608234
149	0xbf178902	-0.5919343
150	0x3d23c53d	0.039983023
151	0xbe282ea4	-0.16424042
152	0xbd01d820	-0.031700253
153	0xbf32c597	-0.6983275
154	0x3e3a732c	0.18207997
155	0xbdb68f61	-0.08914066
156	0xbf08aa8d	-0.5338524
157	0xbdfe880a	-0.12428291
158	0x3e805af8	0.25069404
159	0xbeb38ba6	-0.3506748
160	0x3e2f9acc	0.17148894
161	0x3e3f149f	0.1866021
162	0xbe84e9d2	-0.2595964
163	0x3e01353a	0.1261796
164	0xbf138558	-0.5762534
165	0x3d71cacc	0.059031293
166	0xbecf1ccb	-0.40451655
167	0xbec4a183	-0.38404474
168	0x3d4a9a31	0.049463455
169	0x3e089ee3	0.1334186
170	0xbdcd2f8f	-0.10018837
171	0x3cce5646	0.025187623
172	0xbe3f1ca7	-0.18663274
173	0xbd8102ea	-0.06299384
174	0xbed127f7	-0.40850803
175	0xbd96c8c1	-0.073625095
176	0xbe8b0770	-0.27154112
177	0xbedbfe35	-0.42967382
178	0xbf509a3e	-0.81485355
179	0x3d864d1e	0.06557678
180	0x3da95dbe	0.08269833
181	0x3d275f7a	0.040862538
182	0xbebeacad	-0.37241116
183	0x3f035eb9	0.5131641
184	0x3cbe1de6	0.023207616
185	0xbf04a85e	-0.5181941
186	0x3bbd28f7	0.0057727057
187	0xbd91133b	-0.07083746
188	0xbebd9d2b	-0.37033972
189	0xbe3a5b56	-0.18198904
190	0xbeda9f48	-0.42699647
191	0x3e8dfc58	0.27731586
192	0x3d56a32b	0.052401703
193	0xbe01524e	-0.12629053
194	0x3e4d0bd8	0.2002405
195	0xbd648284	-0.055788532
196	0xbcd90f26	-0.026496481
197	0xbec0f283	-0.37685022
198	0x3e61338d	0.21992321
199	0xbe063121	-0.13104679
200	0xbddf2144	-0.10895017
201	0xbf43a73c	-0.76427054
202	0x3d76e89a	0.06028042
203	0x3e7e9a02	0.24863437
204	0xbf1a7cb7	-0.6034655
205	0xbf1207e8	-0.57043314
206	0xbf2136cf	-0.62974256
207	0x3e93e255	0.28883615
208	0x3e86c4a9	0.26321915
209	0xbf2347cd	-0.63781434
210	0xbf0859ef	-0.5326223
211	0xbd8e4177	-0.0694608
212	0x3cb2bc6a	0.021818358
213	0xbf139be9	-0.57659775
214	0xbf529875	-0.8226388
215	0x3da64721	0.081190355
216	0x3eb0d92d	0.34540692
217	0xbed9cc00	-0.42538452
218	0xbe9df6b5	-0.30852285
219	0x3dbc836a	0.09204753
220	0xbe26b66c	-0.16280526
221	0xbd87588f	-0.06608688
222	0xbc855d4a	-0.016279835
223	0x3de188a0	0.11012387
224	0xbee5c4df	-0.44876763
225	0xbe993e31	-0.2993026
226	0x3bb5ea4a	0.005551611
227	0xbe778c30	-0.24174571
228	0xbd139d64	-0.03603877
229	0x3e37a0ab	0.17932384
230	0xbe96d16a	-0.29456645
231	0xbd098092	-0.03356988
232	0x3e7f7bae	0.24949524
233	0xbccbdc70	-0.024885386
234	0xbbc6140e	-0.006044871
235	0xbf52cbab	-0.8234202
236	0x3edd46f5	0.43218198
237	0xbf169726	-0.58824384
238	0x3e172f87	0.14764224
239	0x3e9b1498	0.3028915
240	0x3e1a1c91	0.1504996
241	0x3cf24bde	0.029577192
242	0xbf556992	-0.8336421
243	0xbf14bbcd	-0.5809906
244	0xbe20adb4	-0.15691262
245	0xbef0b6fe	-0.47014612
246	0xbcf0800d	-0.029357934
247	0xbe8e08d1	-0.277411
248	0x3e2cb2c3	0.16865067
249	0xbb942707	-0.004521254
250	0xbd1558ee	-0.036461763
251	0xbe74fe3e	-0.2392511
252	0xbf6293ba	-0.8850666
253	0xbeabdd29	-0.3356717
254	0xbe2c1790	-0.16805863
255	0xbec3b989	-0.3822749

layer_2.bias f4 [300]
0	0xbdf1e13e	-0.1181054
1	0x411ad753	9.677569
2	0xc0b7470f	-5.727424
3	0x40846d4d	4.1383424
4	0x4146a658	12.415611
5	0xbde93cec	-0.11388573
6	0x419af259	19.368334
7	0x4197e54e	18.986965
8	0x419d19dd	19.637629
9	0xbe06b047	-0.13153182
10	0x4083d7f7	4.120113
11	0x406c037e	3.6877131
12	0xbdab8c7b	-0.08376404
13	0x40b39018	5.6113396
14	0x40b351c5	5.6037316
15	0xbd7d28a2	-0.06180633
16	0xbe07cb91	-0.13261248
17	0x40d26acc	6.5755367
18	0x3e69f111	0.22845866
19	0x3fc7be14	1.5604882
20	0xbeed6d4a	-0.46372443
21	0xbf016c95	-0.5055631
22	0x418d87f7	17.69139
23	0x411561d4	9.336384
24	0x419337b8	18.402206
25	0xbdbe65c6	-0.092967555
26	0xbe3da1f5	-0.18518813
27	0x409652a1	4.6975865
28	0x3e416e4c	0.18889731
29	0xbd8adee9	-0.06780798
30	0xc04f9d1d	-3.2439644
31	0xbde30e8d	-0.1108676
32	0xbe89e27e	-0.26930612
33	0xbf149fa7	-0.5805611
34	0x4048cd88	3.1375446
35	0xbe076f28	-0.13225996
36	0xbf1073f1	-0.5642691
37	0x3e71548c	0.23567408
38	0x41832e13	16.397497
39	0x41500413	13.000995
40	0x41a7defe	20.983883
41	0xbcdc2373	-0.026872372
42	0x3e8b825f	0.27247903
43	0x4164d7ae	14.302656
44	0x401ad2cb	2.4191158
45	0x3f7fe92d	0.99965173
46	0x4030c299	2.7618773
47	0x419f1872	19.886936
48	0x3d1f12d9	0.038836334
49	0x418ebf69	17.843462
50	0x406c0d59	3.6883147
51	0x3e76af99	0.24090423
52	0x40ba9848	5.831089
53	0x405a5388	3.4113483
54	0x40dcf00a	6.9043016
55	0x4015c45c	2.3401098
56	0x3ec319f2	0.38105732
57	0xbe0ab070	-0.13543868
58	0x40e08d4e	7.017249
59	0x4098af40	4.771393
60	0xbf6ec67e	-0.93271625
61	0x3ff5dfad	1.9208885
62	0xbde79da4	-0.113093644
63	0x40be24ec	5.942007
64	0x408f384d	4.4756227
65	0xbe126ecb	-0.14300077
66	0x4084fde1	4.155991
67	0x408ebb3c	4.4603558
68	0x3d9d34c8	0.07676083
69	0x3e16770a	0.14693847
70	0x3da9efa0	0.08297658
71	0xbe3ca040	-0.18420506
72	0xbdfa7c4b	-0.12230738
73	0x3f1bd209	0.60867363
74	0x400c813b	2.1953876
75	0xbe889b18	-0.26680827
76	0xbd4853fa	-0.04890821
77	0x40f1133d	7.5335984
78	0x418eb42a	17.83797
79	0xbc72db70	-0.014822826
80	0x406a3eed	3.6600907
81	0xbf9a4f8c	-1.2055526
82	0x3fa7eb49	1.3118678
83	0x40498f9c	3.1493902
84	0x3f578bb3	0.8419754
85	0xbdf247b5	-0.11830083
86	0x3eea9e22	0.4582377
87	0xbdbf197b	-0.09331032
88	0x408ce5dd	4.4030595
89	0x4173bec3	15.234073
90	0x3e0d7d24	0.13817269
91	0x402fef11	2.7489665
92	0x40852206	4.1604033
93	0x3e7954c8	0.24348748
94	0x416c15aa	14.755289
95	0xbf7bdb6d	-0.9838169
96	0xbe1fcbfe	-0.1560516
97	0x41758829	15.345742
98	0xbd65b10e	-0.056077056
99	0x4037faec	2.87469
100	0x408296b5	4.080897
101	0x403e35c0	2.9720306
102	0xbed04665	-0.40678707
103	0x40164463	2.347924
104	0x3da0ecbf	0.07857656
105	0x41939638	18.448349
106	0x40a143a5	5.0395074
107	0xbe6e5e6b	-0.23278205
108	0x405eb380	3.4797058
109	0x408433b4	4.1313114
110	0x406e39b2	3.7222714
111	0x40893a8d	4.2883973
112	0xbec0f30e	-0.37685436
113	0x3f987230	1.1909847
114	0x402b2319	2.6740172
115	0xbe6b9ae4	-0.23008305
116	0x419e45b0	19.784027
117	0xbeb54f30	-0.35411978
118	0x4188c95c	17.09832
119	0x40c10668	6.032032
120	0x419ba103	19.453619
121	0x4032e54e	2.7952456
122	0x40c05ac6	6.0110807
123	0x40015991	2.0210917
124	0x4091ea2a	4.5598345
125	0xbe80d3df	-0.25161645
126	0xbecce1a1	-0.4001589
127	0xbe878ab5	-0.26473013
128	0x3dc15710	0.09440434
129	0x40e8fb81	7.280701
130	0x411afcd7	9.6867285
131	0x405917da	3.3920808
132	0x4022bee3	2.5429008
133	0x40ad02ca	5.4065905
134	0xbe3ab188	-0.18231785
135	0x3fe7934a	1.8091824
136	0x40be01c7	5.937717
137	0x3dd51694	0.10404697
138	0x41974a1d	18.911188
139	0xbeb72b2b	-0.35775122
140	0x3ff38b02	1.9026797
141	0xbedea03b	-0.4348162
142	0x40d90d4d	6.7828736
143	0x402327d7	2.5493066
144	0xbccac024	-0.024749823
145	0x3f56a4b5	0.83845073
146	0x3f0ac0ba	0.5420033
147	0x412e9bca	10.913034
148	0xbe61d4e6	-0.2205387
149	0x419f3c2d	19.904383
150	0x3e18057b	0.1484584
151	0x40ff4cdd	7.9781327
152	0x3fbe4418	1.486453
153	0x3fed6955	1.854777
154	0x419cf50c	19.619652
155	0x407f52a7	3.9894197
156	0x3fa72501	1.3058168
157	0x40235f7b	2.5527027
158	0x414db6cc	12.857128
159	0x3dcfa28f	0.101384275
160	0x4096028e	4.687812
161	0x415a536e	13.645369
162	0x3f7ee6ca	0.99570906
163	0x41829d01	16.326662
164	0x40c1aedb	6.0525947
165	0x40894a2b	4.2903037
166	0x40604cec	3.504695
167	0x4119ed6b	9.620463
168	0x419e963b	19.823355
169	0x40aced9f	5.4040065
170	0x40a659a4	5.1984425
171	0x40685055	3.629903
172	0x4089b707	4.303592
173	0xbf5ddd13	-0.8666546
174	0x3f9795e8	1.1842623
175	0xbe3672a4	-0.1781717
176	0x40c3b336	6.1156263
177	0x40672b0d	3.6120026
178	0xbeb65024	-0.35608017
179	0x413fbc86	11.983526
180	0x412b2060	10.695404
181	0x40b2f43d	5.5923142
182	0x3f016ecd	0.50559694
183	0x40b958f9	5.792111
184	0xc050e0d7	-3.2637231
185	0x40c1ca45	6.055941
186	0x407ff160	3.9991074
187	0x41993af1	19.15378
188	0xbdfd8743	-0.12379315
189	0x3e81511b	0.2525719
190	0x40869095	4.205149
191	0x3e98939f	0.29800126
192	0x40757582	3.835297
193	0x419adb4c	19.357079
194	0xbc4ea94d	-0.012613607
195	0x405824f6	3.377256
196	0x419abf12	19.343296
197	0x40a9746d	5.295462
198	0x3f5bfca5	0.8593238
199	0x40a15181	5.041199
200	0x419f20c3	19.890997
201	0x41a2aeef	20.335417
202	0x40ac9d13	5.394174
203	0x3e230452	0.15919617
204	0x407f3f8e	3.988254
205	0x40cee485	6.4653955
206	0x4092a627	4.5827823
207	0xc0cfc3f0	-6.492668
208	0x409c1428	4.8774605
209	0xbeba4ba0	-0.36385822
210	0x40b095fe	5.5183096
211	0x41805c22	16.044987
212	0x403536ea	2.8314767
213	0x40121168	2.2823124
214	0xbdce25ca	-0.100658014
215	0xbf26490a	-0.649552
216	0x40812013	4.0351653
217	0x412e5316	10.895285
218	0x3e0cfad6	0.13767561
219	0xbf2a5253	-0.66531867
220	0x40888b08	4.2669716
221	0xbdcbbc51	-0.09948028
222	0x40787330	3.8820305
223	0xbe118922	-0.14212468
224	0xbe1911bf	-0.14948176
225	0x40204672	2.5042996
226	0x412ecf6d	10.925641
227	0x404d8854	3.2114458
228	0xbe3d0573	-0.1845911
229	0xbfd2766c	-1.644239
230	0xbe23f85b	-0.16012709
231	0x4041a6fe	3.0258174
232	0x419e3123	19.773993
233	0xbf8e62de	-1.1123922
234	0x3ddd86d4	0.10816732
235	0x400df6e9	2.2181952
236	0x40c94ec0	6.290863
237	0x4128980a	10.537119
238	0xbd085e59	-0.033293102
239	0x401f88ae	2.4927173
240	0x40764659	3.8480437
241	0xc09f914b	-4.986486
242	0x40b95da7	5.792682
243	0x4038a74a	2.8852105
244	0x3d9ee569	0.077586
245	0xbdc5ece3	-0.09664323
246	0x3fb9e36b	1.4522527
247	0xbd145adf	-0.036219474
248	0x40b7337d	5.725035
249	0x411e03b5	9.875905
250	0x406a45e5	3.660516
251	0x409ef754	4.9676914
252	0x4049c54c	3.152667
253	0xc019bcd6	-2.4021506
254	0x3d8787a0	0.06617665
255	0xbda8e915	-0.08247582

layer_3.weight f4 [1, 300]
0	0xbf79ee72	-0.97629464
1	0xc00c1aff	-2.1891477
2	0x40b02002	5.503907
3	0x406dcccb	3.7156246
4	0xbfc5d505	-1.5455633
5	0xbbd0b400	-0.006369114
6	0xc04f1060	-3.2353745
7	0xbfa46d72	-1.28459
8	0xbfa11ed6	-1.2587535
9	0xbf815a08	-1.01056
10	0xbf9e974d	-1.2389923
11	0xbfbf7565	-1.4957701
12	0x3cb4ab2f	0.022054283
13	0xc0058765	-2.0863888
14	0xbf942385	-1.157334
15	0xbfe312ea	-1.7740147
16	0x3cabbc08	0.020963684
17	0xbf841e4e	-1.0321748
18	0x3f742abc	0.9537771
19	0x402edd8f	2.7322729
20	0xbe7bb358	-0.24580133
21	0xbf3a802a	-0.7285181
22	0xc0ca27b7	-6.317348
23	0xbfca2e22	-1.5795329
24	0xbf8c47c7	-1.0959405
25	0x3c356f35	0.011073877
26	0xbce1cce2	-0.027563516
27	0xbf636d7f	-0.8883895
28	0xbfcb2b0f	-1.5872515
29	0xbf57b3a5	-0.8425849
30	0x403fbf90	2.996067
31	0x3ac73d02	0.0015200677
32	0xbf89b4eb	-1.0758337
33	0xbf48dd8e	-0.78463066
34	0x40234373	2.5509918
35	0x3c4a869f	0.012361198
36	0x40829f84	4.081972
37	0xbfdd956f	-1.7311229
38	0xbfb5e4cb	-1.4210447
39	0xbfd5a1ec	-1.669004
40	0xbfb939fe	-1.4470823
41	0xbf4ebc85	-0.8075641
42	0xbfe91478	-1.8209372
43	0xbfa52a53	-1.2903541
44	0x403d54c5	2.958299
45	0x3f922629	1.1417896
46	0x409e2076	4.9414625
47	0xbf9c35bc	-1.2203898
48	0x3f4be9f7	0.7965388
49	0xbf93bb3b	-1.1541513
50	0x406c6d0d	3.694156
51	0xbff5a1ce	-1.9190004
52	0xc054e1f3	-3.3262908
53	0xbfbde4d6	-1.483546
54	0xbf68297b	-0.90688294
55	0x406a11b9	3.6573317
56	0xbfbf676c	-1.4953437
57	0xbc294a70	-0.010332689
58	0xbf36d746	-0.7142223
59	0xbf84e87b	-1.0383447
60	0x3f2b1c79	0.6684032
61	0x403246d4	2.785573
62	0xbc71c43d	-0.0147562595
63	0xc0242dba	-2.565291
64	0xbfbf3502	-1.4938052
65	0x3cc5b8dd	0.024136001
66	0x405346d8	3.301199
67	0x40a0838c	5.016058
68	0xbfb848f2	-1.4397261
69	0xbfddfb53	-1.7342323
70	0xbfd64044	-1.6738362
71	0x405dd5bb	3.46617
72	0x3c79ef81	0.015254856
73	0x41102f54	9.011555
74	0x3ff86da7	1.9408463
75	0x3c8de402	0.017320637
76	0x3f82cd22	1.0218852
77	0xbf2b4a86	-0.6691059
78	0xbf911f61	-1.1337701
79	0x3f47a9e0	0.77993584
80	0x4056443d	3.347915
81	0x4099fa99	4.8118405
82	0x4038cf16	2.8876395
83	0xbfc56ca9	-1.5423785
84	0x40969952	4.706216
85	0x3ccb6500	0.024828434
86	0x3ffa00d8	1.9531507
87	0xbcd68c55	-0.026189962
88	0xc007e11f	-2.1231153
89	0xbfc7d304	-1.5611272
90	0xbfadaef0	-1.3569012
91	0x4019808c	2.3984709
92	0xbfb2b75e	-1.3962209
93	0xbfcbae17	-1.5912503
94	0xbfc9f92e	-1.5779169
95	0x4089166b	4.2839866
96	0xbc6d53e2	-0.014485331
97	0xbf8741fa	-1.056701
98	0xbc0c2c6a	-0.008555511
99	0x40545fc0	3.318344
100	0x40818980	4.0480347
101	0x4089e183	4.3087783
102	0xbedff4fe	-0.43741602
103	0x4033dbe2	2.8102956
104	0x3f488405	0.78326446
105	0xc05ccae6	-3.449884
106	0xbf81652f	-1.0109004
107	0x40948739	4.6415067
108	0x40910f71	4.533135
109	0x40539a39	3.306288
110	0x40b888d4	5.7667027
111	0x40a3bcb5	5.1167855
112	0xbf157484	-0.58380914
113	0x3fe8363f	1.8141555
114	0xc06f90ad	-3.7432053
115	0xbfef5685	-1.8698279
116	0xbf94ea46	-1.1633995
117	0x3f912ef6	1.1342456
118	0xc0509b9c	-3.2594976
119	0xbf861ea5	-1.0478102
120	0xbf977881	-1.183365
121	0x40297144	2.6475382
122	0xc02d308e	-2.7060885
123	0x3fc78d3e	1.5589979
124	0x40b713b8	5.721157
125	0xbde12568	-0.10993463
126	0xbf579fb1	-0.84228045
127	0xbfac30e4	-1.345242
128	0xbfca882f	-1.582281
129	0xbf692e18	-0.9108596
130	0xbf85a78b	-1.0441755
131	0xc0030523	-2.0471885
132	0x405a6aba	3.412764
133	0xc00078c8	-2.007372
134	0xbc3cd92d	-0.011526388
135	0x40306196	2.7559562
136	0xbf26590b	-0.6497962
137	0x3f698b75	0.9122842
138	0xbfb8f2fe	-1.4449155
139	0x3f18a61f	0.5962848
140	0xbf581634	-0.8440888
141	0xbfbb1ac3	-1.4617542
142	0xbf31aa6a	-0.69400656
143	0x40d9bc02	6.8042
144	0xc0019e9c	-2.0253057
145	0x3fd411d3	1.656794
146	0x3f2d52b4	0.6770432
147	0xbffe8e56	-1.9887187
148	0xbfc47326	-1.534764
149	0xbf9ed266	-1.2407959
150	0xbfd70753	-1.679911
151	0xc02dcdd4	-2.7156878
152	0x40cc6780	6.3876343
153	0x408150c9	4.0411115
154	0xbf94679f	-1.1594123
155	0x40738d9d	3.8055184
156	0xc03977ce	-2.8979373
157	0x407082a6	3.7579741
158	0xbfa037e2	-1.2517054
159	0xbf9f7caf	-1.2459925
160	0xbfbf5f04	-1.4950871
161	0xbf841cfe	-1.0321348
162	0x4017567e	2.364654
163	0xbfac123c	-1.3443065
164	0xc029a39f	-2.6506116
165	0x4051cb73	3.2780426
166	0xbf00c488	-0.5029988
167	0xbf49c126	-0.78810346
168	0xbf96c74f	-1.1779574
169	0xbfd03e1d	-1.6268955
170	0x40cfa562	6.4889383
171	0x40bb06eb	5.8445945
172	0xbfcadd92	-1.5848868
173	0x403253d5	2.7863667
174	0x403aff7a	2.921843
175	0x3ca85946	0.020550381
176	0xc019f43f	-2.4055326
177	0xbf4ac594	-0.7920773
178	0xbfa86f27	-1.3158921
179	0xbfb7fe9e	-1.4374578
180	0xbf91b314	-1.1382775
181	0xbf32d338	-0.69853544
182	0x3f53bed6	0.8271307
183	0xbfe0c131	-1.7558957
184	0x3fcd8922	1.6057475
185	0xc006131e	-2.0949168
186	0x404bfbc6	3.187242
187	0xc083b3c0	-4.115692
188	0x3d01669f	0.031592008
189	0x3f786d6b	0.9704196
190	0xbfe4da98	-1.787921
191	0xbff4b389	-1.911729
192	0x40a88d95	5.267283
193	0xbf97a15b	-1.1846117
194	0xbfab7a68	-1.339673
195	0x409cb126	4.8966246
196	0xbf95f5ca	-1.1715634
197	0xbf91651d	-1.1358982
198	0x40450b43	3.0788124
199	0x40600c8c	3.5007658
200	0xbfa73df3	-1.306578
201	0xbfa3d410	-1.2799091
202	0xbf9c3188	-1.2202616
203	0xbfd87f46	-1.6913841
204	0xc0ca7deb	-6.327871
205	0xc01b635a	-2.427939
206	0xbfab010e	-1.3359697
207	0x40ff47ec	7.9775295
208	0xbf8dfe6c	-1.1093268
209	0x40c45319	6.1351438
210	0x4095c1d7	4.679912
211	0xbfa3b865	-1.2790648
212	0x40a89d5b	5.2692084
213	0x406590d3	3.5869644
214	0x3b5925de	0.0033134143
215	0xbfe6e923	-1.8039898
216	0xbf0a3fc2	-0.54003537
217	0xc017c93e	-2.3716578
218	0x3f45050c	0.76960826
219	0x3f9d7af9	1.2303153
220	0xc0ac0490	-5.375557
221	0xbb47a766	-0.0030464767
222	0x408854da	4.260358
223	0xbca9a278	-0.020707354
224	0x3bc11885	0.0058928155
225	0x401b2166	2.4239135
226	0xbf9ce843	-1.2258381
227	0x4040a493	3.0100448
228	0x3caa5630	0.02079305
229	0x400d05f3	2.203488
230	0x3ce7d5a0	0.028300107
231	0x40502cc5	3.2527325
232	0xbf88ce1d	-1.0687901
233	0x4014cde7	2.3250673
234	0xbfc2e02e	-1.5224664
235	0x401ec99e	2.4810557
236	0xbfa9e4d5	-1.3272959
237	0xc046a213	-3.1036422
238	0xbfc3b534	-1.5289674
239	0x40929ca6	4.581622
240	0x4092eb5d	4.591231
241	0x40228bd9	2.5397856
242	0xbf64b3cc	-0.8933685
243	0x4065a2d0	3.5880623
244	0xbf8e8439	-1.1134101
245	0xbfbb4814	-1.4631371
246	0x40784a87	3.8795488
247	0xbf91bd8c	-1.138597
248	0xbf63231c	-0.8872545
249	0xc01bbb21	-2.4332964
250	0x409f8f7d	4.9862657
251	0xbf8c13e2	-1.0943568
252	0xc03cab33	-2.9479492
253	0x3fdb11a7	1.7114762
254	0xbfb468ae	-1.4094446
255	0x3c279671	0.010228739
