models/all_td3/TD3_TradingEnv9_tts_42_1400_critic_1.pth (torch, 591839 bytes, 5 tensors)

layer_1.weight f4 [400, 66]
0	0xbd6690d4	-0.056290463
1	0xbc5902be	-0.013245283
2	0xbd7023ec	-0.058628008
3	0xbd6d94be	-0.05800318
4	0xbc7e31db	-0.015514816
5	0x3c3843d5	0.011246641
6	0x3c9bff25	0.01904256
7	0xba818932	-0.0009882806
8	0xbec155ef	-0.37760875
9	0x3b14e894	0.0022721635
10	0xbd9c1ab5	-0.076222815
11	0xbbeec348	-0.007286463
12	0xbd9c5762	-0.076338544
13	0xbd9a7d9e	-0.07543491
14	0xbd145a82	-0.036219127
15	0xbd315bdf	-0.043300506
16	0xbc82d5c5	-0.015971074
17	0xbcb8add8	-0.022543833
18	0xbd2a4383	-0.04156829
19	0xbbf1a22e	-0.0073740697
20	0xbd23f6fa	-0.040030457
21	0xbc54bc88	-0.0129844025
22	0xbd3a2791	-0.04544789
23	0xbd29d4ac	-0.041462585
24	0xbd4943fc	-0.0491371
25	0x3c3e31ea	0.01160858
26	0x3ce7bacd	0.028287316
27	0xa487d8be	-5.891409e-17
28	0xbb1129fe	-0.0022150273
29	0x3d01a166	0.031648062
30	0xbd37ddf9	-0.044889424
31	0xbc2cf084	-0.01055539
32	0xbd3fe59a	-0.046849824
33	0xbd3ee5c9	-0.04660586
34	0xbbb869b2	-0.0056278342
35	0xbc509448	-0.0127306655
36	0xbb5c8283	-0.0033647127
37	0xbcb40f69	-0.021980004
38	0xbcd364cd	-0.025804901
39	0x3cc2548b	0.023721954
40	0xbd7a3981	-0.061089996
41	0xbbd45868	-0.0064802654
42	0xbd79be9c	-0.060972795
43	0xbd831b5a	-0.06401701
44	0xbc99d5b6	-0.018778663
45	0xbd17a730	-0.037024677
46	0xbc48ad86	-0.012248402
47	0x800349c8	-3.01974e-40
48	0x3154ec44	3.0984362e-09
49	0x3c01fb2e	0.007933421
50	0xbd5e06ad	-0.054205585
51	0xbcd537be	-0.026027557
52	0xbd70ebc2	-0.058818586
53	0xbc2df3a9	-0.010617175
54	0xbd6253f8	-0.05525586
55	0x00003afc	2.116e-41
56	0x2dd3e264	2.408846e-11
57	0x80015b53	-1.24596e-40
58	0x8000130b	-6.831e-42
59	0x0001d32b	1.67588e-40
60	0xbce3a0c4	-0.02778662
61	0xbc526f44	-0.012843911
62	0xbd783ae2	-0.06060303
63	0x3d014d06	0.031567596
64	0xbc2fae03	-0.01072264
65	0x3ca56f3a	0.020194639
66	0xbd5872b7	-0.052843776
67	0xbcbfd999	-0.023419188
68	0xbd56a2ef	-0.05240148
69	0xbd5d5e09	-0.054044757
70	0xbd66fa8b	-0.05639128
71	0x3d4396cf	0.047751244
72	0x3acab1cd	0.0015464366
73	0x3c994afb	0.018712511
74	0xbc9f4637	-0.01944266
75	0x3c094260	0.008377641
76	0xbd4f2ded	-0.050580908
77	0xbd350780	-0.044196606
78	0xbd59a2f4	-0.05313392
79	0xbd54b813	-0.05193336
80	0xbc91a128	-0.01777704
81	0x3d978ffc	0.0740051
82	0x3d7dd2ec	0.06196873
83	0xbd381eea	-0.044951357
84	0xbd3998c0	-0.04531169
85	0x3aedc9f3	0.0018141851
86	0xbd35e2a2	-0.044405587
87	0xbcbf6bd6	-0.02336685
88	0xbd2ee2c3	-0.042696726
89	0xbd33cfef	-0.043899473
90	0xbd2d168c	-0.04225783
91	0xbd2bc954	-0.04194005
92	0xbc2a4b05	-0.010393863
93	0x3bcc3674	0.0062320773
94	0xbd075ba8	-0.033046395
95	0xbd1572fc	-0.03648661
96	0xbd4e8956	-0.050423943
97	0xbd62ad9d	-0.05534135
98	0xbd4aa568	-0.04947415
99	0xbd4f3d44	-0.050595537
100	0xbd1283d2	-0.035770245
101	0xbd2979b0	-0.041375816
102	0xbd23e55c	-0.040013656
103	0x3c2225ee	0.009896738
104	0x3cd78951	0.026310595
105	0xbc89dbf1	-0.016828509
106	0xbd540585	-0.051763076
107	0xbd0f8fd8	-0.03504929
108	0xbd5550bd	-0.05207895
109	0xbd568332	-0.05237121
110	0xbc9d6f1a	-0.019218016
111	0x3d222673	0.03958745
112	0x3c93144e	0.017954018
113	0x3c93a2fd	0.018022055
114	0x3c8906c6	0.016726863
115	0xbc914d2f	-0.017737
116	0xbce325fc	-0.027728073
117	0xbcd8f056	-0.026481789
118	0xbd53fd8b	-0.05175547
119	0xbd3feeda	-0.046858646
120	0xbce20a50	-0.027592808
121	0xa9da5a5a	-9.696818e-14
122	0x80028d01	-2.34254e-40
123	0x800486eb	-4.15741e-40
124	0x8007b1f1	-7.06682e-40
125	0x000114c9	9.9292e-41
126	0xbaf2b462	-0.0018516893
127	0xbd57a3c2	-0.052646406
128	0x3c61e3aa	0.0137871895
129	0x3db7db4f	0.08977377
130	0x3db786ca	0.08961256
131	0x3cd7e5eb	0.02635475
132	0xbd4c8c2e	-0.049938373
133	0xbbfd052a	-0.007721563
134	0xbd4108c9	-0.04712752
135	0xbd540e8f	-0.051771697
136	0xbd036b45	-0.032084722
137	0x3bcac295	0.0061877468
138	0xbc38b2df	-0.011273115
139	0xb3fefb74	-1.1873536e-07
140	0xbd00dcd8	-0.031460613
141	0x3a4d0962	0.00078215275
142	0xbd8fb797	-0.07017439
143	0xbbc71948	-0.006076012
144	0xbd9a22ce	-0.0752617
145	0xbd8d0376	-0.06885426
146	0xbca75acb	-0.020429036
147	0x3a1b81c0	0.0005932115
148	0xbac2ff16	-0.0014877047
149	0x3c844100	0.016144276
150	0x3d26df8a	0.040740527
151	0x3d0bda28	0.034143597
152	0xbd9b01b4	-0.07568684
153	0xbb905f5d	-0.0044058994
154	0xbd93685f	-0.071976416
155	0xbd98fdbb	-0.0747027
156	0x3bc3596f	0.005961589
157	0x393b137a	0.00017840965
158	0xbc3d029d	-0.011536268
159	0x87f06015	-3.6167658e-34
160	0xbe60d318	-0.21955526
161	0x3d2acd53	0.04169972
162	0xbd4fac6e	-0.05070155
163	0xbc86200c	-0.016372703
164	0xbd572bf4	-0.05253215
165	0xbd59ba75	-0.053156335
166	0xbc459221	-0.012058766
167	0x3cf11935	0.029430965
168	0x3d676ddf	0.056501266
169	0x3d81282a	0.06306489
170	0x3dac1956	0.0840327
171	0x3c2d1df3	0.0105662225
172	0xbd6f93bd	-0.058490504
173	0xbc36b406	-0.011151319
174	0xbd7bd64b	-0.061483663
175	0xbd72e20f	-0.059297618
176	0x3cac6687	0.021044983
177	0x3c3c74a1	0.011502416
178	0xbc7a8518	-0.015290521
179	0x00023017	2.00922e-40
180	0xb77785e0	-1.47535175e-05
181	0x3b72bafc	0.003703772
182	0x39077016	0.00012916359
183	0xbce05c09	-0.027387636
184	0xbd48c269	-0.04901353
185	0x3b9e49ec	0.0048305895
186	0xbe764179	-0.24048413
187	0x800316d7	-2.837e-40
188	0x8004bfdb	-4.36167e-40
189	0x8003c5e8	-3.46502e-40
190	0x80076ae2	-6.81191e-40
191	0x00034833	3.01407e-40
192	0xbe03f31e	-0.1288571
193	0x3db5ebae	0.08882843
194	0xbe0904f1	-0.13380791
195	0x3e6d60e9	0.231815
196	0x3d986f1f	0.0744307
197	0x3d22f49d	0.039784063
198	0xbc4dc04e	-0.012558056
199	0x3da13342	0.07871105
200	0xbc87864f	-0.016543536
201	0xbc77a765	-0.015115594
202	0x3b6c91c4	0.0036097625
203	0x3dd36538	0.1032204
204	0xbd76fdb8	-0.06030056
205	0xbd03ea02	-0.03220559
206	0xbd9b573e	-0.075849995
207	0x3dd8fed5	0.1059548
208	0xbca1ae60	-0.019736469
209	0xbb74b5b0	-0.003733974
210	0xbc895262	-0.016762916
211	0xbc8b4cae	-0.017004337
212	0xbe1a18dd	-0.15048547
213	0xbe030009	-0.12792982
214	0xbdd8de7d	-0.10589311
215	0xbe02a5f7	-0.12758623
216	0xbe4e01e2	-0.20117906
217	0x3db71e7b	0.089413606
218	0xbc7bb0c4	-0.015361968
219	0x3d12ad47	0.03580978
220	0xbc17afa0	-0.009258181
221	0xbc2df5fb	-0.010617728
222	0x3d9f8610	0.07789242
223	0xbe4a939c	-0.19782871
224	0xbe0bdbd8	-0.13658082
225	0xbd2fa362	-0.042880423
226	0xbe6c82ee	-0.2309682
227	0xbe04c78a	-0.12966743
228	0xbc80aca6	-0.015707325
229	0xbd28cc0b	-0.041210216
230	0xbc9a71d4	-0.018853106
231	0xbc8b1837	-0.01697932
232	0x3d67b51f	0.056569215
233	0xbcc02b51	-0.023458155
234	0xbc364c4f	-0.011126592
235	0xbe136d6c	-0.1439721
236	0xbea1e7ed	-0.31622258
237	0xbdb361b7	-0.08758872
238	0xbc5eb604	-0.013593201
239	0xbd3c294c	-0.04593782
240	0xbc3d0472	-0.011536704
241	0xbc4a2a9d	-0.012339261
242	0x3cbc8d57	0.023016615
243	0xbd904ca9	-0.07045872
244	0xbd6512d7	-0.05592617
245	0xbe1c7d3f	-0.15282153
246	0xbe2b70b4	-0.16742212
247	0x3c5f509e	0.0136300605
248	0xbb9d5e94	-0.0048025344
249	0xbd9bf20e	-0.07614528
250	0xbbc2aeba	-0.005941239
251	0x3d1a5528	0.037678868
252	0xbd99a7b7	-0.07502692
253	0xb1b896ff	-5.372271e-09
254	0x800657ad	-5.82465e-40
255	0x8003a405	-3.34346e-40

layer_1.bias f4 [400]
0	0xbd4b1876	-0.049583875
1	0xbd44f8a1	-0.048088674
2	0xbd95073d	-0.07276771
3	0xbc269b78	-0.010168903
4	0x3dde721e	0.1086161
5	0xbe9708c0	-0.29498863
6	0xbc4f9ff4	-0.012672413
7	0xbdb72dcf	-0.08944284
8	0xbcc2298e	-0.023701455
9	0xbcb64932	-0.0222517
10	0x3dd4e96d	0.10396085
11	0xba4c1d4b	-0.00077863474
12	0xbda55a53	-0.080738686
13	0xbe1ae18a	-0.15125099
14	0x3c368f73	0.011142599
15	0xbe221fc9	-0.15832438
16	0xb9287ebf	-0.00016068945
17	0x3d55006a	0.052002348
18	0x3df878e9	0.12132437
19	0xbcb5151b	-0.02210479
20	0xa72591b4	-2.2977336e-15
21	0x3ed2943c	0.4112872
22	0x3e89b1b1	0.2689338
23	0xbdf87feb	-0.121337734
24	0xbdc3be49	-0.095577784
25	0xbcc051d7	-0.023476524
26	0xbc53d47b	-0.012929077
27	0xbcfd4564	-0.030916877
28	0xbce2f024	-0.027702399
29	0xbe92cef7	-0.28673527
30	0xbcaccdb1	-0.021094175
31	0xbea2d187	-0.31800482
32	0xbc90efbe	-0.017692443
33	0xbe0cea7b	-0.13761322
34	0xbdb069c6	-0.08613925
35	0xbe0de8b6	-0.13858303
36	0xbc0495c9	-0.008092352
37	0xba1f9739	-0.00060879026
38	0xb01c8c07	-5.695146e-10
39	0x3e8c55e0	0.27409267
40	0xbe4540fe	-0.19263074
41	0xbe03c6cf	-0.12868808
42	0x3e78f31f	0.24311493
43	0xb7d46518	-2.5319445e-05
44	0x3b4d032a	0.0031282404
45	0xbd29eb1e	-0.04148399
46	0xbe09c3df	-0.13453625
47	0xbd1ecde9	-0.03877059
48	0xbe19f493	-0.15034704
49	0xbde80602	-0.11329271
50	0xbd7b68f5	-0.06137939
51	0xbe22e7ba	-0.15908709
52	0x3dedee6a	0.116177395
53	0x3e9104e0	0.28324032
54	0xa0d9e8c4	-3.691526e-19
55	0x3daf10a2	0.08548094
56	0x3e60bb3b	0.21946423
57	0x3d7a664b	0.06113271
58	0xbcec2d28	-0.028830126
59	0xbe809786	-0.25115603
60	0xbbdf7db0	-0.006820403
61	0xbcff3dae	-0.03115734
62	0xbdd4f32e	-0.10397945
63	0xbbc5c19e	-0.006035044
64	0xbd4c0947	-0.049813535
65	0x326079fc	1.3066252e-08
66	0xbd20cc27	-0.039257195
67	0x3dc30627	0.09522658
68	0xbcf889a0	-0.030339062
69	0x3dc5a7f6	0.09651177
70	0xbddb9b29	-0.10722954
71	0x3d207824	0.039177075
72	0xbdebf7ca	-0.115218714
73	0x3de1c2f0	0.110235095
74	0xbe348a5e	-0.17630908
75	0xbc3865b9	-0.011254721
76	0x3e31ce7e	0.17363927
77	0xbc7dccd3	-0.015490728
78	0xafb600c0	-3.310614e-10
79	0x3d906cf6	0.07052033
80	0xb78fe09d	-1.7151522e-05
81	0x9832dbe3	-2.3116975e-24
82	0xbdc98765	-0.098402776
83	0xb94eeb10	-0.00019733259
84	0xbe799ec3	-0.24376969
85	0xbd4d7241	-0.05015779
86	0xbd56b042	-0.052414186
87	0x3e28d8d2	0.1648896
88	0xbd6ceea3	-0.05784477
89	0xba15e612	-0.0005718182
90	0xbc25d092	-0.010120528
91	0xbeb64e3d	-0.35606566
92	0x3e05cd41	0.1306658
93	0xbd29ea61	-0.041483287
94	0xbc995492	-0.018717084
95	0xbde13a66	-0.10997467
96	0x3e720e8a	0.23638359
97	0x3b43021c	0.0029755896
98	0xb0f4aaef	-1.7801919e-09
99	0xbe1f38d1	-0.15549017
100	0xbe290e93	-0.16509466
101	0xbd62e3fc	-0.055393204
102	0xbd62bec0	-0.055357695
103	0x3d06f7b6	0.03295108
104	0xb6d2724b	-6.271793e-06
105	0xbcff0cbf	-0.031134007
106	0xbd2bdd2b	-0.04195897
107	0x3d642d52	0.055707283
108	0x3da93d82	0.08263685
109	0x3db5106d	0.088410236
110	0x3e623768	0.22091448
111	0xae43c667	-4.4514083e-11
112	0xbb0c8bd6	-0.0021445653
113	0xbd5cb9f6	-0.053888284
114	0x3cb504fb	0.022097101
115	0x3da06027	0.078308396
116	0x3cf1f716	0.029536765
117	0xbd279e43	-0.040922415
118	0xbe0e2abe	-0.13883492
119	0xbd693ac1	-0.056940798
120	0xbe3b19f9	-0.18271627
121	0x3dcb0f98	0.09915084
122	0x3a79f8f3	0.00095356925
123	0xbd0918c0	-0.03347087
124	0xbd35e157	-0.044404354
125	0xbd29ef99	-0.041488264
126	0xbd4e9ec5	-0.050444383
127	0xbe7d2279	-0.24720182
128	0xbdf46926	-0.11934118
129	0xbe0c8c8c	-0.1372549
130	0xa74deae5	-2.8576802e-15
131	0xbcc625b7	-0.024187906
132	0x3e8c7a42	0.27437025
133	0xbd07a8af	-0.033119854
134	0xbde8f28a	-0.11374386
135	0xbc138a56	-0.00900515
136	0xbd6bd79a	-0.05757866
137	0xbdd38638	-0.103283346
138	0xbd142a81	-0.036173347
139	0x3dd971e1	0.10617424
140	0xbc146a59	-0.009058558
141	0x3e1f9ec2	0.15587905
142	0x3d59fa76	0.053217374
143	0xbd078dde	-0.03309428
144	0x3d71c444	0.059025064
145	0xbd0f3a67	-0.034967806
146	0xbc9d945e	-0.019235786
147	0xbe44f349	-0.19233431
148	0xbdcde421	-0.10053278
149	0x3d8003ca	0.06250723
150	0x3dff6786	0.124709174
151	0xbce850d6	-0.028358858
152	0xbe813f82	-0.25243765
153	0xbe3cf2b4	-0.18451959
154	0xbd2a1fbd	-0.041534174
155	0x3e7446f8	0.23855197
156	0xbca78f6f	-0.020454137
157	0xbcd64b94	-0.026159085
158	0xbd234ec5	-0.039870042
159	0xbe4d3bec	-0.2004239
160	0xbcd265a1	-0.025683226
161	0x3ca80842	0.02051175
162	0x3cb8a300	0.022538662
163	0xbc8e56b0	-0.01737532
164	0x3d85d154	0.06534067
165	0xbca1a8e8	-0.019733861
166	0xbe0e8806	-0.13919076
167	0xbdfa9b18	-0.12236613
168	0x950692f0	-2.7176998e-26
169	0xa8edae34	-2.6387834e-14
170	0x3de154de	0.11002515
171	0xbcf93482	-0.030420545
172	0xbcf57ce1	-0.029966773
173	0xbcb67c31	-0.022276016
174	0xbd630d6d	-0.055432726
175	0x3d366a94	0.044535235
176	0xbd81cc83	-0.06337836
177	0x3e9d32f9	0.30702952
178	0xbe96b041	-0.29431346
179	0xbe3cadfe	-0.18425748
180	0x3dc2ba82	0.0950823
181	0xbcde6cc9	-0.027151482
182	0x3d2aa6ef	0.041663107
183	0xbba48203	-0.0050203814
184	0xbcfe56d1	-0.031047257
185	0x3de711bc	0.112826794
186	0xbd83f67b	-0.06443497
187	0xbde30f65	-0.11086921
188	0xbcfb18fd	-0.030651564
189	0x3cc1c1ae	0.023651924
190	0x3e42de28	0.19030058
191	0xbd4236d8	-0.047415584
192	0x96b606d7	-2.9408002e-25
193	0xbbcb05f8	-0.00619578
194	0x3d1dbae4	0.03850831
195	0xbb8623c8	-0.004093621
196	0x3c2c64a8	0.010522045
197	0x3e54f368	0.20795977
198	0xbcf12c5d	-0.0294401
199	0xbd83d688	-0.06437403
200	0x3e1334de	0.14375636
201	0xbcc6bc03	-0.024259573
202	0xbb9861ef	-0.0046503465
203	0xbc9e18ca	-0.01929893
204	0xbd11f98d	-0.03563838
205	0x3d269650	0.040670693
206	0xbdccc16b	-0.09997829
207	0x3ccd7896	0.025081914
208	0xbcc74878	-0.024326548
209	0xbe749bdf	-0.23887585
210	0x3d0be78e	0.034156375
211	0x3d070018	0.032959074
212	0xbbd00c43	-0.006349118
213	0x3cae4f5f	0.021278081
214	0x3b81ab1e	0.0039571663
215	0xba0ab060	-0.0005290564
216	0xbd1e9cb0	-0.038723648
217	0xbe2825e7	-0.16420709
218	0x3d2e9620	0.04262364
219	0xb786c3ec	-1.6065278e-05
220	0xbe3696aa	-0.17830911
221	0xbef5fb6f	-0.4804339
222	0xbd9f1719	-0.077680774
223	0xbc3a079d	-0.011354354
224	0x3e5052d3	0.20344095
225	0xb4d45d9a	-3.955618e-07
226	0xbd27df52	-0.04098446
227	0x3ebe83cf	0.37209937
228	0xbcc0139f	-0.023446856
229	0xbe34ac6b	-0.17643897
230	0xbd323781	-0.043509964
231	0xbe209e08	-0.15685284
232	0xbc84fa59	-0.016232656
233	0xbc962bad	-0.018331373
234	0xbde8bc7c	-0.113640755
235	0xbcca2a5b	-0.0246784
236	0x3d4242b0	0.04742688
237	0x3d62d0c7	0.055374887
238	0xbc45f0cf	-0.012081339
239	0xbd861af9	-0.065481134
240	0x3e0f1558	0.13972986
241	0x3dad5b1d	0.08464644
242	0xb95afef9	-0.00020885085
243	0xbcb632c7	-0.02224101
244	0xbce92b4d	-0.02846303
245	0x3d0fd8be	0.03511881
246	0xbde96c99	-0.113976665
247	0xbcb716e3	-0.02234978
248	0xbd2ad3a1	-0.04170573
249	0xbc6bb673	-0.014386761
250	0x3daeeab0	0.08540857
251	0x3e15364e	0.14571497
252	0x3c644631	0.013932751
253	0x3e3176b3	0.17330436
254	0xbca18129	-0.019714909
255	0xbe179552	-0.14803055

layer_2.weight f4 [300, 400]
0	0x000028ef	1.4684e-41
1	0xac734cf5	-3.4575097e-12
2	0x800169f2	-1.29842e-40
3	0x80028853	-2.32575e-40
4	0xb6afe195	-5.2416676e-06
5	0xb42c28c2	-1.6033576e-07
6	0x3e63cf0e	0.22246954
7	0xbc2aa4a4	-0.01041523
8	0xa411e859	-3.163867e-17
9	0xac74f8c8	-3.4812587e-12
10	0x8e8d8e81	-3.489641e-30
11	0x300f8488	5.2211435e-10
12	0x00064c90	5.78478e-40
13	0xbe1568eb	-0.14590804
14	0xb4d0bfb9	-3.8882516e-07
15	0xb2b045b1	-2.0520789e-08
16	0x3e769b8e	0.24082777
17	0xbdb5702f	-0.08859288
18	0xbc14dc02	-0.009085657
19	0x3df51a45	0.11967901
20	0x8005b51a	-5.24144e-40
21	0x3de4114b	0.11136111
22	0xbdad9944	-0.08476499
23	0xb02dd377	-6.3237543e-10
24	0x000283d0	2.30956e-40
25	0xbe2d6a0d	-0.16934986
26	0x3bf09b2a	0.0073427157
27	0x3b3a0700	0.002838552
28	0x00924ee3	1.3436282e-38
29	0xb2760785	-1.4320794e-08
30	0x3dc687a1	0.09693838
31	0xbcce1155	-0.025154749
32	0xba257326	-0.0006311409
33	0xb8a3a945	-7.8039746e-05
34	0xbbc29922	-0.005938665
35	0x9eb21097	-1.8853344e-20
36	0x0000e8b3	8.3477e-41
37	0x80009544	-5.3546e-41
38	0x0003d520	3.51961e-40
39	0xbdbfc5c3	-0.09363892
40	0x9a84fb3f	-5.499983e-23
41	0x8001cf71	-1.66251e-40
42	0xbd92abfd	-0.071617104
43	0x80013156	-1.09534e-40
44	0x80009d25	-5.6373e-41
45	0xbe104778	-0.14089763
46	0x80021492	-1.9105e-40
47	0x0002e704	2.66544e-40
48	0x31253b00	2.4044198e-09
49	0x3c55003b	0.013000543
50	0x3e4d9ac7	0.20078574
51	0xac01f658	-1.846875e-12
52	0xbda4cc1f	-0.080467455
53	0xbccbb915	-0.024868527
54	0xb727ad89	-9.99438e-06
55	0xbcb71b37	-0.022351844
56	0xbd5c9819	-0.05385599
57	0xb421fda1	-1.5086563e-07
58	0x00022309	1.96239e-40
59	0x8d5172a9	-6.4541114e-31
60	0x8001a5ee	-1.5136e-40
61	0x3c760bc1	0.015017451
62	0x903e3743	-3.7513465e-29
63	0x000193ca	1.44852e-40
64	0x8005c803	-5.30928e-40
65	0x800103c9	-9.3193e-41
66	0x800562cc	-4.94619e-40
67	0x3d3cd651	0.046102826
68	0x0005916b	5.11344e-40
69	0xb8a39dbf	-7.801828e-05
70	0x80025195	-2.12937e-40
71	0x3dc30926	0.09523229
72	0x8004f18f	-4.53997e-40
73	0xa7a4d43e	-4.5749257e-15
74	0xbb587f3b	-0.003303482
75	0x3e346ff3	0.1762083
76	0xbc9ed587	-0.019388927
77	0x00044c26	3.94659e-40
78	0xab2750da	-5.944252e-13
79	0xbd706831	-0.058693115
80	0x8001bc32	-1.59347e-40
81	0x00048e13	4.18309e-40
82	0xa0d9089d	-3.676693e-19
83	0x8003b47c	-3.40252e-40
84	0xbc179b1d	-0.0092532905
85	0x3e23df3d	0.16003127
86	0x3dddc901	0.10829354
87	0x80018803	-1.40627e-40
88	0xbd252d8a	-0.040326633
89	0x0002903d	2.35414e-40
90	0xbd8474e1	-0.064676054
91	0xa5832c0d	-2.2754728e-16
92	0xbcd58ff9	-0.026069628
93	0x80065767	-5.82367e-40
94	0xb9428504	-0.00018550834
95	0xb1f46fa5	-7.114027e-09
96	0x3d5f7956	0.054559074
97	0x00022aec	1.99068e-40
98	0x00031684	2.83584e-40
99	0x80697a8f	-9.686693e-39
100	0x80002ce2	-1.6101e-41
101	0x040b67d1	1.6387042e-36
102	0x804e6113	-7.197992e-39
103	0xb82144b3	-3.8449372e-05
104	0xaae3ca80	-4.0463813e-13
105	0xbd4e4975	-0.050363023
106	0x80069a2d	-6.06321e-40
107	0xbd8f3093	-0.06991687
108	0x3d52f073	0.05149884
109	0x3e909717	0.28240272
110	0xbd9614b4	-0.073281676
111	0x2ab359cc	3.1859097e-13
112	0x2e3e9c68	4.3339915e-11
113	0x8001e634	-1.74417e-40
114	0xbdb4fa39	-0.08836789
115	0x3e543ab7	0.20725523
116	0xbb8e13a3	-0.004335837
117	0x8000ea43	-8.4037e-41
118	0x0003a63d	3.35142e-40
119	0xbc960378	-0.0183122
120	0xbd179169	-0.03700391
121	0xbdd4d6a9	-0.10392506
122	0xbd59caf7	-0.053172078
123	0x80035c14	-3.08538e-40
124	0x31acbb5a	5.0271582e-09
125	0x00062468	5.64073e-40
126	0xb88f0d33	-6.82123e-05
127	0x875cc72f	-1.6609495e-34
128	0xbd7dd4e3	-0.061970603
129	0x984894f1	-2.592459e-24
130	0xaed2487b	-9.5625695e-11
131	0xbce9d145	-0.02854217
132	0x3dfdd0b5	0.12393323
133	0x3b934f84	0.004495563
134	0xb4b42c99	-3.3560062e-07
135	0xae6bfc14	-5.3656704e-11
136	0x3df4baf9	0.11949725
137	0xbd1d4984	-0.038400188
138	0x80021485	-1.91032e-40
139	0xba548e05	-0.0008108321
140	0x3ad08427	0.0015908525
141	0xbd794bd1	-0.06086332
142	0x3d0d6425	0.034519333
143	0xb54aa8e0	-7.549661e-07
144	0xbe2841f3	-0.16431408
145	0x00027c9a	2.2837e-40
146	0x00006042	3.4531e-41
147	0x8001806b	-1.37903e-40
148	0x0003c23a	3.45182e-40
149	0x3e13d3f1	0.14436318
150	0xbdb1f84a	-0.086899355
151	0x00056a82	4.97385e-40
152	0xa2602124	-3.0375205e-18
153	0x2a89b40d	2.4461024e-13
154	0x00002872	1.4509e-41
155	0xbdc5a7b7	-0.0965113
156	0xb3be808c	-8.870947e-08
157	0x800cf9b7	-1.191607e-39
158	0x314e6ff0	3.0040574e-09
159	0x000331d8	2.93387e-40
160	0x3e66b078	0.22528255
161	0xbd6d0878	-0.057869405
162	0xb9166793	-0.00014343699
163	0x80fd8c4c	-2.328471e-38
164	0x3b62ead4	0.0034624832
165	0x80016712	-1.2881e-40
166	0xa9d370c5	-9.389845e-14
167	0xb13db3d5	-2.7605342e-09
168	0x00028eb4	2.34863e-40
169	0x2c2e47d7	2.4766766e-12
170	0xb5aeb0dd	-1.3015484e-06
171	0x35fc1322	1.8781031e-06
172	0x0004d73f	4.44558e-40
173	0x0001ab78	1.53347e-40
174	0xb696579f	-4.480549e-06
175	0xbd14e789	-0.03635362
176	0x0004c8c0	4.39358e-40
177	0xbd089cc0	-0.033352613
178	0x800058e7	-3.1892e-41
179	0x800200a8	-1.83906e-40
180	0xbcf8be39	-0.030364143
181	0x3b120d97	0.0022285932
182	0x3db73cdc	0.08947155
183	0xad4870a0	-1.13936915e-11
184	0x0001646f	1.27864e-40
185	0xb66ff8b6	-3.5758544e-06
186	0x00023481	2.02506e-40
187	0x8001fe05	-1.8296e-40
188	0x00014a8e	1.1858e-40
189	0x375e049b	1.3233303e-05
190	0xbb7133fc	-0.0036804667
191	0x800007e9	-2.838e-42
192	0x80017c4a	-1.36422e-40
193	0x800233ab	-2.02206e-40
194	0xbdef0cce	-0.11672364
195	0xbd8588c6	-0.06520228
196	0x1a2d3373	3.5817122e-23
197	0xbdd1b97b	-0.10240456
198	0x88e0991e	-1.3517507e-33
199	0x0002b243	2.47619e-40
200	0x000216b0	1.9181e-40
201	0xbda17833	-0.07884254
202	0x2ee5f518	1.0457252e-10
203	0x800147dd	-1.17615e-40
204	0x8200ba67	-9.45745e-38
205	0x3d048c88	0.032360584
206	0x8005dc32	-5.38169e-40
207	0x3de346fe	0.11097525
208	0x00079304	6.95588e-40
209	0xb64bb1b4	-3.0352794e-06
210	0x3dd635e6	0.10459499
211	0xbc774a66	-0.015093422
212	0x800386a9	-3.23813e-40
213	0xb768e8ec	-1.3882509e-05
214	0xbd9f9644	-0.07792333
215	0x80045038	-3.96119e-40
216	0xbd7d351e	-0.061818235
217	0xb6e114a1	-6.707924e-06
218	0x800212a5	-1.9036e-40
219	0x0035fce8	4.958007e-39
220	0xbcca5397	-0.024698062
221	0xa836423f	-1.0117394e-14
222	0x0000aa89	6.1176e-41
223	0x0002e9c1	2.67526e-40
224	0xbdcf7782	-0.10130216
225	0x80f136ae	-2.215197e-38
226	0x984db637	-2.6587624e-24
227	0x3d8ba80c	0.06819162
228	0x00003534	1.9086e-41
229	0x3d77a139	0.06045649
230	0x3de12e28	0.10995132
231	0xb8cab98d	-9.666672e-05
232	0x0006d049	6.25732e-40
233	0x0000d539	7.649e-41
234	0x2f6fd498	2.1812452e-10
235	0xb5aed338	-1.3025483e-06
236	0x80023557	-2.02806e-40
237	0x3d504ee3	0.050856482
238	0x0007b052	7.061e-40
239	0x31c19cbb	5.6348575e-09
240	0xbdcff502	-0.101541534
241	0x22362c52	2.4689062e-18
242	0xa99e0bf8	-7.018686e-14
243	0xbda36468	-0.07978135
244	0x8000b796	-6.5858e-41
245	0x36709e6b	3.5854998e-06
246	0xb9ab95c4	-0.00032727246
247	0x139d61ce	3.9728815e-27
248	0xb4ea0739	-4.3591152e-07
249	0xba891b29	-0.0010460365
250	0xbd6982d3	-0.05700953
251	0xb826da84	-3.9780993e-05
252	0xbc8c0600	-0.017092705
253	0xbdba44cc	-0.09095153
254	0x39bd82fe	0.00036146486
255	0xba873467	-0.00103153

layer_2.bias f4 [300]
0	0xbdb88f0f	-0.09011661
1	0xb891ca80	-6.951857e-05
2	0xbcc8f49b	-0.0245307
3	0xbae23114	-0.0017257058
4	0xb0f1c721	-1.7591654e-09
5	0xbd074528	-0.033024937
6	0xb976a523	-0.00023521906
7	0xbc14d2ae	-0.009083433
8	0x3d4bdb3d	0.04976963
9	0xbb5e8d40	-0.0033958703
10	0xbc838650	-0.016055256
11	0x9f7b3372	-5.3193872e-20
12	0x80014e87	-1.20006e-40
13	0x3e416955	0.18887837
14	0xbd5710fa	-0.052506424
15	0x3e600eea	0.2188069
16	0xbba5219b	-0.0050394065
17	0xbcdeda12	-0.027203593
18	0xbca1306c	-0.01967641
19	0xbcc96c86	-0.02458788
20	0xbd63b6ae	-0.05559414
21	0xbc9c6b7a	-0.019094218
22	0x3d30b356	0.043139778
23	0xbd2a5469	-0.041584406
24	0x3d001914	0.031273916
25	0x3e83fa22	0.25776774
26	0x3d357118	0.044297308
27	0xbc31fc7c	-0.01086342
28	0xbda482ab	-0.080327354
29	0xbc81daca	-0.015851397
30	0xbd6ee088	-0.0583196
31	0xbce0c994	-0.02743987
32	0xbcbdbbcd	-0.02316084
33	0xbd94da21	-0.07268167
34	0xbc734385	-0.014847641
35	0xbbe2b4f0	-0.006918542
36	0xbb334e82	-0.0027360027
37	0xbc9fc328	-0.019502237
38	0x00024bf7	2.10922e-40
39	0x3d46caa7	0.048533108
40	0xbd119548	-0.035542756
41	0x3ee4965c	0.44645965
42	0xbc9dda2e	-0.019269075
43	0xbcdd23c1	-0.026994588
44	0x3ea45fd1	0.32104352
45	0x3e3c6df2	0.18401316
46	0x3c7e43f8	0.015519135
47	0xbc3ede50	-0.011649683
48	0xbcb3ce0c	-0.021948837
49	0xbb3374c1	-0.0027382823
50	0x3e3bc560	0.18337011
51	0x3d14d384	0.03633453
52	0xb84f0868	-4.9360475e-05
53	0xbc8fba66	-0.017544936
54	0xbd46ba04	-0.048517242
55	0xb9f9bd60	-0.00047634076
56	0x3c26bdef	0.01017712
57	0xbe894515	-0.26810518
58	0xbcb1ae2a	-0.021689493
59	0xbc917dc7	-0.01776017
60	0xbd9ea735	-0.07746736
61	0x3f410910	0.75404453
62	0xbd595b13	-0.05306537
63	0xbc863642	-0.016383294
64	0xbc1f6144	-0.00972778
65	0x3e24cf35	0.16094668
66	0xbc50fe31	-0.012755916
67	0xbcd52f19	-0.026023434
68	0xbb41f34b	-0.0029594477
69	0x3e048b09	0.12943663
70	0xbe96520f	-0.2935948
71	0x3c4e2220	0.012581378
72	0xbdb19b15	-0.08672158
73	0xbaa1a85c	-0.00123335
74	0xbc6a303e	-0.014293728
75	0x3e14c272	0.145273
76	0xbd3c1eff	-0.045927998
77	0xbc3606e0	-0.011110038
78	0x3edaf5bc	0.42765605
79	0xbd5e5a54	-0.054285362
80	0x3d7101c9	0.058839593
81	0xbc9c7d82	-0.019102816
82	0xbc91c2f8	-0.017793164
83	0xbdf03be7	-0.117301755
84	0xba2910a5	-0.00064493186
85	0x3d2a8571	0.041631166
86	0xbd450e70	-0.04810947
87	0xbd33bb3a	-0.043879725
88	0xbb2b5521	-0.002614327
89	0x3e607980	0.21921349
90	0xb5fffa5a	-1.9071842e-06
91	0xbc11dfdd	-0.008903471
92	0xba68a127	-0.0008874111
93	0xbcf6f6a6	-0.030146908
94	0x3d639b78	0.05556819
95	0xbc70685c	-0.014673319
96	0x3eb534cb	0.3539184
97	0xa35234f3	-1.1395335e-17
98	0xbc9692b1	-0.018380495
99	0xb58f9cd7	-1.0699977e-06
100	0xbdcdfd4f	-0.100580804
101	0xbcf0af11	-0.029380353
102	0xbc97beae	-0.01852354
103	0xb0e3386f	-1.6532463e-09
104	0xbce1aa5b	-0.027547052
105	0xacde77f0	-6.3229352e-12
106	0xbb4cb72e	-0.0031237113
107	0xbcd5b447	-0.02608694
108	0xbe18af34	-0.14910585
109	0xb82818fb	-4.0077586e-05
110	0xbd09f420	-0.03368008
111	0xbc94246e	-0.018083777
112	0x3ee21a67	0.44160768
113	0xbca37330	-0.019952387
114	0xbdc9d3c0	-0.09854841
115	0x3dca62f6	0.098821566
116	0xbc698de4	-0.014255021
117	0x3e32cebe	0.17461678
118	0xbca1c1a4	-0.019745655
119	0xbcc7b7a3	-0.024379557
120	0xad9a216f	-1.752262e-11
121	0xbdae7dbe	-0.08520077
122	0x3d336684	0.04379894
123	0x3d4c517e	0.049882405
124	0xb48a1809	-2.572199e-07
125	0xbbe53697	-0.006995033
126	0x3db2d4c3	0.08731987
127	0x3cd2b2f7	0.025720103
128	0xbe6f74f5	-0.2338446
129	0xbc9e4d25	-0.019323895
130	0x3e5391ae	0.20661041
131	0x3e4ef1bb	0.202094
132	0x3ea4d4d2	0.3219362
133	0xbc6bc058	-0.01438912
134	0xbae2039c	-0.0017243507
135	0x947023ee	-1.21239894e-26
136	0x3e1d3ef0	0.1535604
137	0xbbe9ac45	-0.007131132
138	0xbd82acc9	-0.063806124
139	0xbda6ee99	-0.08150978
140	0xb8901ad3	-6.8714515e-05
141	0xbc8224e4	-0.015886731
142	0xbe262715	-0.16225846
143	0x3e3f7752	0.18697861
144	0xbc7fece7	-0.015620447
145	0xbc2d0f45	-0.010562723
146	0x3e9c8ae8	0.30574727
147	0xbcb82b1c	-0.022481494
148	0xbb6053c0	-0.0034229606
149	0x3d7e36bc	0.062063918
150	0xbc771b7c	-0.015082236
151	0xbcc92e59	-0.024558233
152	0xbc760af7	-0.015017263
153	0x3c637a0d	0.01388408
154	0xbca7cb75	-0.020482758
155	0xbc961c8e	-0.018324163
156	0xbe3fc3f6	-0.18727097
157	0xbc8f94e3	-0.01752705
158	0x95b185b2	-7.1700665e-26
159	0x3d375389	0.0447574
160	0xbccb2c58	-0.024801418
161	0xbc83fd74	-0.016112067
162	0xae319500	-4.037748e-11
163	0xbcccaa3c	-0.024983518
164	0xbc77d835	-0.015127231
165	0x3f07f6e9	0.5311113
166	0x3e6366ae	0.22207138
167	0x3e4a2dd9	0.19744052
168	0x3b8611e8	0.00409149
169	0xbc43d0d2	-0.011951642
170	0xbcd3dc15	-0.02586178
171	0xbc7d4589	-0.015458473
172	0xbbf25820	-0.007395759
173	0x3eeb5bba	0.4596842
174	0x3d2ffd50	0.042966187
175	0x3d5f534b	0.054522794
176	0xbc5ebd18	-0.013594888
177	0xbe0cb87e	-0.13742253
178	0xbcb9d120	-0.022682726
179	0xb668312f	-3.4599323e-06
180	0xbc456411	-0.0120477835
181	0xbda1f6b4	-0.07908383
182	0xbe083b56	-0.13303885
183	0xbcc5f85f	-0.024166284
184	0x3e595c16	0.21226534
185	0xbca70c0f	-0.020391492
186	0x3d166cd3	0.036724877
187	0x3e84acc7	0.2591307
188	0x3f05610e	0.5210122
189	0x3d193f26	0.03741374
190	0x3e47f30e	0.19526312
191	0xbc31810f	-0.010833993
192	0xbcac2fc4	-0.02101887
193	0xbd0d5a07	-0.034509685
194	0x3b55416b	0.0032540213
195	0x3e87cfa0	0.26525593
196	0xbaf79129	-0.0018887866
197	0xbc7bfc93	-0.015380043
198	0xbcaec423	-0.02133376
199	0xbb22d883	-0.002484829
200	0x3e13f809	0.14450087
201	0xbc40476d	-0.011735779
202	0xbd0aa5d6	-0.03384956
203	0x3e0e35fa	0.13887778
204	0x3c5f41c6	0.013626521
205	0x3eb0f880	0.3456459
206	0xbc92ec99	-0.017935084
207	0xbcecf9a9	-0.028927641
208	0xbc3df06f	-0.011592968
209	0xb69ba79e	-4.638873e-06
210	0xbc70f348	-0.01470644
211	0xbc5544f9	-0.013016933
212	0xbcc36140	-0.023850083
213	0xbce41357	-0.027841253
214	0xbc636d14	-0.013880987
215	0xbc78baaa	-0.015181223
216	0xbcac0943	-0.02100051
217	0xbd8f6ed0	-0.07003558
218	0xb76c614b	-1.4089349e-05
219	0x3effb70c	0.4994434
220	0xbcc8c293	-0.024506843
221	0xbc42cc81	-0.011889578
222	0x3f2809c6	0.65639913
223	0x3e6062e4	0.21912724
224	0x3e41ece3	0.18938021
225	0xbc21623d	-0.009850082
226	0xb65e20f1	-3.3099752e-06
227	0xbd0e26c1	-0.034704927
228	0xb56993fe	-8.701462e-07
229	0x3d122ed6	0.035689197
230	0xbc29ffe7	-0.010375953
231	0x3e13661b	0.14394419
232	0xb202b15d	-7.607324e-09
233	0xbc096e77	-0.008388153
234	0xbce06072	-0.027389739
235	0xbe0c5cbe	-0.13707253
236	0xb70ccf21	-8.392876e-06
237	0x3e3b0933	0.18265228
238	0xb6234a2b	-2.4332064e-06
239	0xbc80019a	-0.015625764
240	0xbcc99de1	-0.024611415
241	0xbd25905b	-0.04042087
242	0x3de0752e	0.1095985
243	0xbc86b29c	-0.01644259
244	0xbcc25d58	-0.02372615
245	0xbc43ec3d	-0.011958179
246	0x3e467aa9	0.19382729
247	0xbd44d0b1	-0.048050586
248	0xbb6f9567	-0.0036557557
249	0xbcaf6042	-0.021408204
250	0xbc38f9b7	-0.011290005
251	0xbd19c112	-0.03753764
252	0xb7b2cd02	-2.1314718e-05
253	0xbdf85f51	-0.12127555
254	0x3cc1c13e	0.023651715
255	0xbba0e08f	-0.004909582

layer_3.weight f4 [1, 300]
0	0x39818f5a	0.00024711603
1	0x3cfaff05	0.03063918
2	0xbfb854df	-1.4400901
3	0xbfacfcb9	-1.3514625
4	0x3af431fd	0.001863062
5	0xbc8cd094	-0.017189302
6	0x3c8de74b	0.017322203
7	0x3cefd8c1	0.029278161
8	0x3ef09697	0.4698989
9	0x3ee50e24	0.4473735
10	0xbfbe4ce7	-1.4867219
11	0x39221de2	0.00015460656
12	0xb8aaba64	-8.14095e-05
13	0xbf157e92	-0.58396256
14	0x3e9a7d43	0.30173692
15	0x3f1d98d2	0.6156131
16	0xbfbe5e0d	-1.4872452
17	0xbfb4b6c1	-1.4118272
18	0xbfb4e7cd	-1.413324
19	0xbfb92dca	-1.4467099
20	0xbcc98773	-0.02460072
21	0xbfba2ad8	-1.4544325
22	0x3ed647f6	0.41851777
23	0xbc687c11	-0.014189736
24	0x3ed5c52b	0.4175199
25	0x3f542a94	0.8287747
26	0x3ef9b534	0.4877106
27	0xbfaa727d	-1.3316189
28	0xbbd60da5	-0.0065323883
29	0xbfb8bd8e	-1.4432847
30	0xbf5096f1	-0.8148032
31	0x3cab5fc0	0.02091968
32	0xbfb642b6	-1.4239109
33	0x3d9f8b3c	0.07790229
34	0xbfb7e96c	-1.436811
35	0x3cbdef8e	0.023185518
36	0xbfb6b1ec	-1.4273047
37	0xba940a4e	-0.0011294575
38	0xa62fb329	-6.095813e-16
39	0x3ef1085d	0.47076693
40	0x3caaf29d	0.02086764
41	0xbfe79d40	-1.8094864
42	0xbfbc0e46	-1.4691856
43	0x3bdef8c9	0.00680456
44	0xbfcb6446	-1.5889976
45	0x3ea35e21	0.31907752
46	0x3efda53a	0.4954012
47	0xbfb6bd05	-1.4276434
48	0xbfb49f17	-1.411105
49	0x3bfc3544	0.0076967794
50	0xbefc396d	-0.49262562
51	0x3eec76e0	0.46184444
52	0x3b80332d	0.0039123506
53	0xbfc3ffb1	-1.5312406
54	0xbd67aad7	-0.05655941
55	0x3cb6bce8	0.022306874
56	0x3db3f7de	0.08787511
57	0x3ed6abb7	0.41927883
58	0xbfb527f9	-1.4152824
59	0xbfb60beb	-1.4222387
60	0x3dacf2ab	0.08444723
61	0x4035ee62	2.8426747
62	0xbda4d5b6	-0.080485746
63	0xbfb66083	-1.4248203
64	0xbf614b72	-0.88005745
65	0x3ec6b373	0.38808784
66	0xbfb9a51d	-1.4503514
67	0xbfb6c962	-1.4280207
68	0x3cbbc9ab	0.022923311
69	0xbedb07ff	-0.42779538
70	0x3e6954c3	0.2278624
71	0x3d674974	0.056466535
72	0xbf2035bc	-0.6258199
73	0xbceb4cf3	-0.028723216
74	0xbfc4ea0a	-1.5383923
75	0xbf9cdda2	-1.2255137
76	0x3cfeead4	0.031117834
77	0xbfbd4894	-1.4787774
78	0xbfdff838	-1.7497625
79	0x3db6aa1a	0.08919163
80	0xbf512d5d	-0.81709844
81	0xbfba91bd	-1.4575726
82	0xbfbadd6a	-1.459882
83	0x3b2f0d19	0.0026710688
84	0xbc454a6b	-0.012041668
85	0xbe747bbe	-0.23875329
86	0x3d06de0a	0.032926597
87	0xbc209054	-0.0098000355
88	0xbf3ed3f7	-0.7454218
89	0x3f56ea4a	0.83951247
90	0xb54077e0	-7.1700015e-07
91	0xbfb2552a	-1.393224
92	0x3c959d30	0.01826343
93	0x3ce6e764	0.028186508
94	0x3ef41f93	0.4768034
95	0xbfb7163a	-1.4303658
96	0xbf8448d7	-1.0334729
97	0xbb881739	-0.004153159
98	0xbfc08ca7	-1.5042924
99	0x3ba736ca	0.005102967
100	0xbf63375d	-0.8875635
101	0xbfb62a11	-1.4231588
102	0xbfb8d110	-1.4438801
103	0xbb8542bd	-0.0040667937
104	0xbfba9d41	-1.457924
105	0xbb9aa05c	-0.0047188234
106	0xbc8ef228	-0.017449453
107	0xbfb5b7dc	-1.4196734
108	0x3f1f4096	0.62207925
109	0x3ce4f729	0.027949886
110	0xbc9306d1	-0.017947586
111	0xbfbffb9a	-1.4998658
112	0xbf91ac07	-1.1380624
113	0xbfb18a36	-1.3870304
114	0xbe489947	-0.1958972
115	0x3f02cb2e	0.5109128
116	0xbf2b1064	-0.66821885
117	0xbf09d213	-0.5383617
118	0xbfb95d54	-1.4481606
119	0x3cde0e41	0.027106406
120	0xbaf35baa	-0.0018566747
121	0xbd979179	-0.074007936
122	0xbefeded4	-0.4977938
123	0x3ed29cc0	0.41135216
124	0x3c5a7d04	0.01333547
125	0xbfb7d3b6	-1.4361484
126	0x3f343030	0.7038603
127	0x3ef9f341	0.488184
128	0x3ead5c04	0.33859265
129	0xbfc3e684	-1.5304723
130	0x3f2076ef	0.6268148
131	0xbf0f3390	-0.55938053
132	0xbf68f432	-0.9099761
133	0xbfba46b8	-1.4552832
134	0x3b713d24	0.0036810124
135	0x3c48467e	0.012223838
136	0xbee9caf4	-0.45662653
137	0xbfc04dc5	-1.5023733
138	0xbdef623f	-0.11688661
139	0x3b9a5af7	0.004710551
140	0xbc041b3c	-0.008063134
141	0xbfb71ff3	-1.4306625
142	0x3a9ccea6	0.0011963442
143	0xbf327998	-0.6971679
144	0xbfb90549	-1.4454738
145	0xbfb6df59	-1.428691
146	0xbfc3fa27	-1.5310715
147	0x3e5b889c	0.21438831
148	0xbf561e51	-0.8364001
149	0xbf8c4d03	-1.0961002
150	0xbfb515e0	-1.4147301
151	0xbfb2093d	-1.3909069
152	0xbb3fa288	-0.0029241163
153	0x3ee49b17	0.44649574
154	0xbfb0cf04	-1.3813176
155	0xbfb63582	-1.4235079
156	0x3e8759bf	0.26435658
157	0xbfb2979e	-1.395252
158	0x3b0e7a98	0.0021740552
159	0x3ef58dd4	0.4795977
160	0x3c4e9381	0.01260841
161	0xbfbaf21c	-1.4605136
162	0xbaa4598f	-0.0012538898
163	0xbfb6098f	-1.4221667
164	0xbfb865fa	-1.4406121
165	0xbfa2a89a	-1.2707703
166	0xbf83fd50	-1.031168
167	0x3f32f672	0.69907296
168	0xbfad9ee8	-1.3564119
169	0xbfbdeb02	-1.4837344
170	0xbfb8d0bf	-1.4438704
171	0xbfbf2ba1	-1.493519
172	0xbfb369cc	-1.4016662
173	0x3f5731c1	0.84060293
174	0xbef069db	-0.4695576
175	0x3ef5858f	0.4795346
176	0xbfb5fd94	-1.4218011
177	0xbe2c877a	-0.16848555
178	0xbfb90fb0	-1.4457912
179	0x3a893a47	0.0010469639
180	0xbfbcd8cf	-1.4753665
181	0x3f5fa319	0.8735824
182	0xbde52710	-0.11189091
183	0xbd91f03e	-0.07125901
184	0x3f0485a4	0.5176642
185	0x3c8b4b4b	0.017003676
186	0x3ee99630	0.45622396
187	0xbfb8263c	-1.4386668
188	0x3f5db698	0.8660674
189	0x3f035ad3	0.5131046
190	0xbf129685	-0.57260925
191	0xbfb0d506	-1.381501
192	0xbfbad5f9	-1.4596549
193	0x3b9f21e2	0.004856334
194	0xbfb0ba39	-1.3806831
195	0x3f49d0c5	0.7883418
196	0x3a2be09d	0.00065566023
197	0xbfb8be29	-1.4433032
198	0xbcecf09b	-0.028923323
199	0xbfc3117b	-1.523971
200	0x3e2508cb	0.16116636
201	0x3c8b7507	0.017023576
202	0xbfcb8f4e	-1.5903108
203	0xbf8e834e	-1.1133821
204	0x3eff13e8	0.49819875
205	0xbf521ff9	-0.82080036
206	0xbfb73e75	-1.4315935
207	0xbf6cb6a7	-0.92466205
208	0xbfb445c8	-1.4083796
209	0x39647738	0.00021788187
210	0xbf7f994e	-0.998433
211	0xbfb69bc4	-1.4266286
212	0xbfb5b19f	-1.4194831
213	0xbfb99c3d	-1.4500805
214	0xbfb98982	-1.4495089
215	0xbfb90279	-1.445388
216	0xbfb77c89	-1.433488
217	0x3dc611f5	0.09671394
218	0x3c65c925	0.014025007
219	0x3f625d71	0.8842383
220	0xbfbabb12	-1.4588339
221	0xbfc05356	-1.5025432
222	0x3ff37da2	1.9022715
223	0xbf1226a2	-0.570902
224	0xbf0720cb	-0.52784413
225	0xbfc0161c	-1.5006747
226	0x3c8f92e4	0.017526098
227	0x3f2065c5	0.6265529
228	0xbb7493d6	-0.0037319562
229	0x3eee2e5a	0.46519738
230	0x3eeed7e2	0.4664908
231	0xbf78e31d	-0.9722155
232	0x3c88ca49	0.01669802
233	0xbfbcc82e	-1.474859
234	0xbfb5dc6d	-1.4207894
235	0x3e66b816	0.2253116
236	0xbcf22059	-0.02955644
237	0xbf0a40de	-0.5400523
238	0xbc753f2a	-0.014968673
239	0xbfb8fc7d	-1.4452053
240	0xbfbc15b6	-1.4694126
241	0x3f22e928	0.6363702
242	0xbf628aed	-0.88493234
243	0xbfb8c4bd	-1.443504
244	0xbfb62822	-1.4230998
245	0xbfc0ddd5	-1.5067698
246	0xbede9377	-0.43471882
247	0x3e68d441	0.22737218
248	0x3c0da14e	0.008644415
249	0xbfbae621	-1.460148
250	0xbfb5a998	-1.4192381
251	0x3c6c80dd	0.01443502
252	0xbc316cce	-0.010829164
253	0x3db4df79	0.088316865
254	0x3ef6a56b	0.4817308
255	0xbccc66e4	-0.024951406
