models/all_td3/TD3_TradingEnv9_42_450_critic_2.pth (torch, 582239 bytes, 5 tensors)

layer_1.weight f4 [400, 60]
-0.63033116 1.3657712 -0.49628124 -0.5422048 -0.1114497 0.6076646 0.28933123 -0.29460108
-0.09368138 -0.73704374 -2.1362925 -0.85524833 -0.64864975 -4.680449 -0.10502343 0.6061718
-0.10950547 -0.061482806 -0.0024898015 -0.117483735 -0.13871218 0.0531892 -0.079639375 -0.05507777
0.6559341 0.015045222 -0.08906572 -0.38784355 0.9875852 -0.3578576 -0.359838 -2.2070646
1.9391711 0.14570132 -0.20394458 -0.09696081 -0.32367554 -0.31514275 -0.52116627 -0.30337968
0.7729418 -2.121447 -0.98623776 -0.046314918 0.3126517 -0.6173856 0.3024116 0.46385273
0.81220055 -0.082692824 0.03865668 -0.116224304 0.10908508 0.075302646 -0.00659614 0.02555527
-0.036871415 0.047323503 -0.07227864 -0.11686268 0.18205148 0.2059575 0.10383812 0.024116194
1.1267555 -2.0357656 0.62305343 0.28848177 -0.01544119 0.60439825 0.60380965 0.7141279
0.5723012 -1.1532502 -1.2583388 -1.9602221 0.17502153 0.029775439 0.40028986 1.244375
0.49230215 0.39494982 -0.9666041 4.7798734 0.9688156 -0.6170566 0.023163145 0.02986062
-0.15601622 0.060310174 0.0030917425 -0.5740411 -2.1921492 -0.19792889 -0.48197252 0.04891959
0.1950282 0.43986702 0.16175032 0.12828214 1.2598226 -1.4735305 2.8221858 0.19826524
-0.071768634 0.7122024 -0.4526653 -0.76065034 -0.81057405 -0.07631103 0.082383424 -0.05377405
0.08147122 -0.107548155 -0.050015897 0.023393154 -0.060839206 -0.018385611 0.020922916 0.062039208
-0.11179418 0.047401503 -0.08919197 0.0051729684 0.044485144 0.07915338 -0.15788028 -0.18763976
-0.086422436 -0.023584459 0.08192829 -0.07909353 -0.15002832 -0.09839587 0.05044968 0.0496087
-0.0050621405 -0.12808494 0.010316437 0.055257913 -0.069806494 -0.054413524 -0.12664932 0.12089148
0.09652208 0.09030918 -0.06952807 0.046666924 -0.0928827 -0.08038867 -0.01851354 -0.08069736
-0.0069686295 -0.07120714 -0.07893785 -0.15538666 -0.013991407 -0.10221752 -0.07668114 -0.13720992
0.032067314 0.08363598 -0.04347459 -0.0009803358 -0.13709377 0.047988527 -0.11885548 -0.11120217
-0.059984032 0.027317004 0.00817512 0.07749808 0.040334433 -0.031077266 0.06108161 0.047248337
-0.037149597 0.044212483 -0.04360399 -0.18842593 -0.35327494 -1.1815457 -0.6945991 -0.4789545
0.4528004 -2.6478055 0.9765204 0.42264727 -0.012322766 -0.49619135 0.29509583 -0.7182453
-0.31485978 5.9727926 -0.6580624 0.092840195 -0.38138694 -0.011569196 -0.7889415 0.5708655
-0.85042006 -1.0002311 1.2448251 0.33338323 1.7638732 0.6110739 -0.004103576 0.32154608
-0.3700944 0.029895958 0.034010537 2.5945518 -2.8653266 5.902881 0.21300405 0.014859326
0.09338321 0.81018 0.12768024 -0.059538633 -2.7014585 -1.4588044 0.14276113 0.4934638
-0.06838256 -0.4027572 0.26172635 0.4932047 0.31955445 0.041399192 0.06721251 0.09240456
-0.018004484 0.031602725 -0.06957717 -0.11463876 -0.009955266 0.06703475 -0.018798264 0.008088646
0.047502592 -0.16241238 0.02929954 -0.12252657 0.040973853 0.013198564 0.03439332 -0.067193255
-0.0065676896 -0.14416954 -0.07970318 0.043212026 0.0055336454 -0.010039269 0.0964051 0.04026835
00000000: 625d 21bf 97d1 ae3f 9318 febe efcd 0abf
00000010: be3f e4bd e88f 1b3f 3923 943e f4d5 96be
00000020: 06dc bfbd e6ae 3cbf 04b9 08c0 8ef1 5abf
00000030: e90d 26bf 3dc6 95c0 8616 d7bd 132e 1b3f
00000040: 6744 e0bd 65d5 7bbd f02b 23bb 509b f0bd
00000050: 910a 0ebe ebdc 593d f819 a3bd 3a99 61bd
00000060: 4ceb 273f 3c80 763c 1768 b6bd 6e93 c6be
00000070: 62d2 7c3f 1d39 b7be b03c b8be 8c40 0dc0
00000080: c236 f83f ba32 153e d9d6 50be 6493 c6bd
00000090: cdb8 a5be 645a a1be 276b 05bf 9554 9bbe
000000a0: 84df 453f cac5 07c0 147a 7cbf b6b4 3dbd
000000b0: e213 a03e fc0c 1ebf b1d5 9a3e 1b7e ed3e
000000c0: 60ec 4f3f db5a a9bd 7856 1e3d 0207 eebd
000000d0: 0068 df3d 4638 9a3d 6f24 d8bb 4959 d13c
000000e0: 7b06 17bd 4ad6 413d d306 94bd b355 efbd
000000f0: b46b 3a3e 86e6 523e 15a9 d43d 538f c53c
00000100: 8639 903f fc49 02c0 6e80 1f3f e2b3 933e
00000110: 0cfd 7cbc d8b9 1a3f 4593 1a3f 16d1 363f
00000120: 5582 123f b49d 93bf 3f11 a1bf 8fe8 fabf
00000130: d838 333e 9feb f33c cbf2 cc3e ae47 9f3f
00000140: 070f fc3e dd36 ca3e 5e73 77bf b9f4 9840
00000150: 4d04 783f 6cf7 1dbf a3c0 bd3c 429e f43c
00000160: b7c2 1fbe cd07 773d d59e 4a3b 5cf4 12bf
00000170: 2c4c 0cc0 dfad 4abe 1ac5 f6be e85f 483d
00000180: 79b5 473e 4036 e13e e0a1 253e 655c 033e
00000190: de41 a13f a69c bcbf b19e 3440 0b06 4b3e
000001a0: 6ffb 92bd e652 363f bfc3 e7be fbb9 42bf
000001b0: c881 4fbf f548 9cbd a4b8 a83d 2e42 5cbd
000001c0: 62da a63d 3542 dcbd 78dd 4cbd 00a3 bf3c
000001d0: 8832 79bd 6c9d 96bc 8966 ab3c d31c 7e3d
000001e0: 59f4 e4bd 1428 423d 48aa b6bd 0182 a93b
000001f0: 0e36 363d 2b1b a23d 5eab 21be a324 40be
00000200: 3ffe b0bd 3234 c1bc 05ca a73d cafb a1bd
00000210: 06a1 19be c683 c9bd 53a4 4e3d 7e32 4b3d
00000220: 50e0 a5bb b328 03be 4606 293c 1f56 623d
00000230: b5f6 8ebd b7e0 5ebd 5cb0 01be f495 f73d
00000240: 5ead c53d 05f4 b83d bc64 8ebd d125 3f3d
00000250: 4939 bebd d1a2 a4bd b5a9 97bc a844 a5bd
00000260: 1a59 e4bb 0dd5 91bd 2baa a1bd ae1d 1fbe
00000270: 373c 65bc 6b57 d1bd 000b 9dbd c280 0cbe
00000280: 0459 033d 5749 ab3d 6912 32bd 9c7e 80ba
00000290: 4f62 0cbe 9e8f 443d 806a f3bd f7bd e3bd
000002a0: d1b1 75bd e9c7 df3c f0f0 053c 50b7 9e3d
000002b0: b835 253d c095 febc b630 7a3d 7987 413d
000002c0: 2d2a 18bd 2618 353d 199a 32bd baf2 40be
000002d0: 74e0 b4be e43c 97bf 3fd1 31bf 8639 f5be
000002e0: 74d5 e73e a575 29c0 3efd 793f 3965 d83e
000002f0: 6de5 49bc cb0c febe cd16 973e edde 37bf
00000300: 4d35 a1be 1e21 bf40 c776 28bf 0023 be3d
00000310: 2645 c3be ba8c 3dbc 12f8 49bf 3e24 123f
00000320: 21b5 59bf 9307 80bf 6e56 9f3f 35b1 aa3e
00000330: 99c6 e13f 576f 1c3f 4a77 86bb b0a1 a43e
00000340: 037d bdbe 5ee8 f43c a24e 0b3d 230d 2640
00000350: 8361 37c0 67e4 bc40 bc1d 5a3e 8874 733c
00000360: b23f bf3d f567 4f3f 9cbe 023e c8de 73bd
00000370: b2e4 2cc0 1aba babf f92f 123e 4aa7 fc3e
00000380: 280c 8cbd 3136 cebe ff00 863e 5485 fc3e
00000390: a49c a33e 3392 293d b6a6 893d 9a3e bd3d
000003a0: 247e 93bc dc71 013d 7a7e 8ebd bac7 eabd
000003b0: 691b 23bc 8449 893d d1fe 99bc 3e86 043c
000003c0: 1492 423d 6e4f 26be 9705 f03c 36ef fabd
000003d0: 33d4 273d ca3e 583c 03e0 0c3d 9e9c 89bd
000003e0: c635 d7bb 2ea1 13be 6c3b a3bd 18ff 303d
000003f0: 9553 b53b bf7b 24bc 0970 c53d 6df0 243d

layer_1.bias f4 [400]
0.5772364 -0.840374 -0.09619719 0.36142993 -0.1304604 1.0859011 1.2794942 0.7287924
1.1232506 0.072699696 0.12700519 -0.34651813 -0.3043171 0.5481718 0.08685096 -0.13725236
-0.08467673 0.796802 -1.3744222 0.038490478 -1.1541879 -0.8314859 -0.20220879 -0.002469855
0.46340042 -0.17408109 0.18330207 0.1147607 -0.23353931 1.1429639 -0.23223178 0.45566005
-0.08902176 -1.3186351 -0.025204113 1.0620955 0.69446844 0.078530245 -0.13189182 1.0178341
0.17305562 -1.1187161 0.28175613 0.51099855 0.4481554 1.2364495 -0.06986984 1.1160436
-0.16787072 0.0077867475 -0.8879835 0.26067832 0.17838949 0.03664072 -0.016933998 -1.0996053
0.622984 0.61830777 -0.7083812 -0.15476088 0.7470615 -1.0725249 -0.89622104 0.881356
-0.15564094 -0.6474567 0.06834094 0.68254864 0.21176745 -0.055039153 -0.03472913 0.021836609
0.07411642 -0.35238042 0.69711643 0.05860658 -0.907242 -0.26275 0.25189248 0.5995101
-0.8331823 0.16095857 0.2067167 -0.31621397 0.99961877 -0.08607896 -0.18146808 -0.454714
-0.13886583 -0.120379455 0.58929014 0.02437175 1.1828277 -0.6268203 1.5100038 0.08010118
-0.34823525 -0.051772136 0.18508118 -0.14262876 0.70260507 -0.08779689 -1.000489 -0.12104882
-0.15742321 -1.136574 -0.5465189 -0.1096945 -0.048484527 -0.3514689 0.5573803 0.0354844
-0.07683943 -1.072864 0.7915407 -0.14500374 0.57934666 -0.5367855 0.11762172 0.002625296
0.62200826 -0.8241827 0.0015519146 -0.22299646 -1.0923226 -0.07919476 0.023632625 0.9116171
0.626791 0.27837768 0.95439357 -0.016816383 0.08771603 -0.12168219 -0.046590317 -0.1370681
-0.3672127 -0.099988736 -0.12830527 -0.56290877 0.25672048 -0.34086373 -0.021194255 -0.24399647
-0.07048092 0.108989045 -0.26847276 -0.47881532 -0.11277426 -0.059691418 0.96005017 0.023269845
0.025513405 0.2109371 1.0107424 -0.30802128 -0.11740543 -0.047010735 0.28131098 -0.13379271
-0.051732846 0.7352008 -0.081080094 0.33139294 0.050762393 -0.2273936 -0.09524922 0.118479535
0.6668057 0.0637693 -0.10596189 -0.1357782 0.037411954 0.75089425 -0.33307704 -0.046172634
0.012140816 -0.28010032 0.036069952 -0.0561329 -0.076544166 0.7208652 0.15401527 0.06385319
0.17637224 0.18665193 0.6884162 -1.2932751 0.12802573 0.7805724 -0.11890321 0.48283482
-0.8534276 -0.2273846 -0.2269471 -0.17384708 -0.8064746 -0.011389237 0.26330927 0.68081474
0.034454256 -0.13209671 0.63661075 0.11668822 -1.0645921 1.4986328 -0.14255594 0.066476285
-0.0024504191 -0.35457364 -0.18540883 -0.43440536 0.055938043 -0.42308906 0.35841143 1.297181
-0.15197125 -0.139142 -0.6407646 0.28842598 0.5303018 -0.5075428 0.5807198 0.045094445
-0.05605277 0.06014139 -0.33771372 -0.1507167 0.14198594 0.62099016 -0.025760584 0.94315445
-0.8607362 0.56080407 -0.23250921 -0.112684734 0.019807125 0.016516192 0.90351003 -0.07100644
0.053161312 -0.17055295 0.7401545 -0.058814254 0.056606524 -0.4917614 0.017093819 -0.10444133
-0.2142589 -0.08502094 0.44746333 -0.13561817 -0.37110752 -0.016845163 -0.14892936 -0.11228413
00000000: c4c5 133f c022 57bf 0803 c5bd 580d b93e
00000010: 6997 05be cffe 8a3f 77c6 a33f 2492 3a3f
00000020: adc6 8f3f 94e3 943d a60d 023e d36a b1be
00000030: 73cf 9bbe fd54 0c3f ebde b13d e28b 0cbe
00000040: fe6a adbd 37fb 4b3f 11ed afbf 31a8 1d3d
00000050: 6ebc 93bf 43dc 54bf d20f 4fbe 4add 21bb
00000060: d242 ed3e 5042 32be 8ab3 3b3e a807 eb3d
00000070: ee24 6fbe a44c 923f 2bce 6dbe 464c e93e
00000080: 0a51 b6bd 09c9 a8bf db78 cebc bff2 873f
00000090: afc8 313f 77d4 a03d a60e 07be 6348 823f
000000a0: 7e35 313e 1732 8fbf 5742 903e cdd0 023f
000000b0: a074 e53e fa43 9e3f eb17 8fbd 84da 8e3f
000000c0: 4de6 2bbe f927 ff3b e352 63bf a177 853e
000000d0: bcab 363e 9414 163d 2bb9 8abc debf 8cbf
000000e0: e17b 1f3f 6b49 1e3f 7858 35bf a379 1ebe
000000f0: 6c3f 3f3f 7f48 89bf be6e 65bf 8ca0 613f
00000100: 5760 1fbe b9bf 25bf 56f6 8b3d 82bb 2e3f
00000110: 91d9 583e bc70 61bd 2240 0ebd b0e2 b23c
00000120: 59ca 973d 356b b4be 3976 323f 740d 703d
00000130: 0341 68bf 2b87 86be 0df8 803e 7e79 193f
00000140: 6f4b 55bf 53d2 243e 8bad 533e cce6 a1be
00000150: 04e7 7f3f 2a4a b0bd c5d2 39be 46d0 e8be
00000160: d832 0ebe 8189 f6bd b8db 163f 44a7 c73c
00000170: e666 973f 4c77 20bf ce47 c13f 160c a43d
00000180: e44b b2be 050f 54bd ec85 3d3e 460d 12be
00000190: eddd 333f dbce b3bd 0610 80bf 72e8 f7bd
000001a0: 8d33 21be 427b 91bf aae8 0bbf 83a7 e0bd
000001b0: b697 46bd bbf3 b3be 7ab0 0e3f 1758 113d
000001c0: fe5d 9dbd 9c53 89bf 69a2 4a3f dc7b 14be
000001d0: 1050 143f c66a 09bf a8e3 f03d 280d 2c3b
000001e0: ef3b 1f3f a3fd 52bf 9d69 cb3a 2f59 64be
000001f0: 3ad1 8bbf dd30 a2bd 3599 c13c bd5f 693f
00000200: 6075 203f 8587 8e3e 2353 743f 83c2 89bc
00000210: 76a4 b33d 8334 f9bd 7dd5 3ebd 945b 0cbe
00000220: 4e03 bcbe e5c6 ccbd 7562 03be ca1a 10bf
00000230: de70 833e b185 aebe 939f adbc 36da 79be
00000240: 4d58 90bd a635 df3d 4375 89be 4827 f5be
00000250: 31f6 e6bd fd7e 74bd d9c5 753f 67a0 be3c
00000260: 7d01 d13c e5ff 573e 0260 813f f7b4 9dbe
00000270: 4272 f0bd 548e 40bd fe07 903e f500 09be
00000280: d2e5 53bd 1f36 3c3f 520d a6bd 56ac a93e
00000290: 3aec 4f3d ded9 68be 0612 c3bd 66a5 f23d
000002a0: c7b3 2a3f 7b99 823d 8c02 d9bd 7109 0bbe
000002b0: 473d 193d 9b3a 403f 1389 aabe 841f 3dbd
000002c0: 46ea 463c 4f69 8fbe 16be 133d 9deb 65bd
000002d0: 30c3 9cbd 9f8a 383f 2eb6 1d3e 76c5 823d
000002e0: ed9a 343e af21 3f3e 0b3c 303f 0a8a a5bf
000002f0: 2d19 033e 98d3 473f 8783 f3bd 2036 f73e
00000300: 3b7a 5abf 82d7 68be d264 68be f804 32be
00000310: 1f75 4ebf ec99 3abc 79d0 863e e049 2e3f
00000320: e81f 0d3d 5c44 07be ecf8 223f 3cfa ee3d
00000330: 8e44 88bf 33d3 bf3f 2ffa 11be b824 883d
00000340: 3697 20bb ad8a b5be d0db 3dbe 616a debe
00000350: 4a1f 653d 219f d8be b481 b73e 070a a63f
00000360: 5a9e 1bbe 3e7b 0ebe 2609 24bf 92ac 933e
00000370: dcc1 073f 53ee 01bf 0eaa 143f f4b4 383d
00000380: 9797 65bd d156 763d d0e8 acbe 7b55 1abe
00000390: c364 113e 36f9 1e3f dc07 d3bc 9272 713f
000003a0: 3559 5cbf db90 0f3f e516 6ebe 41c7 e6bd
000003b0: 8d42 a23c f74c 873c 6f4c 673f d36b 91bd
000003c0: adbf 593d 6fa5 2ebe c47a 3d3f 37e7 70bd
000003d0: 3edc 673d 26c8 fbbe 5608 8c3c 56e5 d5bd
000003e0: af66 5bbe 751f aebd ea19 e53e 7ddf 0abe
000003f0: ce01 bebe defe 89bc f080 18be 39f5 e5bd

layer_2.weight f4 [300, 400]
-0.04821039 -0.04854266 -0.036374263 0.006358908 -0.037547052 -0.07987402 -0.07639325 0.030487739
0.036781877 -0.002149645 0.013992264 0.036906216 -0.033069793 -0.078076884 0.0035871959 -0.0049193744
-0.017212939 0.006585037 -0.03970428 -0.038479086 -0.043200564 -0.014445242 -0.01605832 0.03392906
-0.051679775 0.008737918 -0.04170077 -0.02383943 -0.042448357 0.0009859316 -0.0010614794 0.008375564
-0.03292326 0.0137076005 0.002054364 -0.020280108 -0.0053762468 -0.032278262 -0.050174087 0.0344694
-0.053780485 0.017717626 -0.016975114 0.0034080667 -0.049636513 0.03712484 0.023249766 0.044784725
-0.0179192 -0.03922584 -0.03843417 -0.010196356 -0.018671786 -0.009663682 0.026965756 0.01328458
0.037040487 -0.014774902 0.03549719 0.038551357 0.018572962 -0.02334851 -0.057017494 0.007719757
-0.06315385 -0.011064084 0.008880696 -0.052719723 -0.029357998 0.016976656 0.026058316 -0.011861459
-0.04349963 -0.05230663 -0.058409262 -0.00982003 -0.068426885 0.041473124 -0.039692212 -0.035721812
-0.08573622 -0.006354429 0.03277569 -0.0071403184 -0.029228546 -0.005199546 0.058888663 -0.07189954
-0.02030007 -0.049874343 -0.01053052 -0.027710814 -0.0475257 -0.019942425 -0.029135842 -0.026476417
-0.032692865 0.05094462 -0.1435316 -0.054678734 0.018942827 -0.004622137 -0.046032324 0.026254782
-0.042820226 -0.025400171 -0.021184271 0.040134676 0.004715459 0.015235878 -0.071579225 -0.033793245
-0.017355213 -0.08892253 0.022610096 -0.002218493 -0.034297604 -0.03088349 -0.035072017 -0.015814306
-0.012377336 0.0015407702 -0.021711057 -0.018594382 -0.07241792 0.0022314116 -0.04304886 -0.07726743
-0.013777485 -0.025414176 -0.041745 0.0075087175 -0.014604278 -0.020240167 0.039455596 0.0039200755
0.017400656 -0.038200993 -0.056104567 -0.030859366 -0.050200973 0.040974982 0.024913792 0.043981314
-0.08814803 -0.059677258 -0.0699924 -0.045971926 -0.004035849 0.014019106 -0.03263245 -0.041720957
-0.030276386 -0.021454345 0.013593317 -0.083483785 -0.002148862 -0.020246927 -0.050318327 0.014734132
0.042880166 0.0099677155 -0.023824168 0.0073691895 0.017770244 -0.040116344 0.0024773777 0.015516467
-0.04726752 -0.035518717 -0.050207037 0.024058733 0.03177278 -0.05870664 -0.021641765 0.048210293
-0.00989645 0.0054018605 -0.050640997 0.01905774 -0.0804435 -0.08161309 0.03535667 -0.023784906
-0.0237232 0.029659512 -0.004190803 -0.015636992 -0.010835256 -0.03627613 -0.024018079 0.017852452
-0.04318571 -0.05063646 -0.04388292 -0.050087187 -0.032527875 0.020765875 -0.097697444 0.032306176
-0.011962983 0.012520697 -0.070075944 0.0062481957 -0.017372616 -0.04551682 0.036941092 0.02596924
0.024206681 0.020389637 -0.028357442 -0.029644221 0.020865826 -0.08317517 -0.011644494 -0.028563328
-0.016210636 -0.03433475 -0.06345922 -0.059802853 0.014843331 -0.030340312 -0.04565998 -0.049526643
0.014794294 -0.010113377 -0.036757294 0.033551168 -0.03148226 -0.069089636 -0.02703072 -0.038754527
-0.0096807545 -0.027233424 -0.025556713 0.04071947 -0.118290424 0.03727964 -0.0387309 0.015290247
0.04137586 0.075201176 0.024983652 -0.045684468 0.014155273 0.0072712786 0.0077432203 -0.038003355
-0.008288614 -0.029493345 -0.0023892673 -0.0030401703 -0.033977836 -0.044287592 -0.051641278 -0.040830545
00000000: 4278 45bd abd4 46bd 2efd 14bd 635e d03b
00000010: f0ca 19bd fd94 a3bd 1074 9cbd 6cc1 f93c
00000020: 98a8 163d 0fe1 0cbb cf3f 653c f92a 173d
00000030: 3174 07bd c6e6 9fbd 2917 6b3b b432 a1bb
00000040: 2602 8dbc 4bc7 d73b f5a0 22bd 3f9c 1dbd
00000050: 13f3 30bd bcab 6cbc bd8c 83bc 33f9 0a3d
00000060: 2cae 53bd 7c29 0f3c 6dce 2abd e94a c3bc
00000070: 54de 2dbd 603a 813a 5721 8bba a939 093c
00000080: 8ada 06bd d895 603c 82a2 063b 7822 a6bc
00000090: 3a2b b0bb 3636 04bd 5883 4dbd c92f 0d3d
000000a0: ed48 5cbd 8e24 913c 650f 8bbc df59 5f3b
000000b0: a84f 4bbd 3710 183d 4b76 be3c 3070 373d
000000c0: 49cb 92bc 46ab 20bd 266d 1dbd 9e0e 27bc
000000d0: 93f5 98bc 6c54 1ebc 4ae7 dc3c 91a7 593c
000000e0: c4b7 173d 6e12 72bc 8065 113d 07e8 1d3d
000000f0: 5326 983c 6045 bfbc 2d8b 69bd 04f6 fc3b
00000100: ce56 81bd 2246 35bc 5780 113c a3f0 57bd
00000110: 2f80 f0bc a112 8b3c 4078 d53c 9156 42bc
00000120: ab2c 32bd 7a3f 56bd 8d3e 6fbd 31e4 20bc
00000130: 6523 8cbd b9df 293d 4d94 22bd 0951 12bd
00000140: 7996 afbd d038 d0bb cd3f 063d 55f9 e9bb
00000150: b470 efbc f460 aabb 3d35 713d 1140 93bd
00000160: 554c a6bc 0a49 4cbd 3488 2cbc ca01 e3bc
00000170: 4faa 42bd 4c5e a3bc 4aae eebc 12e5 d8bc
00000180: f4e8 05bd 4eab 503d f3f9 12be cff6 5fbd
00000190: fd2d 9b3c 4c75 97bb 648c 3cbd 4514 d73c
000001a0: 4364 2fbd 0514 d0bc a38a adbc 4264 243d
000001b0: 2384 9a3b e79f 793c 2198 92bd c96a 0abd
000001c0: 852c 8ebc 041d b6bd cf38 b93c 2364 11bb
000001d0: a57b 0cbd 5fff fcbc ada7 0fbd 018d 81bc
000001e0: 4fca 4abc abf3 c93a 63db b1bc 3f53 98bc
000001f0: d94f 94bd e03c 123b 0054 30bd 633e 9ebd
00000200: f6ba 61bc 6431 d0bc cefc 2abd b00b f63b
00000210: c846 6fbc b5ce a5bc 319c 213d fa73 803b
00000220: d28b 8e3c a578 1cbd e7cd 65bd c8cc fcbc
00000230: 899f 4dbd 62d5 273d 0218 cc3c c025 343d
00000240: f486 b4bd 2470 74bd 2d58 8fbd 0f4d 3cbd
00000250: 283f 84bb 64b0 653c 9ba9 05bd 98e3 2abd
00000260: 2f06 f8bc 06c1 afbc 81b6 5e3c 8cf9 aabd
00000270: ecd3 0cbb e2dc a5bc 971a 4ebd 6e67 713c
00000280: 1da3 2f3d a14f 233c e72a c3bc 3e79 f13b
00000290: e792 913c 0951 24bd 805b 223b c838 7e3c
000002a0: 969b 41bd 137c 11bd e5a5 4dbd d216 c53c
000002b0: 2d24 023d 6076 70bd 124a b1bc 2878 453d
000002c0: b824 22bc 1702 b13b ef6c 4fbd fa1e 9c3c
000002d0: 90bf a4bd c424 a7bd 28d2 103d 90d8 c2bc
000002e0: 2857 c2bc 81f8 f23c 0153 89bb 2619 80bc
000002f0: 5c86 31bc 4796 14bd 90c1 c4bc 4e3f 923c
00000300: 80e3 30bd 2d68 4fbd 94be 33bd 3928 4dbd
00000310: f33b 05bd 321d aa3c 9915 c8bd 7b53 043d
00000320: 6300 44bc 9c23 4d3c fa83 8fbd aabd cc3b
00000330: 0451 8ebc d86f 3abd 8b4f 173d 72bd d43c
00000340: 174d c63c 2b08 a73c de4d e8bc 70d8 f2bc
00000350: cfee aa3c be57 aabd 8cc8 3ebc a4fd e9bc
00000360: 2bcc 84bc 98a2 0cbd e8f6 81bd d6f3 74bd
00000370: 7131 733c 3f8c f8bc f605 3bbd 73dc 4abd
00000380: c463 723c 94b2 25bc d18e 16bd f36c 093d
00000390: 8bf3 00bd de7e 8dbd 876f ddbc 11bd 1ebd
000003a0: 079c 1ebc a118 dfbc 505c d1bc 75c9 263d
000003b0: 4042 f2bd 89b2 183d 4ba4 1ebd f283 7a3c
000003c0: bc79 293d 1303 9a3d 84aa cc3c a31f 3bbd
000003d0: 85eb 673c e843 ee3b d7ba fd3b 68a9 1bbd
000003e0: f8cc 07bc 079c f1bc 4195 1cbb 983d 47bb
000003f0: 582c 0bbd e866 35bd ce85 53bd ee3d 27bd

layer_2.bias f4 [300]
-0.029130034 -0.07510564 0.32456526 0.039287645 0.23903404 -0.0025774862 -0.035589796 0.58656925
0.18535395 -0.024157075 -0.053407036 0.0012256904 -0.0032970696 0.0036074347 -0.49693292 -0.11026747
-0.07533522 0.33306894 -0.15208213 -0.06457166 0.17960875 -0.032384817 0.39498353 -0.04239926
0.03803072 -0.0886921 -0.07179998 -0.035191175 -0.053419508 0.2561388 -0.01527426 0.72246456
-0.028764965 -0.03875744 -0.08298579 -0.072556086 0.04394943 0.66035604 -0.04016206 0.00030730662
0.21181889 -0.019017415 0.6853499 -0.04337939 0.08703549 -0.10202729 -0.026875457 0.40142062
-0.0006595658 0.7482283 -0.08127488 -0.0036742487 -0.07595585 -0.044917032 -0.07471083 0.012310685
-0.060187943 0.2241386 -0.033448566 0.3377197 -0.058920853 0.071299136 -0.0030915162 -0.04388038
1.5196869 -0.02073651 0.029576236 -0.040297158 0.13427508 -0.06368299 0.20548548 0.49065948
0.4066209 -0.32157758 0.031900067 0.1237717 -0.04248982 -0.03488992 -0.044175997 0.33068094
0.015930042 -0.07286224 0.011243267 -0.2567294 0.6522072 -0.0057131504 -0.0006677766 0.106953084
-0.016173225 0.0002363789 -0.034356013 -0.033326145 -0.041033972 -0.050396156 -0.060509976 -0.035668783
0.0008698795 -0.020784423 0.03639256 -0.062024336 0.024284836 -0.0107406285 0.35363713 0.26471847
-0.2119249 0.1521573 -0.078179106 -0.07872239 0.4120698 0.3056901 -0.15725063 -0.06254883
0.26667452 0.32318 -0.03449908 0.19584076 0.026060956 -0.0070147654 -0.017861005 0.0016293105
0.29246575 0.006520099 0.5050305 0.5891984 -0.031204218 -0.015401408 0.19289611 0.0042249323
-0.064682506 -0.0914459 -0.08459065 -0.1188887 0.24266157 0.07627423 0.43707293 0.018541908
-0.037290704 0.12482948 -0.065682285 -0.058260318 0.326848 -0.28611413 0.24462447 0.33016714
0.34428114 0.18544482 0.48904723 0.015259828 -0.053948108 1.3747622 -0.10046795 0.26013434
0.41890457 0.2845625 0.2719189 -0.25739342 0.23812553 0.23371564 -0.23230234 -0.032007124
0.2879194 -0.05911564 0.2050536 -0.04190926 -0.0009832912 -0.08368934 0.27073938 0.004082051
0.003912743 -0.010615537 0.011177238 0.032894347 0.012727283 0.3204717 -0.036263622 0.0023927158
0.015575666 0.6791292 -0.076425396 -0.039272487 0.2743255 0.007302239 -0.042014692 0.15148672
0.13004822 0.84242934 -0.072846405 -0.05653407 0.27905446 0.013459097 -0.07665502 -0.0077246055
0.16149296 0.120455645 0.5294904 0.20480376 -0.067453794 -0.0631636 0.12098488 0.19152904
-0.062928736 1.3796471 -0.10037312 -0.05584711 -0.0730194 -0.16619126 0.0031283288 -0.033324692
0.19433552 -0.04589693 -0.10319584 0.32689363 0.2761304 -0.026634926 0.025219465 1.3960478
0.008112604 -0.02845641 -0.1918523 -0.08240095 0.098992266 0.26394084 -0.010008003 -0.011197578
-0.008931993 -0.082034685 0.24542825 -0.08556359 -0.045860812 0.67431045 0.29731968 -0.0144564845
-0.06976696 -0.07072906 1.0558183 -0.017414209 0.7354318 -0.08648428 0.12739462 -0.017102545
-0.08555839 -0.041731466 0.16755064 -0.020264186 0.267995 -0.018718388 -0.33088765 -0.07471783
0.2779452 -0.03163516 0.4355371 0.0049926434 0.31078854 -0.06674703 -0.049713515 0.14392446
00000000: 1ca2 eebc fcd0 99bd 6b2d a63e 15ec 203d
00000010: 57c5 743e 0beb 28bb 9bc6 11bd 6729 163f
00000020: 6dcd 3d3e 0fe5 c5bc 56c1 5abd 58a7 a03a
00000030: a613 58bb b66a 6c3b fe6d febe e9d3 e1bd
00000040: 5a49 9abd 0388 aa3e 6bbb 1bbe 253e 84bd
00000050: 5beb 373e f1a5 04bd 483b ca3e d9aa 2dbd
00000060: 1ac6 1b3d 34a4 b5bd de0b 93bd 9f24 10bd
00000070: 6ace 5abd a024 833e e440 7abc 70f3 383f
00000080: 81a4 ebbc 1fc0 1ebd 74f4 a9bd 4998 94bd
00000090: 5104 343d 180d 293f f980 24bd ff1d a139
000000a0: 0de7 583e 69ca 9bbc 1773 2f3f 96ae 31bd
000000b0: aa3f b23d aff3 d0bd eb29 dcbc 0187 cd3e
000000c0: b6e6 2cba e48b 3f3f 7273 a6bd aacb 70bb
000000d0: be8e 9bbd ecfa 37bd fe01 99bd c1b2 493c
000000e0: a287 76bd 9784 653e 5d01 09bd 99e9 ac3e
000000f0: fe56 71bd 4805 923d 099b 4abb eabb 33bd
00000100: 1a85 c23f 9ddf a9bc dd49 f23c a20e 25bd
00000110: 687f 093e 3a6c 82bd c96a 523e b837 fb3e
00000120: 9d30 d03e d1a5 a4be a5a9 023d 047c fd3d
00000130: ce09 2ebd bce8 0ebd e4f1 34bd 034f a93e
00000140: b87f 823c cc38 95bd ae35 383c 0972 83be
00000150: 0df7 263f 6135 bbbb bb0d 2fba 380a db3d
00000160: b67d 84bc 7adc 7739 e4b8 0cbd ff80 08bd
00000170: 3d13 28bd 336c 4ebd 4fd9 77bd 6e19 12bd
00000180: a008 643a 1844 aabc 5d10 153d 3b0d 7ebd
00000190: fef0 c63c 76f9 2fbc ed0f b53e 2e89 873e
000001a0: d702 59be 20cf 1b3e 5e1c a0bd 3439 a1bd
000001b0: d0fa d23e 6a83 9c3e 4f06 21be 9a19 80bd
000001c0: 9089 883e d977 a53e e84e 0dbd 7b8a 483e
000001d0: c97d d53c 1edc e5bb 3e51 92bc 978e d53a
000001e0: 12be 953e 8ea6 d53b ae49 013f b5d5 163f
000001f0: fd9f ffbc 3056 7cbc 8f86 453e 4d71 8a3b
00000200: 4378 84bd fd47 bbbd dd3d adbd eb7b f3bd
00000210: 467c 783e aa35 9c3d 06c8 df3e 33e5 973c
00000220: 23be 18bd 99a6 ff3d 6f84 86bd 5fa2 6ebd
00000230: 9f58 a73e 8d7d 92be d67e 7a3e ab0b a93e
00000240: 9e45 b03e 3fe5 3d3e 6664 fa3e 5c04 7a3c
00000250: b1f8 5cbd 35f8 af3f 24c2 cdbd 5430 853e
00000260: a97a d63e 2db2 913e f438 8b3e 12c9 83be
00000270: 2ed7 733e 2753 6f3e aae0 6dbe e719 03bd
00000280: 2c6a 933e 3e23 72bd 92f9 513e 0ba9 2bbd
00000290: c7e1 80ba 5165 abbd 5a9e 8a3e bac2 853b
000002a0: 7836 803b caec 2dbc bc20 373c 39bc 063d
000002b0: 1886 503c de14 a43e 2a89 14bd 1ccf 1c3b
000002c0: 1431 7f3c 69db 2d3f eb84 9cbd 30dc 20bd
000002d0: 6474 8c3e 9f47 ef3b 9917 2cbd 561f 1b3e
000002e0: 5c2b 053e 73a9 573f 7f30 95bd 4590 67bd
000002f0: 3ae0 8e3e 8b83 5c3c 4ffd 9cbd b01e fdbb
00000300: 695e 253e 73b1 f63d af8c 073f 14b8 513e
00000310: 3725 8abd eb5b 81bd ecc6 f73d 3020 443e
00000320: c8e0 80bd 4798 b03f 6c90 cdbd f0bf 64bd
00000330: 328b 95bd 0b2e 2abe a604 4d3b 797f 08bd
00000340: e4ff 463e 6bfe 3bbd 5758 d3bd 9a5e a73e
00000350: f760 8d3e 7d31 dabc 0d99 ce3c b2b1 b23f
00000360: baea 043c 6b1d e9bc ee74 44be d4c1 a8bd
00000370: 75bc ca3d 4123 873e 9bf8 23bc 0c76 37bc
00000380: 7e57 12bc cd01 a8bd 8b51 7b3e f73b afbd
00000390: 8cd8 3bbd 9c9f 2c3f 493a 983e e4da 6cbc
000003a0: fbe1 8ebd 66da 90bd 0e25 873f 3ea8 8ebc
000003b0: 4245 3c3f ac1e b1bd bc73 023e a31a 8cbc
000003c0: 3d39 afbd 9dee 2abd 6592 2b3e 1401 a6bc
000003d0: a436 893e 4e57 99bc 1b6a a9be a905 99bd
000003e0: d54e 8e3e df93 01bd b8fe de3e 5499 a33b
000003f0: ad1f 9f3e abb2 88bd 66a0 4bbd ef60 133e

layer_3.weight f4 [1, 300]
0.031151297 -0.94315225 -0.68794686 -1.406992 -0.8129746 -0.004912939 -0.018189702 2.9029646
-0.8206649 -0.0039709317 -0.64841515 0.0056539783 0.036258135 -0.022285301 -2.1093955 -1.0601538
-1.0504488 1.294695 -0.9541736 0.017259214 -0.37628004 -0.018071592 -1.6964135 0.012785461
-1.0506637 -0.043285348 0.0070047583 0.0189271 -1.3544152 -1.4632461 0.0035031312 2.188014
-0.0131065715 -0.027697835 -0.84483606 -0.91423506 -0.8600775 4.033732 -0.0038956923 -1.1096096
-1.4599551 0.018654946 2.22864 0.030937335 -1.0788666 -2.2658741 0.008134149 2.5914268
-0.96628416 2.1004255 0.05216238 -0.023258895 0.011958549 0.01080271 -0.0002140593 0.030088572
-0.024155794 1.1307279 0.027015058 -1.339134 -0.94067264 -0.92837256 -0.34394717 -0.0062286966
4.4060225 -0.024872957 0.043853603 0.012707414 -1.6124915 0.009309647 -0.6542587 2.0805893
-0.88600045 -6.466242 -1.3204349 -1.1955839 0.006805206 0.021205738 0.0047486555 -1.3399214
0.016773257 -0.031150913 0.01032391 -4.5658627 2.065915 0.0008766917 -0.03545292 -1.3319322
-0.0076634972 -0.029824527 -0.019561851 -0.007551346 -0.01293193 0.03365 0.021731498 -0.005241368
-0.0057136295 0.0061847465 0.016915265 0.020345775 0.01384971 -0.011389496 2.2477307 1.1750643
-1.6590254 -1.2735882 -1.1172136 0.011261421 -1.2657028 -2.2948112 -1.0957147 -0.0012125744
1.3625815 -1.3410376 0.0042989966 -2.2935922 -0.0032174224 0.04022605 0.024841579 0.011926919
1.3383797 -0.02687926 -1.2182068 -1.869018 0.0033680436 -0.002613601 1.0980953 -0.0052731
0.023904445 0.055093903 -0.019523822 -0.03649406 -0.81999636 -2.6128547 -0.8960631 0.037839003
-0.94726545 1.5787593 -0.097027816 0.030420836 1.1729479 -1.0042809 -1.566197 -0.9255555
-1.0238006 -1.5537091 -1.5607008 0.002492363 0.027502468 4.3746676 -1.0459651 0.8330497
-0.9641003 -0.86064416 0.7179087 -3.60655 1.0432224 1.805837 -4.02204 0.021473907
1.3422399 -0.016498096 1.5750784 0.024564862 -0.012032371 -0.007482561 -1.1039636 0.029197851
0.0102798445 0.00046876757 -0.00057784957 -0.0029750573 -0.017656108 -0.8642883 -1.0256876 0.045216102
0.017576434 2.139992 0.011171556 -0.01942113 1.5664213 -0.026300121 -0.0014437526 -1.4726841
-1.4948585 3.6310046 0.023382138 0.008497237 1.5302627 0.000902968 -1.0015854 0.042349063
-1.4697347 1.5128373 -1.2603498 -1.1388639 0.0012604329 0.003650336 -1.0460002 1.1759684
0.07497882 6.4466896 -0.008374291 -0.038398962 -0.045749955 -3.0656068 -0.02640552 0.01738495
-1.450813 -0.010662854 -1.0643796 -1.0380743 -1.5853513 0.022259716 -0.0058682123 2.2833874
2.9534835e-05 0.0006615036 -3.6081333 0.004190692 -1.3616415 0.6973027 -0.031407468 0.0015583157
-0.90069616 0.008874916 1.4462844 -0.05369628 -0.007522942 2.232275 -1.2231462 0.027687915
-0.019219302 -0.00692578 2.607418 -0.0043168655 2.1832259 -2.9979663 -1.8753899 -0.009684361
-1.2204138 -0.019723695 2.183553 0.027406506 -2.5121691 0.0227732 -4.3438115 -1.0891936
-0.8464078 -0.005506067 -1.4033104 -1.1228031 -1.2702398 0.00502464 0.029706543 0.6979951
00000000: 0131 ff3c 6d72 71bf 491d 30bf 5018 b4bf
00000010: 1a1f 50bf b8fc a0bb 9202 95bc 2cca 3940
00000020: 1817 52bf 971e 82bb 89fe 25bf 0245 b93b
00000030: 6983 143d aa8f b6bc 5600 07c0 1fb3 87bf
00000040: 1b75 86bf 91b8 a53f b944 74bf 3263 8d3c
00000050: c7a7 c0be e00a 94bc 1424 d9bf 1c7a 513c
00000060: 267c 86bf fa4b 31bd 2c88 e53b 010d 9b3c
00000070: 7a5d adbf a64b bbbf ca94 653b 6c08 0c40
00000080: f2bc 56bc 92e6 e2bc 2d47 58bf 4f0b 6abf
00000090: 0a2e 5cbf 5514 8140 df4e 7fbb b007 8ebf
000000a0: cfdf babf 42d2 983c 0aa2 0e40 4b70 fd3c
000000b0: 4d18 8abf 1504 11c0 1845 053c f0d9 2540
000000c0: 665e 77bf 5f6d 0640 38a8 553d 7089 bebc
000000d0: caed 433c dafd 303c 1b75 60b9 4f7c f63c
000000e0: 5fe2 c5bc b1bb 903f af4e dd3c be68 abbf
000000f0: eccf 70bf d3a9 6dbf d819 b0be 181a ccbb
00000100: 23fe 8c40 5fc2 cbbc d69f 333d c232 503c
00000110: 1f66 cebf 7d87 183c 807d 27bf 6028 0540
00000120: edd0 62bf 74eb cec0 0304 a9bf e508 99bf
00000130: 35fe de3b a8b7 ad3c 9c9a 9b3b 8b82 abbf
00000140: 1268 893c 3330 ffbc 9e25 293c 8c1b 92c0
00000150: f437 0440 c9d1 653a 1537 11bd c17c aabf
00000160: 131e fbbb 9152 f4bc 2d40 a0bc 4871 f7bb
00000170: 72e0 53bc 95d4 093d 4106 b23c c8bf abbb
00000180: 6639 bbbb 6aa9 ca3b e291 8a3c 2fac a63c
00000190: e5e9 623c 029b 3abc d2da 0f40 8268 963f
000001a0: f25a d4bf f004 a3bf db00 8fbf d381 383c
000001b0: 8d02 a2bf 30de 12c0 6140 8cbf 3fef 9eba
000001c0: 1269 ae3f 1fa7 abbf 99de 8c3b 37ca 12c0
000001d0: 64db 52bb 12c4 243d 9180 cb3c 2069 433c
000001e0: 0750 ab3f e531 dcbc 33ee 9bbf fb3b efbf
000001f0: 65ba 5c3b f348 2bbb 638e 8c3f f8c9 acbb
00000200: 41d3 c33c 25aa 613d 6cf0 9fbc cc7a 15bd
00000210: 48eb 51bf 0339 27c0 6464 65bf 12fd 1a3d
00000220: fd7f 72bf c914 ca3f 85b6 c6bd 1e35 f93c
00000230: 2823 963f 478c 80bf 2579 c8bf 35f1 6cbf
00000240: e60b 83bf f1df c6bf 0bc5 c7bf ea56 233b
00000250: db4c e13c 47fd 8b40 2fe2 85bf bf42 553f
00000260: 47cf 76bf 2d53 5cbf ddc8 373f b7d1 66c0
00000270: 5088 853f ab25 e73f 8db4 80c0 0cea af3c
00000280: 84ce ab3f 0427 87bc 2b9c c93f 403c c93c
00000290: 6c23 45bc 4530 f5bb ae4e 8dbf 5530 ef3c
000002a0: cb6c 283c ebc4 f539 d47a 17ba 2ef9 42bb
000002b0: 8ba3 90bc ff41 5dbf bb49 83bf 8534 393d
000002c0: 74fc 8f3c a1f5 0840 e708 373c 1019 9fbc
000002d0: 7e80 c83f 5a73 d7bc 4c3c bdba ea80 bcbf
000002e0: 8657 bfbf 6162 6840 e68b bf3c ff37 0b3c
000002f0: a6df c33f 28b5 6c3a f333 80bf 3676 2d3d
00000300: 4420 bcbf a7a4 c13f 2453 a1bf 4bc6 91bf
00000310: 1c35 a53a 7a3a 6f3b 56e3 85bf 2286 963f
00000320: 7f8e 993d 484b ce40 5234 09bc 3b48 1dbd
00000330: 4e64 3bbd e732 44c0 6450 d8bc e26a 8e3c
00000340: 3eb4 b9bf 40b3 2ebc 973d 88bf 9edf 84bf
00000350: cbec cabf 025a b63c 224a c0bb 0523 1240
00000360: 93c1 f737 c168 2d3a a8eb 66c0 1352 893b
00000370: 454a aebf 6e82 323f 1ea5 00bd 6640 cc3a
00000380: 0694 66bf 1868 113c d91f b93f a1f0 5bbd
00000390: 0383 f6bb 98dd 0e40 0e90 9cbf c4d1 e23c
000003a0: cc71 9dbc a7f1 e2bb f0df 2640 7e74 8dbb
000003b0: f9b9 0b40 aede 3fc0 c70c f0bf 27ab 1ebc
000003c0: 8536 9cbf 9693 a1bc 55bf 0b40 9c83 e03c
000003d0: 61c7 20c0 dd8e ba3c 8100 8bc0 b26a 8bbf
000003e0: 2eae 58bf 3d6c b4bb ad9f b3bf 03b8 8fbf
000003f0: 3897 a2bf bca5 a43b 235b f33c cfaf 323f
