models/all_td3/TD3_TradingEnv5_42_50_actor.pth (torch, 569119 bytes, 6 tensors)

layer_1.weight f4 [400, 48]
00000000: 28a4 90bc 8f9a bbbd d785 f2bd f880 1fbe
00000010: cede 64be 4310 c53d 338f 873d d457 e7bd
00000020: 8c22 3ebe 223d 7fbc 2e2a 5fbd 65bf 3ebe
00000030: f727 2bbe a318 9a3d fa5c a1bb cecd 54bd
00000040: 679a 2dbe e026 5fbe 04bd 0abe 7703 91bd
00000050: e965 ccbd 5517 47bd ae65 cabd d727 10be
00000060: 3387 283c 598b 4ebd 0c12 37be f8de 14be
00000070: c0b6 2c3d 6818 6a3d fb66 86bd 309a 21bb
00000080: ac33 50bc 389d 4fbe 7dd2 a2bd 8690 2ebe
00000090: cd4c abbd 89f1 0d3d bad0 06bc dc25 683c
000000a0: 7726 fdbc 38b4 3cbe 3eca 023c 1872 9cbd
000000b0: 3653 00bd 1e0a 84bd 00e2 66bc d478 fbbc
000000c0: 2be8 00bd b2af 80be c242 38be 23b7 cbbd
000000d0: f068 17be 6115 1ebe 540b 48be 7a61 cbbd
000000e0: bc03 c23d 5c75 673c 0347 08bd 37e8 32bd
000000f0: ab05 8f3d 1878 b83d 51b5 fb3d df82 46be
00000100: e29f a4bc 32f1 2fbe 9f3a 2b3c 7003 febc
00000110: 37a3 adbe 31ab 323e 50d3 3abe a4b6 0bbe
00000120: 3587 d0bd 5be9 71be a7cc 9a3d 23f8 93bc
00000130: 6928 e33d 2a96 ad3d 3687 3c3e 7d66 c0bc
00000140: 8699 b0bb 4806 91bd c4e7 3abd 4371 14be
00000150: 3634 1a3e eaf1 83b9 7995 293e 8dca bb3d
00000160: 12cc 5e3d eb59 c2bd 5fb3 cabd f873 e8bd
00000170: f0ae 293d 68eb f73d d006 15bc de26 133e
00000180: d1b6 bf3d 99a3 b93d 04fc 75bd ec64 8cbd
00000190: cef6 543e 63a3 273e 993d 9e3c 9142 cdbe
000001a0: 4b76 a4bd 581f 573e ba94 90bc 73b3 babd
000001b0: 4fb5 a53e 557e 5e3c 24b5 86bc dafa ffbe
000001c0: 247f 1ebd eea5 8dbd 849c edbc 9b24 4f3d
000001d0: 48ca 393e 2621 aebc 8e3a 193e 1c4e ee3e
000001e0: f187 b93c 4236 9e3d abf5 c5bd 1110 8cbd
000001f0: 731a 333e 86d6 783e 8a85 8f3b e124 6dbe
00000200: fa66 c43d 0d3d bf3d 8b19 4ebd 91a4 1bbd
00000210: a903 353c fcc5 53bd 4f21 6f3e bc3e a23e
00000220: 28f8 593e 8bc3 62bd 5dbf 173e ee76 bf3d
00000230: ea52 5dbd a4f7 fabc 8817 193d fc4c e33d
00000240: 0e16 67bd be7c d2bc 33c4 c8bd 93bb 9c3c
00000250: 24af 883d 64b4 fe3e f58f 63be 626b 13bd
00000260: 4315 87bd 7049 093e 4617 8a3d d554 2fbd
00000270: 1fa7 1ebe 87ef 483c 6849 29bd 3f38 97bd
00000280: e156 5fbd 9b19 1c3e be26 6f3d da34 91bd
00000290: 21f6 303e f9ef b3bd 71a2 c13d 4db6 01bd
000002a0: 56d3 10be c387 6f3e 5cb9 70bd 4034 2cbe
000002b0: 0b44 96bd 16d6 99bd 5cc1 cebd 7175 e8bc
000002c0: 8c4a a83d 9c72 723e ff46 e1bc c2e2 fdbd
000002d0: c63d 95be 0a4f 903e 7234 1c3e ea30 a93d
000002e0: c08a 39bb e04b a3bd ec43 553d 40e4 1b3b
000002f0: 9a8e 0fbd 6f7f a5bd e2b9 0abd f020 0b3e
00000300: 80f2 a5be b521 eabc 87bc 4cbe 4363 80be
00000310: 6464 4dbe e067 a7be 880a c03c ee5e bfbe
00000320: 9a9d 93bd 5cf7 61bd 619b 55be 2462 e7bc
00000330: 0ace 2ebd fb1c 00be 69c9 ccbd a62d 93be
00000340: a625 98be cab1 11be 3a77 1cbe e889 83be
00000350: ef52 5bbe 3982 41be dfae 153e e732 88bd
00000360: 3762 93be 0eca 7abe 2a0a 68be 6c2a 64be
00000370: a649 4fbe 8140 a93e a660 1e3c eb84 62be
00000380: bf3e 90be 597a d6bd 5f9a 9abe 94bc adbe
00000390: 5c13 28bd 7318 b23d b47f 37be a3bf 90bc
000003a0: 21c3 82bd dfd8 18be 6b7c adbe e89f a0bd
000003b0: b971 9bbd 005d 443d 6408 dc3d b857 023d
000003c0: f876 03be a18d e43d a2eb 8a3d 1bed 2f3c
000003d0: 7050 d5bd 1f30 6d3d 003f c6bd 322e 09be
000003e0: c6a1 00be ef5f 2fbe 8765 04be a4e4 513d
000003f0: f6a6 403e 644e 0fbe aa7a d5bc 9474 2ebe
-0.0176564 -0.09160339 -0.11841934 -0.15576541 -0.22350618 0.09622242 0.0661911 -0.11296049
-0.18567866 -0.01557854 -0.054483585 -0.18627699 -0.16714464 0.0752423 -0.0049244137 -0.051954083
-0.16953431 -0.21792173 -0.13548666 -0.07080739 -0.09980375 -0.048606236 -0.09882675 -0.14077698
0.01028614 -0.05042586 -0.17877978 -0.14538181 0.04216647 0.057152182 -0.06562611 -0.0024658553
-0.012707632 -0.20274818 -0.07950304 -0.17047319 -0.08364258 0.034654174 -0.008228475 0.014169183
-0.03090213 -0.18428123 0.007982789 -0.07638949 -0.031329356 -0.06447242 -0.014091969 -0.030697264
-0.031471413 -0.25134045 -0.17994216 -0.0994704 -0.14786124 -0.15437843 -0.19535571 -0.099307016
0.094733685 0.014127102 -0.033270847 -0.04367849 0.06983503 0.09007281 0.12290443 -0.19385861
-0.02009577 -0.17181852 0.010450988 -0.031007499 -0.33913586 0.17448117 -0.18244672 -0.1364389
-0.10182039 -0.23624174 0.075585656 -0.018062657 0.11091692 0.08475907 0.18410954 -0.02348637
-0.005389395 -0.07081276 -0.045631185 -0.14496331 0.1505898 -0.00025166507 0.16560926 0.09169493
0.054393835 -0.09489807 -0.098974936 -0.11350244 0.0414266 0.12105447 -0.0090958625 0.14370295
0.09361041 0.09064407 -0.060054794 -0.06855187 0.20797274 0.16370921 0.019316481 -0.4008985
-0.08030375 0.2100805 -0.017649043 -0.091162585 0.3236489 0.013579925 -0.016443796 -0.49996072
-0.03869547 -0.06916414 -0.029005297 0.05057202 0.1814357 -0.02125604 0.14963743 0.46543968
0.02264783 0.077251926 -0.09665998 -0.06839002 0.17490558 0.24300584 0.004379933 -0.231586
0.09589954 0.093378164 -0.05031733 -0.03799874 0.011048236 -0.051702484 0.2335255 0.31688488
0.2128607 -0.055362266 0.14819093 0.09348856 -0.05403415 -0.030635662 0.037375957 0.11098668
-0.056417517 -0.025694247 -0.09803047 0.019132411 0.066740304 0.49747002 -0.22222884 -0.03599108
-0.06595852 0.1340692 0.0674272 -0.04280551 -0.15493439 0.012264139 -0.04132977 -0.07383775
-0.054526214 0.15244143 0.058386557 -0.07090159 0.1728139 -0.087860055 0.09454811 -0.031667996
-0.14143118 0.23391633 -0.058770522 -0.16816807 -0.07337197 -0.07511537 -0.10095474 -0.028376313
0.08217344 0.23676533 -0.027499674 -0.12396766 -0.29148692 0.28185302 0.15254381 0.08261283
-0.0028311461 -0.079734564 0.05206673 0.002378717 -0.035048105 -0.08080947 -0.033868678 0.13586783
-0.32411575 -0.028580526 -0.19993792 -0.2507573 -0.20057827 -0.32696438 0.023442522 -0.37377113
-0.072077945 -0.05516754 -0.20860054 -0.02824504 -0.042676963 -0.12511055 -0.099993534 -0.28745764
-0.29716223 -0.14227977 -0.15279856 -0.25691152 -0.21418355 -0.18897332 0.1461749 -0.06650334
-0.2878587 -0.2449114 -0.22660127 -0.22281808 -0.20242938 0.33057025 0.0096665975 -0.22121017
-0.2817287 -0.10472555 -0.301959 -0.33932936 -0.041034088 0.086960696 -0.17919809 -0.017669505
-0.06384874 -0.1492648 -0.33883986 -0.07843 -0.0759005 0.047940254 0.10743788 0.031821936
-0.12838352 0.11159826 0.06783225 0.010737683 -0.10415733 0.05790722 -0.09679985 -0.13396528
-0.12561712 -0.1712644 -0.12929355 0.05124344 0.1881369 -0.13994747 -0.026059467 -0.17036659

layer_1.bias f4 [400]
00000000: 7cb7 13be 3898 dc3c 6147 21bc eaa6 08bc
00000010: 1a95 cdbe 6219 a2bd f68e abbc d7ba c3bd
00000020: aa49 1fbe f861 583d 3eba 99bd 00e9 a03c
00000030: 94ed 03bc 15b4 02be 96a5 6bbd 70a1 7abe
00000040: 60d2 f9bd 5a78 0fbe aade 83be d70d 35bc
00000050: dddf b33c f0a1 4b3d 97ed 94be 992e 45be
00000060: 5753 51be d158 96bc 2229 afbd 2043 82bd
00000070: bc9d a3be bf27 86be 80fa 8abe 7088 95be
00000080: 9d02 b3bd d2c8 46be d194 3cbe 7044 02be
00000090: a520 8bbd 7b02 a3be 6687 273c efb6 58be
000000a0: d7c7 4cbe 0867 ddbd 1067 8ebe f132 aabd
000000b0: b040 b83d 1ca3 1bbe 48ea 013d e050 80be
000000c0: e3c8 09be 03ff 13be ce1b 1fbe ada4 1fbe
000000d0: 83a8 a4be 9db9 303d aeca 9f3c d84c b5bd
000000e0: 8009 cbbd 6f4b b4bb 83dd 00be 0cea e2bc
000000f0: fe6e b1bd e1db 66be 0805 62bd 5eb3 3bbe
00000100: d693 86bc 9f31 58be a30e 7abe b4a7 0bbc
00000110: 5889 693d b069 58be bcf6 c3bd 891b 34be
00000120: b8ea 89be 14d1 efbd c078 76be 67cf 713c
00000130: 15f4 48be 87f7 81be a511 a8bc b650 99bd
00000140: ab65 9ebe 82e6 12be c2ae 0dbd 6f22 42bd
00000150: 39f4 54bd 2ce9 03be ec33 62be 0ee2 14be
00000160: e4f7 8dbe fbaf 3c3c 687c 933d c637 06be
00000170: ca91 3b3d 74e0 8fbd 705b 30be 1e67 5dbd
00000180: afdd 2fbe 5d70 9e3c f021 9cbc 5ea3 493c
00000190: e0b9 3b3d 717f 70be 95d2 5cbd bfde a93d
000001a0: 90fd e7bc ed3c 423e 82bc 44be dad0 68bd
000001b0: efa8 9c3d 560e 983c 8a62 cabb 2377 dc3b
000001c0: a0f2 dcbd aa0a c5bd 820b 5dbe a8b7 47be
000001d0: e4ad 28be 505f aabb 1c39 29be 49b7 9abd
000001e0: 21e2 3c3d 6454 61be 9e12 78be fbfe 4ebe
000001f0: b121 70be ca02 1abe 72af c4bd bf9d ecbc
00000200: af9d f6bd 0b83 09be d6a8 dabd c6f0 42be
00000210: 358e af3c 958f 803d ad95 edbd e4d1 b93c
00000220: 6e17 e3bc d0d5 0fbe 6304 0dbe 48d1 36be
00000230: f6f3 113e 7152 1dbd 3967 3dbe 9169 22be
00000240: 30a6 61be 059f c43c 63f6 29bd 79f1 39bc
00000250: 2d5b 553e c8b3 ee3c 1d0a 5bbe 6cb7 2fbd
00000260: acb1 0bbe a52c fbbd 7738 d3bd 716b 01be
00000270: e357 b1bd 501c 20bd afab 10be 36f9 a73d
00000280: fe70 59be af11 75bd 7d14 11be 5475 9ebe
00000290: 5320 353d 4116 70bd ce30 823d 5c85 96bd
000002a0: 782e dcbd 5b68 a9bd 559f 72be 53c8 e8bd
000002b0: 498f b1bd c09a 72be 5d2f 8abd be35 eabd
000002c0: 20ac 31bd 39e1 223c ac77 acbc c1b9 d63c
000002d0: f5f5 cb3a 5ec4 44be c247 c8be 5536 dcbd
000002e0: cfd1 45be 5b32 9abd 75bb 0d3c 8dc8 1abd
000002f0: 0de6 43bd fba2 93be 6755 1ebe 6dbf abbe
00000300: c733 c5bd 3259 7bbe b3f4 0dbe 640a f9bd
00000310: a612 88bd 22a1 06be a0a4 103d ffd5 5cbd
00000320: 7500 4ebe 0b2d 98be 765a b7bc 0a00 29bd
00000330: 42f1 dbbd e3eb 64be a9a5 c4bc 300a a9be
00000340: fdd5 ca3d 5994 4cbe 986f b1be 7554 1fbe
00000350: a2f6 1f3d 8029 27be ba31 0ebe 0eae 9ebe
00000360: 169e f6bd 6d98 02be 470d 9abe 165a e1bd
00000370: fce9 bdbc 8060 673c 7486 91be 1042 06be
00000380: 33a4 a5bc 374a b33d f5f9 253d 92ba 07bd
00000390: fa9e ebbc f0d6 0ebc 105c 94be 4ce1 c7bd
000003a0: 77a2 0b3d df3e 65be 1025 22bd f90e a6bd
000003b0: e74e 46be c091 933d 9300 623c 17d9 17bd
000003c0: 33f3 69be 38df 3bbe 1922 c6be c567 d5bd
000003d0: ca46 46be 7547 81be 218a cbbc 9ff5 6dbe
000003e0: d88b 7bbc c32a f2bd 885c 0b3e 5948 abbd
000003f0: 9288 aebd ae3b 23be 5b6b 85be 9114 5abe
-0.14425462 0.026928052 -0.009843678 -0.008340577 -0.40152818 -0.07914998 -0.020942193 -0.09557121
-0.15555444 0.052827805 -0.07506226 0.019642353 -0.0080522485 -0.12764008 -0.057530962 -0.24475646
-0.12198329 -0.14010754 -0.25755817 -0.011050663 0.021957332 0.049714983 -0.29087517 -0.19256057
-0.20441948 -0.018352898 -0.08552767 -0.06360459 -0.3195628 -0.262022 -0.2714424 -0.29205656
-0.08740733 -0.19412544 -0.18416144 -0.1272142 -0.06793336 -0.3183783 0.010225153 -0.21163534
-0.19998108 -0.10810667 -0.27813005 -0.083104976 0.08996713 -0.1519894 0.03171757 -0.25061703
-0.13455538 -0.14452748 -0.1553795 -0.15590163 -0.32159814 0.043145765 0.019505825 -0.088525474
-0.09913921 -0.0055021564 -0.125845 -0.027699493 -0.08663748 -0.22544815 -0.05518058 -0.18330142
-0.016427916 -0.21112679 -0.24419646 -0.00852387 0.057015747 -0.21134067 -0.09568545 -0.17588629
-0.2693689 -0.117098 -0.240695 0.014758921 -0.1962436 -0.2538416 -0.020516226 -0.074860975
-0.30936942 -0.14345744 -0.03459049 -0.04739612 -0.05199072 -0.12881917 -0.22090119 -0.14539358
-0.27728188 0.011516566 0.07201463 -0.13107213 0.045793332 -0.07025233 -0.1722238 -0.05405342
-0.1717441 0.019340688 -0.019059151 0.012307016 0.04583156 -0.23486115 -0.053911764 0.082944386
-0.02831915 0.18968554 -0.19212535 -0.0568398 0.07649409 0.018561523 -0.0061762976 0.0067280694
-0.107884645 -0.09621175 -0.21586421 -0.19503653 -0.16472584 -0.0051993504 -0.16525692 -0.0755449
0.04611409 -0.22004849 -0.24225852 -0.20214455 -0.23450352 -0.15040126 -0.09603776 -0.028883813
-0.120417945 -0.13428895 -0.10676734 -0.1903716 0.021430114 0.06277386 -0.11600814 0.022683091
-0.027721133 -0.14046407 -0.13771205 -0.17853272 0.1425322 -0.0384087 -0.18496408 -0.15860583
-0.22036052 0.024001608 -0.04149474 -0.0113490755 0.20835562 0.02913846 -0.21390577 -0.042899534
-0.13641995 -0.12264375 -0.10313504 -0.12638642 -0.08659341 -0.0390895 -0.14127992 0.0820183
-0.2123451 -0.059831318 -0.14167972 -0.3094889 0.04422028 -0.058614973 0.06356965 -0.07349655
-0.10751051 -0.08271857 -0.23693593 -0.11366334 -0.086699076 -0.23691845 -0.06747315 -0.11436032
-0.04337704 0.009941393 -0.021053158 0.026211621 0.0015560972 -0.19215533 -0.39117247 -0.107525505
-0.19318317 -0.07529136 0.00865065 -0.037788916 -0.047826815 -0.28835282 -0.15462266 -0.33544484
-0.09629016 -0.24545744 -0.13862877 -0.12160185 -0.06644182 -0.13147405 0.03531325 -0.05391502
-0.20117362 -0.29721865 -0.022382002 -0.041259803 -0.10739376 -0.22355609 -0.024004774 -0.33015585
0.09904096 -0.19978465 -0.34655452 -0.15559562 0.039053567 -0.16324425 -0.13886157 -0.30992168
-0.12041871 -0.12753458 -0.30088255 -0.11003511 -0.023182862 0.0141221285 -0.28422892 -0.13111138
-0.020219898 0.0875439 0.04052158 -0.03313691 -0.02876233 -0.008718237 -0.28976488 -0.09759769
0.034090485 -0.22387265 -0.039586127 -0.081083246 -0.19366036 0.07205534 0.013794082 -0.037072267
-0.2284668 -0.1834687 -0.3869789 -0.10420183 -0.19362941 -0.2524983 -0.024846138 -0.23238228
-0.015353166 -0.118245624 0.13609517 -0.083634086 -0.085221425 -0.15940735 -0.26058468 -0.21296908

layer_2.weight f4 [300, 400]
00000000: 0d0b 8cbd 2407 94bc 0e07 b0bd 2fe1 d7bc
00000010: 3fb9 34bd ecc9 8c3b b8e6 513d f767 13bd
00000020: 7918 40bd 0fa5 a5bd 689d 72bd c63f 9e3c
00000030: a8cd 813a a88c 8abd d80d 33bd 2cb1 3dbd
00000040: a2a4 293d 41c5 bfbc b2ce 0fbd 7160 9cbd
00000050: cc70 81bd 800c c1bc 40ae 83bd d7aa c1bd
00000060: 7cad cbbc a7df 1fbd 076f 86bd 22a7 70bd
00000070: 1878 9f39 6ceb 55bd baa2 5dbd edfe 61bc
00000080: 3cea 30bd 1549 ccbc f327 acbd 9f29 83bd
00000090: b940 2bbc 474f 9b3a d97f 8dbd 880c 2abc
000000a0: 2c68 8abc c69b dc3c f620 b5bd 0e9b acbd
000000b0: 8951 a5bd 9d5d aebc c1e5 bebc b5f2 68bc
000000c0: 8ecc 8fbb cb0b e5bb fb53 523d 168c 22bd
000000d0: a1bb d7bc 0335 99bd 98c8 babc c599 30bd
000000e0: f8d3 363b 3c48 4cbd 8fba f93c 8bae 4d3c
000000f0: 7f47 523c 2dd2 a1bd e705 cc3b d731 d53c
00000100: 8232 acbd 22ff 243c 756d 003c 6082 8cba
00000110: 05bb 77bd e4f9 fb3b 3456 e83b 638a 85bd
00000120: 85a0 803c 7e3c 5fbc 3f70 50bd 8d80 0f3c
00000130: e269 79bc ebd7 7abd 9c45 26bd 2a38 e23a
00000140: 565e 043c e5ba 8bbb c249 e33b 014a 883c
00000150: 55c5 7b3c f52a 5dbd 6881 3cbd 0dc8 e23c
00000160: 3463 23bd c3e6 28bc 6ee3 94bd 6106 4a3c
00000170: afb3 c2bb 0263 0b3c d210 35bd 35fc 34bd
00000180: cf6c 02bd 7b43 eebc 313f 1c3c 67b9 fc3b
00000190: 08ec 77bd 1d25 033c c701 f93b 54df d7bc
000001a0: 23bd f4bc 5794 20bd 234b 40bd 9e7a 4dbd
000001b0: 1d7f 633d adce c5bc f4f8 58bc 2938 87bc
000001c0: 3b51 743c 0c43 8abd 959c 84bc e9c1 223c
000001d0: 4951 3cbd eaa8 35bd 879d 73bd 490e 54bc
000001e0: 2853 65bd 859c 113c 6bd1 a4bd 17d1 963c
000001f0: e7fa cfbc 57fa 493a b65a 60bc 2df5 4dbd
00000200: 528d c5bc ace2 a4bb 6a67 a6bd f857 93bd
00000210: 2d4a d7bc 70bd 37bc 1ba3 fbbc 1ae6 99bd
00000220: 39a5 ee3c a24e 3dbd 62d7 09bc 5fa9 95bd
00000230: 3bb8 39bd 8572 963b c9cf 0f3d 398b 0cbd
00000240: 8d1b f0bc a2a9 40bd 40b5 db3b 1180 edbc
00000250: 84eb 95bb f563 9cbc 4fea 4abc 8614 7ebd
00000260: 9485 f8bc e56e 983d 6f08 993d de79 f8bc
00000270: 32a6 83bc 6c86 9bbd 745e b53c 672d 79bc
00000280: a887 123d ad68 b2bc acaf 81bc 065a 0dbd
00000290: 2c7b aa3b a293 a4bd cc18 58bd 4e77 93bb
000002a0: 7c30 843c 685b a1bd b1c5 6cbd e57a 16bd
000002b0: ceed f93c 03e5 34bd c7aa 3ebb 19f2 3bbc
000002c0: bb00 edba 105a 3fbc 9aa4 84bd 931e efbc
000002d0: ae57 abbd 71ee a2bb d047 32bd e8e7 94bd
000002e0: 489d 98bd c3be 6d3c 8b29 b63c d3b5 133d
000002f0: 997e 9ebc 65e3 1abd 330f c5bc 9aa5 96bd
00000300: 4f21 8f3c 3378 82bd 6ec1 92bd 1fa4 5abd
00000310: 2332 6abd 2125 b23b 8575 8abc c654 103d
00000320: dcb8 823c a362 1cbd a410 57bd 1dab 303d
00000330: 073e 5ebd 5655 83bd db63 7abc bdd9 f0bb
00000340: 3c6e b2ba 56b9 083c 9798 73bd 4e6b 52bd
00000350: 98d4 3bbc ae66 72bd b149 80bd 95d2 383b
00000360: 20cd f1bc 48cf 38bd 1085 5ebd 0412 11bd
00000370: 29d7 9dbd a0a1 fdbb c47f 86bd 482f 153c
00000380: 2201 29bd 62da 69bd 0379 59bc 3d02 a0bb
00000390: 9509 a43c ae6e 32bd 2fec 733c 5b5b a9bd
000003a0: cd92 a73c aea9 6bbd 8fc6 36bd e48b 56bd
000003b0: 922c c73b 6cfc a53b 2f09 6dbd 6545 49bd
000003c0: 3549 81bd d7f8 a2bc 12fc 1dbd e73e 8cbc
000003d0: ef5e ea3c 085c 5cbd 6966 723d 00f6 373c
000003e0: 09dd b4bd 7d32 27bd b95a c3bd 374c e73c
000003f0: 518e 96bd 71fb 22bd db2a 0c3c 68fe 86bd
-0.06838045 -0.018069811 -0.085950956 -0.026352493 -0.044121977 0.004296532 0.05124542 -0.03598782
-0.04689834 -0.08088123 -0.059232146 0.019317519 0.0009903209 -0.06765109 -0.043714374 -0.046311542
0.04141677 -0.023409488 -0.03510923 -0.07635582 -0.063203424 -0.02356553 -0.0642972 -0.09456413
-0.024862997 -0.03903165 -0.065641455 -0.05875314 0.0003041632 -0.05222647 -0.054110266 -0.013793689
-0.043192133 -0.024937192 -0.08406057 -0.06404423 -0.010452443 0.0011849188 -0.06909151 -0.010378964
-0.016895376 0.026929747 -0.088441774 -0.08428012 -0.08072192 -0.021284873 -0.023302915 -0.014218022
-0.0043883985 -0.006989931 0.05134962 -0.039684378 -0.026334586 -0.07480814 -0.022800729 -0.043115396
0.002789734 -0.049873576 0.030484466 0.012553821 0.012834429 -0.07901416 0.0062262896 0.026024742
-0.08408071 0.010070594 0.007838597 -0.0010720007 -0.06048109 0.0076897014 0.0070903543 -0.06520536
0.015701542 -0.013625262 -0.050888296 0.008758676 -0.015222998 -0.06124107 -0.04059373 0.001725917
0.008079132 -0.004264223 0.006936283 0.01663685 0.015366872 -0.053996045 -0.04602185 0.027683282
-0.03988953 -0.010308924 -0.07269941 0.012330622 -0.00594183 0.008507492 -0.044205494 -0.044185836
-0.03184205 -0.029084912 0.00953655 0.0077125314 -0.06052783 0.008004454 0.007599089 -0.026351608
-0.029875344 -0.039203968 -0.046946656 -0.050165765 0.055541147 -0.024146402 -0.013242949 -0.016506271
0.014911945 -0.067510694 -0.016187945 0.009933927 -0.045975957 -0.044350542 -0.0594764 -0.012942859
-0.055987507 0.008887415 -0.08047756 0.018410249 -0.025388194 0.0007704845 -0.013693502 -0.050282646
-0.024115238 -0.005031904 -0.081251934 -0.07194513 -0.026280487 -0.011214599 -0.030717423 -0.075145915
0.029131519 -0.04621757 -0.008413168 -0.073076956 -0.04534171 0.0045912885 0.03511027 -0.03431246
-0.029310012 -0.047036774 0.0067049563 -0.02899173 -0.004575195 -0.019090632 -0.012384965 -0.06203129
-0.030337133 0.074430265 0.07472312 -0.030331548 -0.016070459 -0.07593998 0.022139765 -0.015208579
0.035773903 -0.021778429 -0.015830837 -0.03450968 0.0052026715 -0.08035971 -0.052758023 -0.004500306
0.0161364 -0.078787625 -0.05780572 -0.036738295 0.030508902 -0.044163715 -0.002909349 -0.011471295
-0.0018081883 -0.011679187 -0.06476708 -0.029189384 -0.08366333 -0.004972272 -0.043525517 -0.07270795
-0.07451874 0.014510813 0.022236606 0.036062073 -0.019347476 -0.037814517 -0.0240551 -0.07355805
0.017471937 -0.063705824 -0.071658 -0.053379174 -0.05717672 0.005436555 -0.01690174 0.035237096
0.015957288 -0.038180005 -0.052506104 0.043131936 -0.054258373 -0.06412761 -0.015282596 -0.007350175
-0.0013613175 0.008344969 -0.059471693 -0.051371865 -0.0114642605 -0.059179954 -0.062640555 0.0028201689
-0.029516757 -0.045119554 -0.054326117 -0.03541757 -0.07707054 -0.0077402145 -0.06567338 0.009105511
-0.041260846 -0.05709303 -0.01327348 -0.0048830793 0.0200241 -0.043562584 0.0148878535 -0.08269378
0.020455742 -0.057534866 -0.044622954 -0.052379504 0.0060783112 0.0050654914 -0.057870086 -0.049138445
-0.06312791 -0.019894047 -0.03857047 -0.017119838 0.028609721 -0.053798705 0.059179697 0.011228085
-0.088312216 -0.040819634 -0.09538788 0.028234584 -0.073513635 -0.039790574 0.008555139 -0.06591493

layer_2.bias f4 [300]
00000000: 0582 3fbd 79bf 833d 9bdc 7bbd 16ae 5fbd
00000010: 7e7c e23c 7c40 4bbe d5d4 febc 50e0 9c3c
00000020: a887 b2bd 621e 203d 30eb d43d 8ef9 eb3d
00000030: 5de8 413c cd80 03be 003f fd3c 9b13 87bd
00000040: f337 b0bc 3ec5 4dbd 2bb8 a1bd 34dd a23c
00000050: f04d 2fbd a879 8dbb 539a 45be e95a abbd
00000060: 5ef2 72bc 8ffa 1d3c 15a9 5fbd 0122 54bd
00000070: 4553 313c be4d 063d 1c15 3fbc 9e46 bcbd
00000080: 95bb 1bbc 7d20 5bbd 756f a23d 0bc7 6cbd
00000090: a859 4abe 409e 1fbd f312 73bd 410e 963c
000000a0: 6130 303c 5c49 75bd dd56 f33c 92cb 10bd
000000b0: ceef a0bc e63d 693c a0c3 19bd 0d49 62bd
000000c0: dc63 49bd da9c 67bd 9774 83bd 1d9c 5e3e
000000d0: 4e97 57bb 1683 c23c ca59 c6bd 4874 4cbe
000000e0: f48a 06bd 4e62 d4bd 5a05 63bb 08bf 6dbd
000000f0: 071f 60bd c3cf 9bbd 1b0c 3e3e 1d4c 01bb
00000100: 4305 2ebd cc33 9f3d ac39 fabd dd93 d8bc
00000110: 1c71 1cbe 09e0 ffbd 191f 5dbd 86e0 a43e
00000120: 43b1 613d 8c42 9abd b070 8ebd b1d0 21be
00000130: c4a3 94bc 7b86 98bd 88c1 3c3e 2624 b8bd
00000140: 42ac de3b 0a42 2cbe 0ba7 813d 49cf 89bd
00000150: 5b58 80bc 8000 b6bc 6115 5cbd d546 3abd
00000160: 209a a73d db5b 92bd fad5 8abc 6e67 a03c
00000170: d46d 7cbd 7972 75bd 2f2c 70bd d798 00be
00000180: ef11 4bbd 0ce8 bcbc a58d 19bc 04b2 a2bc
00000190: c986 fcbc 55c4 25bd 4cbc 17bd 0ec9 2ebe
000001a0: 2dbf 61bd 390a 62bd ee3a 86bd 0a3a 7ebd
000001b0: d966 2abc e81f 453c e4f2 13be 317b 92bd
000001c0: 1a21 bf3c ac25 c8bd 35c0 173b 08bb 21be
000001d0: cf3a 01be ee9a 5ebd 57c3 27be dc88 3ebe
000001e0: 79e5 493d bb5c 48bb 51d1 1dbe 29e6 5cbd
000001f0: fb27 65be 9d66 edbc 5c80 3e3a 1700 ecbd
00000200: 92d4 c5bb 8bac 273c 1eeb ddbc d3f5 8ebb
00000210: 43e6 c8bd 0ec5 803d 3a31 593e 8f62 00bc
00000220: 7ab2 45be 83ad bbbd 8c9c e4bd 3370 8dbc
00000230: 4fae 4fbc e57f b83d cfd7 cbbd ffc5 e23d
00000240: 1ac4 7dbd 4d64 02bd e750 4e3e a249 eabd
00000250: 486c 80be 1074 3bbd 2cbe 44be 5b2d f6bd
00000260: de86 30bd 4d43 b3bc 6cbc 34be 4b7a ce3d
00000270: b1f9 71bc 9ee3 ef3b 7b4a 813d a45f 12bd
00000280: 5f1c 8ebd 7f07 a5bb 73fd 97bd 5ba8 f8ba
00000290: 0ea8 2dbe 88fe 123d 4453 8abd c01c 3ebe
000002a0: 6357 f13c 3627 b03a 24ac a2bd b8f4 cabd
000002b0: fffc 0cbc 2e1b 19bd 80da 13bd c17b 2cbd
000002c0: b08d 0abd 966e 303d 63e7 60bd 7617 0abe
000002d0: a7d3 84bd 052d 293e fd68 aebc ec65 57bd
000002e0: 89f7 2e3d e8a3 83bc 9b48 3abc 8832 1ebd
000002f0: b2f2 05bd be69 b8bd 12b7 00bd 3f66 acbd
00000300: 5ab6 0aba 6bd4 1bbe 1239 9fbd bb2b dfbc
00000310: 1c8a 1abe af74 40be 8ae3 1dbe d2a3 3abd
00000320: ff67 b7bd 69f8 76bd dab9 cb3d db2f 83bb
00000330: 0974 82bd a74d 92bd 8e45 78be f72e 1bbd
00000340: 1534 06be ea74 983d 4038 15bd c665 abbc
00000350: 40e9 bbbb a59f a73d 0b11 0ebd 7cfd 6e3d
00000360: 90fb aabd c60c 5b3e ffad e9bd 86f5 cebd
00000370: 76cb 3fbd 7a3b 803d d224 2ebd 32cb b3bd
00000380: aa0a ffbc 1220 2ebc b933 54bd 586d 40be
00000390: 2948 02bd 337d ecbc cc32 ca3c 07d7 81bd
000003a0: dbf4 453d 7e2c bb3b 4202 433c 4e77 0fbd
000003b0: 016c 45bd 637f 943d 0fa8 3a3d 413c 0ebd
000003c0: 492b 1fbe 479a 9dbd 6e07 2bbc 7668 e5bc
000003d0: 587e 7abd 90d9 52bc 50fc 22be 2755 8abc
000003e0: da51 a9bd c6b9 e23d 6191 b03d 2b38 31ba
000003f0: 58df 94bd 49b9 21be 7594 9bbd e792 7fbd
-0.046754856 0.06433005 -0.061489683 -0.05460938 0.027647253 -0.19848818 -0.031107346 0.01914993
-0.087172806 0.039091475 0.10396421 0.11522208 0.011835185 -0.12842102 0.03091383 -0.06595536
-0.021511054 -0.050236933 -0.078964554 0.019880868 -0.042798936 -0.004317481 -0.19297151 -0.08366949
-0.014828293 0.009642257 -0.05460461 -0.05179024 0.010823076 0.032788984 -0.011662748 -0.09193157
-0.009505172 -0.05349778 0.07931415 -0.05780701 -0.19760764 -0.03896928 -0.059344243 0.018317344
0.010753722 -0.059884414 0.029704506 -0.03535039 -0.019645598 0.014235949 -0.03754008 -0.055245448
-0.0491675 -0.05654607 -0.06418722 0.2173924 -0.003289658 0.023744147 -0.09685095 -0.19966233
-0.03284736 -0.10370313 -0.003464064 -0.05804351 -0.05471709 -0.07607987 0.18559305 -0.0019729205
-0.042485487 0.07773551 -0.12218031 -0.026437694 -0.15277523 -0.12493903 -0.053984735 0.32202548
0.05510069 -0.07532224 -0.06955087 -0.15802266 -0.018144496 -0.07447525 0.18433201 -0.0899127
0.006795437 -0.16822067 0.06330689 -0.0672899 -0.015667131 -0.022217035 -0.053731326 -0.045477707
0.08183694 -0.07146426 -0.016947735 0.01958057 -0.061628178 -0.059923623 -0.058635887 -0.12558304
-0.04957765 -0.023059867 -0.00937215 -0.019860275 -0.03082599 -0.04047044 -0.03704481 -0.17068884
-0.05511396 -0.05518553 -0.06554209 -0.06206707 -0.010400497 0.012031533 -0.14448124 -0.07152403
0.023331214 -0.0977281 0.0023155336 -0.15794003 -0.1262009 -0.05434697 -0.1638311 -0.18606895
0.049291108 -0.003057285 -0.15411879 -0.053930435 -0.22378533 -0.028979594 0.0007267052 -0.11523455
-0.0060373032 0.010234009 -0.027089652 -0.0043628006 -0.09809544 0.06287585 0.21210185 -0.007835998
-0.19306365 -0.09163954 -0.111626714 -0.017265415 -0.012675836 0.09008769 -0.099532716 0.11072921
-0.061954595 -0.031833936 0.2014805 -0.114398256 -0.25082612 -0.045764983 -0.1921317 -0.120203696
-0.04309737 -0.021882677 -0.17650002 0.10081919 -0.014769004 0.0073208353 0.06313034 -0.03573574
-0.06939005 -0.005036294 -0.074213885 -0.0018971072 -0.16958639 0.03588727 -0.06754163 -0.18565655
0.029460615 0.001343942 -0.079429895 -0.09909958 -0.008605241 -0.037379436 -0.03609705 -0.04211021
-0.03382653 0.043074213 -0.054908168 -0.13485512 -0.06485682 0.1652108 -0.021290297 -0.052587435
0.042716537 -0.016069368 -0.01136985 -0.03862241 -0.032702155 -0.09004544 -0.03142459 -0.084179394
-0.0005291455 -0.1521775 -0.07774557 -0.027242532 -0.15091747 -0.18794511 -0.1541883 -0.045566387
-0.089553826 -0.060295496 0.09947558 -0.0040035076 -0.06369788 -0.07143717 -0.24245283 -0.037886586
-0.13105805 0.074441746 -0.036430597 -0.020922553 -0.0057345927 0.08184747 -0.034684222 0.05834721
-0.08348763 0.21391591 -0.1141014 -0.10105424 -0.046824895 0.06261344 -0.042515583 -0.08778991
-0.031133015 -0.010627763 -0.05180714 -0.18791711 -0.0318071 -0.028868293 0.024682425 -0.06339841
0.048329215 0.005712091 0.011902394 -0.035025887 -0.048198704 0.072508596 0.04557043 -0.03472543
-0.15543856 -0.07695442 -0.010438783 -0.028003912 -0.061155647 -0.012869254 -0.15916562 -0.016886307
-0.08267565 0.1107059 0.08621479 -0.0006760384 -0.07269162 -0.15793337 -0.07596675 -0.062395956

layer_3.weight f4 [6, 300]
00000000: 2ba6 25bd 1635 84be 082d 54bd 10d0 05bd
00000010: f45b 31be f2de dabe bd3f 1fbb 3bcd 4ebd
00000020: e953 13bd 41b2 81bf 1eb8 87be ad28 73bf
00000030: dc24 7b3c 639c 63bd ff8c 8cbe ab40 8cbd
00000040: c1b6 ee3b 284b 97bd ca48 55bd 3263 ac3b
00000050: 73aa 74bd 1e80 893c 609d 8dbd d70c 5ebd
00000060: 3384 fd3c ea56 30bd 144e ccbe 1ae9 d13c
00000070: 6f2f 953b a0d5 8bbe 12cf 96be 565e 82bd
00000080: 07a3 e13c b16d 043d 2163 60be 8d9b 01be
00000090: cb9d b43c 76e5 01bd be87 ac3c adc3 ffbd
000000a0: 783f 1b3d 0431 b6bc 55d1 24bd 52bf 023d
000000b0: aa31 3f3d 3bf7 0dbf 54e6 05bd 42e4 21bd
000000c0: fc1d 253d 146e 25bc cb4a e7bc f9d8 5cbf
000000d0: 7dc7 a8be bea1 bcbc ddcd 77be 149d e6bd
000000e0: 5f91 efbd 1fc0 01be 855f f73c fc98 aebd
000000f0: 282e f03c dd8e ecbc fcd5 55bf 54ac 98be
00000100: e390 3dbd 0e5a 02be 2046 193d 593e 14bd
00000110: 21e0 94bd e322 85bd 375c 183d 2183 babe
00000120: 0941 35be ac3a e2bc f51f 07bb c1db 9bbe
00000130: 37a2 0abe 053c 66bd 227f 9cbe 6f9e 4b3c
00000140: f88a d4be 7cdd ecbd f8d4 4bbe e786 013d
00000150: d6c8 43bc f406 8bbc 9920 e43c 8188 2e3d
00000160: d4e1 c0be 5d1a 49bd c7e0 c5bc b477 8bbe
00000170: 18c6 df3c ff49 41bc 3668 8dbd 66ba 1dbc
00000180: 118d 31bd 1894 94be b947 63bd 578c db3a
00000190: 44e0 033d e2f5 17bd b854 19bd 9926 63bd
000001a0: c16d 633d a771 553d 8859 27bc 5fd6 6c3d
000001b0: c0c1 303c 7182 e43c 01d6 05be d807 adbe
000001c0: 9b69 dab9 0ac9 41bd ea6a c0bc 76e8 50bd
000001d0: 26ad d03c b63e 51bd 4f05 15be 7fdc 05bb
000001e0: 8959 aabc 8056 b2bc ee06 2cbe fa9f 42bc
000001f0: 7136 c4bd 7620 893c 1875 ebbc 83f3 f6bc
00000200: 66a4 84bd 8247 4dbc 6b90 563d b6cb 18bc
00000210: c3d3 7bbd ace8 15be d81d 29bf bda3 4ebd
00000220: 1e5d d9bc f83e 86bd 838c 79bd 8695 3abd
00000230: 28f2 baba aa26 1abf 4eaf ea3c 0e10 d7be
00000240: 95a9 0d3d c30b 28be 8461 abbe f201 fcbc
00000250: 406b 4dbd de45 3d3d 483a 0c3d 9005 dd3c
00000260: 16eb 8a3c d9a5 1e3d ae06 e8bc b31c cabe
00000270: d4f2 1d3a 55bd 76bb d2b7 38bf e391 febe
00000280: f653 f7bc eb65 71be 4ce2 1b3d a6d9 273d
00000290: 2a84 3abc 1840 87bd c547 e8bc 8668 11bc
000002a0: 36c8 033c a5b5 c53c 2a78 0dbd 57ce 93bd
000002b0: 28ef c5bc f724 29be 504f 703d c851 a93c
000002c0: 65ab a5bc 7b9a 4bbd 092b 5a3d dc2d f6bb
000002d0: 4ea0 163d 9e67 66be ca57 c5bd 91fd f93c
000002e0: 6c77 b1be 619b 05be 3d17 5e3d 1bea 3abd
000002f0: af82 013d 6a91 9bbc c0c1 2cbd f88a 263c
00000300: e58c 32bd 08cd 06be 743f dbbd 0e40 bdbd
00000310: 3a3a eebd e5de 45bd 49f9 b3bd 19c0 f23c
00000320: dfde 253d 1337 94bc e9d4 6fbd 702e c53c
00000330: 6012 8cbd d071 8abb 6d18 2bbd a3eb 46bb
00000340: 6a4a f1bc 1f2d 70be fe68 c73c 1649 0dbd
00000350: ee5e 37bd a020 c5bc 5cd8 953c 97dd 6dbe
00000360: 208a 48bb 4b64 99bf 350e c0bd 45e8 763c
00000370: c7e0 a4bd ea27 59be 7654 86bb 80ce 233d
00000380: 5747 a5bd 21db 9abc 95dc f0bd eecf 23be
00000390: 344f 82bd c5b5 6c3c ee31 6e3c 41e9 f3bd
000003a0: 21fd 543c d75e 033c 499d 723d 74cc ea3c
000003b0: 295f 8d3c 17d2 85bd 2de7 ffbd 1085 21bd
000003c0: 328f 4abd 42d9 4b3d d0e9 2abc ce15 a8bc
000003d0: 2f6a 6a3d 4f01 553d 1f15 033c 169a 233d
000003e0: aa70 223c 51b7 2abf 7d21 97be 5b98 813d
000003f0: 9c65 54be 1890 eebd 0b51 d0bc 1fe5 56bd
-0.040441673 -0.2582175 -0.051800758 -0.032669127 -0.17320234 -0.4274822 -0.0024299466 -0.05048869
-0.035968695 -1.0132524 -0.26507658 -0.9498394 0.015328612 -0.055569064 -0.2745132 -0.06848272
0.0072849696 -0.07387382 -0.05207137 0.0052608484 -0.059732866 0.016784724 -0.069147825 -0.054211464
0.030946827 -0.043051638 -0.3990332 0.025623847 0.0045527737 -0.2731142 -0.29454857 -0.063656494
0.027543558 0.032331172 -0.21912815 -0.12656994 0.022047898 -0.03171297 0.02106082 -0.12488494
0.037902325 -0.02224017 -0.040238697 0.03192074 0.046678223 -0.5545537 -0.03269036 -0.039524324
0.0403118 -0.010097045 -0.028233906 -0.86268574 -0.32964697 -0.023026343 -0.24199624 -0.11260429
-0.11697649 -0.12670945 0.030196914 -0.08525273 0.029318884 -0.028876716 -0.8352964 -0.29818976
-0.046280753 -0.12729666 0.037420392 -0.03619227 -0.07269312 -0.06500795 0.037197318 -0.36428168
-0.1770059 -0.027615868 -0.0020618413 -0.30441096 -0.13538443 -0.056209583 -0.30565745 0.01242791
-0.41512275 -0.11565682 -0.1990546 0.031622794 -0.0119497385 -0.016971089 0.027847575 0.04261065
-0.37672293 -0.049097408 -0.024155034 -0.27239764 0.027316138 -0.011797427 -0.06904642 -0.00962696
-0.043347422 -0.29019237 -0.055488322 0.0016750199 0.0321963 -0.037099726 -0.03743431 -0.05545673
0.05552459 0.05211034 -0.010214217 0.057821628 0.010788381 0.02789423 -0.13069917 -0.33795047
-0.00041658882 -0.047310866 -0.02348848 -0.051002942 0.025473189 -0.051085196 -0.14552806 -0.0020425615
-0.020794647 -0.021769762 -0.16799518 -0.011878962 -0.095806964 0.016739111 -0.028742358 -0.030145412
-0.06476669 -0.012529256 0.05238382 -0.009325912 -0.06148125 -0.14639539 -0.6606116 -0.05044912
-0.02653366 -0.06554979 -0.060925018 -0.045552753 -0.0014262842 -0.60215247 0.028648045 -0.42004436
0.034585554 -0.16410737 -0.33472836 -0.030762646 -0.05015111 0.04620921 0.03423527 0.026980191
0.0169578 0.038732383 -0.028323498 -0.3947502 0.0006025259 -0.0037649472 -0.7215549 -0.49720678
-0.030191403 -0.23574035 0.03805761 0.04097905 -0.011384049 -0.06604022 -0.028354535 -0.008875018
0.0080433395 0.024134466 -0.034538426 -0.072170906 -0.02416189 -0.16518007 0.05866939 0.02066888
-0.020223329 -0.04970787 0.053263698 -0.007512791 0.036773972 -0.22500464 -0.09635885 0.030516418
-0.34661424 -0.13047554 0.05422138 -0.045633417 0.03161877 -0.018990237 -0.042176962 0.010164969
-0.0435914 -0.1316415 -0.10705462 -0.09240733 -0.116321996 -0.048308272 -0.08787782 0.029632615
0.04049575 -0.018092668 -0.058552656 0.024069995 -0.06839442 -0.0042249933 -0.04177134 -0.0030352853
-0.029454429 -0.23454712 0.024342056 -0.03449353 -0.044768266 -0.024063408 0.018291645 -0.23229061
-0.0030599907 -1.1983732 -0.0937771 0.015070026 -0.080506854 -0.21206632 -0.004099424 0.039991856
-0.080702476 -0.018903317 -0.11760823 -0.15997288 -0.06362763 0.014447634 0.014538271 -0.11909724
0.012999804 0.008018217 0.05923203 0.028661944 0.01725729 -0.06534212 -0.12495265 -0.03943354
-0.049452968 0.04976774 -0.010431722 -0.02051821 0.05723017 0.0520032 0.008000641 0.03994187
0.0099145565 -0.6668597 -0.29517737 0.063278876 -0.20741886 -0.116485775 -0.02542927 -0.0524646

layer_3.bias f4 [6]
00000000: fb3c 04bf 40dc bf3d f96f b53d 7000 a1be
00000010: 41dc e4be c5b5 54be
-0.5165555 0.09368181 0.08859248 -0.31445646 -0.4469929 -0.20772465
