models/all_td3/TD3_TradeingEnv1_42_100_critic_2.pth (torch, 551839 bytes, 5 tensors)

layer_1.weight f4 [400, 41]
-0.46960083 0.42744058 -0.51945096 -0.3362986 -0.44924405 0.082618974 0.24884051 -0.3250204
0.099538654 -0.39027494 -0.22222017 -0.36376837 -0.081677504 -0.3785882 -0.21911663 0.36103034
-0.3698305 -0.17397505 -0.29120985 -0.6355257 0.20090187 -0.15439607 0.22120412 -0.4460748
-0.44713798 0.13440116 -0.11073559 -0.0199491 -0.178669 0.19673117 -0.15831651 -0.35755914
-0.15569063 -0.18750432 0.31918743 -0.013636306 0.098206416 0.17292325 0.10412851 0.375235
-0.19791903 -0.34868485 0.13044272 -0.16824153 -0.2146036 -0.11287837 -0.07631758 -0.13516098
-0.4427611 0.19944665 -0.40496805 -0.22962837 -0.07545788 -0.07625887 -0.03734828 0.13335265
0.24377313 0.15376368 -0.021728445 -0.27125722 0.14890182 -0.05064432 -0.19594629 0.11866884
-0.22642381 -0.19728051 0.17588381 0.0059050415 0.79942095 0.007512328 0.10653417 -0.22446306
0.007949909 0.7448621 0.049958237 0.31502992 -0.08469311 -0.07936264 -0.10649724 -0.076357506
0.06769427 0.0039229942 -0.28947008 0.019276768 -0.24998413 -0.20810235 0.25013283 -0.063646495
-0.1326971 0.1523753 -0.15763669 0.34412754 0.26009706 0.26537788 0.0062697115 0.28753585
-0.15508813 -1.0688982 -0.028956458 0.045851305 -0.7857672 -0.027610023 -0.049974885 0.10997675
-0.43170127 -0.07320016 0.06755265 -0.2828383 0.13915683 -0.39666298 -0.079202786 -0.49584186
-0.13472708 -0.2783272 0.24693274 -0.08178446 -0.32695404 0.02709898 0.0022875147 -0.016639667
0.013120274 -0.06322427 0.01976669 -0.34049293 0.6309532 -0.33155924 -0.121756256 -0.1954715
0.20075408 0.18101981 -0.109801814 -0.14695826 -0.2427236 -0.23619731 -0.51980734 0.14132355
-0.025395567 -0.1849627 0.28904745 -0.18006559 -0.16584066 -0.06124402 -0.07031843 0.20333402
-0.25828573 0.02755471 -0.2859873 -0.23001955 -0.04876855 0.21980776 0.1451278 -0.19301225
0.20322321 -0.2559769 -0.23885205 -0.30294883 -0.008195634 0.073031455 -0.056254953 0.06104199
0.05650355 -0.026267938 0.059792776 0.12286317 -0.3760483 0.5854367 -0.4226495 -0.1835108
-0.47068322 -0.3637332 0.24105759 -0.39543164 0.18301712 -0.5049711 -0.41111195 -0.1252078
0.080573775 0.46027675 -0.13196896 0.4356432 -0.013610491 -0.24269448 0.36118278 -0.363687
-0.0654185 -0.19701698 0.42961198 -0.26631707 -0.10539189 0.027639205 0.052375183 0.124325156
-0.20387134 0.111975476 0.010400674 0.01367747 -0.42652148 -0.07803352 -0.17655438 0.25240675
0.20200653 -0.20842269 0.07629398 -0.17036586 0.19270617 -0.03450734 0.06084571 -0.030594667
0.09796342 -0.14825834 0.4951899 -0.0004192719 0.0030396245 -0.2550466 0.20332302 0.25462544
-0.5058932 -0.009373436 0.33987108 -0.2746184 -0.18187724 -0.052871943 -0.21502718 0.011369215
0.01299383 -0.050766062 0.051183417 -0.102413334 0.024212182 0.045761645 -0.33232036 0.13328741
0.012156129 0.03862776 -0.109214194 -0.14529872 0.060848124 -0.3237996 0.2504828 -0.23758602
-0.0651837 0.06398521 0.05209826 -0.080594346 0.20924518 0.09440708 0.15768526 -0.4710697
0.24246971 0.09062093 -0.31258383 0.3793003 -0.03846251 -0.19321209 -0.30553454 -0.02417004
00000000: 856f f0be 7ed9 da3e bdfa 04bf 552f acbe
00000010: 5103 e6be 2334 a93d 0cd0 7e3e 1369 a6be
00000020: ecda cb3d 1ed2 c7be af8d 63be d93f babe
00000030: 8946 a7bd 50d6 c1be 1c60 60be f8d8 b83e
00000040: 6c5a bdbe 8426 32be 7519 95be d0b1 22bf
00000050: 38b9 4d3e 011a 1ebe 5583 623e eb63 e4be
00000060: 45ef e4be 75a0 093e 57c9 e2bd 4c6c a3bc
00000070: 02f5 36be e573 493e b91d 22be fe11 b7be
00000080: 5d6d 1fbe 2201 40be 896c a33e d06a 5fbc
00000090: 7220 c93d cb12 313e 5441 d53d cd1e c03e
000000a0: 49ab 4abe d286 b2be c792 053e 8247 2cbe
000000b0: 0cc1 5bbe c62c e7bd 644c 9cbd a467 0abe
000000c0: 95b1 e2be be3b 4c3e f957 cfbe b323 6bbe
000000d0: a989 9abd 9c2d 9cbd 83fa 18bd 998d 083e
000000e0: aa9f 793e 3a74 1d3e daff b1bc 3ae2 8abe
000000f0: b879 183e 6b70 4fbd 25a6 48be a608 f33d
00000100: a5db 67be e703 4abe e31a 343e 147f c13b
00000110: daa6 4c3f fa29 f63b 962e da3d a5d9 65be
00000120: 5640 023c 48af 3e3f 02a1 4c3d 9a4b a13e
00000130: 9573 adbd e188 a2bd 3a1b dabd 5361 9cbd
00000140: 4ba3 8a3d 768c 803b 6c35 94be 50ea 9d3c
00000150: d7fb 7fbe c818 55be 6911 803e 1859 82bd
00000160: c0e1 07be 4508 1c3e 836b 21be 7c31 b03e
00000170: 712b 853e 9cdf 873e 2772 cd3b e637 933e
00000180: 6ccf 1ebe a8d1 88bf 1836 edbc 94ce 3b3d
00000190: 0a28 49bf 6a2e e2bc 77b2 4cbd 7e3b e13d
000001a0: f307 ddbe f7e9 95bd 0b59 8a3d 2fd0 90be
000001b0: 217f 0e3e 6917 cbbe 1235 a2bd fcde fdbe
000001c0: e5f5 09be e780 8ebe f0db 7c3e 9c7e a7bd
000001d0: 8566 a7be aefe dd3c 21ea 153b e94f 88bc
000001e0: 6bf6 563c ba7b 81bd c1ed a13c 1755 aebe
000001f0: 2686 213f 22c2 a9be 585b f9bd ae29 48be
00000200: 7a92 4d3e 425d 393e c6df e0bd 3a7c 16be
00000210: 898c 78be b5dd 71be 1812 05bf 1fb7 103e
00000220: 5d0a d0bc dd66 3dbe 07fe 933e 1d63 38be
00000230: 22d2 29be 02db 7abd 1c03 90bd cb36 503e
00000240: 073e 84be 6aba e13c ed6c 92be 3f8a 6bbe
00000250: 88c1 47bd 4915 613e 629c 143e 01a5 45be
00000260: bf19 503e 670f 83be a295 74be 1c1c 9bbe
00000270: fb46 06bc 8491 953d 986b 66bd 2a07 7a3d
00000280: 4470 673d dc2f d7bc 45e9 743d b09f fb3d
00000290: 6789 c0be 2edf 153f 8465 d8be 41ea 3bbe
000002a0: 64fd f0be 3d3b babe cdd7 763e 0476 cabe
000002b0: d768 3b3e c945 01bf 447d d2be 7936 00be
000002c0: dd03 a53d 65a9 eb3e df22 07be a00c df3e
000002d0: 89fe 5ebc e784 78be f3ec b83e 2f35 babe
000002e0: 22fa 85bd d2be 49be 1af6 db3e b65a 88be
000002f0: b4d7 d7bd 9d6b e23c 5c87 563d 309e fe3d
00000300: a6c3 50be 6653 e53d 9767 2a3c 7817 603c
00000310: 0661 dabe 0ad0 9fbd acca 34be 753b 813e
00000320: cdda 4e3e c26c 55be 0540 9c3d 6374 2ebe
00000330: c454 453e 9257 0dbd 5a39 793d aba1 fabc
00000340: 0ca1 c83d 09d1 17be 8889 fd3e b9d1 dbb9
00000350: 7034 473b 7895 82be e933 503e 445e 823e
00000360: 3782 01bf 0a93 19bc 9503 ae3e c89a 8cbe
00000370: 073e 3abe 4090 58bd 1630 5cbe f245 3a3c
00000380: 13e4 543c 13f0 4fbd b4a5 513d 15be d1bd
00000390: a058 c63c 9070 3b3d e525 aabe 7f7c 083e
000003a0: 802a 473c 2438 1e3d b1ab dfbd 30c9 14be
000003b0: e23b 793d 10c9 a5be 483f 803e c049 73be
000003c0: 087f 85bd ae0a 833d fc64 553d a60e a5bd
000003d0: 5e44 563e 8058 c13d 3f78 213e 0c30 f1be
000003e0: fb49 783e 7797 b93d fd0a a0be a633 c23e
000003f0: dd8a 1dbd 64d9 45be 066f 9cbe 3f00 c6bc

layer_1.bias f4 [400]
-0.012346709 0.4959509 -0.49702662 0.32482722 0.1414637 -0.38196048 0.31504473 -0.5663799
0.18638933 0.14726333 -0.09244225 -0.19226319 0.39679292 -0.57031626 -0.3425363 -0.4845706
0.59842134 -0.32753402 -0.45663577 0.2760739 -0.18520825 -0.31232068 0.495665 -0.14879793
-0.2566526 -0.009754164 -0.06794544 -0.46653938 -0.37183234 -0.19624874 -0.30644208 0.9717989
0.054437585 0.0043843887 0.0958214 0.31460816 -0.29227033 0.333445 -0.47512275 0.4297237
-0.39148974 -0.22920343 0.14037599 0.3775374 -0.0052072103 -0.5177998 -0.545848 0.25987226
-0.1661907 0.14841965 0.29282606 -0.62590456 -0.3492061 -0.34399074 -0.32106528 -0.30431157
-0.35766983 0.066888355 -0.32386655 -0.3231197 0.16309527 0.7835234 0.23010756 -0.21628435
0.45533004 0.30365196 -0.2194918 0.45839968 0.061302543 0.17149328 -0.54138255 0.07136458
0.12727466 0.113465115 0.091618225 -0.06860498 0.049857114 -0.243969 -0.3744608 -0.38341263
0.18301272 -0.67589366 -0.5974478 -0.48635757 -0.37816304 0.23186971 -0.35410315 -0.55012643
0.21554223 -0.31312713 0.53361547 -0.38246357 0.74727035 -0.3349455 0.39994985 -0.434186
-0.23249705 -0.40195283 -0.009800568 -0.38812405 0.14210525 -0.23477769 -0.35419047 -0.23042813
0.32083416 -0.12121205 -0.5135907 0.4853168 0.6173685 -0.2374165 -0.44042388 -0.10586109
-0.47670987 0.75442183 -0.036698867 -0.2476046 -0.6071769 -0.56782967 -0.46916345 -0.46918303
0.44091627 0.13689965 -0.40215015 -0.13091098 0.29744482 0.30277207 -0.35282302 0.54037386
-0.35769013 0.16753012 -0.64719176 0.21079892 0.9081086 -0.15611285 0.65726274 0.144725
0.41880608 0.35161456 -0.44842267 0.37151948 -0.5603981 0.32790494 -0.107256524 -0.65706223
-0.44920367 0.09432121 0.2733231 -0.123961054 0.24927028 -0.40314817 0.08354885 0.17658107
-0.22862755 -0.29071987 -0.16341405 -0.14249389 -0.49382132 -0.18320869 0.40683696 0.2816069
0.19116817 -0.43585938 -0.7858753 -0.25922984 1.0022994 0.2878735 -0.3831149 -0.03919911
-0.35272738 0.4123285 -0.29178372 -0.28181863 -0.7177694 -0.6341672 -0.43576482 0.44077775
-0.20753358 -0.2811092 -0.18077534 0.54014754 -0.39010274 0.40336812 -0.5230105 0.30212894
-0.023108983 -0.6455262 -0.4321928 -0.46051136 -0.32588628 -0.6926752 0.14082758 0.66872525
-0.23281102 -0.7845032 0.60518056 -0.41650838 -0.44471297 0.42662776 0.082549125 0.45371237
0.0814214 -0.33477092 -0.45636442 -0.4019073 -0.4399366 -0.43901584 0.27309093 0.4449944
0.25406176 -0.13285299 0.37774974 0.29369166 0.03094744 -0.5370385 -0.14527483 -0.21587704
-0.29084814 0.1832022 0.802316 -0.054677453 0.03186532 -0.05490771 0.52342224 -0.36758822
-0.60757995 -0.31119666 0.35811904 -0.26075655 0.5148809 0.62919915 0.25937396 -0.3829106
-0.2682558 0.25083426 -0.38938153 -0.13824208 0.1826608 -0.42583042 0.8009817 0.56316996
0.33254007 -0.09481965 0.7121739 -0.22515121 -0.16141249 0.5672812 0.18893005 0.1747535
0.024421237 0.29454613 0.24108984 -0.5077162 0.010622874 0.23983075 0.298854 0.6196059
00000000: da49 4abc 47ed fd3e 467a febe c14f a63e
00000010: dcdb 103e 5390 c3be 8b4d a13e 46fe 10bf
00000020: d8dc 3e3e 33cc 163e 5d52 bdbd a4e0 44be
00000030: 7128 cb3e 3f00 12bf eb60 afbe a319 f8be
00000040: 2432 193f 8ab2 a7be 2acc e9be 8f59 8d3e
00000050: 3ba7 3dbe 7fe8 9fbe cec7 fd3e 7c5e 18be
00000060: f867 83be eecf 1fbc fb26 8bbd 40de eebe
00000070: cf60 bebe 6ef5 48be fae5 9cbe d0c7 783f
00000080: f2f9 5e3d ebaa 8f3b 033e c43d 5214 a13e
00000090: 75a4 95be 4eb9 aa3e 4a43 f3be bf04 dc3e
000000a0: 5871 c8be 4eb4 6abe b9be 0f3e 954c c13e
000000b0: 3fa1 aabb 878e 04bf b2bc 0bbf fa0d 853e
000000c0: e52d 2abe 52fb 173e 4ced 953e 483b 20bf
000000d0: 24cb b2be 8e1f b0be ab62 a4be bace 9bbe
000000e0: 8020 b7be c3fc 883d d6d1 a5be f26f a5be
000000f0: 7202 273e fd94 483f 51a1 6b3e a579 5dbe
00000100: 0521 e93e 4578 9b3e 75c2 60be 5db3 ea3e
00000110: 6018 7b3d ef9b 2f3e 0c98 0abf 9827 923d
00000120: 4a54 023e 6660 e83d 56a2 bb3d c580 8cbd
00000130: f936 4c3d 02d3 79be 53b9 bfbe a94e c4be
00000140: b067 3b3e 5e07 2dbf 57f2 18bf dc03 f9be
00000150: 969e c1be 416f 6d3e 024d b5be 16d5 0cbf
00000160: 1ab7 5c3e 3352 a0be 069b 083f 44d2 c3be
00000170: 1c4d 3f3f fa7d abbe 3ac6 cc3e a14d debe
00000180: b513 6ebe c3cc cdbe 9092 20bc 32b8 c6be
00000190: 0a84 113e 9069 70be 7458 b5be 5af5 6bbe
000001a0: 6044 a43e 063e f8bd ae7a 03bf 727b f83e
000001b0: dd0b 1e3f 501d 73be 3d7f e1be b3cd d8bd
000001c0: 5113 f4be ca21 413f 8d51 16bd 0f8c 7dbe
000001d0: f26f 1bbf 495d 11bf 3136 f0be c238 f0be
000001e0: c7bf e13e 6c2f 0c3e a0e6 cdbe 870d 06be
000001f0: b04a 983e f104 9b3e 38a5 b4be f155 0a3f
00000200: 2923 b7be 048d 2b3e 5cae 25bf acdb 573e
00000210: ce79 683f 0cdc 1fbe 5f42 283f ca32 143e
00000220: c06d d63e d306 b43e a897 e5be cd37 be3e
00000230: 4076 0fbf 28e3 a73e 4fa9 dbbd 3b35 28bf
00000240: 06fe e5be 7b2b c13d 01f1 8b3e 4bdf fdbd
00000250: b540 7f3e 7069 cebe a91b ab3d abd1 343e
00000260: 571d 6abe 3cd9 94be 0356 27be ebe9 11be
00000270: 26d6 fcbe 0f9b 3bbe ef4c d03e c82e 903e
00000280: 97c1 433e f628 dfbe 202f 49bf c6b9 84be
00000290: 594b 803f 2864 933e a327 c4be 3f8f 20bd
000002a0: af98 b4be b91c d33e ad64 95be 884a 90be
000002b0: bcbf 37bf c858 22bf 911c dfbe 9fad e13e
000002c0: af83 54be 8ced 8fbe 2c1d 39be 1c47 0a3f
000002d0: 8cbb c7be 4486 ce3e 04e4 05bf a5b0 9a3e
000002e0: 0d4f bdbc 3441 25bf 6048 ddbe 25c8 ebbe
000002f0: 91da a6be 2953 31bf 1b35 103e 9431 2b3f
00000300: 0366 6ebe 34d5 48bf 1ded 1a3f 9640 d5be
00000310: 6bb1 e3be f46e da3e 840f a93d fd4c e83e
00000320: 43c0 a63d 1867 abbe 99a8 e9be cbc6 cdbe
00000330: 5f3f e1be afc6 e0be 93d2 8b3e 4ed6 e33e
00000340: 6214 823e 9d0a 08be 6a68 c13e c15e 963e
00000350: 7c85 fd3c 5b7b 09bf edc2 14be df0e 5dbe
00000360: 0cea 94be 5c99 3b3e 9564 4d3f 77f5 5fbd
00000370: 3685 023d e8e6 60bd 00ff 053f 8634 bcbe
00000380: 5c8a 1bbf 2b55 9fbe 615b b73e e281 85be
00000390: 3ccf 033f 3213 213f aacc 843e dc0c c4be
000003a0: d358 89be 596d 803e 045d c7be 558f 0dbe
000003b0: 6f0b 3b3e 7206 dabe 230d 4d3f e82b 103f
000003c0: b142 aa3e ce30 c2bd 0751 363f 0a8e 66be
000003d0: 5149 25be 5739 113f e176 413e 95f2 323e
000003e0: 0c0f c83c c0ce 963e 41e0 763e b0f9 01bf
000003f0: 900b 2e3c 3196 753e 6403 993e 7e9e 1e3f

layer_2.weight f4 [300, 400]
0.01493963 -0.009150269 -0.0007706559 0.018049564 0.061199453 -0.15385835 0.016330475 -0.09229876
-0.015996594 -0.08175065 -0.00082084024 -0.011796876 -0.12123301 -0.06515871 -0.0036563012 -0.06025779
-0.004904933 -0.06322134 0.07585487 -0.03635519 -0.018290231 0.032130346 0.0028863444 -0.06601741
-0.15379772 0.002402541 -0.07421676 -0.0723543 0.027728098 0.019026846 -0.05499742 0.047427364
0.03760332 -0.010758848 -0.013547475 0.020849021 -0.07579435 -0.004135017 -0.024202093 0.049979992
-0.0031278497 0.059094757 0.021858718 -0.05536368 -0.031826638 -0.06333005 -0.05927804 -0.02382626
0.05868313 -0.06985551 0.070168935 -0.012476291 -0.01698156 -0.0003424628 -0.10431195 -0.08961317
-0.011230606 -0.032851182 -0.048639648 -0.03974373 -0.033920035 0.043238305 0.12375137 -0.027051069
-0.07661456 0.00022349786 -0.08528693 0.007509079 -0.008284264 -0.07260616 -0.030717682 0.071111865
0.07650714 0.0057437075 -0.089272276 0.047849778 -0.051742427 -0.095068395 -0.01649931 -0.012718034
0.024894323 -0.011659906 -0.040113308 -0.006903085 0.0036939054 0.060749352 -0.04489153 -0.064655654
0.059594467 -0.05914303 0.06409875 -0.028042283 -0.05678543 -0.023503063 -0.13609985 -0.06927018
-0.06818538 -0.097042345 -0.23127823 -0.0501853 -0.06974881 -0.04170611 -0.11923551 0.024237156
-0.04335895 0.047019962 -0.03372082 -0.05708268 0.075341895 -0.034640543 -0.20329836 -0.0068286993
-0.014911365 0.050235305 -0.015252106 0.0668798 -0.05771271 -0.015521469 -0.062801674 -0.06814488
0.016174242 -0.11943211 -0.13905028 0.06851733 -0.09192078 -0.0049919197 0.10653175 0.066791795
-0.04280827 -0.14540586 -0.11713715 -0.025620695 -0.089587964 -0.06412472 0.007691334 -0.027775077
0.02542972 -0.0014015788 -0.015869033 -0.088381544 -0.074675806 0.0061671217 -0.042361356 0.048789788
0.021343185 0.016322369 -0.010772068 0.025377665 -0.010516694 -0.03128565 -0.0767177 -0.024867475
-0.051516593 -0.050464816 0.037091196 -0.0734369 0.009794167 -0.008404066 -0.008408808 -0.043367546
0.022209333 -0.08904045 -0.06096384 0.008928315 0.10391305 0.05716041 -0.024348635 0.026216932
-0.12263355 -0.05579493 -0.037968848 -0.073411226 0.021024462 -0.040358197 -0.02915063 0.15213193
-0.00850857 -0.070605926 -0.051622033 -0.031708345 -0.13509628 0.041030046 -0.083343655 0.006648305
-0.030794641 -0.12266087 0.01988 -0.010386119 -0.052655935 -0.014281835 -0.041331645 -0.04247787
-0.08244872 -0.0016022301 0.21000212 -0.049685337 -0.06153591 -0.018540038 -0.03347508 0.07223769
0.009079361 -0.12133034 0.0142181795 0.008022724 -0.0578512 -0.049470987 -0.056511916 -0.12520729
-0.06943199 -0.030775424 -0.05130671 0.062280234 -0.020148396 -0.05058823 -0.0009950235 -0.014132679
-0.019601244 0.012173313 -0.010303045 -0.006320609 0.00525087 -0.06881684 0.0009639154 -0.024152715
-0.06220564 -0.031828847 0.060718823 -0.08539653 -0.01917152 -0.04961821 -0.03816449 -0.033911746
-0.053894054 -0.004061704 -0.0047809165 -0.057359397 -0.08154226 -0.019361392 0.17759818 0.0079915365
0.015941737 -0.06748113 0.14375691 -0.0076230415 0.020841556 -0.039596204 0.019327775 -0.058276568
0.006266801 0.047354974 -0.08160878 -0.08090469 0.01922994 -0.0270324 -0.024555992 -0.0573921
00000000: 5ac5 743c 03eb 15bc d805 4aba aedc 933c
00000010: 47ac 7a3d 0b8d 1dbe 7dc7 853c 2207 bdbd
00000020: 4a0b 83bc e36c a7bd a82d 57ba af47 41bc
00000030: 0349 f8bd ee71 85bd 8e9e 6fbb dfd0 76bd
00000040: 8fb9 a0bb 317a 81bd cc59 9b3d 2ee9 14bd
00000050: 65d5 95bc 1c9b 033d d328 3d3b 2334 87bd
00000060: 267d 1dbe f373 1d3b f5fe 97bd 7e2e 94bd
00000070: 0926 e33c 30de 9b3c fa44 61bd 3243 423d
00000080: f005 1a3d e145 30bc 3bf6 5dbc 91cb aa3c
00000090: 113a 9bbd 097f 87bb 7843 c6bc d2b7 4c3d
000000a0: 9cfc 4cbb 580d 723d 0e11 b33c 07c5 62bd
000000b0: a65c 02bd 2fb3 81bd 88cd 72bd 4a2f c3bc
000000c0: b95d 703d 6810 8fbd bbb4 8f3d 5b69 4cbc
000000d0: ea1c 8bbc 948c b3b9 81a1 d5bd 1c87 b7bd
000000e0: 9300 38bc f68e 06bd 5e3a 47bd 52ca 22bd
000000f0: bcef 0abd a61a 313d 5c71 fd3d 349a ddbc
00000100: 18e8 9cbd c05a 6a39 eaaa aebd b80e f63b
00000110: b9ba 07bc 8ab2 94bd a6a3 fbbc 19a3 913d
00000120: c7af 9c3d b635 bc3b 62d4 b6bd 21fe 433d
00000130: deef 53bd 38b3 c2bd 9029 87bc 4d5f 50bc
00000140: 2eef cb3c 3109 3fbc da4d 24bd 4633 e2bb
00000150: 7315 723b 50d4 783d 2ee0 37bd 2f6a 84bd
00000160: 5419 743d f63f 72bd 3546 833d eeb8 e5bc
00000170: d797 68bd 7f89 c0bc c25d 0bbe 86dd 8dbd
00000180: c7a4 8bbd 23be c6bd 33d4 6cbe 1a8f 4dbd
00000190: 77d8 8ebd 07d4 2abd bf31 f4bd 008d c63c
000001a0: 2899 31bd 0198 403d d81e 0abd 87cf 69bd
000001b0: da4c 9a3d 3ee3 0dbd 722d 50be 48c3 dfbb
000001c0: cc4e 74bc 89c3 4d3d f8e3 79bc 47f8 883d
000001d0: 2a64 6cbd c24d 7ebc 2a9e 80bd 8b8f 8bbd
000001e0: d87f 843c d298 f4bd 3263 0ebe d052 8c3d
000001f0: f640 bcbd 4293 a3bb 512d da3d 23ca 883d
00000200: b957 2fbd 46e5 14be 9ae5 efbd 7ee2 d1bc
00000210: e579 b7bd d253 83bd 9607 fc3b 8f88 e3bc
00000220: fd51 d03c 2eb5 b7ba c6ff 81bc 6201 b5bd
00000230: a1ef 98bd 9115 ca3b 1a83 2dbd cdd7 473d
00000240: e7d7 ae3c 7db6 853c 547d 30bc d2e4 cf3c
00000250: 364e 2cbc 6225 00bd 2b1e 9dbd e0b6 cbbc
00000260: 1003 53bd 32b4 4ebd f0ec 173d 1666 96bd
00000270: b777 203c 35b1 09bc 19c5 09bc 2ba2 31bd
00000280: 59f0 b53c d75a b6bd 38b5 79bd 1148 123c
00000290: 5dd0 d43d 0921 6a3d ca76 c7bc e4c4 d63c
000002a0: 4c27 fbbd 3989 64bd 3985 1bbd a058 96bd
000002b0: 7e3b ac3c a34e 25bd 4dcd eebc 79c8 1b3e
000002c0: 8767 0bbc d799 90bd a071 53bd 9ce0 01bd
000002d0: ae56 0abe 1f0f 283d 14b0 aabd 06da d93b
000002e0: 0b45 fcbc 9f35 fbbd 62db a23c 8a2a 2abc
000002f0: c0ad 57bd 5cfe 69bc 5f4b 29bd 46fd 2dbd
00000300: e0da a8bd ec01 d2ba cc0a 573e da82 4bbd
00000310: 140d 7cbd 47e1 97bc 2a1d 09bd 5bf1 933d
00000320: 9ac1 143c 0b7c f8bd 5ef3 683c be71 033c
00000330: 61f5 6cbd 17a2 4abd 0a79 67bd 5736 00be
00000340: 5c32 8ebd be1c fcbc fc26 52bd 8f19 7f3d
00000350: 400e a5bc 9b35 4fbd 736b 82ba c18c 67bc
00000360: ca92 a0bc 9372 473c 1ace 28bc 1c1d cfbb
00000370: 7d0f ac3b d8ef 8cbd 44af 7c3a eadb c5bc
00000380: 57cb 7ebd f75e 02bd 4db4 783d 60e4 aebd
00000390: 970d 9dbc 773c 4bbd 5e52 1cbd 0be7 0abd
000003a0: 03c0 5cbd 0b18 85bb 3ca9 9cbb b0f1 6abd
000003b0: a1ff a6bd c89b 9ebc 4cdc 353e efee 023c
000003c0: 3f98 823c 8c33 8abd 0335 133e b5ca f9bb
000003d0: e9bb aa3c a12f 22bd 4855 9e3c 69b3 6ebd
000003e0: bd59 cd3b 4af7 413d 8122 a7bd 5cb1 a5bd
000003f0: 1b88 9d3c 0d73 ddbc a629 c9bc fb13 6bbd

layer_2.bias f4 [300]
0.0037383235 0.03852699 0.037027728 -0.156869 -0.19859137 -0.17067695 0.0943995 -0.052812792
-0.080583155 -0.034649584 -0.07523399 0.09329861 -0.37333897 -0.035269894 -0.29886305 -0.04370642
0.15553296 -0.029604405 -0.24986936 -0.20955546 -0.018934278 -0.26818186 -0.07060372 -0.008364782
-0.3695729 0.2540754 0.014758759 -0.04994307 -0.22658712 -0.12652229 0.04597732 -0.034380864
0.23381157 -0.3180896 -0.07721879 0.063320935 0.0089930175 -0.23895186 -0.05590594 -0.069167875
-0.07375831 -0.41190875 -0.36234465 0.0021555477 -0.17499045 -0.26723722 -0.054088466 0.3026494
-0.36479375 -0.040639464 -0.07390105 -0.008589776 0.09254559 -0.025352433 0.16081755 0.25810683
0.0564721 0.11962809 -0.34666413 -0.014317136 0.016562548 -0.048967555 -0.16816966 -0.2786207
-0.29188892 -0.007758291 0.015537078 0.18635982 0.022991978 -0.20981196 -0.070423216 -0.021865947
-0.121344335 -0.27511778 -0.2009288 0.23853427 -0.29811072 -0.10333311 0.057295635 0.024547566
0.120460406 -0.04591427 0.033256464 -0.05088186 0.25286907 0.109172456 0.0929578 -0.03368062
-0.069463804 0.3129651 -0.041041456 0.2216197 -0.08014561 -0.2852587 -0.017953597 -0.011985424
0.10711105 -0.061929494 0.33495077 -0.0080489 0.0026165936 0.13495274 0.03859444 -0.004657457
-0.4625885 -0.028222976 -0.06736297 -0.07726502 -0.25866175 0.017512832 0.08210732 0.0283073
-0.020048164 0.1678914 0.021593526 -0.031680387 0.053236686 -0.055150207 -0.048363596 0.076954685
-0.27021778 0.036074556 0.06959488 0.12770164 -0.040544808 0.26560512 -0.053544518 -0.0068217684
0.24607834 -0.03019433 -0.105515875 -0.2289948 0.1993077 -0.0076265866 -0.04915221 -0.083089896
0.038939588 -0.024156135 -0.053847834 -0.46168754 0.044561453 -0.17829633 -0.05869962 -0.04431779
0.1071142 0.023656739 -0.059252854 -0.16027156 -0.18017231 -0.05870379 -0.02865252 0.015439942
-0.24429534 0.0013512453 0.18505459 -0.22925338 -0.007906232 -0.045543455 -0.032177575 0.14396384
-0.22687975 -0.011817608 0.04413982 -0.016189767 -0.3724532 -0.063087985 -0.27521625 -0.26187378
0.09615271 -0.006253024 0.20615748 -0.17708226 0.024150401 0.071258105 0.005900209 0.5002019
-0.006916918 -0.009429504 0.016019598 -0.2213832 -0.06682372 -0.3837755 -0.03443392 -0.019384177
0.264114 -0.16821994 -0.03706524 -0.04085486 0.060890798 -0.3654988 0.065549225 -0.07327635
0.0590382 0.49573568 -0.21425566 -0.1916681 -0.07954174 -0.06973224 -0.006554913 -0.08827511
0.026394837 -0.08214197 -0.022085717 0.1941393 -0.017206613 0.0018765631 -0.027825259 -0.42511168
0.028020026 -0.12523124 0.19919567 -0.007816288 -0.02561441 0.08276214 -0.073172085 -0.10571098
-0.074942715 -0.18275465 0.12133701 -0.24486718 -0.06594794 -0.055076826 -0.09571444 -0.0583255
-0.05669714 0.20668842 0.040254895 -0.043299668 -0.20105618 0.068292096 -0.096863374 0.013741295
0.15110877 0.026430089 -0.24188906 -0.054067492 -0.30467007 -0.040470015 -0.19974928 0.118904494
-0.04544545 0.4090539 0.45889416 -0.07620468 0.0053705797 -0.030051555 -0.044019733 -0.113998145
-0.012418812 -0.16321492 -0.24551934 -0.17270544 -0.09382351 -0.04759122 -0.20118566 0.11088711
00000000: a9fe 743b 7ace 1d3d 63aa 173d 44a2 20be
00000010: 895b 4bbe f0c5 2ebe 8654 c13d 3a52 58bd
00000020: c808 a5bd b9ec 0dbd 4714 9abd 5713 bf3d
00000030: 4926 bfbe 2a77 10bd 9404 99be 8105 33bd
00000040: 0844 1f3e f084 f2bc c1dd 7fbe b595 56be
00000050: 0f1c 9bbc 224f 89be af98 90bd 700c 09bc
00000060: a938 bdbe 2c16 823e b9ce 713c 1b91 4cbd
00000070: 7406 68be 0f8f 01be b752 3c3d f3d2 0cbd
00000080: 4d6c 6f3e a4dc a2be e324 9ebd 68ae 813d
00000090: 7357 133c ccaf 74be a0fd 64bd e3a7 8dbd
000000a0: 990e 97bd b4e5 d2be 3d85 b9be 1744 0d3b
000000b0: b230 33be 51d3 88be de8b 5dbd ddf4 9a3e
000000c0: 3fc6 babe 9175 26bd 6f59 97bd 22bc 0cbc
000000d0: 8b88 bd3d e8af cfbc 5bad 243e 9426 843e
000000e0: 4a4f 673d 92ff f43d f67d b1be 6c92 6abc
000000f0: 2eae 873c 3492 48bd ab34 2cbe 5fa7 8ebe
00000100: 7772 95be 4339 febb 3a8f 7e3c 1cd5 3e3e
00000110: ac59 bc3c f2d8 56be 0c3a 90bd 3720 b3bc
00000120: 6183 f8bd 3ddc 8cbe 48c0 4dbe 5442 743e
00000130: f8a1 98be 4fa0 d3bd d4ae 6a3d fa17 c93c
00000140: f2b3 f63d 9a10 3cbd ee37 083d 7f69 50bd
00000150: 0e78 813e cf95 df3d a960 be3d b1f4 09bd
00000160: 0a43 8ebd f63c a03e 161b 28bd 46f0 623e
00000170: 6223 a4bd 6e0d 92be 6c13 93bc 835e 44bc
00000180: 0a5d db3d c8a9 7dbd ab7e ab3e 89df 03bc
00000190: 287b 2b3b 0d31 0a3e 3415 1e3d 959d 98bb
000001a0: 66d8 ecbe df33 e7bc 99f5 89bd 1f3d 9ebd
000001b0: 506f 84be 1277 8f3c e227 a83d b6e4 e73c
000001c0: 0c3c a4bc b9eb 2b3e e8e4 b03c 4bc3 01bd
000001d0: b60e 5a3d 2fe5 61bd e818 46bd 6b9a 9d3d
000001e0: fc59 8abe eac2 133d c387 8e3d 38c4 023e
000001f0: 5012 26bd 65fd 873e 7f51 5bbd 2489 dfbb
00000200: f6fb 7b3e 195a f7bc b518 d8bd 9d7d 6abe
00000210: 5117 4c3e 72e8 f9bb d453 49bd 092b aabd
00000220: 1e7f 1f3d 16e3 c5bc 8c8f 5cbd 4f62 ecbe
00000230: 1286 363d 5093 36be 036f 70bd 9286 35bd
00000240: b15e db3d c7cb c13c 1fb3 72bd 3a1e 24be
00000250: 177f 38be 6373 70bd b1b8 eabc cff7 7c3c
00000260: 8f28 7abe 451c b13a f37e 3d3e 66c1 6abe
00000270: 2489 01bc c68b 3abd a2cc 03bd 426b 133e
00000280: 2a53 68be a49e 41bc f5cb 343d 67a0 84bc
00000290: 30b2 bebe 4634 81bd 25e9 8cbe 5214 86be
000002a0: b6eb c43d 2be6 ccbb f21a 533e 0d55 35be
000002b0: 10d7 c53c c5ef 913d 8a56 c13b 3b0d 003f
000002c0: 50a7 e2bb 357e 1abc 883b 833c 47b2 62be
000002d0: e0da 88bd 397e c4be 950a 0dbd 91cb 9ebc
000002e0: f339 873e d941 2cbe b9d1 17bd 6d57 27bd
000002f0: a168 793d a922 bbbe ac3e 863d e911 96bd
00000300: 0ad2 713d 11d1 fd3e d665 5bbe a444 44be
00000310: c8e6 a2bd c7cf 8ebd 98ca d6bb 95c9 b4bd
00000320: fc39 d83c 0d3a a8bd 1bed b4bc 74cc 463e
00000330: e2f4 8cbc 02f7 f53a ccf1 e3bc 3da8 d9be
00000340: 418a e53c 9e3c 00be f3f9 4b3e e30f 00bc
00000350: 50d5 d1bc 327f a93d 3fdb 95bd 007f d8bd
00000360: 917b 99bd 0924 3bbe 8a7f f83d 76be 7abe
00000370: b70f 87bd 3d98 61bd ef05 c4bd b8e6 6ebd
00000380: 433b 68bd 21a6 533e 51e2 243d fe5a 31bd
00000390: ace1 4dbe badc 8b3d 4e60 c6bd 2b23 613c
000003a0: 42bc 1a3e ea83 d83c c4b1 77be e075 5dbd
000003b0: b7fd 9bbe e3c3 25bd 138b 4cbe 3384 f33d
000003c0: 0225 3abd 836f d13e 2df4 ea3e 3311 9cbd
000003d0: b0fb af3b ae2e f6bc 094e 34bd dc77 e9bd
000003e0: 4678 4bbc d021 27be 6c69 7bbe b2d9 30be
000003f0: 8a26 c0bd 03ef 42bd 9d03 4ebe c818 e33d

layer_3.weight f4 [1, 300]
-0.0065661953 -0.10498034 0.0106604 -0.017625663 0.017447293 0.0026104783 0.00087872305 -0.0024470938
-0.028499506 -0.046362594 0.026139574 -0.00034107536 -0.125439 -0.018435584 -0.07092794 -0.04115395
0.04825788 -0.013532295 -0.11894708 0.0011697278 0.0069836 -0.00080545194 -0.00577985 -7.65623e-05
-0.021430438 -0.065452754 0.0010915238 -0.006550959 -0.0978447 0.0037433435 -0.09354211 0.017817536
-0.034857836 0.00066943263 -0.07991331 0.0045467685 0.0025862476 -0.0014578688 -0.0050781863 -0.0013449263
0.03662313 0.0008326123 0.13214765 0.005664932 -0.010096671 0.032221276 0.024036191 -0.015021411
0.05868484 0.03426097 0.021050168 -0.0338196 -0.0013320296 -0.023052286 0.02148711 -0.11119188
0.0031846834 0.002864013 -0.015493133 -0.0032639082 0.02599787 0.0020713203 -0.0102063045 0.008943142
0.00019716247 0.0036114596 -0.007848949 -0.04434903 -0.036632765 -0.0059323 -0.0010196712 0.030725569
-0.02975516 -0.009821254 -0.071663536 -0.08726091 0.4417932 -0.023249589 -0.006189456 0.009073762
-0.00093667314 0.04402309 -0.019012779 0.024972647 -0.08959354 0.001925245 0.015042507 0.04554301
-0.012458182 0.012033239 0.0070176097 -0.048022676 -0.029143116 -0.006204914 0.0037077852 -0.056162972
-0.047743235 -0.028191414 0.31364912 -0.19204797 0.00042074354 0.0024340076 -0.10561799 0.014984906
-0.08478663 0.004103949 -0.015618628 0.0048854984 -0.19639188 0.14667836 0.032008074 0.0054326123
0.00051867706 0.0036967178 0.014601342 0.048209857 0.0021967695 -0.025319038 0.00958759 -0.0071453494
-0.022037279 0.0013675882 0.21341719 0.0233111 -0.10657526 0.10022347 0.021356488 0.00014762914
-0.18498422 0.04522732 0.0013183103 -0.0020594164 0.15595147 -0.008535174 -0.02437561 0.030691579
-0.013712111 0.00026471828 -0.0008412084 -0.042537414 -0.16000284 0.0012321288 0.070110805 0.0007867261
0.0001639596 -0.023707662 -0.008985232 -0.0005142239 -0.10247658 0.0018828553 -0.023199031 -0.053092506
-0.121790744 -0.026432361 0.092412435 -0.03644838 -0.039415292 0.0042667273 0.026435066 -0.17022087
0.0005270593 -0.018818704 -0.12993066 -0.051124793 0.1065883 -0.010863588 0.026573585 -0.10199271
0.02298709 0.00909136 0.10531231 -0.02110259 0.00036864783 -0.10268783 0.02254784 0.14816728
4.7243047e-05 0.03446 -0.038110834 0.02607803 0.005150247 -0.0017818031 0.0041710134 -0.01781761
-0.09330356 -0.013120734 -0.14554039 0.0465244 0.031423327 0.000616724 -0.09324542 -0.020068154
0.004911433 0.16266039 -0.0017685319 -0.07330925 -0.015038121 -0.0065343236 0.002436775 -0.004670608
0.02313438 -0.020598624 -0.014057646 -0.009269876 -0.10145026 0.011783812 0.011312526 0.00091543235
0.035929568 -0.08151172 -0.15439282 -0.016037444 0.0037319895 -0.03599489 -0.092034005 -0.0005802875
-0.004537568 0.0014844809 0.014258792 0.00027323075 -0.0006941193 0.01838925 -0.0012811777 0.03169232
-0.00012869936 0.16119227 -0.049055733 -0.009619052 -0.025794443 -0.02228043 -0.0061034835 -0.0006785374
-0.0009824368 -0.01934733 0.15454811 0.032459628 0.018598802 0.0036497985 0.026649062 0.032107674
0.01328461 0.1432663 0.17746477 -0.0076446286 0.0009892525 -0.0016297743 0.021574372 -0.0021268807
-0.0056450195 -0.030521004 -0.028852014 -0.023376796 -0.00016561197 -0.19460095 -0.0036839598 0.13016161
00000000: 3d29 d7bb efff d6bd f5a8 2e3c b263 90bc
00000010: a0ed 8e3c 8f14 2b3b 1b5a 663a 6c5f 20bb
00000020: cc77 e9bc b4e6 3dbd a922 d63c 5cd2 b2b9
00000030: 1573 00be 3906 97bc ab42 91bd 0b91 28bd
00000040: 0eaa 453d 8fb6 5dbc 879a f3bd 8d51 993a
00000050: afd6 e43b f724 53ba e564 bdbb 1290 a0b8
00000060: e38e afbc 180c 86bd 7611 8f3a 6da9 d6bb
00000070: cd62 c8bd e252 753b 0193 bfbd 15f6 913c
00000080: 17c7 0ebd dd7c 2f3a 97a9 a3bd 0ffd 943b
00000090: 097e 293b f615 bfba ea66 a6bb 3d48 b0ba
000000a0: 2302 163d aa43 5a3a b751 073e e5a0 b93b
000000b0: 826c 25bc 75fa 033d 8ce7 c43c 5d1c 76bc
000000c0: 845f 703d 3b55 0c3d 6771 ac3c 6c86 0abd
000000d0: 7f97 aeba 26d8 bcbc bc05 b03c 92b8 e3bd
000000e0: 1fb6 503b 2ab2 3b3b e9d6 7dbc 4be7 55bb
000000f0: 7cf9 d43c fdbe 073b 5838 27bc 4286 123c
00000100: 66bd 4e39 3dae 6c3b e198 00bc 54a7 35bd
00000110: 3d0c 16bd bd63 c2bb 7da6 85ba 30b4 fb3c
00000120: 18c1 f3bc 53e9 20bc 55c4 92bd d9b5 b2bd
00000130: b832 e23e ec75 bebc ecd0 cabb 1eaa 143c
00000140: 128b 75ba 8e51 343d b0c0 9bbc 7093 cc3c
00000150: d17c b7bd 8158 fc3a d974 763c 4f8b 3a3d
00000160: 671d 4cbc 1027 453c faf3 e53b 6db3 44bd
00000170: 8bbd eebc 9752 cbbb 50fe 723b 250b 66bd
00000180: 698e 43bd aef1 e6bc 9e96 a03e 39a8 44be
00000190: 3e97 dc39 df83 1f3b 3f4e d8bd 4083 753c
000001a0: 9da4 adbd 6b7a 863b 46e5 7fbc 8816 a03b
000001b0: f41a 49be da32 163e e61a 033d 0e04 b23b
000001c0: d4f7 073a a244 723b 783a 6f3c b377 453d
000001d0: adf7 0f3b df69 cfbc 4415 1d3c 8923 eabb
000001e0: 8687 b4bc a540 b33a 098a 5a3e ecf6 be3c
000001f0: 2144 dabd f641 cd3d cdf3 ae3c e5cc 1a39
00000200: 816c 3dbe 4840 393d 27cb ac3a 46f7 06bb
00000210: beb1 1f3e 1dd7 0bbc 5caf c7bc e86c fb3c
00000220: c3a8 60bc e3c9 8a39 8a84 5cba b63b 2ebd
00000230: c9d7 23be 627f a13a 4196 8f3d 4b3c 4e3a
00000240: 92ec 2b39 9236 c2bc cb36 13bc fbcc 06ba
00000250: 3edf d1bd 24ca f63a e50b bebc 8777 59bd
00000260: 6d6d f9bd ae88 d8bc bb42 bd3d e64a 15bd
00000270: ee71 21bd e7cf 8b3b 5a8e d83c 614e 2ebe
00000280: 5a2a 0a3a af29 9abc 8b0c 05be 3b68 51bd
00000290: f74a da3d 31fd 31bc d9b0 d93c 8ee1 d0bd
000002a0: 6c4f bc3c edf3 143c fbad d73d 57df acbc
000002b0: 1347 c139 ff4d d2bd 3fb6 b83c 2ab9 173e
000002c0: d626 4638 ee25 0d3d 1b1a 1cbd 98a1 d53c
000002d0: 67c3 a83b 648b e9ba ffac 883b 3df6 91bc
000002e0: f015 bfbd 59f8 56bc 8a08 15be 5f90 3e3d
000002f0: bfb5 003d a6ab 213a 74f7 bebd f865 a4bc
00000300: 16f0 a03b 7290 263e 15ce e7ba 2923 96bd
00000310: 7362 76bc e11d d6bb 4db2 1f3b e60b 99bb
00000320: 5084 bd3c 72be a8bc 0a52 66bc aee0 17bc
00000330: 27c5 cfbd e410 413c 2c58 393c a0f9 6f3a
00000340: e22a 133d 9eef a6bd 2719 1ebe f560 83bc
00000350: 6594 743b 616f 13bd 537c bcbd 6f1e 18ba
00000360: e1af 94bb ea92 c23a b59d 693c 6940 8f39
00000370: 8ff5 35ba 0da5 963c 31ed a7ba cecf 013d
00000380: 79f3 06b9 960f 253e aaee 48bd 3a99 1dbc
00000390: de4e d3bc 7385 b6bc bbff c7bb e0df 31ba
000003a0: 1cc5 80ba 4b7e 9ebc dc41 1e3e 63f4 043d
000003b0: 845c 983c 7531 6f3b 224f da3c 5683 033d
000003c0: b1a7 593c 67b4 123e 53b9 353e cb7f fabb
000003d0: cea9 813a 279e d5ba bdbc b03c 2363 0bbb
000003e0: dbf9 b8bb 2f07 fabc 0f5b ecbc b280 bfbc
000003f0: 20a8 2db9 7945 47be 976e 71bb 1649 053e
