models/all_td3/TD3_TradingEnv7_42_150_critic_1.pth (torch, 582239 bytes, 5 tensors)

layer_1.weight f4 [400, 60]
00000000: 4a04 9ebe 4891 123d 8dad 80be 25bb 1abe
00000010: e9b5 4a3d 1b04 cebe 7b17 593d 0c1e 4a3f
00000020: c0e1 44bd 9312 90be b941 96be 7d6e 69be
00000030: 74b5 98be f8ee c7bd d28e b1b9 ff5a 6abe
00000040: 82d5 8abe 5114 7fbd 9378 5bbe 7c56 dcbe
00000050: a8d8 8ebd b262 d8bd a4e2 a6be b6da 1e3d
00000060: a15b a1bd 17e3 f4be 1f78 24be 2a9f afbe
00000070: 45cf fcba e673 36be 96bf ebbd 4e88 e93e
00000080: 8bf6 bfbd ecfc c2bd c2a6 39be b6c9 24bd
00000090: abb4 7ebe cb71 96be 68c0 1bbe 4fce 6fbe
000000a0: b971 8c3e e390 0b3e 4902 8c3c d436 863e
000000b0: 8922 2dbd ccea 5b40 307f 3e3f 618c 143f
000000c0: 734c b13e 4252 83be b0e3 263d 907d 7d3d
000000d0: 96ef 02bd 54f2 853d 2f11 aabd bcdc 8a3c
000000e0: e9ab 79bd 5011 48be 9c22 99bd ec52 22bc
000000f0: 3317 a13e a852 6bbe 645a d33e 4abb bb3e
00000100: 392f 14bf b07c 7f3e 487f a83e e7b6 e43e
00000110: 2404 693d ef84 37bd 1f4c abbe 99c8 d9bc
00000120: 5c49 7fbd cec6 d3be e299 043d aff1 a6bd
00000130: 2c09 e03e ebd3 6339 b794 7c3e 691c f2be
00000140: 6f49 fe3d 4f8e 6c3e 135d 00bf 79d3 cebe
00000150: ccfe 4cbe 56c7 493f eb3b 95bd 7e63 36bd
00000160: 3010 d7be 2cf4 57be ad00 35be f24f c33e
00000170: c8e9 7d3e f492 9dbd 5dd8 14bf 25d2 fd39
00000180: 9dc2 babd 98ea a4be 08f6 5cbc b9a2 a0bd
00000190: 2333 853e 23fb a23e 24b4 63be c7c0 043e
000001a0: 97ee ec3c 7edc bb3f 2f90 303f e998 133f
000001b0: 1730 0c3f fa22 01bd 803c f43d 9467 e9bc
000001c0: 1ade c53d 6054 c43b 928b 9bbe 1c7e ae3c
000001d0: 4894 2abe d7fe c43d 4ca6 24bd 78af b7be
000001e0: 169d 233e ad9a 4fbe 1993 f43d 43d6 5e3e
000001f0: 1dd4 c5bd f566 563e 3820 33bc a38b da3e
00000200: 6118 ea3d ea3a be3e 1335 77be c0d8 813e
00000210: 11b1 b83e 7890 17be dd1e c9bd 7978 033d
00000220: 5bec a0bd 15c3 9abd a185 393e 4c27 9ebe
00000230: 0d01 de3d 75cf 933e 230d 613d 2c31 bbbc
00000240: 0518 34bd efd6 debd 430f 53bd 8778 973a
00000250: 64dd 9dbe 71a2 ae3d e9db 0c3e 7716 743d
00000260: dd46 663e 0370 7bbe 56ad aa3b d20c 1cbd
00000270: aea1 023e 337e 12bd a9f7 623e 4af0 103e
00000280: 2391 5ebe b269 ce3e 4712 e5bc 5d48 583e
00000290: d287 ae3d 7f50 38c0 1c32 4dbf 92f2 5dbf
000002a0: 4142 81bf 8cf5 f6bd 5325 a3bd e07b 833c
000002b0: e289 a43d 4ee1 eb3d 8d38 e63d bf63 4dbe
000002c0: a094 7cbd 83cf 59be 50cd 7f3d a2d2 fa3d
000002d0: 1eed 2fbe b73d f03c 9d29 91be d441 96be
000002e0: e4f4 803e 3819 35bd 0b04 003e 32e2 3e3f
000002f0: fe38 973d a01c 9ebe 6126 ba3d 0ae3 08bf
00000300: 3e00 cabe 36a7 5f3c 9c6a 00bd 6abb 9e3c
00000310: 5d4a 59be 4227 11be d519 e1be 354f 133c
00000320: 1f1e fbbe 3b1c cebe 24c2 dfbe 8a16 91bd
00000330: a6f3 e1bc c60e 843f 151a 27be da23 f9bd
00000340: 30ee 283e 10a6 33be 5118 85be be39 32bf
00000350: a459 9cbe ab0c 96bb 9271 adbf 0dff 2abd
00000360: 103e 60be ff90 12be cd3a 3cbe 11d6 32be
00000370: 0c8d 74be 65e5 23bd 02b4 693e 3498 b53d
00000380: 0141 d43d 4c3e d83f 856e 4c3f 96ea 3c3f
00000390: 551b 153f acab 54be 002a d139 5356 ffbd
000003a0: b0a6 a1bd 0c65 4f3d 391a 9abe ca61 ccbd
000003b0: a5a1 4e3e 164b b5be cf1d 92be da99 4a3e
000003c0: 33ed 0c3f 6518 65be a4a3 103f bc76 073f
000003d0: 42f2 9abf e2d9 8d3e 007b 303f e6d6 213f
000003e0: 37cc 353d a23d 2e3e 87ea 23bf 379d 513e
000003f0: fb70 903e 424a aabe b86d 1dbd 2ddd bc3c
-0.30862647 0.035783082 -0.2513241 -0.15110452 0.04948989 -0.40237507 0.05300091 0.789521
-0.048066854 -0.2813917 -0.29347017 -0.22796054 -0.29825938 -0.097623765 -0.0003386648 -0.22886275
-0.2711602 -0.062275235 -0.21432714 -0.43034732 -0.06974918 -0.105657 -0.32594788 0.038782798
-0.07878805 -0.47829506 -0.16061448 -0.3430112 -0.0019287845 -0.17817649 -0.115111515 0.45611805
-0.09373196 -0.09520897 -0.1813002 -0.04023143 -0.24873607 -0.29383692 -0.15210116 -0.23418544
0.27430514 0.13629489 0.017090933 0.26213706 -0.042269263 3.4362059 0.7441282 0.580267
0.3462864 -0.25648695 0.040744483 0.061887324 -0.03196677 0.06540361 -0.08304059 0.016950957
-0.060954962 -0.19537854 -0.07477304 -0.009907465 0.31463012 -0.2298075 0.412799 0.36666328
-0.57884556 0.24949908 0.32909608 0.44670793 0.056888714 -0.04480451 -0.33456513 -0.02658491
-0.06232582 -0.41362613 0.032373317 -0.08151566 0.43756998 0.00021727353 0.24666105 -0.472873
0.1241635 0.23101161 -0.5014202 -0.40395716 -0.20019072 0.7881979 -0.07286819 -0.044528477
-0.42004538 -0.21089238 -0.17676039 0.3814693 0.24796212 -0.07694045 -0.58142644 0.0004841249
-0.09119151 -0.3221023 -0.013486393 -0.07843537 0.26015577 0.31832227 -0.22236687 0.12964164
0.028922362 1.4676664 0.68970007 0.576552 0.5476088 -0.031527497 0.11925602 -0.028491773
0.09661503 0.0059915036 -0.3037992 0.021300368 -0.16658127 0.09618919 -0.040197656 -0.3587606
0.15977892 -0.20273848 0.11942119 0.21761422 -0.09659598 0.20937712 -0.0109329745 0.4268466
0.11430431 0.37154323 -0.2414134 0.2536068 0.3607259 -0.14801204 -0.0982034 0.032097314
-0.07857581 -0.0755674 0.18117382 -0.30889356 0.10840044 0.28869215 0.05494417 -0.022850595
-0.04396822 -0.10880839 -0.051528227 0.0011556306 -0.3083297 0.08527077 0.13755764 0.059591737
0.2248797 -0.24554448 0.0052086515 -0.038098164 0.12756988 -0.035764884 0.22164787 0.14154163
-0.21735053 0.40315014 -0.027962817 0.21121354 0.085219994 -2.879913 -0.80154586 -0.8669826
-1.0098344 -0.12058553 -0.079661034 0.01605028 0.080341116 0.11517583 0.11241255 -0.20057581
-0.061665177 -0.21270566 0.06245166 0.12247206 -0.17180297 0.029326303 -0.2835206 -0.29347098
0.25186837 -0.044213504 0.12501542 0.74563897 0.07383917 -0.30881214 0.090893514 -0.53471434
-0.3945331 0.013650706 -0.03135167 0.019376475 -0.21219774 -0.14175132 -0.4396502 0.008991052
-0.49046418 -0.40255913 -0.43702805 -0.07084377 -0.027582001 1.0317008 -0.16318543 -0.12165041
0.16497111 -0.17543817 -0.25995114 -0.6961936 -0.3053714 -0.004579147 -1.3550284 -0.04174714
-0.21898675 -0.14313124 -0.18381806 -0.17464472 -0.2388193 -0.04001369 0.22822574 0.08866921
0.10363961 1.6894011 0.7985614 0.7379545 0.5824483 -0.20768613 0.0003989488 -0.12467637
-0.07893121 0.050633475 -0.3009813 -0.09979589 0.2017885 -0.3540885 -0.28538367 0.19785252
0.5504944 -0.22372587 0.56499696 0.5291555 -1.2105181 0.27705294 0.68937683 0.63218534
0.044384208 0.17015699 -0.64029735 0.20470129 0.28211197 -0.3325978 -0.038434714 0.023054684

layer_1.bias f4 [400]
00000000: 2ecc b3be aad3 f33b 0c0f 8abe 404e 033e
00000010: 6c53 d83d e7c3 2dbe 0a42 52be 3457 74bd
00000020: b7e1 cabe f49c 4dbe 5be7 64be de6e c4be
00000030: e443 56be 81c8 6dbe dceb 983e a756 153d
00000040: 046a dbbe 01e1 b63e 56fc 16be 515f e13d
00000050: 2ca1 1e3d 73de 6abd bf18 31be ecc3 8c3d
00000060: 908a 373e 8b24 323e cee4 82be 4573 03bc
00000070: 1d75 b73e cfa5 6ebe 4775 60be 8a3e 873d
00000080: 9837 88bd 511c b03e c739 6d3d 2e4c 9dbe
00000090: ecd9 48bd c240 b13e 3bc2 debb 27c0 cebd
000000a0: 99c7 b33c 5ffe 07be 35e7 ca3c ace5 d43d
000000b0: fb56 c03c 62e2 a4be e19c 003e ab43 6c3e
000000c0: e0e9 db3e 2e99 a4be 5549 77bd 07d4 023e
000000d0: fbca debd 80ce 9fbd e57c 853e 858a 0cbe
000000e0: 1a17 47be a1ff bebd 25c6 31bd 4f89 513e
000000f0: d198 9bbe fc94 c3be 11c7 8b3e 53b2 f5bd
00000100: 409d 69be 0787 b23e 4a5b 9a3b 9c47 2a3f
00000110: 2e00 3e3f e600 81bc 5c0c 2fbe b8d0 7fbe
00000120: 5b4a 7ebe d627 8abe 9395 cc3d b5b2 0b3d
00000130: c5af ccbd 9988 bb3e a8b0 a9be 5b87 c43e
00000140: 2fe1 1dbe 80b6 64be fa23 7f3e f932 4a3e
00000150: 13d7 fcbd e02d 2e3e 6cf2 893d 58a8 a53e
00000160: 44cf 2a3d 9298 82bc 0878 8c3e 9517 48be
00000170: b877 763e ec50 c53e 1832 5abe ff27 6dbe
00000180: fd08 cfbc 93a4 b4be 0512 acbe e8a9 adbe
00000190: 30da 4f3d 36d4 8bbe 4ff4 7ebe d4e2 a03e
000001a0: 0b6c ce3e 53d7 97be baa7 92bb 122a ad3e
000001b0: 6375 4bbe 50e4 cb3e b112 8dbc f5f2 2abe
000001c0: 053a 8fbe bf06 f5bd 8d7f 47be 6b63 5ebe
000001d0: b4c8 1fbe 4272 b3bc 8a7b 83bd fe74 babd
000001e0: 405d 523e 4597 533e f1e8 3cbd ec9c 283e
000001f0: 7980 213d 5b16 c0be 6d77 783e 3ba8 06be
00000200: 23d3 c7bb eea5 a0be 18d4 b9be e383 3bbe
00000210: 1663 45be 9857 7cbe 9b8a 0e3b 77be f5bd
00000220: 1113 72be 4602 84be 4e0a fc3e 6fa0 683e
00000230: 2e35 e3bd 5900 b3bc 857d dfbe bdab e93e
00000240: 74d7 a3be b15e 2f3c 471c dbbd 3e49 213e
00000250: ff4b 3bbe cc12 d5be 3263 eabd f613 723e
00000260: fc49 4d3e 8056 4bbc 2db8 763e 336f 9d3d
00000270: dfc1 4bbe c0da 98be 3def 413d 1f2a 54be
00000280: fa7a 3ebe 11be 0f3e 56c6 883e a93c 9abe
00000290: fb02 4f3e 08cb b4be f298 babd 5505 a3bd
000002a0: 97bb 98be f262 d23d 3fa8 16be 1e9e 06be
000002b0: d26a 0fbe 8a7f b4be 1496 8bbe 063e 81be
000002c0: 7fea b6be 6ca4 f93e 85fe c63c 3535 ea3c
000002d0: 9a38 f93e c5fe e23d c4b5 bd3e a21c 4f3f
000002e0: 64eb 97be a984 febb a6f3 6cbe 761d 0ebe
000002f0: 720f 073d 8c21 83bd a505 bdbe ec6b b33e
00000300: 9c14 9a3c f41e 6f3d 0669 1e3c 3957 08be
00000310: cff2 9cbe cd88 80be fc25 17be 53e6 38be
00000320: 113f 0f3e a209 4a3e dd8a 893d 4dd2 163f
00000330: 0545 ed3d ff11 1a3e 3658 28be 3adb 7a3d
00000340: ec13 b1be 33ee dd3e dc42 30be 03ea adbb
00000350: d419 09be 3f3c 04bd b3c5 8bbe 428d 8ebe
00000360: 7e49 cebe 7dd5 a3be f997 82be 1291 513d
00000370: 6a8e 8a3b f153 943d 2979 cb3d cc17 78be
00000380: 64c0 98be f3bb 333d 9768 ac3e 539f c1be
00000390: c903 37be 4b83 72bd 2c2e 16bf f4fc b1be
000003a0: a397 d2be 8425 b3be dd58 7b3e b384 f9bd
000003b0: b0b7 15bd 304e 3fbc 2f90 97be 6c18 5b3e
000003c0: d23a 553e f58b 26bd c778 c63e a5ae 24bd
000003d0: a493 7abe ad42 edbd e695 03be 97ec 37bc
000003e0: 3821 603e 6690 b93e efe9 65be eefa 663d
000003f0: 22d9 113e 32e1 e0be 0118 783d 071a 74bd
-0.35116714 0.007441004 -0.26964605 0.12822819 0.105627865 -0.16969262 -0.20533004 -0.059653476
-0.39625332 -0.20079404 -0.2235388 -0.38365835 -0.20924336 -0.23221017 0.29867446 0.03645959
-0.4285432 0.3571854 -0.14744696 0.11004508 0.038727924 -0.05734105 -0.17294596 0.06873307
0.17923951 0.17396753 -0.2556519 -0.008023088 0.35831538 -0.23305438 -0.21919738 0.06603725
-0.06651229 0.34396604 0.05791643 -0.30722183 -0.04903595 0.3461972 -0.0067980564 -0.10095244
0.021945762 -0.13280629 0.024768451 0.10395369 0.023478976 -0.32203966 0.12559845 0.23072688
0.4295187 -0.32148117 -0.06037267 0.12776195 -0.10878559 -0.078030586 0.2607185 -0.13724716
-0.19442406 -0.09326101 -0.043401856 0.20462535 -0.30390027 -0.38199604 0.27300313 -0.11996903
-0.22813892 0.34868643 0.0047105895 0.6651552 0.74219024 -0.015747499 -0.17094558 -0.24981964
-0.24833052 -0.26983517 0.099894665 0.034105975 -0.09994463 0.36627653 -0.3314259 0.38384518
-0.15417932 -0.22335243 0.24916068 0.19746007 -0.1234571 0.17009687 0.067356914 0.32355
0.04170157 -0.015941892 0.27435327 -0.19540246 0.24069107 0.385383 -0.21308172 -0.23159789
-0.02527284 -0.3528181 -0.33607498 -0.3391869 0.05074519 -0.27310342 -0.24897884 0.31423056
0.40316805 -0.29656467 -0.004475561 0.3382116 -0.19868998 0.39822626 -0.017220827 -0.16694243
-0.27973953 -0.11964177 -0.1948225 -0.21717612 -0.15603906 -0.021905068 -0.064200476 -0.09104346
0.20543385 0.20663173 -0.046120588 0.16466111 0.03942916 -0.37517056 0.24264307 -0.13150112
-0.0060981675 -0.31376594 -0.36294627 -0.1831203 -0.1927608 -0.2464279 0.0021750096 -0.11999219
-0.23640086 -0.25782984 0.49226612 0.2271745 -0.110941276 -0.021850752 -0.4365045 0.45638838
-0.32000315 0.0107037285 -0.10698753 0.15750596 -0.18290709 -0.41615903 -0.11444701 0.23640427
0.20047754 -0.01241076 0.24093695 0.07687225 -0.19898175 -0.29854393 0.047347296 -0.20719193
-0.186016 0.14037348 0.26713818 -0.30124405 0.2021598 -0.3531115 -0.09111203 -0.079600014
-0.2983062 0.102727786 -0.14712618 -0.13146254 -0.14005592 -0.35253555 -0.27262938 -0.25242633
-0.3572578 0.48758256 0.024291286 0.028589824 0.48675996 0.1108375 0.3705274 0.80903065
-0.29671776 -0.007767279 -0.2313982 -0.13878426 0.032973714 -0.06402883 -0.3691837 0.35043275
0.018808655 0.05837913 0.009668594 -0.13314523 -0.30653998 -0.2510437 -0.14760584 -0.18056612
0.13988902 0.19730237 0.06715939 0.58914644 0.1158543 0.15045927 -0.164399 0.061244227
-0.34585512 0.43345794 -0.17213005 -0.0053074374 -0.13388759 -0.032284018 -0.2729927 -0.27842146
-0.40290445 -0.31998816 -0.2550657 0.05116374 0.004228403 0.07242573 0.09935219 -0.24227828
-0.29834282 0.043880414 0.33673546 -0.37816867 -0.17872538 -0.059207242 -0.586642 -0.347633
-0.41131315 -0.3498956 0.24545617 -0.121835135 -0.03655213 -0.011676356 -0.2960219 0.21396035
0.2082322 -0.040660817 0.3876402 -0.040205617 -0.24470383 -0.11584983 -0.1285015 -0.011225841
0.21887672 0.3624298 -0.2245252 0.05639165 0.14242986 -0.4392181 0.060569767 -0.059595134

layer_2.weight f4 [300, 400]
00000000: 83b3 a73b 16fe e9bc 3d95 1b3a ac1b efbd
00000010: bf26 92bd 794c f93b ca6f 3a38 64df 10bd
00000020: 58fa 3abd 9c8f 08bd f58b 5dbd b207 b4bd
00000030: 706f 2fbd 4054 91bb ebb0 62bd 87d0 83bd
00000040: 6da5 15bc 7d64 64bb db58 3ebd 970d 83bc
00000050: 3885 1d3b 761d 21bd b613 443b e3e4 193d
00000060: 72c2 e03c 3c43 50bd 363a 0e3d e3e3 d33a
00000070: 52d0 3ebd d30a ccba 5f25 6fba 2114 95bd
00000080: dbaa a5bd 00b6 0ebd b30e eabb c0ed 34bd
00000090: aec4 18bb 2674 c2bc 2b53 3ebc ee9e 963b
000000a0: 937e 12bd 8deb 7cbc 2927 4cbc 6978 b7bb
000000b0: 93a1 f4bc f1a3 44bd 8ed0 acbc bde4 3abd
000000c0: aff5 52bd 69f9 92bc 0765 33bd 6c11 02bc
000000d0: 0cbc acbd 1858 76bd b128 57bc d836 873c
000000e0: b771 61bd 42a9 033d e045 183d 2773 4e3c
000000f0: 36e0 27bc 3798 b6bc 730f a7bc b979 92bd
00000100: 317d 44bd 9a36 6cbd c473 b2bd b26a f9bc
00000110: 72e7 4abd 96bd a53c f698 20bb e918 edbc
00000120: 4b94 54bd 0782 27bd 35e6 62bb d8c2 c1bc
00000130: c2f5 b73c 6f84 c33b 07c5 3dbd 90ce b0bd
00000140: 7d9c 45bd a93a 8fbd eff4 04bc daff ef3c
00000150: 43da 81bd b4fd 95bd bf99 aabd f5ae 9ebc
00000160: c3d0 9fbc c541 9db9 7797 4dbd b62b 59bc
00000170: f89d 11bd 7e31 a53c e038 1e3d 8df9 423c
00000180: 3ede afbc fed4 e33c 5e6a 0abd c60d 13bc
00000190: 55a5 f6bc 5c92 f03c 77e9 37bd d959 bdbd
000001a0: ccf6 13bd 47ea 2abc ace4 0b3d 508a 8fbd
000001b0: 35a9 54bd 5d2d 5bbc 0b1e b63c bb3c d3bc
000001c0: c316 4bbd e115 17bb a98a 1ebd f8af c33b
000001d0: 45fb 23bd 4992 0abc 8abd 97bd 7ac0 6cbd
000001e0: 186a ea3c e998 bdbb 592c 82bd 73df 17bc
000001f0: 871a 223d 385b febb a57a 2fbd 141d 403c
00000200: cf6c 0dbc 0f52 2c3d 8c3b 25bd 633f 8ebc
00000210: d165 f8bc 180b 83bd 7a57 63bb 37ed 6e3c
00000220: 97fc ad3c e6a5 58bb c94e 50bb 7cdd 87bd
00000230: ae8c 7bbc 2799 84bd 3b05 30bd 2f62 eebc
00000240: 71f7 4bbd 3044 72bc 5680 0abd e8ee e7bb
00000250: 3f0d 3bbb 7d29 e43c 2cdc 29bd 26b8 da3c
00000260: 2005 7cbc efe2 bdbc a6fc 3b3b 5544 4fbd
00000270: e933 25bc 2d88 1abd c4e1 26bc 25e8 9fbd
00000280: 4bfb c33b 1b7b 9dbd 7278 2d3c d0d4 7dbc
00000290: 074a 80bd 608c debb c879 9cbd b3c1 14bc
000002a0: 8347 06bd 1989 c73b 8f73 a33c 4f3c 20bd
000002b0: cf50 c9b9 5fa0 56bb cf57 15ba be30 60bd
000002c0: 89d7 c8bc 35db 62bd 00ce 54bc 8273 953c
000002d0: e22c 1abd 1a2d 91bc c167 e8bc ae99 80bc
000002e0: 208c d3bc c76b e53b 1c53 6dbd 7501 83bd
000002f0: ffd5 48bc 00a7 4dbc 73f9 9bbb 3383 8bbd
00000300: 506c b03c 50ff 21bb 364d 56bd 4dbf 393d
00000310: c41b 54bd 604e b43b a512 bd3b e794 67bc
00000320: d42e 3dbc 3141 44bd 9253 9dbd 5030 50bd
00000330: 934f 423c a1db 4d3c a68a c1bd 50bf a9bc
00000340: 40ff a7bd ff93 25bd 68ee ad3c 0458 303b
00000350: 8bf7 1d3c b309 97bb 32fd a4bc baa5 80bd
00000360: f798 afbd 72c5 0abd 7f8e 763c 382f 8fbd
00000370: 4bd7 84bb a650 4dbd 7b72 c5bd 4010 2f3d
00000380: fa4e 89bd 94d3 44bb 794a 81bc bff1 f5bc
00000390: c62f 95bc f9de dcbb 5072 743a fe84 a7bd
000003a0: c42a a2bc 5782 bdbc 0987 aabc dee6 19bd
000003b0: fdfa 8cbc adc5 8e3c 1448 aabd 9289 20bd
000003c0: 5b5f 54bd 6c86 51bc 4982 39bd 768e 2ebd
000003d0: 3624 d3bc 7bc5 013d b714 8dbd b220 cb3c
000003e0: e6a7 31bd 5ee4 20bd e3d7 1ebb 87a0 b2bb
000003f0: ddcf 7fbd 9cee c9bc 8dbd d9bc c190 0bbd
0.005117835 -0.02856354 0.0005935019 -0.116752 -0.071362965 0.007607993 4.4449967e-05 -0.035369292
-0.045648903 -0.03334008 -0.05408855 -0.0879053 -0.042830884 -0.004435092 -0.055344503 -0.06436258
-0.009133679 -0.0034849935 -0.046471458 -0.015997691 0.0024035703 -0.039334737 0.0029918975 0.0375718
0.027436469 -0.05084537 0.034723483 0.0016165938 -0.04658539 -0.0015567191 -0.0009122695 -0.0727923
-0.08089229 -0.034841537 -0.0071428656 -0.04417205 -0.002331059 -0.023737025 -0.0116165085 0.0045965826
-0.03576524 -0.015437019 -0.012460508 -0.005599071 -0.0298622 -0.04800791 -0.02109554 -0.045628298
-0.051503833 -0.017941194 -0.04379752 -0.007938724 -0.084343046 -0.060142606 -0.01313226 0.016505644
-0.055040088 0.03214384 0.037176013 0.012600697 -0.010246327 -0.022289379 -0.020393109 -0.07152123
-0.047970954 -0.05766926 -0.08713487 -0.030446384 -0.04953713 0.020232003 -0.0024505234 -0.028942542
-0.051899236 -0.040895488 -0.0034622077 -0.023652479 0.022456054 0.005966715 -0.046330478 -0.08633149
-0.048244942 -0.069936104 -0.008115037 0.029296804 -0.06340458 -0.07323781 -0.08330106 -0.019370535
-0.019508725 -0.00029994376 -0.050193276 -0.01325505 -0.03555104 0.020165201 0.03862846 0.011900318
-0.021468278 0.027811524 -0.033792846 -0.008975452 -0.030108133 0.029366665 -0.044900384 -0.09245653
-0.036124036 -0.010431833 0.034153625 -0.07008803 -0.05191918 -0.013377515 0.022231122 -0.025785794
-0.049582254 -0.0023053812 -0.038706455 0.005971905 -0.04003455 -0.008457729 -0.074091986 -0.057800747
0.028615043 -0.0057860506 -0.06356115 -0.009269583 0.03957608 -0.007762339 -0.042841572 0.011725683
-0.008631899 0.042070445 -0.04033999 -0.01736421 -0.030321987 -0.063986 -0.0034689591 0.014582924
0.021238608 -0.0033057868 -0.003178524 -0.06634042 -0.015353365 -0.06474524 -0.04297374 -0.029099552
-0.049796525 -0.014786765 -0.033813797 -0.0070780404 -0.002854183 0.027851814 -0.041469738 0.026699137
-0.015382081 -0.0231795 0.0028684526 -0.050602276 -0.010083177 -0.037727524 -0.010185663 -0.0780795
0.005980884 -0.07689496 0.010587798 -0.015492633 -0.062641196 -0.0067916363 -0.076404154 -0.009079385
-0.032783043 0.0060893414 0.019952564 -0.039120015 -0.00038397915 -0.0032749397 -0.00056969834 -0.054733984
-0.024516838 -0.055384833 -0.012988567 0.018243555 -0.03764046 -0.017721701 -0.028369786 -0.01569828
-0.025823653 0.0070013735 -0.057940587 -0.06396762 -0.012258052 -0.012552023 -0.0047599613 -0.06812134
0.021536022 -0.0024718828 -0.052319728 0.045348454 -0.051784292 0.005502507 0.005770045 -0.014134622
-0.011546809 -0.047913734 -0.076819554 -0.050827324 0.011859792 0.012564571 -0.09450273 -0.020721108
-0.08202982 -0.040424343 0.021231845 0.002690793 0.009641538 -0.0046093105 -0.020140264 -0.0628161
-0.085740976 -0.033879705 0.015048622 -0.06991428 -0.0040539852 -0.05012574 -0.09640976 0.042740107
-0.06704517 -0.0030033337 -0.015782582 -0.0300225 -0.018211257 -0.0067404476 0.0009324895 -0.08179663
-0.019795783 -0.02313344 -0.020816343 -0.037573688 -0.017209524 0.017428244 -0.08314529 -0.039193697
-0.05184875 -0.012788396 -0.045290265 -0.04261633 -0.025774103 0.031682473 -0.06888717 0.024795864
-0.04337301 -0.039280288 -0.0024237565 -0.0054512653 -0.062454093 -0.02464991 -0.026579643 -0.034073595

layer_2.bias f4 [300]
00000000: 5946 b3bd b9d4 8fbd d456 59be 346b 38bc
00000010: 49c8 893b cb94 2cbe a2e8 4fbb bc2d babc
00000020: fa9b d2bc e3f5 ff3c 5001 2bbc 7260 78bc
00000030: 34c4 0bbe b316 e6bd 6d89 9bbd 1fca 93bd
00000040: 8dd7 903e b8ce 08be b46b 8c3d 5618 a93c
00000050: 5b53 dd3d 7d1e 6dbd 088d 04bd aaf3 cbbc
00000060: 6409 8d3e 4288 6fbc 5b85 18bd 567b 9dbe
00000070: ada8 bfbd 38b9 77bd 80ac f83e b5f4 a1bd
00000080: 4a2f a5bd bbfd 03bd 603a f63e a734 7abd
00000090: 3fe0 ab3e d640 fabd 2d6c 2fbd e4c6 553e
000000a0: 3b4a 023f 8fb2 f33e 0224 45bc 17e2 a8bd
000000b0: 7fd4 69be 4682 8cbd 5fa9 09bd 92e3 84bd
000000c0: 9cb3 31be 04a3 86bc dda0 1cbd ccb8 223b
000000d0: 5bdd 87bd 7530 323b e8a0 32bd f76d b7bd
000000e0: 2374 033f 9c1e 35bc 9a2b 9bbd 9824 3ebd
000000f0: 657c 97bb 50ef 82bd 3036 68be da96 0439
00000100: 63c5 2fbe 9f1b eabd dc67 efbd eaa4 b9bd
00000110: 53b4 afbd a47d 6a3c 2243 66bd 21e4 fbbc
00000120: 087a 9d3e 8b88 8bbd d2d7 b43c dd2a 15bd
00000130: f436 99bd 19f3 133d 6096 d7bd 2adb a7bd
00000140: e2ea c7bd 05c5 273d edcb 56bd bf4d 4cbd
00000150: a9bf e93e e6e4 27be ebef 7abd df50 bbbc
00000160: 81d1 dcbc f4d5 1dbd 4b12 16be ae90 afbd
00000170: f907 d93e fb87 a1bd bcb8 1a3c a425 873c
00000180: cc24 0dbd 5d61 fbbd 00a6 2dbd 63ac f4bd
00000190: db1a 473d 8dbb a3bd 844f bcbd dfb8 adbd
000001a0: 2695 c8bd 3eeb c93c ed35 65bd 0a4b bcbd
000001b0: 8e4d 393f 2f66 6fbd ac16 66be 5944 1cbe
000001c0: e6b7 80bd 4633 1b3f b9fc cfbd 56e8 14bc
000001d0: 1b83 09be 40f4 bd3e 565b a1bd 4ebb 1cbe
000001e0: 6fc1 c8bd bffe 83bd 5601 4abd ed9a 32be
000001f0: 7b5f e7bd 3755 05be 7ea7 153d 9805 ee3b
00000200: 026a f4bc 93cd adbd 2e0e 113c 14f6 9a3e
00000210: 9693 a7bc d81e a8bd 8d56 47bd fdd4 5ebe
00000220: c9e2 afbd b0cd dfbc befd 31be 9b3b 193f
00000230: 605b 20bd 5305 88bc a4c4 8bbd 714c 4b3d
00000240: 2bf9 31be b655 92bd 392e ccbd 9f5d 0a3f
00000250: 9748 edbd 334f bcbd 9826 8ebd 87e5 89bd
00000260: 6b49 943c c401 68be 6488 32bd b04b b1bd
00000270: 846f 61bc 112c a7bd d832 28bd ebf4 3ebe
00000280: dd57 70bd b046 533d 1897 ec3b d2e5 0e3f
00000290: 29ae 21be 6cb5 c83e cf36 b7bc 8430 37bd
000002a0: 9ef8 2abd cb86 79bd 04f5 89be 6e3a 98bc
000002b0: 3d44 6dbe 4db0 72bc befd 3dbe ef9a 32bd
000002c0: d348 163f 1395 bcbd 39b1 07bd 0d2e a03e
000002d0: 8c29 883d 4a0d dc3c 7932 70bd f352 a4bd
000002e0: 41db 9f3d 5c11 a13e 2e41 ce3c f630 09be
000002f0: 467f 2fbe 0a58 74bc 61b2 b5bd a009 e4bc
00000300: d464 95bd 7c0e 12bd eee3 56bd d4db a2bd
00000310: df43 6dbd b4ce 11bd 78be 063f bd86 8dbd
00000320: 9010 23bc 6993 34bd 4138 a83e 3352 2fbe
00000330: 603c 02be f5c7 56bd cf67 50bd 3e04 3bbd
00000340: a739 333c 6307 fabd b8e2 d03b 7ae1 ad3c
00000350: 6b56 bbbb ef76 9f3a 4767 22bd 0b1b 923d
00000360: 36dd 38bd 036b d33e a225 02be 6cbf 9d3c
00000370: 0c56 6fbd 4f0a 24be 1362 033f 6456 a2bd
00000380: 7e52 52be 2375 d13e e1a0 1f3d 71b8 c5bd
00000390: 8c85 3dbd 8108 4a3b dc3e 5ebe 8a44 833e
000003a0: d589 253c aa91 70be c4f2 16be 1d89 053d
000003b0: 687b 1dbd 7634 0b3f c162 ca3d 9d74 aabd
000003c0: d6a8 a0bc 511e 39be b4e0 173e d827 db3e
000003d0: 6a0e 2ebd 641d f9bd 0e1b 5bbd 9b08 ac3c
000003e0: c7e5 223f 11c4 ae3e 91f6 fcbd bbf3 253e
000003f0: addf cc3e d078 ecbd a466 53bd f7ea 66bd
-0.08753652 -0.070229955 -0.21224529 -0.011256028 0.004204784 -0.16853635 -0.0031724353 -0.022726886
-0.025709141 0.031245178 -0.010437325 -0.015159713 -0.13649064 -0.11234798 -0.07594571 -0.07216286
0.28289452 -0.13360107 0.0685648 0.020641487 0.108069144 -0.057890404 -0.03236106 -0.024896462
0.27546227 -0.014619889 -0.037236553 -0.3075816 -0.09358344 -0.060479373 0.48569107 -0.07908002
-0.0806566 -0.032224398 0.48091412 -0.06108537 0.33569524 -0.12219398 -0.042827774 0.20876652
0.50894517 0.47597167 -0.012032511 -0.08246248 -0.22834967 -0.06860785 -0.03360879 -0.06488718
-0.17353672 -0.016435154 -0.03823935 0.0024829386 -0.06634017 0.0027189527 -0.043610483 -0.08956521
0.51349086 -0.011054661 -0.07576676 -0.046421617 -0.0046229833 -0.063933015 -0.22676921 0.00012644698
-0.17165141 -0.114310496 -0.116897315 -0.09064658 -0.08579316 0.014312182 -0.056216367 -0.030748429
0.30757165 -0.06813153 0.022075567 -0.03641783 -0.074811846 0.036120508 -0.10526729 -0.08196099
-0.09761597 0.040959377 -0.052440573 -0.049878832 0.45654038 -0.16395912 -0.06126396 -0.02286571
-0.026955368 -0.03853412 -0.14655416 -0.08572517 0.42388895 -0.07887264 0.009443458 0.01649744
-0.03445892 -0.1227443 -0.042394638 -0.11946943 0.048609596 -0.07994757 -0.09194854 -0.08482527
-0.09794073 0.024648305 -0.05595963 -0.09194 0.72383964 -0.05844706 -0.22469586 -0.15260448
-0.06285076 0.6062511 -0.10155625 -0.009088596 -0.13428919 0.3710041 -0.07878749 -0.15305826
-0.098025195 -0.06445073 -0.04931768 -0.17441912 -0.11297508 -0.13020788 0.036536686 0.0072638504
-0.029835705 -0.08486476 0.008853478 0.30265868 -0.020456117 -0.08209008 -0.048666526 -0.21760936
-0.08588178 -0.02731976 -0.17381951 0.59856576 -0.039149642 -0.016604101 -0.068246156 0.049633447
-0.17380206 -0.07145254 -0.09969754 0.54049104 -0.11586111 -0.091947936 -0.06940955 -0.06733232
0.018101415 -0.22656924 -0.043587103 -0.08657014 -0.013759498 -0.08162702 -0.041064113 -0.18648116
-0.058677543 0.051581085 0.00722016 0.5581943 -0.15789093 0.39200914 -0.022365002 -0.044724002
-0.041741006 -0.060919564 -0.26944745 -0.018582549 -0.23170562 -0.014812541 -0.18553826 -0.043604787
0.5870487 -0.09208121 -0.033127997 0.31285134 0.066485494 0.026861805 -0.058641884 -0.08023634
0.07805491 0.31458557 0.025177564 -0.13397583 -0.17138395 -0.014913568 -0.08871914 -0.02783662
-0.07294622 -0.035658345 -0.052463464 -0.07952085 -0.057926055 -0.035597518 0.5263438 -0.06910465
-0.009952679 -0.044085894 0.32855418 -0.171212 -0.12718344 -0.052436788 -0.05088025 -0.045658343
0.010939038 -0.1220844 0.006374683 0.02122568 -0.005717089 0.0012166182 -0.039649274 0.07134064
-0.04513284 0.4129258 -0.12709668 0.019256316 -0.05843167 -0.16019557 0.51321524 -0.07926634
-0.20539281 0.4090968 0.038971785 -0.0965432 -0.04626994 0.0030827823 -0.21703666 0.2563823
0.0101036625 -0.23493066 -0.14741045 0.032601465 -0.038447767 0.54376924 0.09882117 -0.083230235
-0.019611757 -0.18077971 0.14831811 0.42803836 -0.042494215 -0.12163809 -0.0534926 0.021000197
0.6363186 0.34133962 -0.12351716 0.16206257 0.400144 -0.11546481 -0.051611558 -0.056376424

layer_3.weight f4 [1, 300]
00000000: f329 ea3c f61c 7f3a 5726 78bb df5f 94bd
00000010: 8eed e93a 2dc9 8cbd 31fd e03c a87d 2abb
00000020: ad2d d13a bd67 df3c 60a2 9ebe 9e8c 59bc
00000030: bb67 8bbe 2957 6fbd 23e9 efbc cd44 7bbe
00000040: dcca f43d ebc5 afbb 5174 303c 67b7 f73b
00000050: 2c84 7cbf 861a 9a3c 4685 343c 65f6 a3bc
00000060: d02d 303e 39ea dfbc ef1a 88bd 38a4 0abe
00000070: 6e0c b0b7 74c7 99bc 7881 033f 2f5c 7fbc
00000080: 7a85 b3bd 6e72 debc 44f4 f13d ab4a dabd
00000090: 487f bc3d 0d81 4cb9 c1be c53b 9029 be3e
000000a0: b117 693e 8daa 5d3e dc8c a0be 62de 213c
000000b0: f0cd 93ba 757f dabc 8843 dfba c3a9 2ebd
000000c0: fb0d 9ebc ebcb 12bd a2b4 1ebc ac9d fcbc
000000d0: abcd 843c 9c68 86bc 00b5 6ebd 3802 88bc
000000e0: 268c 9c3e 571d b1ba 7010 a63c 8c10 21bc
000000f0: 73be 35bd e880 c33e 1d00 1ebf f191 bd3c
00000100: 041c 133c 0cc4 903b 9001 b6bc f36a fdbc
00000110: 3f06 be3a 40ca 813e 1949 4dbb 06cc 50bd
00000120: 07fb f13d d22d 24bc 8ddb 8abc 79ed 38be
00000130: c897 8e3b a8b1 353d cd8f c4bd 780b c73b
00000140: a5f3 c8bc b034 b7bd 2aeb 003c c245 773c
00000150: db46 b93d 3497 6abd c106 813b b0e1 09ba
00000160: 1255 b13b 649f 92bc 20e3 d3bd e765 ca3c
00000170: 2672 013e 9084 e83c a69a 8f3c ade4 38bc
00000180: 3944 74bc f414 bb3c 5802 2dbc 048f c1bd
00000190: 358d f63c af0e 20bc 9cda 983b 0de7 833c
000001a0: eab6 bbbc 60ed d73c 2633 f4bc 2e4f 16bc
000001b0: e9c6 443e daac 50be a15a bebc 9e28 3ebd
000001c0: 9400 fbba dc2e ae3d 5cb8 babd f423 8d3e
000001d0: 4d1c 60bd 391f 773e e97f b13c d2f3 bd3d
000001e0: 0119 eabc 7e70 e43c b66d db3b 1170 443b
000001f0: 7b3e 65bb cdc5 6cba a565 7fbc 5d5e 3239
00000200: 6b7b 2f3d b105 88bd 6829 f13c c2f5 6d3e
00000210: e4e9 c1bc 9620 24be 8956 b33b e785 0c3c
00000220: 9a6f de3d b2bd 703c 8e74 c3bd 5c14 743e
00000230: b396 a2bc 661c 0abc 0bae 94bb 25c9 0cbc
00000240: 03cf 05be 85d7 fcbb 2f8a 8dbd ea34 153e
00000250: 6a91 5ebd 8ab3 a53c e582 50bc 996d d2bc
00000260: ce98 8fbd 6e7d 0d3b 9b41 2bbc 48a1 da3c
00000270: 7f83 bc3c 41ed ef3c 87b1 e8bb fccc 45bb
00000280: 38cc 113b 9b69 a6bc e611 06bd 4229 fa3d
00000290: b199 18bf b27c 633e 9bb2 70bc 88a9 7a3b
000002a0: e788 00bd 453a 73bd d4a9 0fbe 3d08 4c3c
000002b0: 2167 49be 9db9 73bc 95e3 02be 1223 51bc
000002c0: ac7d 133e afaf 4a3c f6e9 963c 2682 943e
000002d0: fda5 12bc cd46 033c 90c0 de3e 72c4 e239
000002e0: 36c8 bdbd 1fe5 603e 0150 00bd d916 43be
000002f0: 1911 94ba 4029 5bbe 4b80 a9bc a1d4 50bc
00000300: ebdb 40bc 882c 56bb 0c5e cabc d3d3 07be
00000310: 9cdd da3b cc48 95bd 3b0f dd3d 3db4 d0bd
00000320: aa56 503e bf42 5e3c d43d 353e c6fe 6fbe
00000330: 7e75 88be c35f 95bc f619 14be 18bc 0c3d
00000340: 69dc 4b3c 5171 bdbd 8ae1 983a b472 3abc
00000350: c95b 473c 0bc0 03bb 5553 c3bc cde2 a7bb
00000360: 69b4 c63b b4d6 fc3d 4e85 f3ba 071d e5bd
00000370: 35cd fa3b abea 5db9 0d04 093e de91 0d3c
00000380: dac6 a4bd b58b b83e 01a1 913e a2a7 ac3c
00000390: 7e36 f5bc 5e68 eab7 022e 3bbe 1ad5 4f3e
000003a0: f2ae f0ba efa2 963e 989e 6e3b 0922 7cbe
000003b0: 1801 c63b c162 4c3e ba41 073f 35e1 56bc
000003c0: ddcd ec3c dc22 b6bc 74b9 45be d057 6a3e
000003d0: 93d3 f0bb 4cde b6ba 7243 ea3c ff90 323b
000003e0: 9894 2e3e 72f2 e13e 3b2a 7e3e e7d4 693e
000003f0: ac63 a13e bdf7 2fbd ad64 f93c 1534 ec3c
0.028584456 0.00097317935 -0.003786465 -0.072448485 0.0017847286 -0.06874309 0.027464481 -0.0026014838
0.0015959047 0.027271146 -0.30983257 -0.013278155 -0.27227578 -0.05843273 -0.029285973 -0.24537964
0.11952755 -0.00536417 0.0107699195 0.007559705 -0.9863918 0.018811475 0.011018103 -0.020014951
0.17204976 -0.027333366 -0.06645762 -0.13539207 -2.0986623e-05 -0.018771864 0.5136943 -0.015585943
-0.08765693 -0.027154174 0.11814168 -0.10658773 0.092039645 -0.00019503031 0.0060347025 0.37141085
0.22762944 0.21647091 -0.31357467 0.00987968 -0.0011276584 -0.026672104 -0.0017033676 -0.042642366
-0.019293776 -0.035839003 -0.009686621 -0.030836903 0.016211351 -0.016407304 -0.058278084 -0.01660262
0.30575675 -0.0013512772 0.02027151 -0.009830605 -0.04437108 0.38184285 -0.6171892 0.02314088
0.008978847 0.004417902 -0.022217542 -0.030934786 0.0014497711 0.25349617 -0.0031324087 -0.050975822
0.11815458 -0.01002069 -0.016950393 -0.18059339 0.00435159 0.04435888 -0.0959774 0.006074365
-0.024530241 -0.08945596 0.0078685675 0.015092315 0.09046718 -0.057273105 0.0039375727 -0.00052597653
0.0054117525 -0.017898269 -0.10346055 0.024706794 0.126412 0.028383523 0.017529797 -0.011284989
-0.014908844 0.02283714 -0.010559641 -0.09451106 0.03009663 -0.009769126 0.004664732 0.016101385
-0.022914369 0.026358306 -0.029809546 -0.009174151 0.19216503 -0.20378438 -0.023236575 -0.046425454
-0.0019149953 0.085050315 -0.09117195 0.27566493 -0.05471449 0.24133004 0.021667438 0.09275021
-0.028576376 0.027885672 0.006696428 0.0029974023 -0.0034979868 -0.000903216 -0.015588199 0.00017010556
0.04284231 -0.066417105 0.02943869 0.2323828 -0.023671098 -0.16028056 0.0054729623 0.008576847
0.1086113 0.014693664 -0.095437154 0.23835891 -0.01984725 -0.008429622 -0.004537349 -0.0085928785
-0.1306725 -0.0077161216 -0.06911122 0.14570966 -0.054337896 0.020227212 -0.01272652 -0.025687026
-0.07011567 0.0021589654 -0.010452653 0.026688233 0.023011921 0.029287936 -0.007101241 -0.0030181995
0.0022246968 -0.020314028 -0.032731913 0.122149006 -0.59609514 0.22215536 -0.01469102 0.003824802
-0.03138056 -0.059381742 -0.14029628 0.012453136 -0.19668247 -0.014875797 -0.12782128 -0.012764709
0.14403409 0.012370988 0.018422108 0.29005545 -0.0089507075 0.008012486 0.4350629 0.00043252442
-0.09266703 0.21962403 -0.031326298 -0.19051684 -0.0011296599 -0.21402454 -0.020691058 -0.012746007
-0.0117711825 -0.0032680351 -0.024703048 -0.13264398 0.00667925 -0.072892755 0.107939206 -0.10190628
0.2034556 0.013565718 0.17699367 -0.23437032 -0.2665214 -0.01823414 -0.14463028 0.034359068
0.012442687 -0.09250129 0.0011663896 -0.011379886 0.012167879 -0.002010348 -0.023843447 -0.0051234723
0.006063987 0.12345639 -0.0018579157 -0.11187177 0.007653857 -0.00021163623 0.13380452 0.0086407345
-0.080457404 0.36044088 0.2844315 0.021076027 -0.02993321 -2.7943574e-05 -0.1827927 0.20296136
-0.0018362685 0.29421183 0.0036410447 -0.24622358 0.006042611 0.19959547 0.52834666 -0.013115217
0.028906757 -0.02223342 -0.19309026 0.2288506 -0.0073494404 -0.0013951748 0.028596614 0.002724707
0.17048872 0.44130284 0.24820797 0.22835122 0.31521356 -0.04296087 0.030443514 0.028833428
