models/all_td3/TD3_TradingEnv9_pred_robust_42_400_critic_1.pth (torch, 591839 bytes, 5 tensors)

layer_1.weight f4 [400, 66]
000000 75 32 8b be af cb 5e 3e ac 07 15 be e4 a1 73 be
       -0.27186933 0.21757387 -0.14553708 -0.23792225
000010 a7 bb 24 bf 29 a8 9c bc d4 c9 c8 3d e4 05 8d 3d
       -0.64348835 -0.019123154 0.09804121 0.06885889
000020 5f 9d db bb 4f 17 90 3e eb 66 82 be 97 73 69 3e
       -0.0067021097 0.28142783 -0.25469145 0.22798
000030 21 87 a0 be aa ea 7a be 0a f3 69 bf fe f4 89 bd
       -0.31353095 -0.2450358 -0.91386473 -0.06736182
000040 07 ca 1c 3f 71 16 2c 3e 43 e1 cc 3c 5a 57 1a 3e
       0.6124577 0.16805436 0.025009757 0.15072384
000050 75 ca 2e 3e 00 92 b2 be a4 d8 2d be fc c7 48 3d
       0.17069419 -0.34877014 -0.16977173 0.049018845
000060 27 3e ac 3e 65 cb 8f 3e 05 33 11 3f c9 a9 8b 3c
       0.33641168 0.28084865 0.56718475 0.017048733
000070 af 87 cd bd 70 d0 06 3e e1 82 97 be 99 39 ea 3d
       -0.10035645 0.1316545 -0.2959204 0.11436767
000080 8a 7c 9d be 58 68 84 be 6c 73 e9 be 34 ed 86 bf
       -0.30759078 -0.25860858 -0.45595872 -1.0541139
000090 85 11 f0 bf 7f 72 09 be 2a 59 63 bc 15 0b 08 3e
       -1.8755347 -0.13422583 -0.013876239 0.13285477
0000a0 4e f4 53 bd dd 11 43 be ba c0 0f be 03 87 97 3d
       -0.05174666 -0.19049783 -0.14038363 0.07398798
0000b0 a2 71 67 bf 69 3a ca bf 7c cc f8 3e 85 df 23 3d
       -0.90407765 -1.5799075 0.4859351 0.040008087
0000c0 ea 9b 94 bc 0b cb a8 3d ce 35 4d bf 23 34 5c 3e
       -0.018140752 0.082418524 -0.80160224 0.21504264
0000d0 6b ee 90 3e 6a 4f 99 3e 69 be 12 bc b4 f8 7e 00
       0.28306898 0.299434 -0.00895653 1.166049e-38
0000e0 4c 6b 84 00 f8 49 53 00 6a dd 4e 80 bb c2 5f 80
       1.2160776e-38 7.648881e-39 -7.242597e-39 -8.794228e-39
0000f0 ce ac 45 be d0 8a ee 3d a5 d7 59 bc 33 3a 46 be
       -0.19304201 0.1164757 -0.013296043 -0.19358139
000100 e8 c7 08 be 3c 3a 47 3d 10 bc 83 bb 0f bf c4 3e
       -0.13357508 0.04863952 -0.0040202215 0.38427016
000110 4c 53 99 3c 50 3c 20 3e 78 f7 b1 3c 93 7c d2 3d
       0.018716477 0.15648007 0.021724448 0.10277667
000120 70 a8 f4 bc 97 74 93 3e 46 59 fc 3d a6 d5 a1 3d
       -0.029865474 0.28799888 0.12321715 0.07902078
000130 7d b1 94 3c ba d1 41 3e 56 d3 aa bd 87 33 ef bc
       0.01815104 0.1892766 -0.083410904 -0.029199375
000140 dd da f2 bd 1a e9 64 3d 66 ce 56 3d b0 cc cf 3d
       -0.11858151 0.055886365 0.05244293 0.10146463
000150 5e cc 2e be 4c 7a 2b bd de 36 dc 3d c1 a1 7c 3e
       -0.17070147 -0.04186468 0.107526526 0.24671079
000160 fe 6f a9 3c c2 9f 93 bd bc 51 06 3e d5 1b 41 3e
       0.020683285 -0.07208206 0.13117117 0.18858273
000170 fc c5 bc 3e 02 90 17 be 9d 20 8c bb 39 98 82 bd
       0.368698 -0.14801028 -0.0042763487 -0.063766904
000180 17 1b 86 3d 7b 1d 97 3e 9d f7 8e 3d 0f 8a 1d 3d
       0.06548136 0.2951468 0.06980822 0.03846174
000190 ab cc a5 3e 1b 33 b3 3d 3e 1b fc 3d a5 e6 f7 3d
       0.32382712 0.08749982 0.123098835 0.12104539
0001a0 06 11 1f be 8d 09 09 bd ab 6a 26 3d 0b 02 b6 3e
       -0.15533838 -0.033456374 0.04062907 0.35548434
0001b0 87 65 96 3d 7c 26 3a 3d 76 40 27 be 6b 2e b8 bd
       0.073435836 0.045446858 -0.16333184 -0.089932285
0001c0 a1 34 64 be 3e 13 73 3e af 5e 6d bd a4 65 b8 bd
       -0.22285701 0.23737809 -0.057951625 -0.090037614
0001d0 9e 1c 16 be 39 92 cb 3d 08 52 5b 3e 89 5d 18 3e
       -0.14659354 0.09939999 0.21418011 0.14879431
0001e0 65 f5 4d bd c4 d4 d3 80 3f 30 29 80 70 f6 6a 00
       -0.050282855 -1.9453616e-38 -3.782563e-39 9.822968e-39
0001f0 0f 1f 78 80 05 bc 19 00 dc 1d 2e 3e e7 d6 26 bd
       -1.1031401e-38 2.363336e-39 0.17003578 -0.04073229
000200 63 46 1d 3e ec 8b 88 be 5f 48 47 bc 76 9e 3a 3e
       0.15358882 -0.26669252 -0.012163251 0.1822451
000210 07 9b ee bd 0d a3 52 3d 06 b4 80 be 8e c1 b3 bd
       -0.11650663 0.05142503 -0.25137347 -0.08777152
000220 81 4e 7c be a1 36 8c be 7c 43 8a be cb ce 09 3f
       -0.24639322 -0.2738543 -0.27004611 0.53831166
000230 f6 87 c7 3d a2 d0 33 be 75 94 d5 be fc fd 31 be
       0.09742729 -0.17560056 -0.41714826 -0.17382044
000240 d5 93 0b bf 13 17 f1 be da 13 06 bf 20 a1 11 3e
       -0.5452245 -0.47087917 -0.5237404 0.1422162
000250 0b 93 a5 3c a4 99 dc bc 5b c3 90 3d d9 7a 31 3e
       0.020211717 -0.02692873 0.07068511 0.17332019
000260 62 5b c6 3d 92 2c 51 bd 23 96 06 be 6b 50 6e 3d
       0.09685399 -0.051067896 -0.1314321 0.05818216
000270 3a 6f 8a 3e 7a 38 5e be 3e 21 2d be 34 ff bc 3d
       0.27037984 -0.21701232 -0.16907212 0.09228364
000280 f1 74 f9 bb c0 98 d5 3c 06 14 b2 be 09 45 f4 3d
       -0.0076128175 0.026073813 -0.34780902 0.1192723
000290 0b c3 b6 be 88 23 da be bd 0c 9d be e1 dc fc 3e
       -0.3569568 -0.42605233 -0.3067378 0.49387267
0002a0 e7 74 12 3e fd 59 fa bd c1 a4 91 bd 29 5a c3 bd
       0.14302407 -0.12224195 -0.071115024 -0.09538681
0002b0 b2 97 46 be 0d a4 64 3a ee a0 29 be 9f 45 3f bd
       -0.19393805 0.0008721955 -0.16565296 -0.046697255
0002c0 48 1e 7a 3e 7c 1b 9c be f8 b4 f8 3e 1e 3b 1b 3e
       0.24425614 -0.3048972 0.48575568 0.1515927
0002d0 43 a7 19 bd 28 df 00 3d b3 a1 45 bf 7d be 03 3e
       -0.03751303 0.03146282 -0.7719986 0.12865634
0002e0 d4 ec a9 3e 3a cf ce 3e a0 4d d4 bd 38 68 8e 00
       0.33188498 0.40392476 -0.10366368 1.3078027e-38
0002f0 1f 9f 7f 80 a8 7f 66 80 2e f0 1c 01 2d 23 f7 00
       -1.172019e-38 -9.413015e-39 2.8824995e-38 2.2695986e-38
000300 af 98 19 3d b7 df d0 bd 91 93 e0 bd b0 bd 4f bc
       0.037499126 -0.1019892 -0.10965646 -0.012679502
000310 c8 48 63 be ce 88 16 be d5 05 1c 3e 3f 49 3e be
       -0.22195733 -0.14700624 0.152366 -0.18582629
000320 0c 52 41 3e 8d e7 aa 3d ba d9 cf 3c 53 f6 8c bf
       0.18878955 0.08344946 0.025372375 -1.1012672
000330 ba 77 a3 3e c9 a2 38 bc de 4b a0 bb 2c 3b 06 be
       0.31927282 -0.01126928 -0.0048918566 -0.1310851
000340 c8 9b 6d 3e 3c 52 f3 3d 63 91 a1 3e dc 01 26 3e
       0.23203957 0.11880919 0.31556234 0.16211647
000350 ef 2a 29 3e f1 98 b8 3f f2 54 09 bf 36 eb 26 3e
       0.16520284 1.4421674 -0.5364524 0.16300663
000360 5b 25 6d 3b 44 df 81 be f2 7e 96 bd e9 05 6c 3e
       0.0036185596 -0.2536565 -0.07348432 0.2304913
000370 82 d4 cb 3d 38 76 02 be 15 40 86 3e 36 d9 63 bd
       0.09952642 -0.1274041 0.26220766 -0.05562707
000380 c1 a7 ae bf da 0b c6 3d 54 b0 ee 3c b6 ca 26 3a
       -1.3644944 0.09670229 0.029136814 0.0006362604
000390 eb d3 a4 3e 92 4e 1a 3e e0 d4 89 3e 30 ea 8f 3e
       0.3219293 0.15069035 0.26920223 0.28108358
0003a0 54 ff a2 be 1a b8 9c 3e a5 05 95 bf af 47 8c 3d
       -0.31835425 0.30609208 -1.1642348 0.0684961
0003b0 d8 9b 94 3c be 40 ba 3e 08 11 02 3e 50 00 67 bd
       0.018140718 0.3637752 0.1270181 -0.056396782
0003c0 42 a9 48 3e ed 35 05 be eb 9d c8 3e 7d 2c 37 3f
       0.19595817 -0.13008852 0.39182982 0.7155226
0003d0 a5 6c 9b bf b4 b1 9a 3d 12 9f 39 3d 02 8c 55 3d
       -1.2142531 0.075534254 0.045317717 0.052135475
0003e0 aa 82 52 3f 58 84 5c bd 79 e9 b8 bd 0a 62 03 3e
       0.8223063 -0.05383715 -0.090289064 0.12830368
0003f0 b4 1a a7 3d c7 7e 11 80 71 cc 45 80 9e 02 ad 00
       0.0815939 -1.606683e-39 -6.409989e-39 1.588848e-38

layer_1.bias f4 [400]
000000 e2 9e b8 3e cc a3 b6 3e 21 df 02 3f e3 f8 1d be
       0.36058718 0.35671842 0.5112172 -0.15426974
000010 ec 85 d6 3e 3f 23 12 bd f3 a0 e0 3e bd 98 48 be
       0.4189905 -0.035678145 0.43872795 -0.19589515
000020 df cc ca 3e 24 16 01 3f b9 31 f2 3e 21 b2 f4 3e
       0.3960943 0.5042441 0.4730356 0.47792152
000030 46 72 f6 3e 82 5d db 3d 39 80 b6 3e 50 b0 b6 3e
       0.4813406 0.107111946 0.356447 0.3568139
000040 d9 d7 3b bf a2 75 f5 3e da 5b 0b bd 7e 6c ea 3e
       -0.7337623 0.4794131 -0.034023143 0.45785898
000050 03 90 96 3e 68 98 86 bc fd 4f 0c 3f 21 f6 2f 3f
       0.29406747 -0.016430095 0.5480955 0.6873494
000060 cf 2e 98 be 2a ca 1b 3f 8e 3d 1c be 08 23 ba be
       -0.29723212 0.6085535 -0.15257856 -0.36354852
000070 a9 0f f9 3e 1d f9 79 3e a3 a4 3d be 39 fb b1 3e
       0.4864476 0.24411435 -0.18519835 0.3476198
000080 5c cd 57 be e0 2d c8 3e 82 48 12 3f 69 31 1d bf
       -0.21074432 0.390975 0.5714189 -0.6140352
000090 d4 bd 67 bd 4d de b0 3d ab 27 78 bf bf 94 60 3f
       -0.05657752 0.086361505 -0.9693553 0.8772697
0000a0 21 2f a9 3c d5 0c dd 3e 09 3e 8b 3c 17 b3 cb 3e
       0.020652356 0.43173853 0.016997354 0.39785072
0000b0 1d 2e 07 3f a2 a7 5a bd 4f b9 20 3f b9 64 30 3e
       0.5280474 -0.053382523 0.6278276 0.17225923
0000c0 2b e4 7b 3e 72 07 4b 3b 97 73 18 3f d1 cd ab 3d
       0.24598758 0.003097978 0.59551376 0.08388866
0000d0 70 e6 4f be 2a e7 a7 be e3 23 d2 3e a8 41 9f 3d
       -0.20302749 -0.32793552 0.41043004 0.07776195
0000e0 14 84 ee 3e 52 99 3d be c7 91 99 3e c0 d2 c6 be
       0.46585143 -0.18515518 0.29994032 -0.38832664
0000f0 c0 0d 82 bd 0f 6e 8b be 8e 9f d8 3e ba 3f e3 3e
       -0.06350279 -0.27232406 0.4230923 0.44384557
000100 e9 11 a4 bb 12 eb bc 3e 6c 07 eb be 1f fb 75 3e
       -0.005007018 0.36898094 -0.459041 0.24021576
000110 28 0d c3 be 35 7f 0a bd e8 13 c8 3e c9 7b 07 bf
       -0.38095975 -0.03381272 0.39077687 -0.52923256
000120 f2 a5 75 be ff 63 3d bc 01 f3 06 be 0d 40 12 3e
       -0.23989084 -0.011559485 -0.13178636 0.14282246
000130 d4 f8 51 bf f6 cb ae be 49 eb 00 3f 8f 38 ff bd
       -0.82020307 -0.34139985 0.50359017 -0.124619596
000140 b3 71 d2 be 65 50 16 3d 1d 96 64 bf 4a 53 c4 3d
       -0.4110237 0.036697764 -0.89291555 0.09586199
000150 62 2d 15 be dd 76 1a 3e 57 e7 b5 be a6 4b 34 3c
       -0.14568093 0.15084405 -0.3552806 0.011004364
000160 d9 a2 bb be 71 fd 34 3f 50 df f9 3e d9 f4 f9 3e
       -0.3664768 0.7069922 0.48803186 0.48819616
000170 bb 24 f1 3e 59 5d 8d 3e 1e 0f c6 3e 9b b5 6c be
       0.47098336 0.2761028 0.38683408 -0.23116152
000180 76 a6 a2 3e 14 68 df bd c7 94 8e bc c8 8b 05 bf
       0.31767625 -0.10908523 -0.017404927 -0.52166414
000190 0e 5a 89 be ff 52 ae 3e a8 1f e9 3e fd aa a8 3e
       -0.2682652 0.34047696 0.45531964 0.32942954
0001a0 8a 65 99 be b9 22 c9 3e e9 8e 04 3f 5d df f9 3e
       -0.2996028 0.39284304 0.51780564 0.48803225
0001b0 6d e9 fd be 1f 89 ce 3c 37 17 0c 3f ac 1f d2 3e
       -0.49592152 0.025211869 0.54722923 0.4103979
0001c0 ae e7 a0 3e bc 21 07 3c 0b 81 f7 3e 8d 12 b2 3e
       0.31426758 0.008247789 0.4834064 0.34779778
0001d0 99 06 10 bf 2d 07 7c 3d 1d 29 05 3e 0a dd 97 be
       -0.5626007 0.06153028 0.13003965 -0.29660827
0001e0 75 48 d5 3e f9 c1 ff be 51 47 0a be 08 b9 bc 3e
       0.41656843 -0.49952677 -0.13503768 0.36859918
0001f0 f2 b4 ac 3c 6e ba 17 bf 00 68 cc 3e 89 68 03 3f
       0.021082375 -0.59268844 0.39923096 0.51331383
000200 4e 31 ab be 9e 52 4a bd 69 fc 79 bf 6c c2 a1 be
       -0.33436054 -0.049395196 -0.9765077 -0.31593645
000210 6e 8a 8d 3d 98 dc 02 3e ed 64 4d 3d 05 de 61 3e
       0.06911169 0.12779462 0.05014508 0.2205735
000220 45 4f 59 be b2 8a c0 3d 8f cc fc 3e ad 44 99 3e
       -0.21221645 0.09401454 0.49374816 0.29935208
000230 c2 86 a3 3e f1 b3 cd 3e 63 3d 10 3d a6 1b 8d be
       0.3193875 0.40176347 0.035214793 -0.27560157
000240 64 c5 c9 bd c1 c9 3b be a2 76 fa 3e 57 f2 56 3e
       -0.098521024 -0.18338682 0.48918635 0.20990883
000250 c1 11 19 3d 6a c7 27 3f 66 da e0 3e 69 2d 40 be
       0.037370447 0.65538657 0.43916625 -0.18767323
000260 43 55 1e be aa 83 5a be 91 e7 ef 3b 6b ec a3 3b
       -0.15462212 -0.21339288 0.007321306 0.0050025485
000270 2f 80 3e 3f e9 93 15 3f 2c 6c 8a 3d c9 a2 1c bd
       0.7441434 0.5842882 0.067589134 -0.03824118
000280 f3 e9 d9 3d 33 78 72 3f 24 fd c4 3e ed 40 e0 3e
       0.106403254 0.9471466 0.3847438 0.43799534
000290 d4 33 90 3e 62 ff e6 bd 40 6f df bd 9a 09 38 be
       0.28164542 -0.11279179 -0.10909891 -0.17972413
0002a0 41 4e e7 3d 09 e8 08 3e fe ea 9e be 6f 04 a2 3e
       0.112942226 0.13369764 -0.3103866 0.31644008
0002b0 50 00 b6 3e 01 2d 04 bf 7f 12 af bc 2a ff ef bd
       0.35547113 -0.5163117 -0.021371124 -0.117185906
0002c0 1f ee 09 bf 41 3a ee 3e 8e 5f dd 3e 97 11 7e be
       -0.5387897 0.4652882 0.43236965 -0.24811397
0002d0 37 67 70 be e1 ed c0 3e 95 b6 ee 3e 5c e8 4b 3d
       -0.23476873 0.37681487 0.46623674 0.049782142
0002e0 a4 ed b7 3e 3b 0e fc bd 0c 9b e3 be 4c 96 d2 bc
       0.35923493 -0.12307402 -0.4445423 -0.025706433
0002f0 25 84 0b 3f 2f 03 0d 3f 78 7a 57 be 0d e3 db 3e
       0.5449851 0.5508298 -0.21042812 0.42946663
000300 01 dd 01 3f 26 9c 02 3f 14 10 02 3f 27 86 be 3e
       0.5072785 0.51019514 0.50805783 0.37211725
000310 b5 bc 23 3e 5e 3a f0 3e aa a5 32 be 4b 05 72 3e
       0.15989955 0.4691953 -0.17446008 0.23634832
000320 93 28 f6 3e 59 0c fd 3e d4 52 a3 3e 6d 76 b0 be
       0.4807783 0.49423483 0.3189913 -0.34465352
000330 21 93 7b 3e 15 02 c3 3e e3 60 6e be 31 d1 8f be
       0.24567844 0.38087526 -0.23279147 -0.28089288
000340 4b 4c 0e 3e 57 69 cd 3b 8c 07 a4 3e 3e 99 ce 3e
       0.13896291 0.006268661 0.32037008 0.4035129
000350 b2 ba be 3e 22 08 fd bd d9 7a cd 3e 6b cf ce 3d
       0.37251812 -0.12355067 0.40132788 0.100981556
000360 c0 c7 a5 be dd 35 05 3f da c4 e4 be fa 6d 74 bc
       -0.3237896 0.52035314 -0.44681436 -0.014918799
000370 1e 8a d9 3e 03 73 3a bf 44 d0 fd 3e d7 3f 11 be
       0.42488188 -0.72831744 0.49572957 -0.14184509
000380 32 1b 94 be 20 80 c7 3c 74 3b 74 3d 4d 46 fc bd
       -0.28926998 0.024353087 0.05962701 -0.12318096
000390 0e 21 36 3f 1e e0 2d be b4 7d f4 3b fc b2 00 3f
       0.7114419 -0.16980025 0.007461274 0.5027311
0003a0 74 94 e7 be 39 94 e9 bd 2c 48 1f bf 01 ca 5c be
       -0.45230448 -0.11405224 -0.622195 -0.21561433
0003b0 92 c7 de be b2 ba d3 3e 3b d0 07 be d6 2f 00 bf
       -0.43511635 0.41353375 -0.13263027 -0.5007299
0003c0 b2 a5 ba be 1a b2 d3 3e 48 73 b3 be a3 26 7c be
       -0.3645454 0.41346818 -0.3504889 -0.24624114
0003d0 b1 3b f2 3e f0 5a b6 3e 41 d3 cf 3e 1b 90 d6 3e
       0.47311166 0.35616255 0.4059086 0.4190682
0003e0 fd 50 e7 3e 42 35 02 3e c9 72 47 be 74 e9 0c 3f
       0.45178977 0.12715629 -0.19477381 0.5504372
0003f0 f2 66 f9 3e bc cc 40 bf e7 20 16 be 24 62 34 bd
       0.48711354 -0.753124 -0.14660989 -0.044038907

layer_2.weight f4 [300, 400]
000000 d3 60 df bc 92 04 7a 3c c0 57 88 3d 9b 33 2c bd
       -0.02726785 0.015259879 0.06657362 -0.042041402
000010 1e b3 26 3d 60 8e 9b bb 0c 5e 02 bd 0f 2d 00 bb
       0.040698163 -0.004747197 -0.03182797 -0.0019558107
000020 3e e5 ad bc 11 b9 6a bc f4 80 86 39 66 4f d3 3c
       -0.021227475 -0.01432635 0.0002565455 0.025794696
000030 0d cb 95 3d 1f b5 2d 3e e2 73 17 3a c8 af e7 3b
       0.073141195 0.16963623 0.0005777461 0.0070705153
000040 99 f3 54 3c 1c f5 27 3d d7 e8 39 3e 38 f7 8d 3c
       0.012997531 0.04100524 0.18155228 0.017329797
000050 40 3c 30 bd 2b fb 8f bc 25 64 3d 3d e6 a1 c6 3d
       -0.04302621 -0.01757582 0.046238083 0.096988484
000060 67 30 4d 3b 00 b4 85 bb 73 a0 15 bc b3 3b 55 bc
       0.0031309368 -0.0040802956 -0.009132492 -0.013014722
000070 b9 a4 7d bc 1d b9 e3 bc 5e 44 0e bd be e3 3b bc
       -0.0154811675 -0.02779823 -0.03473317 -0.011467872
000080 25 a9 bc 3d 7e 03 a0 3b 06 82 7e 3b b9 ab 34 bd
       0.09211949 0.004883229 0.0038834824 -0.04410908
000090 a7 c8 46 be db 3d 9f 3e 3c 90 59 3e 19 d3 3b 3c
       -0.1941248 0.3110188 0.21246427 0.011463904
0000a0 3c dc ec bd c2 7c d2 39 fe 13 a6 3d 69 ff 6e 3c
       -0.11565444 0.00040147273 0.08109282 0.014587262
0000b0 c8 bf f7 bb 02 f1 70 3c 09 99 72 bb be c2 fc bc
       -0.007560704 0.014705898 -0.0037017486 -0.030854579
0000c0 1b 26 ef bd 8c 8f 8b bb a6 0c ee 3c 4d 3e 49 3c
       -0.1167719 -0.0042590555 0.029058766 0.01228292
0000d0 61 cc aa 3b 01 93 ab bb 65 71 75 3c 77 82 aa bc
       0.005212352 -0.00523603 0.014980649 -0.020814164
0000e0 e2 83 06 3c ca 9b 46 bd e8 33 f4 3a 94 f3 0c bd
       0.008210154 -0.048488416 0.0018631192 -0.03441198
0000f0 e3 5f e3 3b 4b 5e 3b bc 60 90 a4 bc ff 42 06 3b
       0.006938921 -0.011436055 -0.020088375 0.002048671
000100 ce ef a5 3d c7 61 81 3d ca f8 59 3e 0f 5e ec bd
       0.0810238 0.06317478 0.21286312 -0.11541378
000110 38 57 64 3e a6 e5 c3 3c 57 1c 0f bc 90 fc 64 3e
       0.22298896 0.023913216 -0.008734784 0.2236197
000120 f8 60 44 3c 30 90 17 3c f6 81 21 bd 8c b2 ea 3c
       0.01198601 0.009250686 -0.03943058 0.02864959
000130 cd 7b 9f 3a a0 8b 4d be 24 40 c4 3b 69 6d 77 bc
       0.0012167633 -0.20072794 0.0059890915 -0.015101769
000140 6f 96 29 3c b0 77 c8 3d 11 d6 3a be d6 c2 7c 3c
       0.010350808 0.097884536 -0.18245722 0.015427312
000150 ad ee d9 3d 07 32 2f 3d 96 84 c7 3c eb 52 f4 bd
       0.10641227 0.04277232 0.024355214 -0.11929878
000160 c2 3d 47 3b f1 5b 69 3b ec 9c 89 3a 51 02 81 bb
       0.00304018 0.003560778 0.0010499037 -0.0039370437
000170 16 8d d9 3a ba 42 85 3c 3e 26 8f 3d d6 69 25 3e
       0.0016597833 0.01626717 0.06989716 0.16153654
000180 0a 4a e2 bb a1 e1 6c 3b 43 0c 86 3c 7a 6a 80 bc
       -0.006905799 0.0036145227 0.016363269 -0.015675772
000190 99 e4 86 bb 58 b1 a0 bd 9c 40 1a 3b a4 cc dd 3d
       -0.0041166064 -0.07846326 0.0023537045 0.10830048
0001a0 35 e5 5d 3d 01 2d 53 bc 60 77 80 3d 7c a0 b1 bb
       0.054173667 -0.012889148 0.06272769 -0.0054207426
0001b0 85 ec 5f 3c 3a 71 dd 3c 88 e5 8a 3c 77 21 b1 bc
       0.0136672305 0.02703153 0.016955152 -0.021622403
0001c0 8a ad f8 bc b7 d7 13 3d d2 1f ae bb 14 72 62 bb
       -0.030356187 0.036094394 -0.005313852 -0.003455286
0001d0 40 c3 3a 3c af c5 19 bb 77 dd ce bb 4b ef 29 be
       0.01139909 -0.0023463776 -0.0063130218 -0.1659519
0001e0 34 49 3d 3b 81 7c ab bd 89 94 21 3d c9 93 d7 bb
       0.0028882744 -0.083733566 0.039448295 -0.0065788967
0001f0 72 d0 7a be 81 4b 33 be f4 5c 3c 3c f7 9a 0c bc
       -0.24493578 -0.17509271 0.011496771 -0.008581868
000200 17 03 ce 3c 03 41 45 bc 0c 78 3b bd 4b fa 99 be
       0.025147958 -0.012039426 -0.045768782 -0.3007377
000210 0f 9c 98 3e 18 85 03 bd 49 92 a4 be 7e 27 91 be
       0.29806563 -0.03210935 -0.32142857 -0.28350443
000220 32 cc bb bb 5b f4 37 3e 58 43 a2 3d 64 24 7e b9
       -0.005731129 0.17964308 0.07923001 -0.00024236884
000230 c8 45 83 3a 45 86 77 3d 16 f2 5e bc ac 6d b7 3a
       0.0010015303 0.060430784 -0.0136075225 0.0013994477
000240 34 b0 f1 bb c1 ab 83 3d 12 77 3f 3c 06 78 f7 3d
       -0.0073757414 0.06429244 0.011686103 0.120834395
000250 54 96 05 3a 2e 55 3e 3c d5 ba 03 3d bd 05 3e 3d
       0.0005095948 0.011616988 0.0321606 0.04639219
000260 c8 18 8f 3d 8f e6 19 3d 60 93 48 3c 94 7b 66 3e
       0.069871485 0.037573393 0.012242168 0.22508079
000270 b6 b1 81 3c 60 a7 f5 3c 54 58 96 3d 66 95 8e 3c
       0.01583181 0.029987037 0.07341066 0.017405223
000280 58 e6 a4 3d 4a cd 6f bb 2e c6 67 bc 46 b0 18 bc
       0.08051747 -0.0036590868 -0.014146371 -0.009319371
000290 d0 a7 7d 3d 51 5d ad 3c 7c 4e 97 bc 55 58 6f be
       0.061927617 0.02116266 -0.018470041 -0.2337354
0002a0 fa b2 57 bd 75 ea 2b bc 0a 9c dd 3c 86 17 39 bc
       -0.05266092 -0.010492911 0.027051944 -0.011297112
0002b0 bc 73 a8 3d 48 9f 35 bb c1 1b 05 3d 31 53 d3 3d
       0.082251996 -0.0027713347 0.03249717 0.10318602
0002c0 7a f2 db bc 10 67 d7 bb 24 cd 92 bc 35 6c ae 3b
       -0.02684902 -0.0065735653 -0.017920084 0.005322958
0002d0 de 82 27 bc 5d 68 b2 bc 76 60 8f bb 7e 0d a3 bc
       -0.010224072 -0.02177828 -0.0043755127 -0.019903895
0002e0 20 ff b0 3c a4 b9 ed ba 04 57 9a bc 6c 6d 42 be
       0.021606028 -0.001813699 -0.01884032 -0.18987054
0002f0 95 3a 2e 3d 57 a1 b2 3c ba 84 85 bd 23 e4 01 bc
       0.042536337 0.021805448 -0.06519456 -0.007927927
000300 61 e8 22 3b a5 db 0f 3d fa 78 12 3c e2 54 e4 3c
       0.0024857747 0.03512158 0.008939976 0.027872507
000310 29 19 2e 3c 60 42 09 bc d7 68 dd ba 9e 24 42 3b
       0.010626116 -0.008377641 -0.0016892207 0.0029623876
000320 58 cc 28 3d 93 77 27 bc 9f 06 ff 3c 3b cd 6a 3e
       0.041210502 -0.01022138 0.031131087 0.22929852
000330 d6 31 a7 bd ba 74 1e bc 8b 63 b6 bc 00 f6 bb 3b
       -0.08163802 -0.0096713845 -0.022264263 0.0057361126
000340 c0 61 33 3d a5 78 12 3c 82 f3 a9 bc 16 f0 69 3d
       0.043794394 0.008939897 -0.020745996 0.05711373
000350 06 c5 f4 3b 7e 35 29 be f7 89 88 3b a2 b8 0d 3e
       0.007469776 -0.16524312 0.0041668373 0.13839963
000360 18 bb ff 3d 36 64 2e bc 35 6a a7 3e 97 0f 2f 3c
       0.12486857 -0.010644009 0.32698217 0.010684869
000370 ee f2 d6 3c 4b 50 61 bc 82 74 c9 3b 4a 42 8f 3c
       0.026238885 -0.0137520535 0.006147922 0.017487664
000380 cc 95 62 bc b1 6a 2b bc 88 eb 90 ba 12 2e 88 bd
       -0.01382966 -0.010462449 -0.0011056522 -0.06649412
000390 6f b5 d0 3d 45 6f 9c 3d 20 64 26 be 51 86 25 3b
       0.10190856 0.076384105 -0.16249132 0.002525706
0003a0 f8 c4 42 bc 7a 6b f1 b9 c5 c4 ee 3d db 6f 7d 3e
       -0.011887781 -0.00046047178 0.116586246 0.247497
0003b0 9c 90 d4 3b cb 80 b3 3b 23 9c 14 bc a3 53 ad 3c
       0.0064869653 0.005478 -0.009070429 0.021158045
0003c0 02 1e f3 bd 41 58 ac bb ca f3 0f bd 6b 8c a1 bd
       -0.11870958 -0.005259544 -0.035144605 -0.07888111
0003d0 60 96 c6 3c b2 2c b7 3b da d1 08 bc 8a 3c c3 bb
       0.024241626 0.005590045 -0.008350814 -0.0059581446
0003e0 c4 9c 0e bc b7 31 11 bc b3 86 30 bc 32 a5 9e 3c
       -0.008704368 -0.008861951 -0.010774302 0.01936588
0003f0 36 ac 85 3c e1 ea a2 3c 1f 97 06 bd f2 1d 42 bb
       0.016317468 0.01988739 -0.032858964 -0.00296199

layer_2.bias f4 [300]
000000 e2 a8 de 3c a0 61 99 3d 60 21 4c bb b3 40 02 3d
       0.027180139 0.074893236 -0.0031147823 0.031799983
000010 70 69 c4 3d 59 43 36 3d 9b 3c 53 be ab 0f 43 3c
       0.09590423 0.04449782 -0.20628588 0.011905591
000020 b0 2d 09 3f b4 a5 de 3e b8 56 c4 3c 1a dd fb 3c
       0.5358534 0.43485796 0.023967132 0.030745078
000030 fa eb 42 bc 9d 10 bc ba af 1b 0e be 00 e8 31 3c
       -0.0118970815 -0.0014348213 -0.13877748 0.010858536
000040 33 85 12 3f 3e 4e 91 3c 79 d8 35 00 7d 67 89 b3
       0.57234496 0.017737504 4.944937e-39 -6.398384e-08
000050 9a 4a c1 bb dd 00 68 3e 15 5c d5 3d c4 9a 9a 3c
       -0.005898786 0.2265658 0.10417954 0.018872626
000060 b3 05 ff 3e 88 2e 6d 3b b1 88 e6 95 57 3b 29 be
       0.49809036 0.0036191065 -9.311192e-26 -0.16526543
000070 3e 5c 2b bb 2a 4f 1a be ad 03 bf 3d 08 2c 5e 3c
       -0.002614751 -0.15069261 0.09326873 0.013560303
000080 6e ac 54 38 86 5a c3 bb ba ea 20 3e 41 3d 86 3d
       5.0705326e-05 -0.005961719 0.15714541 0.06554652
000090 7f f3 4f bb ef 8a 0f 3f 11 7c 0d bb 17 fd 5c 3d
       -0.0031730828 0.5607137 -0.0021588842 0.053952303
0000a0 61 f3 cd 3c 26 90 2c 3c 8e 7f 6e bb be b5 dd 3e
       0.025140466 0.010532415 -0.0036391946 0.4330272
0000b0 b0 5f 1d bd c6 2d 46 00 46 0b 04 3d 0b 71 f1 3c
       -0.038421333 6.444905e-39 0.032237314 0.029472848
0000c0 57 8f 97 bb 68 64 05 3f ce 88 dc 3e 9a a7 2a 3c
       -0.0046252417 0.5210633 0.43073124 0.010415936
0000d0 51 9c ff 3e 9f 38 b9 3c 5d b8 bc 3c 3a 7e 25 3d
       0.49923947 0.022610007 0.02303713 0.040403582
0000e0 64 a7 1a bb e6 03 61 3c 11 c8 8b 3d 53 d8 9b 3c
       -0.0023598308 0.01373384 0.06825269 0.01902405
0000f0 e6 6e 72 00 19 bb 8f 3d 60 bf 11 3f 50 9f 0e 3d
       1.050903e-38 0.07018108 0.5693264 0.0348199
000100 43 6e 2a bb 43 9d 29 3c 1b 9e 04 3f 38 c6 fc 3b
       -0.0026005663 0.0103524355 0.5180375 0.007714059
000110 6d 0f 20 3c 19 93 74 3b a2 71 c8 3e ca 7a 24 bc
       0.009769303 0.0037319122 0.39149195 -0.010039041
000120 89 e0 a0 3c 30 0f 62 3b 19 73 c0 3c b0 d2 0e 3c
       0.019638317 0.0034493916 0.023492383 0.008717224
000130 f2 03 06 3d 83 23 2c 3e 4d fa 56 00 0f c3 0e 3f
       0.032718606 0.16810422 7.987644e-39 0.55766386
000140 22 60 29 bb f5 7a 8c 3b 7e 82 30 bc 9a b4 2f 3c
       -0.0025844653 0.0042871186 -0.010773299 0.010724211
000150 1b 38 fa 3e 8e 2e 3b 3c 4b 44 c7 b9 63 85 53 00
       0.4887093 0.011424674 -0.0003800712 7.670196e-39
000160 11 19 87 3c c9 5d 0d 3f 88 53 33 3c 41 5c 99 3a
       0.016491445 0.5522123 0.010945208 0.0011700467
000170 d2 d8 34 be 50 e5 36 3d b0 8c 8f bb 6f ae 99 bd
       -0.17660835 0.044652283 -0.004380785 -0.07503974
000180 bb f6 7e bb a7 32 3d bc 8e 1b 03 be 78 6a a3 3d
       -0.0038904387 -0.011547721 -0.1280348 0.07979292
000190 69 8d c5 3d 80 7c 02 3c 7b 46 89 80 65 88 1b 3c
       0.096461125 0.007964253 -1.2606747e-38 0.009492968
0001a0 94 84 df 3b 13 ec d2 b7 9e 68 2c 3d a0 e6 08 3f
       0.0068212245 -2.5143881e-05 0.04209196 0.53476906
0001b0 4b 57 ac bb 39 b0 6f 3b af a5 c0 3e 41 ce 89 3c
       -0.0052594296 0.0036573543 0.37626407 0.016821982
0001c0 a2 d7 bb 3d 95 10 f9 3e 40 c0 3f 3c 20 5f 70 bd
       0.09171988 0.48645464 0.011703551 -0.05868447
0001d0 4b f4 04 3b c7 57 3e 3c 8b 06 fb 3e b8 2c b8 3c
       0.0020287212 0.011617607 0.4902843 0.022482261
0001e0 82 15 00 3d bf 62 91 3d 4f 04 fd 3c b7 6b f0 bb
       0.03127051 0.070989124 0.030885844 -0.0073370594
0001f0 1d d8 92 3d f6 bf 18 bc 92 43 1f 3f fd 61 f0 3e
       0.071701266 -0.009323111 0.6221248 0.4694976
000200 ad 00 f1 3e 12 59 d2 3d 2d 85 98 3e 80 70 6f 00
       0.47070828 0.10270895 0.29789105 1.0234097e-38
000210 43 65 b4 3d 1d ee 99 bb 97 05 f5 3c 17 56 66 3c
       0.08808377 -0.004697575 0.029909892 0.014058611
000220 26 61 e7 3e d9 e2 4f bb d5 c9 b5 3d 44 41 31 bd
       0.45191306 -0.0031720905 0.08876387 -0.043275133
000230 38 3c f4 3e a3 b3 8b 3e 70 33 44 00 b7 b8 ff 3e
       0.47702193 0.2728549 6.263266e-39 0.49945614
000240 9b 83 6c 00 33 3d 4e 3e 8f 85 96 b1 91 51 8b 3a
       9.965445e-39 0.20140533 -4.3807584e-09 0.0010629167
000250 0f 35 f3 3d 8c c1 d6 b9 12 3f 41 3d 63 ed d8 be
       0.118753545 -0.00040961464 0.04717929 -0.42368612
000260 61 83 8c 3b 20 c7 08 3f 1b 09 c7 3d c0 65 f5 3e
       0.0042881225 0.5342884 0.097185336 0.47929192
000270 a6 3c d1 ba 72 ce ee bd 3b df 19 3d 84 fd 3c 00
       -0.0015963509 -0.1166047 0.037566405 5.601074e-39
000280 f0 17 f2 3c 01 52 9d bd 1a ae a3 3e bd fb 29 3f
       0.02955243 -0.07681657 0.31968766 0.6639975
000290 83 0b bf bd c3 4a 4b bc 8d 26 a7 bb bb a2 f2 3e
       -0.093283676 -0.012407961 -0.005101031 0.47389778
0002a0 e9 9a f8 3b ed a1 3f ba e4 89 66 00 0d f2 26 bb
       0.007586826 -0.00073102006 9.416686e-39 -0.0025473863
0002b0 5e df 8d 3c 6f 63 93 3c 5f 51 2a 3f c1 1f 94 3c
       0.017318424 0.01799175 0.6653041 0.018081548
0002c0 7b 0f 81 3d ed 70 50 3d cf 1d 1b 3c a9 a8 e8 3e
       0.06301781 0.050888944 0.009467556 0.45441177
0002d0 9c bd 25 3d 64 f5 f8 3e 73 8d be 3c 20 9c 8b 3d
       0.04046403 0.48624718 0.023260808 0.06816888
0002e0 3a cb 13 3f fe 56 4f 00 05 c7 14 bc 2e 14 f0 bb
       0.57731974 7.286211e-39 -0.009080653 -0.0073266244
0002f0 e6 c0 cf 3e dd 1f ed 3b 68 1b 93 3d 72 bb cb 3e
       0.40576857 0.0072364644 0.07182962 0.39791447
000300 da 07 3a bb ff d3 86 3d 24 f4 60 3d 8e c5 a2 bc
       -0.0028386028 0.06583404 0.05492033 -0.019869592
000310 f0 6b e2 3a a1 11 8e bc 19 ad 8c 3c ad 9f 07 3c
       0.00172746 -0.01734239 0.017172383 0.008277816
000320 a2 c5 07 3f 6c fc a7 3d 91 12 90 b9 68 d1 f3 3e
       0.5303594 0.082024425 -0.00027479653 0.47620702
000330 29 1f 00 3f ad 19 a4 3e 45 00 f9 3b 22 cb 02 3f
       0.50047547 0.3205084 0.007598909 0.51091206
000340 34 7a bf 3c e9 ca 25 3d 11 ee 89 3a 99 c3 64 be
       0.0233737 0.040476713 0.001052322 -0.2234024
000350 a3 67 81 3d e9 d3 36 3e 21 8d d6 3c 29 6e c8 3e
       0.06318595 0.17854275 0.026190342 0.39146546
000360 c3 b2 9d 3b 1c 13 59 3c 8c 87 9e 3c 4b d1 ab 3c
       0.00481257 0.013249185 0.019351743 0.020973822
000370 78 52 78 bd 87 93 1b 3d b1 2c 0e bc 80 9c 14 3f
       -0.060625523 0.03798249 -0.008677647 0.580513
000380 40 2b 86 bc dc 60 27 3f 77 c1 08 3f 4a de 48 3d
       -0.016378045 0.6538217 0.53420204 0.049040116
000390 80 ac f7 3e 02 3d 09 3f c2 e6 47 bb a3 be 9c 3d
       0.48373795 0.53608716 -0.0030502533 0.076535486
0003a0 1e 22 e7 3e 0b 98 0a 3f 16 ee bd 3e b7 2b 85 bc
       0.45143217 0.5413825 0.37095708 -0.016256196
0003b0 2b 54 12 3d d8 5f 82 3c 35 bb 9e 3d eb e8 62 3d
       0.0357248 0.015914842 0.07750551 0.05539791
0003c0 59 41 03 3d 1a aa 1e 3e f7 23 3d 3c 96 d7 1a bb
       0.032044742 0.15494576 0.011544219 -0.0023627034
0003d0 63 cb 8a 3e 59 15 79 3c cb f7 06 3e f0 8a 7c 3d
       0.27108297 0.015202844 0.13180463 0.06165594
0003e0 f6 aa 07 3f c1 29 71 ba b7 e5 85 be b1 e8 82 3d
       0.5299524 -0.0009199642 -0.2615182 0.063920386
0003f0 c3 bb 11 3c 67 e9 d0 3c 87 d5 90 bb 73 dc 15 3f
       0.008894864 0.02550192 -0.0044199857 0.58539504

layer_3.weight f4 [1, 300]
000000 b6 8e 38 bd 08 e1 e2 bd 7a cc fa 3e 48 e3 63 be
       -0.045057975 -0.110780776 0.48984128 -0.2225467
000010 b7 2b d9 bd c0 e3 d8 3e e7 5c fa be ae f7 3a 3e
       -0.10604041 0.4236126 -0.48899004 0.18258545
000020 ed cd 52 3d e7 ad b3 3c 90 1f e2 3d 51 e7 5e 3e
       0.051465917 0.021933509 0.11041176 0.21767928
000030 03 6b 05 3e 2c 99 53 bb 84 57 15 c0 c4 14 d9 3e
       0.13029103 -0.0032287342 -2.3334665 0.42398655
000040 e6 c5 1c be 28 be 95 be 48 cb c3 ba 01 61 e9 37
       -0.15309867 -0.2924664 -0.0014937902 2.7820935e-05
000050 62 ac 0e bd c8 bd 74 3f fb af 92 be 61 e2 95 3d
       -0.034832366 0.95602083 -0.28649887 0.07318569
000060 76 28 c7 3e 8e c9 53 3c 3b 12 78 80 da e1 a8 bf
       0.38898057 0.012926472 -1.10268e-38 -1.3193924
000070 aa f8 3d 3b ec 6f 04 c0 2c 12 c2 be ae cf 68 3c
       0.0028987327 -2.0693312 -0.3790449 0.014209671
000080 29 48 de bc a2 b6 4c 3f e2 43 83 bf b9 90 71 be
       -0.027134018 0.79966176 -1.0255091 -0.23590364
000090 9a 9c 98 bc ea 55 7c 3e 20 4f c4 b8 74 80 07 bf
       -0.018629361 0.24642149 -9.3607465e-05 -0.5293038
0000a0 d9 86 51 3e ec c1 00 3c cd af 05 3a 1d 01 be 3f
       0.20461597 0.007858735 0.0005099744 1.484409
0000b0 fb 2a f6 3c 92 23 ab b7 e8 22 16 3e 6d 34 be bd
       0.030049792 -2.0401352e-05 0.14661753 -0.09287343
0000c0 fa a2 0f 3b 1d 60 bc 3e 06 c4 35 be 21 08 1f 3f
       0.002191721 0.3679208 -0.17750558 0.6212178
0000d0 83 16 86 40 b8 ec f9 3d f3 76 98 3d 77 e2 b1 3e
       4.190248 0.12203354 0.07444563 0.3474309
0000e0 1c 6b 9b 3e c1 63 18 3e c0 8c 52 bd 18 73 e4 be
       0.30355155 0.14881803 -0.05140376 -0.4461906
0000f0 bd ee 2e bb f0 8f 2e be fe 7f 93 3e ee 34 2b 3f
       -0.0026692592 -0.17047095 0.28808588 0.6687764
000100 6c a1 4a 3c f3 32 b9 3e ea cf 6c be 15 32 69 3f
       0.012367588 0.36171684 -0.23126188 0.91092044
000110 a4 2f 06 bd 96 9a b9 3b 9e 03 41 3f 20 3e 2f 3b
       -0.032760277 0.00566418 0.75396144 0.002673991
000120 56 23 0f bd 4f 86 12 be 4d dd 5e bd d9 24 a9 bd
       -0.03494581 -0.14309047 -0.054410268 -0.08258981
000130 45 ec 4d bd 06 58 a4 bf 7c 81 f8 b9 5d 50 93 3e
       -0.050274152 -1.2839363 -0.0004739872 0.2877225
000140 53 cf 6c 3a cc 47 8a 3e ff 5e b5 3b 45 e5 d7 3d
       0.0009033579 0.27007902 0.005535006 0.105417766
000150 ee 73 97 3d 62 9d 85 3d 2a 03 89 bd 1e 92 86 00
       0.07395159 0.06524159 -0.066900566 1.2358373e-38
000160 51 c5 b2 be d4 57 28 3d 32 c1 d7 bc da 19 7d 3c
       -0.34916165 0.041099384 -0.02633724 0.015448058
000170 d0 62 8b bf 84 17 75 3e d2 23 39 bb 2a dd 00 c0
       -1.088953 0.23934752 -0.002825011 -2.0134988
000180 fb 45 a0 ba a7 72 5b 3a a2 d5 9c bf 03 f4 3f bd
       -0.0012227887 0.00083712715 -1.2252696 -0.046863567
000190 b3 9a 0a be d2 10 d9 3e eb fd 36 3a c3 90 73 3d
       -0.13535576 0.42395645 0.0006980586 0.059464227
0001a0 25 22 e7 bd 07 d1 7c 3c 89 6a 21 3e e2 8e 10 3c
       -0.112858094 0.015430695 0.15763296 0.008823128
0001b0 eb e1 df 3e 94 6c c4 bc d8 7a a6 3f bf f5 dd bc
       0.4372705 -0.023977555 1.3006239 -0.02709472
0001c0 0b 2a ca be 9a 1e 26 bc 51 c9 9b be 84 ea 07 c0
       -0.394852 -0.010139132 -0.3042703 -2.1236887
0001d0 60 58 bb 3e 68 ba cb bc 92 0e 1e 3f 25 b3 e1 3d
       0.36590862 -0.024869159 0.6174098 0.11020497
0001e0 51 f7 24 3d bd 0e 80 be 95 31 00 3f 68 4a 5c bd
       0.04027492 -0.25011244 0.50075656 -0.053781897
0001f0 7d d3 60 3f f1 ad 4c 3f f7 6d f3 bc d8 98 e5 bd
       0.87822706 0.79952914 -0.029715521 -0.11210793
000200 10 be f9 3e 4d 79 26 bd 52 51 bb 3e 2e cf 6d 00
       0.4877782 -0.040643025 0.3658548 1.0084391e-38
000210 c2 87 88 bf 2d a5 6a 3f 37 19 e8 3c ae 06 94 bc
       -1.066643 0.9165829 0.028332336 -0.018069591
000220 5d 1f 8a be 27 29 62 bc b7 68 0d bd c8 56 cf 3e
       -0.26977053 -0.013803757 -0.034523692 0.40495896
000230 32 60 f0 3d 0a 5a 15 c0 e4 a5 35 ba a0 c3 12 bd
       0.11737098 -2.3336205 -0.00069293217 -0.035831094
000240 87 2e b7 bd ff 45 1d c0 2c 23 06 3a 5a d7 8c b6
       -0.08944421 -2.4573972 0.00051169354 -4.1973954e-06
000250 6b 5d 8d 3e 2e f3 15 3a 45 37 8b bc 4c b9 b4 bf
       0.27610335 0.00057201355 -0.016994128 -1.4119048
000260 6e ce 12 3f 8c 70 1a 40 6e 0b 09 c0 0b fb ee bd
       0.57346237 2.4131193 -2.1413226 -0.116689764
000270 98 4c 1f bb 02 6d 66 bf 1e 6d 17 3e f5 8b 67 80
       -0.0024307128 -0.9001008 0.14787719 -9.509263e-39
000280 61 46 42 3f d6 3b a8 bf 3b 57 80 3f 8a 17 50 3f
       0.7588864 -1.314326 1.0026621 0.8128592
000290 49 b0 72 bf db fb 3b 3f 6f 3c cf 3e 1f 41 e8 3d
       -0.9480024 0.73431176 0.40475795 0.11340546
0002a0 5d d1 01 3c e0 19 0f bd 00 58 c1 bd 36 89 10 bd
       0.007923451 -0.034936786 -0.09440613 -0.035287105
0002b0 29 61 99 3d 6e dd 29 bd 1c 3f 90 3f b9 f0 bb bf
       0.07489235 -0.041470937 1.126926 -1.4682838
0002c0 19 86 2c bf 0e d9 6c bd 98 67 b0 3c 09 53 88 3e
       -0.67392117 -0.057824187 0.021533772 0.2662585
0002d0 90 30 9e 3e 76 68 7b 3e fa 46 90 3f 9f 14 4d bd
       0.30896425 0.24551567 1.127166 -0.050068494
0002e0 ba 90 41 40 2b 58 78 ba d4 a0 c1 3d 3f 38 2a 3b
       3.0244584 -0.0009473587 0.09454504 0.0025973467
0002f0 2f 49 1a bd 34 48 85 3f 4b 2a 9d 3e 61 92 c4 3e
       -0.03766745 1.041266 0.3069633 0.38392928
000300 bb 0a b5 bb 52 d8 61 be 59 62 2a be ef 6b cb 3e
       -0.005524961 -0.22055176 -0.16639079 0.39730784
000310 b2 86 15 bc 32 45 c4 3e 42 4d 80 3d d6 28 0b 3c
       -0.009126352 0.38334042 0.06264736 0.008493623
000320 30 29 81 3d a9 69 95 3f b4 27 ef 34 11 0a 0e 40
       0.06306684 1.167287 4.4546107e-07 2.2193644
000330 86 a5 8a 3e 08 a6 0d 3f b7 09 ba bc f4 eb 95 3e
       0.2707941 0.5533147 -0.02270971 0.2928158
000340 76 68 dc 3e 96 ef e7 3c 8f 5c f8 bd 47 e2 c1 bf
       0.43048447 0.028312486 -0.12127029 -1.5147179
000350 91 d4 8b bf 5a a9 68 3f 8c ac 3e bf 6b 84 90 3f
       -1.0924245 0.9088341 -0.74482036 1.1290411
000360 68 4b 63 bd 0c ac f8 3e c6 d9 77 3f 74 0e b0 bc
       -0.055491835 0.4856876 0.9681667 -0.021491267
000370 f6 dd 9f bf 5c 93 d9 bf 26 46 10 3e a0 5b 36 40
       -1.2489612 -1.6998096 0.1408926 2.8493423
000380 a1 b7 0f 3f cc 15 48 bd 2f 19 b1 3e d6 4b 54 3e
       0.5613957 -0.048848912 0.34589526 0.20732054
000390 eb 39 88 40 db 59 72 bd 2a 59 c9 3e 94 f4 d9 be
       4.25707 -0.059167724 0.3932584 -0.4256941
0003a0 f6 e1 df 3e ad 0a 0d 3f 9a 46 d8 3e 10 6a 7a 3f
       0.43727082 0.55094415 0.42241365 0.9781809
0003b0 ca 71 a9 3f 62 a0 1c 3f e5 ea 29 bd 89 a2 32 bf
       1.3237851 0.61182225 -0.04148378 -0.6977926
0003c0 86 d7 89 bc 62 bb 0e 3f 75 64 59 3d 23 b8 df bd
       -0.016826402 0.55754673 0.05307432 -0.10923793
0003d0 c5 96 d4 3f 57 2d 86 3e d1 5c ec 3f be ae a2 be
       1.6608511 0.26206467 1.8465825 -0.31773943
0003e0 28 a8 eb 3e 75 41 71 3a b9 71 00 c0 2b 98 94 bd
       0.4602673 0.0009203174 -2.006941 -0.07255586
0003f0 ed 84 81 bc 09 ea df 3d b3 de dd 3e 03 4a e1 3e
       -0.015810454 0.109333105 0.4333397 0.4400178
