models/all_td3/TD3_TradingEnv9_tts_42_50_predictor.pth (torch, 113439 bytes, 6 tensors)

layer_1.weight f4 [200, 35]
0	0x3d519acd	0.05117302
1	0x3ca3863b	0.019961467
2	0x3cb68eb5	0.022284845
3	0x3d6c607b	0.0577092
4	0x3c37ffb0	0.011230394
5	0x3db4a5e4	0.088207036
6	0x3d44e02a	0.048065342
7	0xbd951426	-0.07279234
8	0x3d6a91f0	0.057268083
9	0xbd18dc67	-0.037319567
10	0xbd89b83c	-0.06724593
11	0x3d1fee32	0.03904552
12	0x3c2a59bf	0.010397374
13	0x3d8dede4	0.0693014
14	0xbc108be9	-0.00882242
15	0x3caacfca	0.020851035
16	0xbc38b8c3	-0.011274519
17	0xbcb47ed5	-0.022033134
18	0xbcbb7b12	-0.022885833
19	0xbe0a06d4	-0.13479167
20	0xbe1885bb	-0.14894764
21	0x3ce32f32	0.027732465
22	0xbca48d7c	-0.020086996
23	0x3c367041	0.011135162
24	0x3b414362	0.0029489626
25	0xbdd61b8a	-0.104544714
26	0x3d0c36eb	0.03423206
27	0x3d83207c	0.0640268
28	0xbc7377b3	-0.0148600815
29	0x3d182f0b	0.03715424
30	0x3c537782	0.012906911
31	0x3b1de13f	0.0024090556
32	0xbd80eca7	-0.06295138
33	0x3dc65395	0.09683911
34	0x3e0b32aa	0.13593546
35	0xb9a80e6a	-0.00032054196
36	0xb65a57e2	-3.2535686e-06
37	0xb84a9fd0	-4.830939e-05
38	0xb9d08f7a	-0.0003977975
39	0xb4ef0c9b	-4.452639e-07
40	0xab812bf4	-9.178201e-13
41	0xad98ff1c	-1.739369e-11
42	0xb946856c	-0.00018932455
43	0xb306397b	-3.1251584e-08
44	0xb9f6d09b	-0.000470762
45	0xb971b290	-0.00023050071
46	0xb6531cfe	-3.1458326e-06
47	0x2f4a59d7	1.840371e-10
48	0x373b5552	1.1165934e-05
49	0xb9c9e817	-0.00038510628
50	0x3680898a	3.830709e-06
51	0xb9da1206	-0.0004159363
52	0xb9c31eda	-0.00037216285
53	0xb688f79a	-4.0819405e-06
54	0x32ccfd97	2.3864045e-08
55	0xb707e0b7	-8.098948e-06
56	0xba3eb512	-0.00072749064
57	0x34bd99e8	3.5315975e-07
58	0xba2ef5bb	-0.000667419
59	0xba374bdf	-0.00069922017
60	0x3699e42b	4.5863176e-06
61	0xad5e848e	-1.2648672e-11
62	0xb972f0e9	-0.00023168664
63	0xba838b2f	-0.0010035987
64	0x30de2e50	1.6165789e-09
65	0xba3d3a4d	-0.00072184653
66	0xba6c959e	-0.000902498
67	0x31a19922	4.703126e-09
68	0xa9f59fc6	-1.0907902e-13
69	0xb32aa797	-3.973363e-08
70	0xbd43dd27	-0.04781833
71	0x3b4fc72f	0.0031704416
72	0xbcf6923d	-0.030099029
73	0xbd54b7f9	-0.051933262
74	0xbba52d89	-0.0050408286
75	0xb990e479	-0.00027636046
76	0x3ab00909	0.0013430427
77	0xbbed0a3a	-0.007233885
78	0xbb62feaa	-0.0034636655
79	0xbc6fdd2d	-0.014640135
80	0xbbf76f5b	-0.0075511164
81	0xbc6c13d9	-0.014409029
82	0xbb35f039	-0.0027761592
83	0x3d000122	0.03125108
84	0xbbc638e0	-0.0060492605
85	0x3c5556ab	0.013021152
86	0x3bfd945c	0.007738633
87	0xbb9490e5	-0.0045338743
88	0x3cf95558	0.030436203
89	0xbbcbb69a	-0.006216836
90	0x3ad0e732	0.0015938042
91	0xbbc2ed30	-0.005948685
92	0xbbb62da1	-0.0055596386
93	0xbb70244c	-0.0036642728
94	0xbbc3c3ff	-0.0059742923
95	0xbbe35a35	-0.0069382438
96	0x3786851c	1.6036029e-05
97	0x3b94774d	0.0045308233
98	0x3bca94b0	0.0061822757
99	0xbb7f18b9	-0.0038924648
100	0x3b346389	0.0027525148
101	0x3bfe4f53	0.007760921
102	0xba6241f2	-0.00086310424
103	0xb987f116	-0.0002592883
104	0x3a91464b	0.0011083571
105	0x35eddd57	1.7722294e-06
106	0x29e59022	1.0194646e-13
107	0xb5839821	-9.804536e-07
108	0xb64dcc66	-3.0666356e-06
109	0x2a5ad06e	1.9434603e-13
110	0xa928c94c	-3.747809e-14
111	0x9fc4dbd6	-8.337292e-20
112	0xb5bbd0ad	-1.3993318e-06
113	0x28455375	1.0953794e-14
114	0x35a23064	1.2084024e-06
115	0xb64f0fbe	-3.0854567e-06
116	0x2f347950	1.6414003e-10
117	0x9e958ee3	-1.5835085e-20
118	0x2dbbfcb9	2.137167e-11
119	0x3588ad3f	1.0183211e-06
120	0x2dc0732b	2.1879018e-11
121	0x35b7a942	1.3683823e-06
122	0x34f64ec1	4.5878372e-07
123	0xac4762c6	-2.8334431e-12
124	0xaa4069d5	-1.7089744e-13
125	0xac8d6971	-4.0191674e-12
126	0xb6cfdaff	-6.1945752e-06
127	0xa7c61cf4	-5.498743e-15
128	0x36656894	3.4184532e-06
129	0x36199b81	2.2889292e-06
130	0xa286a978	-3.6500205e-18
131	0x0d2c7c40	5.3151153e-31
132	0x25c76fe7	3.4596825e-16
133	0xb50a6c75	-5.156683e-07
134	0xa5b7abc1	-3.1861825e-16
135	0xb64c4263	-3.043701e-06
136	0x34dce998	4.1148155e-07
137	0x2a151d2f	1.3243984e-13
138	0xb0c9e889	-1.4690765e-09
139	0xabeaa29c	-1.6671833e-12
140	0xb04e6ffb	-7.51015e-10
141	0xa38a712a	-1.5009917e-17
142	0xb465426c	-2.1351451e-07
143	0x347f21c2	2.3761007e-07
144	0xa71c0495	-2.1651833e-15
145	0x871809d0	-1.1438093e-34
146	0x979285d2	-9.46881e-25
147	0xb46baa84	-2.1948114e-07
148	0xa2fddd8a	-6.881035e-18
149	0xb49029ef	-2.68526e-07
150	0xb4624e5f	-2.1076401e-07
151	0xa928c9a4	-3.747839e-14
152	0x12f1d013	1.52605325e-27
153	0x2931dd74	3.9493975e-14
154	0xb3d54adb	-9.9322016e-08
155	0xa7cf52ea	-5.7543937e-15
156	0xb49d31cc	-2.927976e-07
157	0xb4a3675b	-3.0436317e-07
158	0xa686922c	-9.337738e-16
159	0xa129858d	-5.743618e-19
160	0xa1f0f399	-1.6327512e-18
161	0xb5a623a5	-1.2378338e-06
162	0xa49f2b73	-6.9028864e-17
163	0xb605df5e	-1.9948561e-06
164	0xb589b691	-1.0260429e-06
165	0xa2a72227	-4.53016e-18
166	0x02348c61	1.3264598e-37
167	0x9dd7bf19	-5.7107616e-21
168	0xb58217ab	-9.692643e-07
169	0xa00a2c64	-1.1703742e-19
170	0xb5a4c29d	-1.2275592e-06
171	0xb56cb8e7	-8.818592e-07
172	0x23409fc9	1.0442177e-17
173	0x1815dfc3	1.937077e-24
174	0x1187aef4	2.1407068e-28
175	0x35e996a0	1.740369e-06
176	0x291d6870	3.4951588e-14
177	0x331e617d	3.6875907e-08
178	0xb5a64483	-1.2387903e-06
179	0x2ab17c3a	3.1527716e-13
180	0x012d4d8e	3.1830724e-38
181	0x133276bf	2.2525305e-27
182	0x33c574a0	9.194741e-08
183	0x2bc911be	1.4286833e-12
184	0x357bb799	9.3771956e-07
185	0xb4040f1b	-1.2298953e-07
186	0xa7be429b	-5.2807807e-15
187	0x1f21efb6	3.429136e-20
188	0x20ada498	2.941626e-19
189	0xb4b0d87c	-3.2940068e-07
190	0x2df1cb12	2.748871e-11
191	0x356edeb6	8.8985996e-07
192	0x34d8ae8e	4.036014e-07
193	0x2ff9e8c4	4.5458226e-10
194	0x851ef236	-7.4736114e-36
195	0x2455c0ff	4.6350487e-17
196	0xb659c704	-3.2451362e-06
197	0x269e4461	1.0981987e-15
198	0x3608dfaa	2.0395769e-06
199	0xb5e3d49a	-1.6974693e-06
200	0x9ee9cfd7	-2.4755795e-20
201	0x8000e025	-8.0408e-41
202	0x07c0e1c6	2.9021647e-34
203	0xb5fa68c7	-1.8656946e-06
204	0x2766c3a4	3.202497e-15
205	0xb68469a7	-3.946206e-06
206	0xb5f98387	-1.8590225e-06
207	0xa591a8cf	-2.526788e-16
208	0x00000c56	4.425e-42
209	0x07329c45	1.3437155e-34
210	0xb4051438	-1.2393946e-07
211	0xa864766b	-1.268222e-14
212	0xb44f9ec3	-1.9336134e-07
213	0xb427518f	-1.5582758e-07
214	0x23c36935	2.11865e-17
215	0x995d3418	-1.14359525e-23
216	0x9ba8a43b	-2.78994e-22
217	0xb3603422	-5.220148e-08
218	0x9fafd209	-7.446286e-20
219	0xb3f6f525	-1.1499859e-07
220	0xb38b2d9d	-6.480989e-08
221	0xa6883330	-9.45077e-16
222	0x21c2d304	1.3201807e-18
223	0x2b0b473f	4.9481594e-13
224	0xb3b71c1c	-8.5267146e-08
225	0xa7057ba5	-1.8524486e-15
226	0xb45f21e2	-2.078082e-07
227	0xb3c0f47f	-8.98517e-08
228	0x2eb398e7	8.1671385e-11
229	0x241164db	3.152729e-17
230	0xaeecf31b	-1.0775222e-10
231	0xb4f2da1b	-4.5234705e-07
232	0xa2a353b0	-4.4269846e-18
233	0xb5301864	-6.56006e-07
234	0xb50cdb7a	-5.2473445e-07
235	0x96e3957d	-3.6768168e-25
236	0x0d542e7b	6.5383493e-31
237	0xa5b4e187	-3.1377846e-16
238	0xb5172d28	-5.6317594e-07
239	0x96a7bca7	-2.7099362e-25
240	0xb5318b78	-6.614059e-07
241	0xb52ccba3	-6.4371324e-07
242	0x8c20b056	-1.2379016e-31
243	0x054402ea	9.216411e-36
244	0x8d2808f4	-5.1779774e-31
245	0xbd0605c2	-0.032720335
246	0xbc8474d4	-0.01616899
247	0xbcd3356e	-0.025782313
248	0xbd40779b	-0.046989065
249	0x3df7e03a	0.12103315
250	0x3d01fa73	0.031732988
251	0x3e04d267	0.12970887
252	0x3c986573	0.018603062
253	0xbdb146c1	-0.08656073
254	0xbb01f00b	-0.0019826915
255	0x3c6249a8	0.013811506

layer_1.bias f4 [200]
0	0x3d853384	0.065039665
1	0xba691fca	-0.00088929816
2	0xbc4dea8d	-0.012568128
3	0xb755e299	-1.2748548e-05
4	0x35c70b2a	1.4829905e-06
5	0xb727a419	-9.992183e-06
6	0xb58c3031	-1.0444838e-06
7	0x3b89822d	0.0041964264
8	0xa3e2c2bc	-2.4585442e-17
9	0x364913de	2.9962898e-06
10	0x3c8aa1dc	0.016922884
11	0x38636eab	5.4224085e-05
12	0x38a803fc	8.0116064e-05
13	0xb8f3c747	-0.00011624261
14	0xbd385015	-0.044998247
15	0x3cb4701b	0.022026112
16	0xaccd1a2b	-5.8293557e-12
17	0xba31c714	-0.0006781679
18	0x3db2df48	0.08733994
19	0xae78405f	-5.6445845e-11
20	0x3bd0d7ae	0.0063733673
21	0xb68cbd8c	-4.1943913e-06
22	0xb8915424	-6.929811e-05
23	0xb9d8d890	-0.00041360082
24	0xb0a2538f	-1.18108e-09
25	0xb6c11b7c	-5.755048e-06
26	0xb08da1aa	-1.0305048e-09
27	0xb62bb83e	-2.5588229e-06
28	0x3abe3c3e	0.0014513803
29	0xb169f5f9	-3.4045782e-09
30	0x39d17765	0.00039952542
31	0x367c308d	3.7579186e-06
32	0xbb828ff9	-0.003984448
33	0xb8945b76	-7.074226e-05
34	0x3cc3ae7b	0.02388691
35	0xbbbdd7b7	-0.0057935375
36	0x3d1156aa	0.03548304
37	0xb98e89f3	-0.0002718713
38	0xbb606057	-0.003423711
39	0xb9611233	-0.00021464452
40	0xbc24816c	-0.010040622
41	0xb700aeb7	-7.6700735e-06
42	0xb875fe45	-5.864936e-05
43	0xba12a23b	-0.0005593632
44	0x39aa72a5	0.00032510344
45	0x9f7b8f7e	-5.327001e-20
46	0x38c78810	9.514403e-05
47	0xb6c2dad0	-5.8071237e-06
48	0x999b29d4	-1.6043519e-23
49	0x3bf7ff39	0.0075682667
50	0xba1917dd	-0.0005840043
51	0xa02d7557	-1.4692494e-19
52	0xbc09b3b4	-0.008404661
53	0xb91a1d1b	-0.00014697427
54	0x382377db	3.8973852e-05
55	0x3c07bf6f	0.008285387
56	0xb8085589	-3.2504588e-05
57	0x3c20f42b	0.009823839
58	0xbd14900a	-0.03627018
59	0xbb0511bb	-0.0020304758
60	0xbd01c11f	-0.031678315
61	0xbc8a8ecf	-0.0169138
62	0xba048085	-0.00050545513
63	0xb0bad739	-1.3594451e-09
64	0x3c250824	0.010072742
65	0xbcae87a0	-0.021304905
66	0x3cc1a12a	0.02363642
67	0xba7d187e	-0.00096548337
68	0xb6e6e0d2	-6.8807067e-06
69	0xac250396	-2.34499e-12
70	0x3cdf7e90	0.02728203
71	0xa3fe01e0	-2.753953e-17
72	0xbae25e48	-0.001727053
73	0xbcede926	-0.029041838
74	0xb3607e1f	-5.226877e-08
75	0xb70386ce	-7.839595e-06
76	0x3779f5d8	1.48987965e-05
77	0xbd19245a	-0.037388183
78	0x3b46cdad	0.0030334995
79	0x3bbae276	0.005703266
80	0x9cedbd05	-1.5732205e-21
81	0xbbbad4dc	-0.0057016443
82	0xbdd7d60d	-0.10538874
83	0xbd8b1e29	-0.06792862
84	0xb40682b8	-1.2527278e-07
85	0xb7717dbd	-1.4393995e-05
86	0xb64eed6a	-3.0834585e-06
87	0xb91a8893	-0.00014737462
88	0xabc55803	-1.402212e-12
89	0xb8b95e8b	-8.8390974e-05
90	0xb9a30cfc	-0.00031099457
91	0xb34e13da	-4.7981167e-08
92	0x3d6f9d1e	0.058499448
93	0xbbe68bf9	-0.007035729
94	0xabd10daa	-1.4854136e-12
95	0x370626be	7.996043e-06
96	0xbd5a740a	-0.05333332
97	0xbbbb8f33	-0.005723858
98	0xbb1cae52	-0.0023907614
99	0x9f8df3fd	-6.011947e-20
100	0x2a61e8ea	2.0064823e-13
101	0xa4df6dc7	-9.6896804e-17
102	0xb9318664	-0.000169301
103	0xacd55dd4	-6.064241e-12
104	0x39cb8707	0.0003881978
105	0x373c72d1	1.1232406e-05
106	0xaf26778a	-1.5140081e-10
107	0xb3b1e5b0	-8.283985e-08
108	0xb28689c9	-1.566231e-08
109	0xbca60c64	-0.02026958
110	0x3a7f6d4b	0.0009743764
111	0xadf64f94	-2.8002302e-11
112	0x33e318f4	1.057505e-07
113	0xba81edfb	-0.0009912843
114	0xbcf89fe6	-0.030349683
115	0xb5e2ea49	-1.6906498e-06
116	0xbc54d023	-0.012989077
117	0x3693abec	4.4009557e-06
118	0xac509092	-2.963883e-12
119	0xba1a8591	-0.0005894537
120	0x3d95f7bb	0.073226415
121	0xb192ac77	-4.2687662e-09
122	0xbbc70005	-0.0060730004
123	0xb8f3a748	-0.000116183015
124	0xba59dcc2	-0.00083107885
125	0x37d6f952	2.5626887e-05
126	0xb6c76c0d	-5.943241e-06
127	0x32568d3c	1.2488552e-08
128	0xb8c88c4d	-9.562876e-05
129	0xbcd4ed18	-0.025991961
130	0xa8e21031	-2.5098062e-14
131	0xbada666e	-0.0016662607
132	0x0fa04efe	1.5807645e-29
133	0x3cab7131	0.020927997
134	0xa895ad00	-1.661735e-14
135	0x3782baeb	1.5584248e-05
136	0xb7267e4d	-9.923778e-06
137	0xbb9ab456	-0.0047212048
138	0xa2a2ed1c	-4.4161237e-18
139	0xb9fdad34	-0.00048384967
140	0x28f3d3b0	2.7070224e-14
141	0x3b824f50	0.00397674
142	0x3cd91a1f	0.026501713
143	0xb79b58c7	-1.851878e-05
144	0xbc112ea8	-0.008861221
145	0xaa06e50f	-1.1981061e-13
146	0xbb4f4af9	-0.003163038
147	0x17b7d762	1.1880468e-24
148	0xbc897cbc	-0.01678311
149	0xa6bb36a5	-1.2990543e-15
150	0xb46cdff6	-2.2060689e-07
151	0xa973db4d	-5.4147052e-14
152	0xb7e4b8a1	-2.7265693e-05
153	0x3dfde2b5	0.123967566
154	0xbab93b58	-0.0014132066
155	0xb7d1de30	-2.5018206e-05
156	0xa45d2596	-4.7953573e-17
157	0xa75cbf4e	-3.063484e-15
158	0xad150aab	-8.472038e-12
159	0x9f636ecd	-4.8160772e-20
160	0x99b738fe	-1.8944775e-23
161	0x38f6cdda	0.00011768537
162	0xb944019b	-0.00018692615
163	0xb2bdc98b	-2.2094147e-08
164	0xbb5c9a48	-0.0033661295
165	0xbbfd6bd5	-0.007733802
166	0xb6c09307	-5.739162e-06
167	0xb371e109	-5.6316853e-08
168	0xb2832160	-1.5265584e-08
169	0xbc4d74b3	-0.01254003
170	0xbbdb1e88	-0.006686989
171	0xb38eb529	-6.645343e-08
172	0x15b3f784	7.2688035e-26
173	0x3b1efa8a	0.002425822
174	0xb8dbe53f	-0.00010485434
175	0x941ef5cf	-8.025439e-27
176	0x8eebb678	-5.8107684e-30
177	0xb2518398	-1.2195322e-08
178	0xb961671d	-0.00021496085
179	0xb9d90575	-0.0004139353
180	0x3b9cb1ff	0.004781961
181	0x3caddf8d	0.021224761
182	0xab3b4843	-6.653603e-13
183	0xb936a03e	-0.00017416567
184	0x3b29830e	0.0025865468
185	0xba88c004	-0.0010433202
186	0x9a432490	-4.035459e-23
187	0x3b8d679e	0.0043153306
188	0x3aac2e8b	0.001313643
189	0xbc77f094	-0.015133042
190	0xbaf2cd63	-0.0018524345
191	0xbd207221	-0.03917134
192	0xba25fe8b	-0.00063321803
193	0xb7ff5256	-3.043671e-05
194	0x3a796579	0.0009513717
195	0xbbe18bec	-0.006883135
196	0xb60beda3	-2.0850937e-06
197	0xb58e2b47	-1.059242e-06
198	0xba174c2e	-0.00057715445
199	0xbb6ae614	-0.0035842704

layer_2.weight f4 [100, 200]
0	0x3d828ccb	0.063745104
1	0xb3447af9	-4.574665e-08
2	0xb25704f5	-1.2515774e-08
3	0x00005d01	3.3364e-41
4	0x00037913	3.1894e-40
5	0x00075875	6.74581e-40
6	0x0001e0f3	1.72532e-40
7	0x3aab4008	0.0013065347
8	0x8004d509	-4.43765e-40
9	0x803c6c2b	-5.548933e-39
10	0x3c936fe1	0.017997684
11	0x80083807	-7.54783e-40
12	0x35e6c329	1.7193134e-06
13	0xaf6a1543	-2.128973e-10
14	0xb8b06cfe	-8.412635e-05
15	0x3d4529ce	0.04813557
16	0x00000fe1	5.696e-42
17	0xb5052440	-4.959911e-07
18	0x3da9eea5	0.08297471
19	0x0006e85b	6.34366e-40
20	0xbb128568	-0.0022357348
21	0x004d85c8	7.119325e-39
22	0xad04c47e	-7.546961e-12
23	0x000118de	1.00756e-40
24	0x8006036e	-5.52243e-40
25	0xa78a97f1	-3.846743e-15
26	0x00005326	2.9828e-41
27	0x8000a1f1	-5.8094e-41
28	0xbdd32455	-0.10309664
29	0x8004c473	-4.37815e-40
30	0x35292826	6.301583e-07
31	0x3527b65d	6.247772e-07
32	0xb70d4030	-8.4192e-06
33	0xb123df28	-2.3846471e-09
34	0xbd6b6b1a	-0.057475187
35	0x3c57e694	0.013177533
36	0xbd94234b	-0.07233294
37	0xb2449f29	-1.144489e-08
38	0x8003003f	-2.75595e-40
39	0x2e9358f1	6.700585e-11
40	0xbc849a4c	-0.016186856
41	0x8f9e5a30	-1.5614742e-29
42	0x00005547	3.0592e-41
43	0xb240111f	-1.1179764e-08
44	0x8f063d8e	-6.618565e-30
45	0x8001bff9	-1.60702e-40
46	0x8002ca06	-2.56143e-40
47	0x8003d803	-3.52997e-40
48	0x80033913	-2.95981e-40
49	0xbbc68d8b	-0.0060593537
50	0x800131fc	-1.09767e-40
51	0x090009f8	1.5412127e-33
52	0xbc165e38	-0.009177737
53	0x9b7b236a	-2.0773676e-22
54	0x35a911fb	1.2596714e-06
55	0x3b9a8446	0.0047154753
56	0x9d2fd054	-2.326876e-21
57	0x3d590a08	0.052988082
58	0x3bafe872	0.005368286
59	0x34d318eb	3.9319943e-07
60	0x3c236520	0.009972841
61	0xb78d0341	-1.6810025e-05
62	0xb18efc44	-4.161423e-09
63	0xab34fd9c	-6.43008e-13
64	0xba187680	-0.0005815998
65	0xbb222d30	-0.0024746172
66	0x3ce3d311	0.027810605
67	0xbc9bfce4	-0.019041486
68	0x8061ed8a	-8.993256e-39
69	0x00002c4d	1.5892e-41
70	0x3db34371	0.08753098
71	0xa7240243	-2.2760798e-15
72	0xb169d32d	-3.4026002e-09
73	0xbc8992fc	-0.01679372
74	0x0e264aa3	2.0497016e-30
75	0x9362d673	-2.8630942e-27
76	0x000388a9	3.24531e-40
77	0xbc665ee6	-0.0140607115
78	0xbcff4cf5	-0.031164626
79	0xbbda8262	-0.006668375
80	0x8000399b	-2.0665e-41
81	0xbbe7e29c	-0.0070765745
82	0xbdd1086b	-0.10206684
83	0xbd607606	-0.054800056
84	0x80024ae0	-2.10531e-40
85	0xac05a73e	-1.8993275e-12
86	0x8001bd0d	-1.59654e-40
87	0xb10bb4ee	-2.0330009e-09
88	0x28060987	7.44056e-15
89	0xb0555624	-7.761136e-10
90	0xa8f72891	-2.7440102e-14
91	0x0005f0f3	5.45614e-40
92	0x3da2198c	0.07915029
93	0x8003df7e	-3.5568e-40
94	0x800253de	-2.13757e-40
95	0x000251de	2.1304e-40
96	0x392213c2	0.00015456884
97	0x2b903c49	1.0248548e-12
98	0x8f639f2b	-1.1222619e-29
99	0x1df71c44	6.540958e-21
100	0x1983382c	1.356777e-23
101	0x8ec86ce2	-4.9408657e-30
102	0x919faa04	-2.5190557e-28
103	0x09fa9231	6.032279e-33
104	0x30e1e8a8	1.643703e-09
105	0x9029f32e	-3.3516712e-29
106	0x00021f30	1.94859e-40
107	0x0005c070	5.28211e-40
108	0x8004eecc	-4.53006e-40
109	0xa42633f4	-3.6039518e-17
110	0x8b1cc9f6	-3.0196446e-32
111	0x06f72dd6	9.2978423e-35
112	0x000565d7	4.95711e-40
113	0x00031aff	2.85191e-40
114	0x3bef0447	0.007294211
115	0x00068fe0	6.02626e-40
116	0xbd31fe42	-0.04345537
117	0xb71f4b74	-9.494706e-06
118	0x0006489f	5.77065e-40
119	0xa71c94f7	-2.1730103e-15
120	0x3d8e34c8	0.06943661
121	0x00070a9f	6.46659e-40
122	0x3c2cae81	0.010539652
123	0x80046e0b	-4.06818e-40
124	0xb6f869e0	-7.4033014e-06
125	0x34516ef9	1.9505013e-07
126	0x000327d4	2.89794e-40
127	0x1bc0e776	3.1913314e-22
128	0x283d4ff8	1.0508948e-14
129	0xbd8f3315	-0.06992165
130	0x00051d59	4.69705e-40
131	0x82cec3f9	-3.0381462e-37
132	0x90b51bb2	-7.1434583e-29
133	0xbcfe6847	-0.031055583
134	0xa1dbc060	-1.4890938e-18
135	0x000343af	2.99787e-40
136	0x36186a64	2.2711693e-06
137	0x3b1ef64c	0.002425569
138	0x0001e134	1.72623e-40
139	0xb5f9306d	-1.856604e-06
140	0x80026096	-2.1832e-40
141	0xbc986c56	-0.018606346
142	0x3d4f3214	0.050584868
143	0x8003b68e	-3.40995e-40
144	0x3d61f165	0.055161852
145	0x00001d80	1.0583e-41
146	0xbb26ebc9	-0.0025470129
147	0x98cc7194	-5.284745e-24
148	0xbbb28d4b	-0.0054489723
149	0x0002a763	2.43718e-40
150	0x16750629	1.9792886e-25
151	0x8001abf4	-1.5352e-40
152	0x00025214	2.13115e-40
153	0x3daea5b3	0.08527698
154	0xafde5208	-4.0439851e-10
155	0x000633f0	5.69645e-40
156	0x80033051	-2.92839e-40
157	0x80009dc2	-5.6593e-41
158	0x0e812217	3.1833783e-30
159	0x16ec2697	3.815221e-25
160	0x8000a981	-6.0807e-41
161	0x800f5004	-1.406237e-39
162	0xb264dae5	-1.33211175e-08
163	0x80014c14	-1.19127e-40
164	0xbc5353e9	-0.012898424
165	0x9d7a3205	-3.3113084e-21
166	0x80066f7b	-5.91005e-40
167	0x8002798e	-2.27277e-40
168	0x80051ed7	-4.70241e-40
169	0x2e1d364a	3.5745885e-11
170	0x96c7b953	-3.226714e-25
171	0x1df2fc88	6.4317978e-21
172	0x1642f0ba	1.5747155e-25
173	0xbd0623b7	-0.032748904
174	0x80004fb4	-2.8592e-41
175	0x0005b6e9	5.24793e-40
176	0x000439df	3.88102e-40
177	0x000029f2	1.5047e-41
178	0x00017680	1.34345e-40
179	0x1f082bc4	2.8835322e-20
180	0xb74924ed	-1.1989131e-05
181	0x3d8124a7	0.06305819
182	0xa9524f5b	-4.6698197e-14
183	0xaf247260	-1.4956347e-10
184	0x34666e91	2.1460643e-07
185	0xb45a3ca6	-2.0324896e-07
186	0x196a2d35	1.2106646e-23
187	0xbd20213a	-0.039094187
188	0x000071ed	4.0869e-41
189	0xba08f77b	-0.0005224866
190	0x34ac0927	3.2044156e-07
191	0xbd8b4542	-0.06800319
192	0xb2cdb093	-2.3945438e-08
193	0x8004b70e	-4.3301e-40
194	0x3519fd89	5.7365884e-07
195	0xbd4c520c	-0.049882933
196	0x80030f98	-2.811e-40
197	0x0f47202b	9.817653e-30
198	0x0002cc88	2.57043e-40
199	0xb694aab5	-4.4306166e-06
200	0x3d25e53d	0.04050182
201	0xb3cb7a4b	-9.475169e-08
202	0xa5f08619	-4.1724232e-16
203	0x0000071f	2.555e-42
204	0x033c6072	5.535895e-37
205	0x0000fb1c	9.0081e-41
206	0x000029f4	1.505e-41
207	0x3c82b6cf	0.01595631
208	0x00071050	6.487e-40
209	0x8b66f542	-4.44809e-32
210	0x3ca429da	0.020039488
211	0x88693333	-7.017607e-34
212	0xb3649ade	-5.3226238e-08
213	0xb0b1669d	-1.2907609e-09
214	0xb6684c20	-3.4615005e-06
215	0x3d1f6ebc	0.038923964
216	0x00046676	4.04098e-40
217	0xb18dca45	-4.1266355e-09
218	0x3d448367	0.047976878
219	0x80009a02	-5.5248e-41
220	0xb9eef52d	-0.00045577568
221	0x0f1fb64b	7.8744136e-30
222	0xacba691f	-5.2981087e-12
223	0x800695b6	-6.04719e-40
224	0x80023cb2	-2.05444e-40
225	0xa98abd3d	-6.161259e-14
226	0x8003a91d	-3.36173e-40
227	0x00000215	7.47e-43
228	0xbd80e408	-0.062934935
229	0x00048e88	4.18473e-40
230	0x34aac064	3.180495e-07
231	0x33e665fd	1.0728761e-07
232	0x359354ef	1.0977072e-06
233	0xb24bab71	-1.1855136e-08
234	0xbca8ac36	-0.02058993
235	0x3c348e7d	0.0110203
236	0xbd75b15d	-0.0599836
237	0xb2cbdef5	-2.37337e-08
238	0x00301287	4.41475e-39
239	0xac08bf8c	-1.9433092e-12
240	0xbcb0e6ef	-0.021594493
241	0x10bf7e55	7.553086e-29
242	0x000205ce	1.85753e-40
243	0xaf441bec	-1.7836016e-10
244	0x04f27d5f	5.700906e-36
245	0x80074e8e	-6.71029e-40
246	0x0002be4c	2.51937e-40
247	0x8005c6a2	-5.30434e-40
248	0x0001571e	1.23087e-40
249	0xbb485294	-0.0030566799
250	0x00026671	2.2042e-40
251	0x13dd4357	5.5854645e-27
252	0xbc167ee4	-0.0091855265
253	0x1d58c016	2.8686668e-21
254	0x3555f18b	7.9700175e-07
255	0x3c3f9364	0.0116928555

layer_2.bias f4 [100]
0	0x3d4f79b4	0.050653175
1	0x3d20c193	0.039247107
2	0x3c5d14a2	0.013493689
3	0x3c435a54	0.011923391
4	0x3d891ac5	0.06694559
5	0x3d3569e9	0.044290457
6	0x3d65afb9	0.056075785
7	0x3d1470b6	0.036240302
8	0x3bf33bf4	0.0074229185
9	0x3d87e29d	0.0663502
10	0xb8a579a6	-7.890472e-05
11	0x3c291e61	0.010322184
12	0xa434d802	-3.9214244e-17
13	0x3c476b5f	0.012171595
14	0xa8748b03	-1.3574864e-14
15	0x3b05626f	0.002035286
16	0x3d670922	0.056405194
17	0x3d36a55f	0.044591304
18	0x3d3f2147	0.046662595
19	0x3c26b574	0.010175098
20	0x9e02618d	-6.902316e-21
21	0x3d5a39b4	0.053277686
22	0x3d4bfc9c	0.049801454
23	0xb8231bb4	-3.888803e-05
24	0x9bac7cf9	-2.8535775e-22
25	0x3c92b035	0.017906288
26	0xb9fbeb2b	-0.00048049664
27	0x3d44f953	0.048089337
28	0x3b8ce4ff	0.0042997594
29	0x3d8b7aa3	0.068105005
30	0xb9fb3154	-0.00047911203
31	0x3d6b805c	0.05749546
32	0xac154ba4	-2.1216163e-12
33	0xb1807535	-3.738615e-09
34	0x3c2c3497	0.010510585
35	0xb9a52be8	-0.00031503965
36	0xb8c7d705	-9.52911e-05
37	0xbad29413	-0.0016065858
38	0x3d7a82a6	0.061159752
39	0x3ced9d53	0.029005682
40	0xaa9d6ec2	-2.7965656e-13
41	0x3c88a5ac	0.016680561
42	0x3dae7c2a	0.08519776
43	0x3d7db3cc	0.061939046
44	0x3d38090e	0.04493051
45	0xbd5a0eea	-0.05323688
46	0x3c24a32c	0.010048669
47	0x9f2c8185	-3.6529553e-20
48	0xb958d276	-0.00020677768
49	0x3bbd4cd4	0.005776981
50	0x9d46dd19	-2.6319387e-21
51	0x3d7aa8b1	0.061196033
52	0x3d30daa8	0.043177277
53	0xb97332e3	-0.00023193243
54	0xbd2d2cf4	-0.0422792
55	0x3d319f3a	0.04336474
56	0x3cde10cc	0.027107619
57	0x3c9b1d00	0.018934727
58	0x3c4401d0	0.011963323
59	0xa4a2c07d	-7.058239e-17
60	0x3d1ab832	0.03777332
61	0x3d9475b4	0.072490126
62	0x3cb59f0f	0.022170572
63	0x3d582a71	0.05277485
64	0x3d64560d	0.055746127
65	0xb92a21e3	-0.00016225087
66	0xb8273beb	-3.9871706e-05
67	0x3d3f3904	0.046685234
68	0x3d885069	0.06655962
69	0x3cb86ffd	0.022514338
70	0x9ce15d8a	-1.491343e-21
71	0x3c8435a6	0.016138863
72	0x3c2e168f	0.010625496
73	0x3d6a5add	0.05721556
74	0x16165287	1.2142945e-25
75	0x3beed3f8	0.0072884522
76	0x3d67bfc4	0.056579366
77	0x9f0fd830	-3.0460254e-20
78	0xa3e1ad73	-2.4468007e-17
79	0x3be083c0	0.0068516433
80	0x3d27990c	0.04091744
81	0x3c8018a5	0.015636751
82	0x3d3edf4d	0.046599675
83	0x3bf3bf44	0.007438572
84	0x3cccb9a5	0.024990866
85	0x3c7b3b57	0.015333972
86	0x3c85225d	0.016251737
87	0x099800c1	3.6593378e-33
88	0x1175e616	1.9397993e-28
89	0x3c6867f1	0.014184938
90	0xa9ba77c4	-8.280835e-14
91	0x3c5b1716	0.013372203
92	0x3d0cf3ef	0.03441232
93	0x3d1ea8dd	0.03873526
94	0xadaac3ff	-1.9413802e-11
95	0x3ba06e77	0.004895981
96	0x3ce63bbd	0.028104657
97	0x9685221e	-2.150884e-25
98	0xba29c713	-0.0006476503
99	0x3c29fdf3	0.010375488

layer_3.weight f4 [5, 100]
0	0x3d986232	0.07440604
1	0xba54f722	-0.0008123984
2	0xbdb46840	-0.088089466
3	0xbdb8b354	-0.09018579
4	0x3de8d755	0.11369196
5	0x3dd45b33	0.10368957
6	0x3d5bc327	0.05365291
7	0x3cbd1333	0.023080444
8	0xbdd324a5	-0.10309724
9	0x3e31916e	0.17340633
10	0xb28ee37e	-1.6634427e-08
11	0xbd9173a0	-0.07102132
12	0x9399afbe	-3.8795925e-27
13	0x3df3b595	0.118998684
14	0xa65c147f	-7.635561e-16
15	0xbd9d0002	-0.07666017
16	0x3dada34d	0.08478413
17	0x3d7f46f6	0.062323533
18	0x3d6b0666	0.05737915
19	0xbd59a7e1	-0.053138617
20	0x8005a01f	-5.16618e-40
21	0x3ceb9d5a	0.028761555
22	0xbdf9453c	-0.121714085
23	0x33cb6b98	9.472495e-08
24	0x8002f5e3	-2.71879e-40
25	0xbd319f42	-0.04336477
26	0xa70f7f6f	-1.9914318e-15
27	0x3ddd03a0	0.10791707
28	0xbda6b80b	-0.08140572
29	0x3dd04636	0.10169642
30	0xb07be5cf	-9.1639846e-10
31	0x3e058355	0.1303838
32	0x212e6fcd	5.910146e-19
33	0xac006144	-1.8243887e-12
34	0x3ca595f9	0.020213114
35	0xbbb2e63e	-0.005459576
36	0xb36250ca	-5.2693203e-08
37	0xbb6c4e02	-0.0036057238
38	0x3d7c0571	0.061528627
39	0x3caeb68b	0.021327278
40	0xaad20f53	-3.7314127e-13
41	0xbd3e6197	-0.046479788
42	0xbd187689	-0.03722242
43	0xbc812eac	-0.015769325
44	0x3e0774a7	0.13228093
45	0x3e3cb0d4	0.1842683
46	0xbd65391e	-0.055962674
47	0x00043977	3.87956e-40
48	0x334e5e43	4.8048843e-08
49	0xbd99c924	-0.07509068
50	0x00033e2b	2.97808e-40
51	0x3d8c2a44	0.06843999
52	0x3d87407c	0.06604096
53	0xb218cd17	-8.8941965e-09
54	0x3d794de0	0.060865283
55	0x3dd6ad80	0.10482311
56	0xbcb82233	-0.022477245
57	0xbda976e0	-0.08274627
58	0xbd309f3a	-0.0431206
59	0xa8f516bc	-2.7210324e-14
60	0x3b05108b	0.002030405
61	0x3da2cc7b	0.07949158
62	0x3e224f48	0.15850556
63	0x3d721c2f	0.05910891
64	0x3dfdaa77	0.12386029
65	0xb060f177	-8.183387e-10
66	0xb14e15eb	-2.9989404e-09
67	0xbc9aa907	-0.018879427
68	0x3dd71de4	0.10503748
69	0xbc8397da	-0.01606362
70	0x000248ae	2.09744e-40
71	0xbe006123	-0.12537055
72	0xbdf5ded3	-0.12005391
73	0x3cace289	0.021104114
74	0x97097c64	-4.442409e-25
75	0xbd17d724	-0.03707041
76	0x3de96521	0.11396242
77	0x80dea0c2	-2.0445149e-38
78	0xa6b6cbc2	-1.2684016e-15
79	0xbd7c1bb2	-0.06154985
80	0xbd7fc8e4	-0.062447444
81	0xbd9ec259	-0.077519126
82	0xbdc8ee8b	-0.098111235
83	0xbd7ea141	-0.062165502
84	0xbdb9c881	-0.09071446
85	0xbd719240	-0.058977365
86	0xbd330a8a	-0.043711223
87	0x80005067	-2.8843e-41
88	0x91e22a3e	-3.5682547e-28
89	0x3cd5b781	0.026088478
90	0x1087e41e	5.359958e-29
91	0xbcc0cdc8	-0.023535624
92	0x3d6ae97b	0.05735157
93	0x3da6cd16	0.08144586
94	0x12fc6248	1.5927664e-27
95	0xbdca58c7	-0.09880214
96	0xbdde404e	-0.10852109
97	0x80060256	-5.51851e-40
98	0xbbf23b4f	-0.007392324
99	0xbda1bb12	-0.07897009
100	0x3de65269	0.11246187
101	0x3d99c1f2	0.07507695
102	0xbe0b5860	-0.13607931
103	0xbe4605ba	-0.19338122
104	0x3e3e0392	0.1855605
105	0x3e31ce2c	0.17363805
106	0x3e190123	0.1494184
107	0xbd134694	-0.03595598
108	0xbe47502f	-0.19464181
109	0x3e253732	0.16134337
110	0xb425b2dd	-1.5431893e-07
111	0xbe347ff5	-0.17626937
112	0x9b042269	-1.0929903e-22
113	0x3df928d0	0.121659875
114	0x1488e57a	1.3823003e-26
115	0xbe30414a	-0.17212406
116	0x3e2c0cfe	0.16801831
117	0x3e182fd0	0.14861989
118	0x3e068eb9	0.13140382
119	0x3c991df8	0.018691048
120	0x80004937	-2.6265e-41
121	0x3dc324a8	0.09528476
122	0xbe5b8402	-0.21437076
123	0x37370a8c	1.0910106e-05
124	0x9046b95d	-3.9191413e-29
125	0xbe2fc26d	-0.17164011
126	0xab87cdb9	-9.649426e-13
127	0x3e2255ed	0.1585309
128	0xbe23a2a8	-0.15980017
129	0xbe38e99d	-0.18057866
130	0xb2677d82	-1.3474507e-08
131	0x3e4482d8	0.19190538
132	0x9cf6c862	-1.6330712e-21
133	0xae1101cd	-3.2970782e-11
134	0xbb64ed1a	-0.0034931363
135	0xbcb8909e	-0.022529896
136	0xb3533971	-4.917951e-08
137	0xbc837728	-0.016048029
138	0x3e13a7c9	0.14419474
139	0x3d8a0dde	0.06740926
140	0x800188e1	-1.40938e-40
141	0xbdf9df32	-0.12200774
142	0xbdea0a5d	-0.11427758
143	0xbe0cb42d	-0.13740607
144	0x3e589c23	0.21153311
145	0x3dc2236d	0.09479413
146	0xbe1029de	-0.14078471
147	0x800492a0	-4.19941e-40
148	0xb8088930	-3.2552693e-05
149	0xbe08906c	-0.13336343
150	0x80023fef	-2.06606e-40
151	0x3e26cd3d	0.1628923
152	0x3e101ff7	0.14074694
153	0x2cecc14c	6.7289837e-12
154	0x3c9fbf85	0.019500503
155	0x3e1e2443	0.1544352
156	0xbe003202	-0.12519076
157	0xbe23a059	-0.15979137
158	0xbe0b6a6d	-0.13614817
159	0xa88999f7	-1.5276827e-14
160	0x3db7709e	0.08957027
161	0x3e398737	0.18117987
162	0x3e28fbab	0.16502254
163	0x3e173387	0.1476575
164	0x3e3ad9c0	0.18247128
165	0xaff59a9a	-4.4675091e-10
166	0x32b75e18	2.1346793e-08
167	0xbd6b02ef	-0.057375845
168	0x3e2fad9b	0.17156069
169	0x3c9d893e	0.019230481
170	0x082ca61d	5.1954632e-34
171	0xbe4febd7	-0.2030481
172	0xbe7f87de	-0.24954173
173	0xbd9db350	-0.07700217
174	0x9663ca5a	-1.8400765e-25
175	0xbdafc2de	-0.0858209
176	0x3e33b53e	0.17549607
177	0x001b77be	2.522514e-39
178	0x82c82bf8	-2.9412596e-37
179	0xbe05c21d	-0.1306233
180	0x3d672938	0.056435794
181	0xbe496c7c	-0.1967029
182	0xbd866932	-0.06563033
183	0xbdb4016c	-0.08789334
184	0xbe433e29	-0.19066681
185	0xbddc2997	-0.1075012
186	0xbde540b6	-0.11193983
187	0x0003a1e0	3.33576e-40
188	0x112c8785	1.3610168e-28
189	0xbdf16f57	-0.117888145
190	0x89ee99ac	-5.744093e-33
191	0xbcfa9aed	-0.030591452
192	0x3da778f4	0.08177367
193	0x3de9b2ea	0.11411078
194	0x8c1a6b35	-1.189599e-31
195	0xbe3454e9	-0.17610516
196	0xbe41b66d	-0.18917246
197	0x80025b67	-2.1646e-40
198	0xbb34636e	-0.0027525085
199	0xbe1c887d	-0.15286441
200	0x3e88f569	0.26749733
201	0x3e5a7afb	0.21335976
202	0xbe5c561a	-0.2151722
203	0xbe66621a	-0.2249836
204	0x3ea79abf	0.3273525
205	0xbe452659	-0.1925291
206	0x3e814bdc	0.2525319
207	0x3cdfbbf9	0.027311312
208	0xbe848504	-0.25882733
209	0xbea2f7da	-0.3182972
210	0xb5b4d8e5	-1.347417e-06
211	0xbe530cdc	-0.20610374
212	0x269558a3	1.0362977e-15
213	0xbd1eebdb	-0.038799148
214	0xa56199c0	-1.9567732e-16
215	0xbe8da8a7	-0.27667734
216	0x3e79b789	0.2438642
217	0x3e2374fe	0.15962598
218	0x3e4f645e	0.20253131
219	0xbddb3ed6	-0.107053444
220	0x8071461f	-1.0402566e-38
221	0x3e7c1330	0.24616694
222	0x3d9d0a5f	0.07667994
223	0x38a337ac	7.7828154e-05
224	0x000254f0	2.14141e-40
225	0xbe025ceb	-0.12730758
226	0xb0b0d1aa	-1.2865276e-09
227	0x3e79e256	0.24402747
228	0xbe7683fa	-0.24073783
229	0x3e0b1a85	0.13584335
230	0xb4906ada	-2.6899835e-07
231	0x3e8d7d68	0.2763474
232	0x274da270	2.8537523e-15
233	0x28da54e8	2.4239684e-14
234	0x3d657f6f	0.056029733
235	0xbce03838	-0.027370557
236	0xb570da3a	-8.972453e-07
237	0xbcac8418	-0.021059081
238	0x3e7e7b1f	0.24851654
239	0x3e22c172	0.15894106
240	0xa06baa21	-1.9961565e-19
241	0xbdbfcc7b	-0.093651734
242	0x3eb98bed	0.36239567
243	0x3e32e5e3	0.17470507
244	0xbdb6b035	-0.089203276
245	0xbdd0ea09	-0.10200889
246	0xbe3d4886	-0.18484697
247	0x1c883250	9.012731e-22
248	0x340be84d	1.3029894e-07
249	0xbe9bf5dc	-0.30461013
250	0x0002439d	2.07926e-40
251	0x3e91e16b	0.28492293
252	0x3e4a0bc8	0.19731057
253	0x30919e64	1.0595156e-09
254	0xbcfe81d1	-0.03106776
255	0x3e4f8637	0.20266043

layer_3.bias f4 [5]
0	0xbd601d50	-0.054715455
1	0x3c6503b8	0.013977937
2	0x3cc6e444	0.024278767
3	0x3d1b2c34	0.037883952
4	0x3b4d54e5	0.0031331119
