models/all_td3/TD3_TradingEnv9_robust_warm_42_350_critic_2.pth (torch, 582239 bytes, 5 tensors)

layer_1.weight f4 [400, 60]
0	0xbf89bb60	-1.0760307
1	0x3f45fde3	0.77340525
2	0xbf802d5a	-1.001384
3	0xbf7c0453	-0.984441
4	0x3ebbb437	0.3666093
5	0x3f848444	1.0352864
6	0xbfd64d1b	-1.6742281
7	0xbfa6afd4	-1.3022408
8	0x3d8eb6a5	0.069684304
9	0xbfc82446	-1.563607
10	0xc00c6253	-2.1935012
11	0xbfe59982	-1.7937472
12	0xbfbabcd8	-1.458888
13	0xc06563ba	-3.5842118
14	0xbfbfe313	-1.4991173
15	0xbeaeb68d	-0.3412365
16	0x3ed929f5	0.42414823
17	0x3dcf9261	0.101353414
18	0xbc226e4a	-0.00991399
19	0xbfe3f589	-1.7809306
20	0xbe6a8e94	-0.22905952
21	0x3d76090e	0.06006723
22	0x3cdb0ca1	0.02673942
23	0x3eaddaf2	0.33956105
24	0xbf80cbfc	-1.0062251
25	0xbf3ccb89	-0.7374807
26	0x3e540d82	0.20708278
27	0xbf194ac6	-0.5987972
28	0xbe20b4cf	-0.15693973
29	0xbf1e22ac	-0.61771655
30	0xbf164c4b	-0.58710164
31	0xbfb80540	-1.4376602
32	0x400b1b02	2.1735234
33	0x3fec49bb	1.8460001
34	0x3e16eb37	0.14738165
35	0x3ca31bbc	0.019910686
36	0xbf0ed385	-0.55791503
37	0xbfbf8f1e	-1.4965551
38	0xbf43f886	-0.7655109
39	0xbf0454aa	-0.5169169
40	0xc070f8a5	-3.765176
41	0xc04258d0	-3.0366707
42	0xc03bd57c	-2.934905
43	0xbecbe91d	-0.3982629
44	0x3ec44472	0.3833347
45	0x3e655c54	0.22398502
46	0x3ed481c5	0.41505256
47	0x3f18e6e0	0.5972729
48	0x3f8b45ad	1.0880638
49	0xbd6ef285	-0.058336753
50	0x000b12d0	1.016939e-39
51	0x0005b1f4	5.23015e-40
52	0x00035e8a	3.09421e-40
53	0x80052b13	-4.7463e-40
54	0x3f4c5985	0.79824096
55	0xbe96bdc9	-0.2944167
56	0xbefbb4e8	-0.49161458
57	0x3f7b26d2	0.9810611
58	0xbf36509d	-0.71216756
59	0x3e97294e	0.295237
60	0x3f25faf5	0.64836055
61	0x3f5e960f	0.8694772
62	0x3ee5c6d7	0.44878265
63	0x3ed3b7cc	0.41351163
64	0x3f85562e	1.0416925
65	0xc03bc3f6	-2.9338355
66	0x3fb77b5e	1.4334524
67	0x3f34e71f	0.7066516
68	0x3d9e7635	0.0773739
69	0x3fdf753b	1.7457651
70	0x3e6b6445	0.22987469
71	0x3fd2f156	1.64799
72	0x3fd3acd0	1.6537113
73	0xc0047012	-2.0693402
74	0xbe3f26e4	-0.1866718
75	0xc003b1ad	-2.0577195
76	0xbe99f578	-0.3007009
77	0x3de93ce7	0.11388569
78	0x3f8a8748	1.0822535
79	0x403b10a6	2.9228911
80	0x3fb1b601	1.3883668
81	0x3f8259f4	1.0183702
82	0xbed19672	-0.40935093
83	0x40b7112f	5.7208476
84	0x402d5cc0	2.708786
85	0x3eceedcf	0.4041581
86	0xbc9c2952	-0.019062672
87	0x3f0369f5	0.5133355
88	0x4001d242	2.028458
89	0x3f10b55a	0.5652672
90	0x3ede7b84	0.4345361
91	0xbe1bc5aa	-0.15212122
92	0xbdab7179	-0.083712526
93	0xbf8c7ef9	-1.0976249
94	0xbf2a60c6	-0.66553915
95	0x3db07eff	0.086179726
96	0x3f337479	0.700996
97	0x3fc67e83	1.5507358
98	0x3f00e547	0.5034985
99	0x3f078d15	0.5294965
100	0x404fd178	3.24716
101	0xbf933dca	-1.1503232
102	0x409b111f	4.84584
103	0x3e9b9bce	0.30392307
104	0x3c473d89	0.012160667
105	0x3f6d6954	0.9273884
106	0xbf0f15ad	-0.5589245
107	0xbf5f0b09	-0.87126213
108	0xbf75581d	-0.95837575
109	0x3d906fda	0.07052584
110	0x8005ee6d	-5.44709e-40
111	0x800ba1b2	-1.068196e-39
112	0x800beedd	-1.095878e-39
113	0x8009c942	-8.98717e-40
114	0xbf2f8745	-0.6856578
115	0x3e748801	0.23880006
116	0x3e7ce935	0.24698336
117	0xbe4ef185	-0.2020932
118	0x3f4a16a8	0.7894082
119	0xbdd0c206	-0.10193257
120	0x3df7fa96	0.12108342
121	0xbee854d0	-0.45377207
122	0x3df43fa6	0.119262025
123	0x3e120d5d	0.1426291
124	0x3e3391ab	0.17536037
125	0x3e5d8235	0.21631701
126	0xbeeac070	-0.45849943
127	0x3f14fc65	0.58197623
128	0x3e46b9ba	0.19406787
129	0x3e414267	0.18872987
130	0xbeb98af8	-0.36238837
131	0x3e3a415d	0.18188997
132	0x3e51bd3b	0.20482342
133	0x3dd3e7a0	0.10346913
134	0x3fb8d5b6	1.4440219
135	0x3eef14e0	0.46695614
136	0x3e0abd66	0.13548812
137	0xbd8d8bae	-0.069114074
138	0xbd64ee2d	-0.055891205
139	0xbc2aada5	-0.010417377
140	0xbd9407a0	-0.07228017
141	0xbd3fcbf5	-0.046825368
142	0x3dd7302e	0.105072364
143	0xbf2cc6b3	-0.6749069
144	0xbe5761c2	-0.21033385
145	0xbe2a300e	-0.16619894
146	0xbf15305c	-0.58276916
147	0xbb8b68f6	-0.0042544557
148	0xbc87ac28	-0.016561583
149	0xbc1684b1	-0.0091869095
150	0x3c994080	0.018707514
151	0x3ea6d58b	0.32584795
152	0xbf3eb2ea	-0.7449175
153	0x3e9795ce	0.2960648
154	0xbeaa443e	-0.3325519
155	0xbe4639af	-0.19357942
156	0x3da2150f	0.07914173
157	0xbf1069d9	-0.5641151
158	0x3dd0a2b0	0.1018728
159	0x3dc97616	0.09836976
160	0x3e0acf01	0.13555528
161	0x3e4a7621	0.19771625
162	0x3ea10eac	0.31456506
163	0xbec2cd90	-0.38047457
164	0xbcb4110b	-0.021980783
165	0x3e7f1c43	0.24913125
166	0x3e25c7a9	0.16189446
167	0xbaa8365f	-0.0012833587
168	0x3caf646a	0.021410186
169	0x3cba8a4f	0.022771029
170	0x800cd8c9	-1.179794e-39
171	0x000f3df0	1.399751e-39
172	0x000764c3	6.78995e-40
173	0x00055d13	4.92566e-40
174	0xbdc82772	-0.097731486
175	0x3e81ddf7	0.25364658
176	0xbca65693	-0.020304954
177	0xbf06552c	-0.5247371
178	0x3ed13255	0.40858713
179	0xbeaa8d88	-0.33311105
180	0xbf80062f	-1.0001887
181	0xbf9d1d28	-1.2274523
182	0xbfb4b5f2	-1.4118025
183	0xbf9515ad	-1.164724
184	0xbf074e2a	-0.52853644
185	0xc09f7e2d	-4.9841523
186	0x400a1278	2.1573772
187	0x3f82f459	1.0230819
188	0x3b721c7d	0.003694325
189	0xbf1c2a1f	-0.6100177
190	0x3f26d188	0.6516347
191	0xbf82ba2c	-1.0213065
192	0xbeeb885d	-0.46002474
193	0x40abc2e1	5.367539
194	0x3ffa635f	1.9561576
195	0x3fbc509e	1.4712102
196	0xbf111c18	-0.5668349
197	0x3c660502	0.01403928
198	0xbf6fcf1c	-0.936754
199	0x3ff13418	1.8844023
200	0xbf593570	-0.84847164
201	0xbf9a4235	-1.2051455
202	0x3fbc58b3	1.4714569
203	0x40204229	2.504038
204	0x4082adce	4.0837164
205	0x3f6bc077	0.92090553
206	0x3cd30e12	0.025763545
207	0x3f056ce9	0.5211931
208	0xbf4c081a	-0.7969986
209	0x3ea36cc4	0.3191892
210	0x3e422471	0.18959214
211	0x402b3e74	2.6756868
212	0xc05375f6	-3.3040748
213	0x40c12bb2	6.036584
214	0x3cbf819b	0.02337723
215	0x3d39609d	0.045258153
216	0x3dbe062b	0.0927852
217	0x40071345	2.110551
218	0xbd389db4	-0.045072272
219	0xbde2d86c	-0.110764354
220	0xc032e55d	-2.7952492
221	0xbed140d2	-0.40869766
222	0x3f8864be	1.0655744
223	0x3f856d8a	1.0424054
224	0x3da45dc2	0.080256954
225	0xbf29245a	-0.66071093
226	0x3e98a296	0.29811543
227	0x3ef4c95e	0.4780988
228	0x3e8c9d5d	0.2746381
229	0x3e0324b6	0.12806973
230	0x00025a27	2.16012e-40
231	0x0001bc7a	1.59448e-40
232	0x000106e1	9.4303e-41
233	0x0001f778	1.8061e-40
234	0xbeb62a1f	-0.3557901
235	0xbec6ab1b	-0.38802418
236	0x3e535644	0.20638376
237	0xbeabd446	-0.3356039
238	0x3f133dcc	0.5751617
239	0xbdae8dee	-0.08523165
240	0xbcdca5c2	-0.026934508
241	0x3e9cc950	0.3062234
242	0xbd0bd2da	-0.03413663
243	0xbd27e4b5	-0.040989596
244	0x3e82390f	0.25434157
245	0x3f1932b1	0.59842974
246	0x3f4bf591	0.7967158
247	0xbe203891	-0.15646578
248	0xbd83e8da	-0.06440897
249	0xbc7b859e	-0.015351681
250	0x3de98987	0.114031844
251	0xbd0bc024	-0.034118786
252	0xbc01e9ee	-0.007929308
253	0xbe72ccc8	-0.2371093
254	0x3f5ba9bb	0.85805863
255	0x3e0ac4f7	0.13551699

layer_1.bias f4 [400]
0	0x3f18e924	0.59730744
1	0xbfa1ce6e	-1.2641122
2	0xbc37707d	-0.011196253
3	0x3e9a10a4	0.3009082
4	0x3cea0995	0.028569022
5	0x3fe3cade	1.7796285
6	0x3fb86e60	1.4408684
7	0x3fa73b2d	1.3064934
8	0x3f71c797	0.94445175
9	0x3e31d7e5	0.17367513
10	0xbe26088d	-0.162142
11	0x3eb5f7f4	0.35540736
12	0xbe2dbee7	-0.16967355
13	0x3f23b48e	0.6394738
14	0xbd3128b8	-0.043251723
15	0xbcc4fa8d	-0.024045253
16	0xbdd77ec2	-0.10522224
17	0x3f61cd00	0.8820343
18	0xbfe0f140	-1.7573624
19	0x3d471a7c	0.04860924
20	0xbfca43b9	-1.5801917
21	0xbf69c15a	-0.91310656
22	0xbd80cab8	-0.062886655
23	0x3e8c1f42	0.27367598
24	0x3f834840	1.0256424
25	0xbe0a1956	-0.13486227
26	0x3e679936	0.22617039
27	0x3e538ed0	0.20659947
28	0xbeff6e95	-0.49889055
29	0x3fb2f392	1.3980582
30	0x3de9f212	0.114231244
31	0x3f02c144	0.5107615
32	0x3d07cac3	0.033152353
33	0xbfe7f56f	-1.8121775
34	0x3dfd774f	0.12376272
35	0x3fbef87c	1.4919581
36	0x3f8e3baf	1.1111964
37	0x3bf25499	0.0073953387
38	0xbe713325	-0.23554666
39	0x3f77624d	0.9663437
40	0x3d5762d2	0.052584477
41	0xbfc1e8e3	-1.5149196
42	0x3ec4baa3	0.38423643
43	0x3f7c625c	0.98587584
44	0x3f071a83	0.5277483
45	0x3fc0746c	1.5035529
46	0x3edd126f	0.43178126
47	0x3f8067cc	1.0031676
48	0xbd41bcbd	-0.047299135
49	0xbb917eac	-0.0044401493
50	0xbfc8c9ae	-1.5686548
51	0x3e5851c1	0.21124937
52	0x3ec18599	0.3779724
53	0x3e84736c	0.2586931
54	0x3e7959eb	0.24350707
55	0xbfa68b96	-1.3011348
56	0x3f6c6f31	0.92357165
57	0x3f91763f	1.1364211
58	0xbf4b9c35	-0.7953523
59	0x3e2b3bed	0.16722079
60	0x3f8f0e4d	1.1176239
61	0xbf36daa2	-0.7142736
62	0xbf9d04e4	-1.2267118
63	0x3f86c982	1.0530245
64	0xbeb60ebc	-0.35558116
65	0xbf4a6d80	-0.79073334
66	0xbdd04534	-0.101694494
67	0x3f6f9dd5	0.9360021
68	0x3e95c261	0.29249862
69	0xbd5fa588	-0.054601222
70	0x3f0a7bbd	0.5409506
71	0x3e41996c	0.18906182
72	0x3c1fad5b	0.009745921
73	0xbe2161ae	-0.15759918
74	0x3f3547e6	0.70812833
75	0x3e696352	0.22791794
76	0xbf336c10	-0.70086765
77	0xbbe74006	-0.0070571927
78	0xbeeac11c	-0.45850456
79	0x3f3ae14e	0.7300004
80	0xbf535ccd	-0.8256348
81	0x3de8491f	0.11342072
82	0x3e6b2fca	0.22967449
83	0xbe74e9c9	-0.23917307
84	0x3fce1c11	1.6102315
85	0x3dc4a120	0.09601045
86	0xbeb2b4e3	-0.3490363
87	0xbf6a391f	-0.9149341
88	0x3e4673f1	0.19380166
89	0x3e8f9aa3	0.28047666
90	0x3f35887c	0.70911384
91	0xbde1b0f2	-0.11020078
92	0x3ffd27d5	1.9777781
93	0xbf31e97b	-0.6949689
94	0x3fc6b248	1.5523157
95	0x3e85bb26	0.26119345
96	0xbdf217c8	-0.11820942
97	0xbd616c68	-0.055035025
98	0x3ee57969	0.4481919
99	0xbd187355	-0.037219364
100	0x3f9a7b2d	1.206884
101	0x3d4c3299	0.04985294
102	0xbfce71d1	-1.6128484
103	0xbec8a531	-0.3918853
104	0x3e65fd07	0.22459804
105	0xbfbcbcc2	-1.4745104
106	0xbf0436fa	-0.5164639
107	0x3e0f74c0	0.1400938
108	0x3d2c38e6	0.04204645
109	0xbe5154c9	-0.20442499
110	0x3f5ec578	0.87020063
111	0x3e8b4540	0.2720127
112	0xbd1a063f	-0.037603613
113	0xbf928449	-1.144662
114	0x3f28209c	0.6567476
115	0xbd31e175	-0.043427903
116	0x3ed60a0a	0.41804534
117	0xbf4b7ef4	-0.7949059
118	0xbc75a5dc	-0.014993157
119	0x3da84ba8	0.08217555
120	0x3f57a179	0.8423076
121	0xbfaa822a	-1.3320973
122	0x3e3217e2	0.17391923
123	0x3df084aa	0.11744054
124	0xbf956494	-1.1671319
125	0x3ea2b2d8	0.31777072
126	0xbd072fd7	-0.033004608
127	0x3fe0f106	1.7573555
128	0x3f8279c2	1.0193408
129	0x3e790ff2	0.24322489
130	0x3fad30c2	1.3530505
131	0xbd697672	-0.056997724
132	0x3df9da65	0.121998586
133	0x3cf8ba19	0.030362176
134	0x3ef521d5	0.47877374
135	0x3e09359a	0.13399354
136	0xbee7d60e	-0.45280498
137	0x3dd8986f	0.105759494
138	0x3ef39d65	0.4758102
139	0xbee177f1	-0.4403682
140	0x3ed9e1a8	0.42554975
141	0xbf02328c	-0.5085838
142	0xbdb7eb7f	-0.08980464
143	0x3dce8075	0.10083095
144	0x3e264638	0.16237724
145	0x3ebea02f	0.37231585
146	0xbe597e83	-0.21239667
147	0xbeed8417	-0.4638984
148	0x3e08f9f4	0.133766
149	0x3da0ee8c	0.07857999
150	0x3fa46f7d	1.2846524
151	0x3e8d107a	0.27551633
152	0x3be1cbd3	0.006890753
153	0x3eeef7be	0.46673387
154	0x3f911056	1.133311
155	0xbf585b76	-0.8451456
156	0xbeac53d3	-0.33657703
157	0x3e591cc3	0.21202378
158	0x3ed7cb40	0.42147255
159	0x3be64bc5	0.0070280754
160	0xbe1acb33	-0.15116577
161	0x3f726b4d	0.9469498
162	0x3e66e75a	0.22549191
163	0x3f131691	0.5745631
164	0x3e6942fa	0.22779456
165	0x3eafaf41	0.34313396
166	0x3e016fa3	0.12640242
167	0xbe9161dc	-0.28394973
168	0x3f49351a	0.7859665
169	0x3e57a481	0.21058847
170	0x3f0f408e	0.5595788
171	0xbd22fb61	-0.039790515
172	0x3df94187	0.121707015
173	0x3f9c1260	1.2193108
174	0xbd5b16e7	-0.05348864
175	0x3d1612b3	0.036638927
176	0xbb9aed03	-0.004727961
177	0xbf2b4b5c	-0.66911864
178	0xbd5e146e	-0.054218702
179	0xbe025af7	-0.12730013
180	0xbdd19c1b	-0.10234853
181	0x3f736802	0.9508058
182	0x3f03fdb1	0.5155898
183	0x3e8da869	0.2766755
184	0x3f1101c6	0.5664333
185	0x3e68acfa	0.22722235
186	0x3eab895f	0.33503243
187	0xbfaa4824	-1.3303266
188	0x3e0cc7b3	0.13748054
189	0x3f56b843	0.8387491
190	0xbdb17a01	-0.086658485
191	0x3f17673d	0.59141904
192	0xbf3408ea	-0.703261
193	0x3e840687	0.2578623
194	0xbe63caee	-0.2224538
195	0xbdb45f79	-0.088072725
196	0xbebf8e1b	-0.37413105
197	0x3e126024	0.14294487
198	0x3e891afd	0.26778403
199	0x3f7172a6	0.94315565
200	0x3e66c657	0.22536598
201	0xbd3fe813	-0.046852183
202	0x3f1bdad0	0.60880756
203	0x3e28f4d3	0.16499643
204	0xbfa121f5	-1.2588488
205	0x3fe96a7b	1.823562
206	0x3e7218c1	0.23642255
207	0xbc574d6f	-0.01314102
208	0x3e068d9c	0.13139957
209	0xbe19290b	-0.14957063
210	0x3e32d20b	0.17462938
211	0xbf65a9ac	-0.89712024
212	0x3d06a929	0.032876167
213	0xbf81fc4d	-1.0155121
214	0x3de877f2	0.11351003
215	0x3ff3efce	1.9057558
216	0x3e91b53a	0.28458577
217	0x3da6daf4	0.08147231
218	0xbf24cfd8	-0.64379644
219	0x3ec613d2	0.38686997
220	0x3f5169fd	0.8180235
221	0xbeec60b9	-0.46167544
222	0x3f364738	0.7120242
223	0xbe3546d3	-0.17702799
224	0xbd911a04	-0.0708504
225	0xbdae2c34	-0.08504525
226	0xbeb5111c	-0.35364616
227	0x3d4f7ea2	0.050657876
228	0xbd7b5795	-0.06136282
229	0x3f256437	0.6460604
230	0x3ebaa3e1	0.36453155
231	0x3fb966d7	1.4484509
232	0xbf40533e	-0.7512702
233	0x3f293f85	0.6611255
234	0xbe40f788	-0.18844426
235	0xbbb48687	-0.005509201
236	0x3e10411e	0.1408734
237	0xbbe96412	-0.007122525
238	0x3fbddda4	1.4833264
239	0x3dab8ef3	0.08376875
240	0x3d87c2c8	0.066289485
241	0xbb1c7486	-0.0023873164
242	0x3f9e92e0	1.2388573
243	0x3dc48bd9	0.09596986
244	0x3c115929	0.008871355
245	0xbf8ebcf4	-1.1151414
246	0xbdaa6d5d	-0.08321641
247	0xbcb3c484	-0.021944292
248	0x3e49de77	0.1971377
249	0x3dee7cca	0.116448954
250	0x3f1e1015	0.6174329
251	0x3c1944a5	0.009354745
252	0xbcb2a83b	-0.021808734
253	0x3d04026a	0.032228865
254	0x3e410e05	0.18853004
255	0x3d68d09a	0.056839563

layer_2.weight f4 [300, 400]
0	0x3e8d8fae	0.2764868
1	0x3ea61545	0.32438102
2	0x3f0e39d9	0.5555702
3	0xbeee1051	-0.46496823
4	0xbe8bc848	-0.2730124
5	0x3d529eb9	0.0514209
6	0xbe93822a	-0.28810245
7	0xbd3f81a4	-0.046754494
8	0x3db6ce12	0.089260235
9	0x3e929216	0.2862708
10	0x3ee351b2	0.44398266
11	0xbe39e7c5	-0.1815482
12	0x3f1f63fb	0.62261933
13	0x3de78242	0.113041416
14	0x3dbe2653	0.092846535
15	0x39ef2861	0.00045615717
16	0xbeca277b	-0.39483246
17	0x3e8955b4	0.268232
18	0x3ef22c4c	0.4729942
19	0xbd5c760c	-0.053823516
20	0x3e4e57b2	0.2015064
21	0x3e67767d	0.22603793
22	0x3cf6bb9d	0.030118758
23	0xbbb142ab	-0.005409559
24	0xbcd241bc	-0.02566611
25	0xbe03fa94	-0.12888557
26	0x3ebb15e2	0.36540133
27	0xbeb90e5b	-0.36143765
28	0xbdeb82ea	-0.11499579
29	0xbd810259	-0.06299276
30	0x3ddd95ae	0.10819565
31	0xbca7a698	-0.02046518
32	0x3c54f9dd	0.012999025
33	0x3f2099ca	0.62734663
34	0xbc9c04cc	-0.019045256
35	0x3ce55c1f	0.027998028
36	0x3ddf392a	0.10899575
37	0x3ef8dedd	0.4860753
38	0x3eb2d587	0.34928533
39	0xbdf0b413	-0.117530964
40	0x3e9b262e	0.30302566
41	0x3d6acc8a	0.05732397
42	0x3c9d2b2c	0.019185625
43	0xbec4f0b5	-0.38464895
44	0xbf15396f	-0.5829076
45	0xbcecef1c	-0.02892261
46	0x3e9921b2	0.2990852
47	0x3e5340fb	0.20630257
48	0x3e9d0cb8	0.30673766
49	0x3da093da	0.078407004
50	0xbf79101b	-0.972902
51	0x3e5aa975	0.21353705
52	0xbe84abcb	-0.25912318
53	0x3dc81348	0.097693026
54	0xbbec5f2e	-0.0072134947
55	0xbdea1c7d	-0.11431215
56	0xbdaf4def	-0.085597865
57	0xbe347187	-0.17621432
58	0xbe23552a	-0.15950456
59	0x3bbc72e3	0.0057510003
60	0x3e549a08	0.20761883
61	0xbf8e89bb	-1.1135782
62	0x3e4eb11c	0.2018475
63	0xbecee650	-0.4041009
64	0x3e4b2e10	0.1984179
65	0xbdd4b3b5	-0.10385839
66	0xbca7a544	-0.020464547
67	0xbcdeb70e	-0.027186897
68	0xbe4f5e40	-0.20250797
69	0x3db7f53c	0.089823216
70	0xbf2b6dde	-0.6696452
71	0xbe33d6b2	-0.17562369
72	0x3e879a75	0.2648503
73	0xbedd6a37	-0.43245098
74	0x3da013ad	0.07816253
75	0x3d7f18fe	0.062279694
76	0x3e2cc752	0.1687291
77	0x3ec2b098	0.38025355
78	0xbe26aae5	-0.16276129
79	0xbd181356	-0.037127815
80	0x3dbd6def	0.09249484
81	0x3dcd3898	0.1002056
82	0x3f1435e1	0.5789471
83	0xbc06019d	-0.008179096
84	0xbd219aeb	-0.039454382
85	0xbe1375a9	-0.14400353
86	0x3efa8f3d	0.48937407
87	0x3ecd0fad	0.40051022
88	0xbc9b4ad9	-0.018956589
89	0x3f1ded40	0.6169014
90	0xbc79a453	-0.015236932
91	0x3d7219c9	0.059106622
92	0xbce0097f	-0.027348278
93	0xbcaffa9b	-0.021481803
94	0xbebedc7c	-0.3727759
95	0xbe1e8cc6	-0.15483388
96	0x3e8d49bc	0.27595317
97	0x3ce330c1	0.027733209
98	0xbdeaa1ed	-0.11456666
99	0xbc8dc4c4	-0.01730574
100	0xbdb516cc	-0.08842239
101	0x3e204890	0.1565268
102	0xbe8c27c7	-0.27374098
103	0xbe5bd58c	-0.2146818
104	0x3e1e7550	0.15474439
105	0x3e87a1f3	0.26490745
106	0xbf2a0d39	-0.66426426
107	0xbec3e069	-0.3825715
108	0xbe1e1bb7	-0.1544026
109	0xbe195b4d	-0.14976235
110	0xbc9a0852	-0.018802796
111	0xbb78a690	-0.0037941076
112	0x3e230290	0.15918946
113	0xbc824aa6	-0.015904736
114	0xbcd0090a	-0.025394935
115	0xbc7a487f	-0.0152760735
116	0xbdb7c0fd	-0.089723565
117	0x3d889135	0.06668321
118	0xb9f7225b	-0.00047137108
119	0x3f073e36	0.528293
120	0x3bdbdf09	0.0067099375
121	0xbf2cbff6	-0.6748041
122	0x3da580b7	0.08081191
123	0x3e12063b	0.14260189
124	0xbe39f147	-0.18158446
125	0x3ccb05ff	0.024783133
126	0x3e1f28c1	0.1554289
127	0x3b197232	0.0023414013
128	0xbeaa1ceb	-0.33225188
129	0x3e914591	0.28373387
130	0x3d2880ab	0.041138332
131	0x3e676ece	0.22600862
132	0xbf3dfd7f	-0.7421493
133	0xbcaa9975	-0.020825127
134	0xbf14bea7	-0.5810341
135	0xbe194cff	-0.14970778
136	0x3d11af3f	0.03556752
137	0x3d9caa9e	0.0764973
138	0x3ed0eff7	0.4080808
139	0x3e54780b	0.20748918
140	0xbf474258	-0.7783561
141	0xbe18b247	-0.14911757
142	0xbd7a4e5d	-0.06110989
143	0x3eaa0efe	0.33214563
144	0xbda5defb	-0.08099171
145	0x3dd5c0d5	0.104371704
146	0x3e95a490	0.29227114
147	0x3e5bc272	0.21460894
148	0xbe1bc83a	-0.15213099
149	0xbe93eb6a	-0.28890544
150	0xbe0ffc3f	-0.14061068
151	0xbbb21921	-0.0054351245
152	0x3d6d45f6	0.057928048
153	0x3e13ba5c	0.14426559
154	0xbe80b5ee	-0.251388
155	0xbf4da601	-0.80331427
156	0x3d5f7907	0.05455878
157	0xbde8938a	-0.11356266
158	0xbe365f97	-0.17809902
159	0x3cd6fd7a	0.026243914
160	0x3f0bcaee	0.5460652
161	0xbead04d7	-0.33792755
162	0x3e24f84d	0.16110344
163	0xbd87ca19	-0.06630344
164	0x3ef317f4	0.47479212
165	0xbeb7a012	-0.3586431
166	0x3db794d5	0.08963934
167	0xbcb30ca5	-0.021856615
168	0x3da9fd52	0.0830027
169	0x3dd025c3	0.101634525
170	0xbc33bac1	-0.010969819
171	0xbd8d0494	-0.06885639
172	0x3db7b594	0.0897018
173	0xbd3da130	-0.0462963
174	0x3ee53742	0.4476872
175	0xbf1afcd2	-0.60542023
176	0x3e1fbb11	0.15598704
177	0xbf08aeab	-0.5339152
178	0xbf0ab41f	-0.5418109
179	0x3f189f8b	0.59618443
180	0x3e314c72	0.17314318
181	0xbeb1c449	-0.34720066
182	0x3f176e60	0.59152794
183	0x3d169cd3	0.036770653
184	0x3e1c7559	0.1527914
185	0x3ebae822	0.36505228
186	0x3daccc86	0.08437447
187	0x3e15fcf8	0.14647281
188	0x3f0e9c99	0.557077
189	0x3e3308b8	0.17483795
190	0x3e0e6ad5	0.1390794
191	0xbe65f361	-0.22456123
192	0x3d879e6c	0.066220134
193	0xbe3eb455	-0.18623479
194	0x3ef5e01c	0.48022544
195	0x3f1576aa	0.5838419
196	0xbe8ebe85	-0.2787973
197	0x3dac4de5	0.08413295
198	0xbe36e654	-0.178613
199	0x3c42d439	0.011891418
200	0x3e758073	0.2397478
201	0x3e7a045f	0.2441573
202	0x3eac77f3	0.33685264
203	0xbe865ff7	-0.2624509
204	0xbf437aa4	-0.7635901
205	0x3e4044be	0.18776223
206	0x3cb0b9e3	0.021573013
207	0x3df3c232	0.11902274
208	0x3d1883b1	0.037234966
209	0x3c159e84	0.009132031
210	0x3dee8baa	0.116477326
211	0xbf5382d9	-0.8262153
212	0x3e7812ce	0.24225923
213	0xbe688de1	-0.22710373
214	0x3e39ef3e	0.1815767
215	0x3d73c6ac	0.05951564
216	0xbc93fc37	-0.018064601
217	0xbcb958b2	-0.022625301
218	0x3eae3948	0.34028077
219	0xbdbf33db	-0.093360625
220	0x3d8e6d15	0.069543995
221	0x3e1f6d5b	0.1556906
222	0xbd90467b	-0.07044693
223	0x3f0678f9	0.5252834
224	0xbd3fa4f9	-0.04678819
225	0xbdedd66a	-0.11613162
226	0xbee7e6a6	-0.45293158
227	0x3ed6ba8d	0.41939202
228	0x3d8b3d50	0.06798804
229	0x3ee85781	0.4537926
230	0xbe9dc2a7	-0.3081257
231	0x3cab3b0b	0.020902177
232	0x3dabd005	0.08389286
233	0x3e9e626f	0.30934474
234	0x3f650a84	0.8946917
235	0x1e0685fc	7.121608e-21
236	0xbc8fa85a	-0.017536331
237	0x3e08c2f8	0.13355625
238	0x3c344fa1	0.011005313
239	0x3e525e2d	0.20543738
240	0x3e4ce3c2	0.20008758
241	0x3e48e4be	0.19618508
242	0xbdb04b85	-0.08608154
243	0x3db7695d	0.08955643
244	0xbd506355	-0.05087598
245	0xbeb0a2ef	-0.34499308
246	0x3eb0b00f	0.34509322
247	0x3ea34449	0.31888035
248	0x3e164524	0.14674813
249	0xbe10a203	-0.14124303
250	0x3cf4020f	0.029786138
251	0x3e19f0c7	0.15033256
252	0x3dfd0b96	0.123557255
253	0x3d4a69d9	0.04941735
254	0x3af7c275	0.0018902557
255	0x3e068cde	0.13139674

layer_2.bias f4 [300]
0	0xbd506003	-0.050872814
1	0x000ac18f	9.87791e-40
2	0x3daf7b7a	0.08568473
3	0xb86477d8	-5.447105e-05
4	0x3cade0cf	0.021225361
5	0x3ed58cbb	0.4170893
6	0x00037e0d	3.20725e-40
7	0x3f1191b2	0.5686294
8	0x8024cb8d	-3.379098e-39
9	0xbc3d42cc	-0.01155157
10	0xbeff5e33	-0.49876556
11	0xbb674509	-0.003528895
12	0x3dae3d08	0.085077345
13	0x3c0f51b2	0.008747505
14	0x3db7a612	0.08967222
15	0x3e96153e	0.29313082
16	0xbdc0afa9	-0.094085045
17	0x3db047f6	0.086074755
18	0xba797dc6	-0.0009517338
19	0xba10b8d1	-0.0005520704
20	0x3e7dec84	0.24797255
21	0x800d9c44	-1.249919e-39
22	0x3f2b8022	0.6699239
23	0xbbf7712f	-0.0075513343
24	0x3e299950	0.1656239
25	0x3db8a668	0.090161145
26	0x3db10d10	0.086450696
27	0x3f0335e6	0.5125412
28	0x800608cb	-5.54167e-40
29	0x3e97991c	0.29609
30	0x3df387ea	0.11891158
31	0x3f6d694b	0.9273879
32	0x3d9d6c13	0.07686629
33	0x8002fa1f	-2.73398e-40
34	0xbdc8391e	-0.09776519
35	0xbb3ff0fb	-0.0029287923
36	0x3ece2540	0.40262794
37	0x3f6428ca	0.8912474
38	0xbb1e6cdf	-0.002417378
39	0x3eb44d3e	0.3521518
40	0x3f1b0294	0.6055081
41	0x3e09ce59	0.13457622
42	0x3f647bb0	0.8925123
43	0x3da16dff	0.07882308
44	0xbc12f521	-0.008969576
45	0x3d016bd2	0.031596966
46	0x3bae4c8f	0.005319185
47	0x3ed87486	0.422764
48	0x3d86b701	0.06577874
49	0x3f747f0b	0.9550635
50	0x3d5a5bd2	0.053310223
51	0x3f0ee56c	0.5581882
52	0x3ca9452e	0.02066287
53	0x3daedb43	0.085379146
54	0x3d99a02b	0.07501253
55	0x3d7df908	0.062005073
56	0x3c1d1259	0.009586894
57	0xbe33d033	-0.1755989
58	0x90f93b06	-9.830412e-29
59	0x800bb18d	-1.073884e-39
60	0x3e264c5f	0.16240071
61	0x3e367668	0.17818606
62	0xbc10156b	-0.008794169
63	0x8004c9b7	-4.39704e-40
64	0x3fd35b52	1.6512244
65	0x3dd59572	0.10428895
66	0x8006bb84	-6.18281e-40
67	0xa9916558	-6.456874e-14
68	0xadeded22	-2.7049089e-11
69	0x3d8eb2ba	0.06967683
70	0xba2291ec	-0.00062015536
71	0x3f4619ed	0.7738331
72	0x3f286d26	0.6579155
73	0xbf25b223	-0.6472494
74	0xbb942f15	-0.004522214
75	0x3e212e4e	0.1574032
76	0x3dcc9125	0.099886216
77	0x8001180d	-1.00463e-40
78	0xbbc73fa7	-0.006080586
79	0x3f7fe71e	0.9996203
80	0xad72b3f7	-1.3796068e-11
81	0xbd9358dd	-0.07194684
82	0xbd6d21b0	-0.057893455
83	0xbec02324	-0.3752681
84	0x3f3c6bc4	0.7360194
85	0x3eda2103	0.4260331
86	0x3f11632b	0.56791943
87	0xae660ad7	-5.2305573e-11
88	0xbc217a3a	-0.009855801
89	0x3d9b3571	0.075785525
90	0x3d93438c	0.07190618
91	0x3dab9b67	0.0837925
92	0xa6cf26e6	-1.4374054e-15
93	0x304a9538	7.3699225e-10
94	0xbbf85243	-0.0075781657
95	0x3e52f42e	0.2060096
96	0x80060cfb	-5.5567e-40
97	0x3f0521f1	0.52004915
98	0xba9fd0ad	-0.0012192928
99	0xbc22719f	-0.009914785
100	0x3d933e55	0.07189623
101	0x3d89fe5f	0.067379706
102	0x3e142147	0.1446582
103	0xa652dc2a	-7.3156764e-16
104	0x3be75f21	0.007060901
105	0x3db03268	0.08603364
106	0xbc58e305	-0.013237719
107	0x3d4cabb7	0.049968448
108	0x3de42bea	0.111411884
109	0x3da9ae29	0.082851715
110	0x3e153bbf	0.14573573
111	0x3e00cb0b	0.12577455
112	0xba5c6473	-0.0008407302
113	0xbd8f6ddd	-0.07003377
114	0x3d761af0	0.060084283
115	0x3e7f91bb	0.24957936
116	0x8006512e	-5.80135e-40
117	0x3ba491d4	0.005022267
118	0x3d8b2ef2	0.067960635
119	0xa05071f4	-1.7655989e-19
120	0x3d00c3cf	0.031436738
121	0xb38296b0	-6.0810066e-08
122	0x3edf5837	0.4362199
123	0x3f014c4d	0.5050705
124	0xb6692513	-3.4741286e-06
125	0xbb619d80	-0.0034426153
126	0xb8ab6b20	-8.173869e-05
127	0xbd70a889	-0.058754478
128	0xbc03f27f	-0.008053421
129	0xbc1f09b6	-0.009706905
130	0x3f10e398	0.5659728
131	0xbc7b0bb9	-0.015322619
132	0x3e4dd769	0.20101704
133	0xbd38388b	-0.0449758
134	0x3e7d7512	0.2475169
135	0x3d960fb9	0.073272176
136	0xba2636cc	-0.0006340563
137	0x3dde0a38	0.10841793
138	0x3d9cd6ff	0.07658195
139	0x059a83c3	1.4530492e-35
140	0x3ebfd748	0.37468934
141	0xbec2eea0	-0.3807268
142	0xbcda1fd6	-0.026626509
143	0x3ebcd1aa	0.3687871
144	0x3ec78b38	0.38973403
145	0x3d1907cb	0.037360948
146	0x3ed44181	0.41456226
147	0x3e07ceb2	0.13262442
148	0xa1ed9c12	-1.6101056e-18
149	0x3fd67f60	1.6757622
150	0x8004be62	-4.35638e-40
151	0x3e073384	0.13203245
152	0x00045b5b	4.00114e-40
153	0x3f4b0586	0.79305303
154	0xb75f8856	-1.3323579e-05
155	0xbe967dc2	-0.2939282
156	0x3b11e6f1	0.0022262896
157	0x3d3113ad	0.043231655
158	0xbe004321	-0.12525608
159	0x80074513	-6.67628e-40
160	0xbe0e983a	-0.13925257
161	0x3e0306ab	0.12795512
162	0x80061b65	-5.6084e-40
163	0xbadde2ed	-0.0016928591
164	0x02b2fd47	2.6300123e-37
165	0x3ca67544	0.020319588
166	0x3f1212a4	0.57059693
167	0x00049adf	4.22899e-40
168	0x000c5ca5	1.13526e-39
169	0x3d8280e9	0.06372244
170	0x3e20f2a8	0.15717566
171	0xbbc4fbff	-0.0060114856
172	0xbca12efe	-0.019675728
173	0x3d6a15da	0.057149746
174	0x3cedf7a9	0.029048758
175	0xbc61fe20	-0.013793498
176	0x3d72856b	0.05920927
177	0x3f3f9570	0.748374
178	0x3d908bdf	0.07057928
179	0x3e166cfc	0.14690012
180	0x3d38b621	0.045095567
181	0xb6e7935f	-6.9014927e-06
182	0x3dc9b259	0.0984847
183	0x0001ef28	1.77629e-40
184	0x3db92bf3	0.09041586
185	0x3f901a56	1.1258037
186	0x3de9fa79	0.11424727
187	0xbe084b67	-0.13310014
188	0x3de99fb0	0.11407411
189	0x9236df89	-5.77046e-28
190	0xbc4eb744	-0.012616936
191	0x3dae0f18	0.08498973
192	0xb7a984df	-2.0208243e-05
193	0xba855b48	-0.0010174299
194	0x3e9768b7	0.2957208
195	0xba8fbab3	-0.0010965675
196	0x3dce4407	0.10071569
197	0x3f0f7d13	0.56050223
198	0x3efd37a7	0.49456522
199	0xbb861904	-0.0040923376
200	0xbdec2e85	-0.115323104
201	0x3fe5f406	1.7965095
202	0x3dae1618	0.08500308
203	0x3f1057b9	0.56383854
204	0x80040cd1	-3.7194e-40
205	0xbe18228b	-0.14856927
206	0xb9e5bd64	-0.0004381939
207	0x3d8adcdb	0.06780406
208	0x800376a3	-3.18065e-40
209	0x3f0d4329	0.55180603
210	0x3db35129	0.087557144
211	0x3e7aceee	0.24493
212	0x3e8be1ab	0.27320608
213	0x04c30b36	4.5854575e-36
214	0x3d7d6454	0.06186326
215	0x3fcd6a7e	1.6048124
216	0x3d9db75f	0.07700991
217	0x3f0cdb94	0.5502255
218	0xbec7287e	-0.3889808
219	0xbe1aadb0	-0.15105319
220	0x3da2ae7d	0.07943437
221	0x3d8e242a	0.069404915
222	0x3d989119	0.0744955
223	0x3d65cdb1	0.056104366
224	0xbe52483b	-0.20535366
225	0x3e622e2f	0.2208793
226	0xbb5ae9fd	-0.0033403628
227	0x3d877c4f	0.06615507
228	0x3d83d64d	0.06437359
229	0x3f536ef1	0.8259116
230	0x3f2b07c1	0.66808707
231	0x3e8574ff	0.26065823
232	0x3cc4bcfb	0.024015894
233	0x3e86461f	0.26225373
234	0x3fac7d9d	1.3475834
235	0xbbdb17a7	-0.006686169
236	0x3f5f2921	0.8717213
237	0x3e000398	0.12501371
238	0xbb1fdf17	-0.0024394447
239	0x3dd2ae71	0.10287178
240	0x3cd6bac4	0.026212104
241	0x3e1f88be	0.15579507
242	0x3da9487a	0.08265777
243	0x3ec6d271	0.3883243
244	0x3e986aea	0.2976907
245	0x800595ac	-5.1287e-40
246	0xbf2d49ae	-0.6769055
247	0x3d99daf7	0.07512467
248	0x3f2cb4f0	0.6746359
249	0x3d6e4a60	0.0581764
250	0x3ef81818	0.48455882
251	0x3cb18bc9	0.0216731
252	0x80079e97	-6.9974e-40
253	0x3d88742e	0.066627845
254	0xbe09506c	-0.13409585
255	0x3cebe26f	0.028794495

layer_3.weight f4 [1, 300]
0	0x3f0bc9b1	0.5460463
1	0x378df207	1.6921213e-05
2	0xbfdebd87	-1.7401589
3	0x3b8c9cde	0.004291161
4	0xbfff86d6	-1.9963024
5	0xbfd9d7a1	-1.701893
6	0x35b8a088	1.3755789e-06
7	0x3fba16a1	1.4538156
8	0xbb6d6f59	-0.0036229698
9	0xbc8b6b6a	-0.017018992
10	0xbfad4057	-1.353526
11	0x3c75aa75	0.014994253
12	0x3f8a1952	1.0788977
13	0x3e52f9c9	0.20603098
14	0xc02fe8fb	-2.748595
15	0xbfa85091	-1.3149587
16	0x3f07cede	0.5305003
17	0x3e9fa074	0.31177104
18	0xbb80f73b	-0.003935722
19	0xbc6a35cb	-0.014295052
20	0xbf928bb1	-1.144888
21	0xbc10c257	-0.008835397
22	0xc00ab618	-2.1673641
23	0xbc8882b2	-0.016663883
24	0xc0092b6c	-2.1432753
25	0xbffcb701	-1.9743348
26	0x3ed22d4e	0.4105019
27	0xc0037027	-2.0537202
28	0x39d58eaf	0.00040732833
29	0xc004a695	-2.0726674
30	0xc05e782b	-3.4760845
31	0x3fff5b22	1.9949687
32	0x3f040a48	0.5157819
33	0x00056c08	4.97932e-40
34	0x3f532827	0.8248314
35	0xbb92b982	-0.0044776807
36	0xc0009bc3	-2.009507
37	0x4073ed08	3.8113422
38	0xbc9c5abf	-0.01908624
39	0xbfd9044d	-1.6954437
40	0xc05b9702	-3.4310918
41	0xbfe698ac	-1.8015342
42	0x3fdd4552	1.728678
43	0x3e90be4e	0.2827019
44	0x3c36e610	0.01116325
45	0xc055958d	-3.3372529
46	0xbe0f9a56	-0.14023718
47	0x3fc08e88	1.5043497
48	0x3e8f866c	0.28032243
49	0x3feecd1f	1.8656348
50	0x3e99b24f	0.3001885
51	0xc02405f1	-2.5628626
52	0x3e958144	0.29200184
53	0x3ebc8247	0.36818144
54	0x3f0a83a6	0.5410713
55	0x3f417c2e	0.7558011
56	0x3e90d8e2	0.28290468
57	0xbfb653a1	-1.4244272
58	0xaba87789	-1.1970296e-12
59	0xbb1ad925	-0.0023627963
60	0xc009f67f	-2.15567
61	0xbf46b5fe	-0.7762145
62	0xbd00ecd8	-0.03147587
63	0xb9d3b14a	-0.00040377147
64	0x40841783	4.12787
65	0x3eb7b128	0.35877347
66	0x3c570c2c	0.013125461
67	0xb85e733e	-5.3036252e-05
68	0xbc33c431	-0.010972069
69	0x3e8d0280	0.2754097
70	0xbbe0d988	-0.0068618692
71	0x3ff84ef1	1.9399091
72	0xbf9defcc	-1.2338805
73	0xc0eff39e	-7.4984884
74	0xbf4c0c62	-0.79706395
75	0xbf9ea258	-1.2393293
76	0xbfb8680a	-1.440675
77	0x3bf6f397	0.0075363624
78	0x3b9e6211	0.004833468
79	0xc03c4377	-2.9416177
80	0x3b685e53	0.0035456612
81	0x3f820967	1.0159119
82	0x3ecc69b1	0.39924386
83	0xc0a236e6	-5.0692015
84	0x3fbffbca	1.4998715
85	0xbfde2501	-1.7355043
86	0xc027dea2	-2.6229634
87	0xbcab3165	-0.020897577
88	0xbba189a1	-0.0049297367
89	0xbededa8c	-0.43526113
90	0x3e8f54fe	0.2799453
91	0x3ee48f0b	0.44640383
92	0x3c3695bb	0.011144097
93	0x3b0b313f	0.002123907
94	0xbc6ccd2e	-0.0144532155
95	0xbff20486	-1.890763
96	0xbbead6e3	-0.00716673
97	0xc0039b11	-2.0563395
98	0x3a81c971	0.0009901953
99	0xbcdfb708	-0.027308956
100	0x3f486383	0.7827684
101	0x3f4341da	0.76272357
102	0x3fcb0150	1.5859776
103	0xbc96c5c0	-0.018404841
104	0xc06e84f8	-3.7268658
105	0xbfa98b27	-1.3245591
106	0x3e0eb00d	0.13934346
107	0x3e69cb16	0.22831377
108	0xbf43d0f5	-0.7649072
109	0x3eb6165e	0.3556394
110	0xc05dfacf	-3.4684331
111	0xbf95e176	-1.170943
112	0xb7aa0acc	-2.0270607e-05
113	0xbf893959	-1.0720626
114	0x3edf0a3d	0.435625
115	0xbf8b3197	-1.0874509
116	0x3c1ee7a8	0.009698786
117	0x3e65f560	0.22456884
118	0x3f4cea6e	0.8004521
119	0xbc55f4ad	-0.0130588235
120	0x3f63f9a2	0.89052784
121	0x3b9b869b	0.004746271
122	0xbfb0d301	-1.3814393
123	0xbfffb0d4	-1.9975839
124	0x3be3c092	0.0069504464
125	0x3adb2773	0.0016720131
126	0xbc3fce49	-0.011706897
127	0x3ebbb530	0.36661673
128	0x3c2203d3	0.009888607
129	0x3a83b96f	0.001004977
130	0xc024b71d	-2.5736763
131	0xbb41e560	-0.002958618
132	0xbf09bafb	-0.53800935
133	0x3f212cfa	0.62959254
134	0xbfad769a	-1.3551819
135	0x3f0a5c64	0.54047227
136	0x3d7f584f	0.062340077
137	0xbf1b8274	-0.6074593
138	0x3f06193e	0.52382267
139	0x3c230867	0.009950734
140	0x4013ea3f	2.3111722
141	0xbfd49eca	-1.6610959
142	0x3d1680e6	0.03674402
143	0xc011ad59	-2.2762053
144	0xbfcf426c	-1.6192145
145	0x3e5c2dd8	0.21501863
146	0xbfcd6c2b	-1.6048635
147	0xbea55fff	-0.32299802
148	0xbb406d38	-0.0029361974
149	0x4080f14e	4.029456
150	0x3c2eeea8	0.010677017
151	0x3f360264	0.710974
152	0xb8f1c007	-0.000115275434
153	0xbfeee4f3	-1.866362
154	0x3b7d63a8	0.0038664136
155	0xc06a44b0	-3.6604424
156	0x3eab0b0a	0.3340686
157	0x3fc53dd9	1.54095
158	0xc0b70b88	-5.7201576
159	0x3b10a25d	0.0022069432
160	0x3fd64eb8	1.6742773
161	0xc00d903c	-2.2119284
162	0x3959ff1d	0.0002078977
163	0x3bb7ca9a	0.005608869
164	0x3c0af2ac	0.008480709
165	0x3f8b0d2e	1.0863397
166	0xbffa41a2	-1.955128
167	0xb43627e8	-1.6964589e-07
168	0x33c66f9e	9.2403965e-08
169	0x3e90e3c4	0.2829877
170	0xbfcf64bf	-1.620262
171	0xbad649a0	-0.0016348846
172	0xbc83939f	-0.016061602
173	0xbfb207f6	-1.390868
174	0x3e41fb71	0.18943574
175	0x3f95b199	1.1694824
176	0x3e69745c	0.22798294
177	0x3fa2573b	1.2682871
178	0x3e9a2633	0.3010727
179	0xc0065255	-2.0987751
180	0x3fa89c03	1.3172611
181	0x3c0e7f46	0.008697337
182	0x3f3d6237	0.7397799
183	0x393e2ae6	0.00018135793
184	0x3edd05b1	0.43168405
185	0x4068e238	3.6388073
186	0xbfba044a	-1.4532559
187	0x3f60e00a	0.87841856
188	0xbf0e7b6e	-0.5565709
189	0x3c1d79e6	0.009611582
190	0x3b872c81	0.0041251783
191	0x3e9fafc6	0.31188792
192	0xbbfa0131	-0.0076295366
193	0xbc318789	-0.010835537
194	0xbfd13374	-1.6343827
195	0x3bb5db46	0.005549821
196	0x3eb2ba2a	0.34907657
197	0xc02973da	-2.647696
198	0xc03708d0	-2.8599129
199	0xbc7b4ea6	-0.0153385755
200	0x3f0ff7bd	0.56237394
201	0x40c0eb5f	6.028732
202	0x3ea19988	0.31562448
203	0xc02a8428	-2.6643162
204	0x3c4011d1	0.011722998
205	0xc09273ee	-4.5766516
206	0xbbcd5b5f	-0.006266996
207	0x3e83d9cb	0.257521
208	0x334189db	4.5061693e-08
209	0xc025bed2	-2.5897717
210	0x3ebb87ed	0.3662714
211	0xbfc19a98	-1.5125303
212	0xbf250c68	-0.64472055
213	0xb998c7d0	-0.0002914057
214	0x3e61a1bf	0.22034357
215	0x3ff68b20	1.9261208
216	0x3eb6e0b8	0.35718322
217	0xc03da757	-2.9633386
218	0xc094fd28	-4.655903
219	0x3fbdea54	1.4837136
220	0x3ea3531d	0.31899348
221	0x3e89ac2f	0.26889178
222	0xbef54aa0	-0.47908497
223	0x3e5aa7fd	0.21353145
224	0x4014ac07	2.3229997
225	0xbfe22d3c	-1.7670054
226	0xbb1a9623	-0.0023588024
227	0x3f4944d4	0.7862065
228	0x3f3fdce1	0.7494641
229	0x3fb08957	1.3791913
230	0xbf9071bc	-1.1284709
231	0xbf96f190	-1.1792469
232	0x3fb7d11b	1.4360689
233	0xbf35940e	-0.7092904
234	0x401373b6	2.3039374
235	0x3c53eb04	0.01293445
236	0x40277f73	2.617154
237	0xc091c341	-4.5550847
238	0x3c6447a5	0.013933097
239	0x3f8d8e7b	1.1059107
240	0x3e253da7	0.161368
241	0xc0024b6b	-2.0358531
242	0x3ee10aca	0.43953544
243	0xc00739ee	-2.1129107
244	0xc01db6ae	-2.464275
245	0x3b8a3483	0.0042176857
246	0xc0b1879b	-5.5478034
247	0x3eae8129	0.34082916
248	0xc0289529	-2.634104
249	0xc029f345	-2.655473
250	0xbfc81aa1	-1.5633126
251	0x3e2981cf	0.16553424
252	0xbb910dc9	-0.004426692
253	0x3e6fd183	0.23419766
254	0x3ece0b45	0.40242973
255	0x3f8c6642	1.0968707
