models/all_td3/TD3_TradingEnv5_42_200_actor.pth (torch, 569119 bytes, 6 tensors)

layer_1.weight f4 [400, 48]
00000000: 28a4 90bc 8f9a bbbd d785 f2bd f880 1fbe
00000010: cede 64be 4310 c53d 338f 873d d457 e7bd
00000020: 8c22 3ebe 223d 7fbc 2e2a 5fbd 65bf 3ebe
00000030: f727 2bbe a318 9a3d fa5c a1bb cecd 54bd
00000040: 679a 2dbe e026 5fbe 04bd 0abe 7703 91bd
00000050: e965 ccbd 5517 47bd ae65 cabd d727 10be
00000060: 3387 283c 598b 4ebd 0c12 37be f8de 14be
00000070: c0b6 2c3d 6818 6a3d fb66 86bd 309a 21bb
00000080: ac33 50bc 389d 4fbe 7dd2 a2bd 8690 2ebe
00000090: cd4c abbd 89f1 0d3d bad0 06bc dc25 683c
000000a0: 7726 fdbc 38b4 3cbe 3eca 023c 1872 9cbd
000000b0: 3653 00bd 1e0a 84bd 00e2 66bc d478 fbbc
000000c0: d6ff 113d 9de0 b0be 3e15 bbbd 858a 09bd
000000d0: f8df e5be 201b 1f3c 0c20 09bd 46ce 23be
000000e0: c583 fd3d 1399 13be 92c9 aa3c 6daa a4bc
000000f0: bda1 4cbe 6b17 21bf a140 893d 05ab 863e
00000100: 9802 3c3d b8e6 80be 10cd b93d d229 0a3d
00000110: 0db9 54bf 6385 f23d 6301 d8be 122e 113d
00000120: d886 18bd b59d 0cbf 6b9b 0f3e 1c98 1e3d
00000130: d00f 403e e932 8fbe b2bc 083f bf8c 2fbf
00000140: 4d82 3c3d b1d7 66be 0c47 623c 06f9 c6bd
00000150: b4f9 833e 9217 42be 8165 973e e2e1 a6ba
00000160: 06e7 8cbe d91e 8cbd e654 25bb f873 e8bd
00000170: f0ae 293d 68eb f73d d006 15bc de26 133e
00000180: 1b2b 043c 1560 0c3e fa7c 1abe 5955 1dbe
00000190: f027 953e ad46 e73e 99cd b03e 46ac a0bf
000001a0: 7b20 38be 5a66 b03d 0501 13be ffc7 3dbe
000001b0: 5db5 ef3e 4ea9 053f 85d1 5d3d 03e0 15c0
000001c0: 92a7 3bbe d0bc 253e b077 2fbe 4dd4 bcbd
000001d0: 0810 dd3d 793a 363d 7bf6 013d 3ba5 8e3f
000001e0: d031 90bd 6049 c23d ac59 4abe f567 23be
000001f0: f523 c43e 4548 243e 025f eabc 5ad3 93be
00000200: a886 e83c cb13 22bd 9dc4 00be bea6 d6bd
00000210: 3bca c8bc 75b9 833d 2279 f23e c80a ad3f
00000220: dd1d 043f 7ad4 3c3c ae42 11bf ee76 bf3d
00000230: ea52 5dbd a4f7 fabc 8817 193d fc4c e33d
00000240: be2d f1bd 0d5a aa3d f19d 1ebe 25e5 37bd
00000250: 20a4 94be e224 243f 8771 0ebf f1a1 cbbe
00000260: 42f3 4cbe 52e0 e23e c431 44bd 1a54 3bbe
00000270: 2b38 7abe 74e0 1f3e 9d4e 1cbd e772 e1bc
00000280: 26b0 18be 9ced e13e c563 9f3a d397 2dbe
00000290: 6d85 ac3e 86a7 82be 7b36 6c3e 3154 493f
000002a0: 257b 4bbe f001 cd3e 5829 d0bd 68f3 67be
000002b0: 411b dd3d ac3c 463d d5dd 1cbf 9886 85bf
000002c0: 6fee 613d 8d4e fa3e 58df 4abd 97ed 20be
000002d0: 5f2a d5be 4298 c83e c9e7 173e 1970 1fbe
000002e0: d247 733d 9915 5c3d c74a bcbe 40e4 1b3b
000002f0: 9a8e 0fbd 6f7f a5bd e2b9 0abd f020 0b3e
00000300: 27d1 05bf 32f9 54be 5d17 cbbe a477 e6be
00000310: e8cf 84be 2ad8 91be 3d5f d13d 4e5a abbe
00000320: d222 24be 68bc 00be ba5c 92be 7424 f0bd
00000330: 2014 be3d 652f e9bd 45fc 71bd c349 5cbe
00000340: 9c05 d0be 3238 84be fa04 8bbe 85b2 bbbe
00000350: 8904 f5be 7b8c 16be ce35 453e 7582 a2be
00000360: 401c d0be 5eca aebe 0e53 aebe 8f4d aebe
00000370: b9a7 29be 4d5d c73e ff07 bc3c 9502 f2be
00000380: e711 e0be 30f2 84be 6ff3 e4be b055 fcbe
00000390: 2e01 0f3d 2aaf 443e e9a0 10be 56a1 1abd
000003a0: 2f7f 09be 90b9 9abe d081 0dbf e89f a0bd
000003b0: b971 9bbd 005d 443d 6408 dc3d b857 023d
000003c0: a059 2cbe f755 863e 0d07 153d d87a cdbc
000003d0: a915 11be d108 873e ced8 79be 0692 903e
000003e0: edca 8dbe 009f c1bd 8850 92be 2ec0 cabd
000003f0: 1c37 913c 7889 463e d8ba 0c3d 90a9 b53d
-0.0176564 -0.09160339 -0.11841934 -0.15576541 -0.22350618 0.09622242 0.0661911 -0.11296049
-0.18567866 -0.01557854 -0.054483585 -0.18627699 -0.16714464 0.0752423 -0.0049244137 -0.051954083
-0.16953431 -0.21792173 -0.13548666 -0.07080739 -0.09980375 -0.048606236 -0.09882675 -0.14077698
0.01028614 -0.05042586 -0.17877978 -0.14538181 0.04216647 0.057152182 -0.06562611 -0.0024658553
-0.012707632 -0.20274818 -0.07950304 -0.17047319 -0.08364258 0.034654174 -0.008228475 0.014169183
-0.03090213 -0.18428123 0.007982789 -0.07638949 -0.031329356 -0.06447242 -0.014091969 -0.030697264
0.035644375 -0.34546366 -0.09134911 -0.03357937 -0.44897437 0.009711057 -0.033477828 -0.15996656
0.12378649 -0.14413862 0.02084807 -0.020100797 -0.19983573 -0.6292636 0.0670178 0.26302353
0.04590091 -0.25176024 0.09072316 0.03373129 -0.83094865 0.11841848 -0.42188558 0.035444327
-0.037237972 -0.5492814 0.14024131 0.03871928 0.18756032 -0.2796853 0.53412926 -0.68574136
0.046022702 -0.22543217 0.013810884 -0.09715466 0.25776446 -0.18954304 0.2956963 -0.0012732113
-0.27520007 -0.06841821 -0.0025227605 -0.11350244 0.0414266 0.12105447 -0.0090958625 0.14370295
0.008066918 0.13708527 -0.15086737 -0.15364589 0.29132032 0.4517111 0.3453186 -1.2552574
-0.1798114 0.08613272 -0.14355858 -0.18533324 0.46818057 0.52211463 0.05415489 -2.3417976
-0.18325642 0.16185308 -0.17135501 -0.09220181 0.10794073 0.044489358 0.031729203 1.1144174
-0.07040751 0.094866514 -0.1976077 -0.15957625 0.38308683 0.16043194 -0.028609756 -0.28872186
0.028384522 -0.039569657 -0.12575002 -0.10481022 -0.024510494 0.064318575 0.47358042 1.3518915
0.5160807 0.011525268 -0.5674237 0.09348856 -0.05403415 -0.030635662 0.037375957 0.11098668
-0.11776303 0.08317957 -0.15489937 -0.044896264 -0.29031467 0.6411878 -0.5564198 -0.3977199
-0.2001467 0.44311768 -0.047899023 -0.18293801 -0.24435489 0.15612966 -0.03816091 -0.02752061
-0.14910945 0.44126594 0.0012160471 -0.16952448 0.33695546 -0.25518435 0.23067658 0.7864409
-0.19871195 0.4004054 -0.10164136 -0.22651446 0.10796214 0.048397705 -0.6127599 -1.04317
0.05515903 0.48888054 -0.049529403 -0.15715633 -0.4163389 0.39178663 0.14834513 -0.15570106
0.059394665 0.053731535 -0.367758 0.002378717 -0.035048105 -0.08080947 -0.033868678 0.13586783
-0.52272266 -0.20798185 -0.39666262 -0.45013154 -0.2593987 -0.28485233 0.102232434 -0.33467335
-0.16028908 -0.12571871 -0.2858637 -0.11725703 0.09281182 -0.11385993 -0.059078474 -0.21512513
-0.4062928 -0.25824124 -0.27152234 -0.36659637 -0.47855023 -0.14702027 0.19258806 -0.31740156
-0.40646553 -0.3413877 -0.3404774 -0.34043548 -0.16567887 0.3893837 0.022953032 -0.47267595
-0.43763658 -0.25966024 -0.44716975 -0.49284124 0.034913234 0.19207445 -0.14123882 -0.03775152
-0.13427423 -0.30219698 -0.55276203 -0.07843 -0.0759005 0.047940254 0.10743788 0.031821936
-0.16831064 0.2623746 0.036383677 -0.02508299 -0.14168419 0.26373914 -0.2439911 0.28236407
-0.27693883 -0.09454155 -0.28577065 -0.098999366 0.017726474 0.19388378 0.034357876 0.08870232

layer_1.bias f4 [400]
00000000: 7cb7 13be d8b3 a63d fec1 d3bd 985b 023d
00000010: 90e6 13bf 12aa bbbd e8ab 1c3e f0df 45be
00000020: 71d4 a2be b5ad 98be dfe3 a3be 7ecb 45bc
00000030: 5ab0 40be f422 febd f8ea 75be 164c 97be
00000040: 7965 91be 1098 a9be 496d c1be af30 85bd
00000050: d5c5 9fbe f98d 4bbc 96c0 afbe 2f2c f3be
00000060: dc32 eabe 83f2 9fbc 5e78 f9bd 1f4e bebd
00000070: a1b8 09bf bda7 d8be ae50 cebe 3ca1 dbbe
00000080: 9d02 b3bd d2c8 46be 0641 77be 1037 5ebe
00000090: a520 8bbd 50f0 fcbe 4f9d 37bc b4cd cfbe
000000a0: 2c59 99be 649e 56be 0905 fdbe 0df0 d2be
000000b0: 4c0e 6bbd b5c4 adbe 7edb f83c 3f73 c3be
000000c0: e3c8 09be 1fce 97be 4127 e9be 075d 22bd
000000d0: 2809 d8be 8531 a5bd 1306 7bbe 3246 34bd
000000e0: f374 bbbe 1d0f e43d b281 283a d64f 0dbe
000000f0: 7b4a 16bc b49b 20bf 76a2 9b3d 680a cebe
00000100: c4f5 dd3d 09c1 dcbe b627 dabe 1798 66be
00000110: 3d0c 933d de90 97be bcf6 c3bd 24e9 71be
00000120: 1e8d d5be 1ad4 2cbe e44e 86be 45d9 bbbe
00000130: 0eb4 14be f413 d7be 8d0c 82bd aadd d3bd
00000140: 8d4a fdbe 9b1a a0bc f1be 12bd 1854 aa3c
00000150: 39f4 54bd 2d22 98be e43c 48be 908b aebe
00000160: 2ab6 9ebe fbaf 3c3c 816f c8bc 531a c63c
00000170: 34a0 8abd 76da 83be d97d 88bd 72cd 313d
00000180: 6cbb 88be 828a 3d3c 76c8 9ebd 5ea3 493c
00000190: d3f0 6a3c bc14 aabe 95d2 5cbd f700 053d
000001a0: d3a5 54be 74d1 3b3e 5bb8 c6be a83b 45be
000001b0: 2e4c ab3d aba2 353c 8a62 cabb c82d 6a3d
000001c0: a0f2 dcbd aa0a c5bd e752 a8be 1f3a c5be
000001d0: 8b49 6fbe ed19 5abe 68a0 49be 885d a5bd
000001e0: fc26 023e d258 79be b3af ebbe fbfe 4ebe
000001f0: e78a 7bbe c08a 56be 7678 9bbe c890 39be
00000200: d313 2dbe f423 77be c077 96be ddcc 6fbe
00000210: 9d30 403e 1c52 34bd 29a1 cdbd 250b 51be
00000220: eaa3 0cbc 1cb0 28be 5de1 503d 98cb f2bd
00000230: 61f1 773e 1e67 91bd f13f 75be 9169 22be
00000240: 1ddc d0be c7aa 0a3d fa20 bc3d ef3d 203d
00000250: 0a3f 853e 5485 48bc 6fa5 a0be d446 8dbd
00000260: c224 3ebe fdd1 35be c28a 61be 6781 dabe
00000270: e357 b1bd 3fbf 7a3c 2f66 05be a155 0e3e
00000280: e9fe 8dbe 4795 00bd c72d 2dbe 6ab8 14bf
00000290: eb65 993e b048 79be 37a4 16be bba2 47bb
000002a0: 465c d1be 39e6 41be 2a95 a7be fba7 b1be
000002b0: 1bac 5abc c09a 72be c728 cabe 8062 fbbe
000002c0: d1e7 d0bd 1959 3c3e c5b4 703b 48f0 a5bd
000002d0: 0b7e bc3b 0aeb 57be 5f0d 2ebf 3398 ddbe
000002e0: f9dc 98be 3e7f afbe fc81 14be 1371 ce3d
000002f0: 7791 e3be 8367 25be b8bc aebe 7e4c d5be
00000300: cdb0 79be da17 e0be 8af6 a5be 73d8 60be
00000310: eec3 8c3d 22a1 06be 23fc 833d 87ea e0bd
00000320: 7500 4ebe 01dc 0ebf a227 4bbc 6838 61bd
00000330: ed31 09bf e3eb 64be 2964 78bd de37 fbbe
00000340: e845 fa3d 681c 93be 0ff3 05bf d272 79be
00000350: f825 413d 5df8 b2be ffdc 85be 48cb 28bf
00000360: ad20 80be a7f8 2dbe 8588 11bf 5cac 92bd
00000370: 9092 afbd f9d3 513d ef98 aabe 1042 06be
00000380: cd09 39bd 6e25 573e ab1f 69be bf47 1abd
00000390: 378a 29be 106a e0bd 7bf6 88be 4ce1 c7bd
000003a0: 1eee 25be 802a cdbe 509d 8bbd f90e a6bd
000003b0: ba02 efbe 7e62 9b3d 9300 623c 17d9 17bd
000003c0: 590c ddbe 81f9 f1be d01a cfbe 98df 36be
000003d0: ca46 46be 9bae 90be 3d23 febd 8863 eebe
000003e0: df6f 10be 8236 09bd eb85 693e cf1e 5dbe
000003f0: 8830 33be 0fa5 aabe e033 b8be 9114 5abe
-0.14425462 0.08139771 -0.103397354 0.03182563 -0.57773685 -0.09163298 0.15299952 -0.19323707
-0.31802705 -0.29820028 -0.3200979 -0.012072442 -0.18817273 -0.124090105 -0.24015415 -0.29550236
-0.2839773 -0.33123827 -0.3777869 -0.06503426 -0.3120562 -0.012423986 -0.3432662 -0.47494647
-0.45741928 -0.019524818 -0.12181161 -0.09292244 -0.53797346 -0.42315474 -0.4029593 -0.4289645
-0.08740733 -0.19412544 -0.24145898 -0.21700692 -0.06793336 -0.49402094 -0.011206939 -0.40586627
-0.29950845 -0.20958859 -0.49417904 -0.4119877 -0.05738668 -0.33939138 0.0303781 -0.38173863
-0.13455538 -0.29649445 -0.4553776 -0.0396395 -0.42194486 -0.08066086 -0.24514036 -0.044012256
-0.36612663 0.11135695 0.00064280175 -0.13799986 -0.009173031 -0.62737584 0.07599346 -0.40242314
0.10837892 -0.43116024 -0.42608422 -0.22518955 0.07180069 -0.29602712 -0.09568545 -0.23624092
-0.41709226 -0.16877785 -0.26232064 -0.366892 -0.1452181 -0.4200741 -0.0635005 -0.103450134
-0.4947094 -0.019543936 -0.035826627 0.020792052 -0.05199072 -0.29713574 -0.19554478 -0.34090853
-0.30998355 0.011516566 -0.024467232 0.024182474 -0.067688376 -0.2575261 -0.066646285 0.04340882
-0.26705492 0.011568667 -0.07753079 0.012307016 0.0143396435 -0.33218944 -0.053911764 0.032471623
-0.20766382 0.18341619 -0.38812527 -0.19261038 0.083641395 0.011086146 -0.0061762976 0.057172567
-0.107884645 -0.09621175 -0.3287575 -0.38520905 -0.23367898 -0.21298952 -0.19690096 -0.0807448
0.12710184 -0.24350289 -0.46032485 -0.20214455 -0.24564706 -0.20951366 -0.30365342 -0.18121636
-0.16902094 -0.24134809 -0.29388237 -0.23417993 0.18768544 -0.044023618 -0.100405045 -0.20414408
-0.008584002 -0.1647343 0.050996173 -0.11855239 0.24213172 -0.07099746 -0.23950173 -0.15860583
-0.40792933 0.033854272 0.09185977 0.039121564 0.26024657 -0.012238819 -0.31376216 -0.06898275
-0.1856871 -0.17755885 -0.22025588 -0.4267685 -0.08659341 0.015304386 -0.13027261 0.13899852
-0.27733544 -0.031392362 -0.16911994 -0.58093894 0.2996057 -0.24344134 -0.1471108 -0.0030461985
-0.40890712 -0.18935479 -0.3273099 -0.3469847 -0.013346697 -0.23691845 -0.39484236 -0.49098587
-0.102004655 0.18393363 0.003672884 -0.08102471 0.00575233 -0.21085754 -0.6798915 -0.4328018
-0.2985609 -0.34276766 -0.1450271 0.10080161 -0.44446918 -0.16152768 -0.34128356 -0.4165992
-0.2438385 -0.43768197 -0.32414657 -0.21957569 0.06873308 -0.13147405 0.06444576 -0.109822325
-0.20117362 -0.5580445 -0.012399586 -0.054985434 -0.53591806 -0.22355609 -0.060642395 -0.4906606
0.12220365 -0.2873261 -0.52324003 -0.24360207 0.04715535 -0.3495511 -0.2614517 -0.6593518
-0.2502493 -0.16989385 -0.5684894 -0.07161781 -0.085728765 0.051227544 -0.33319804 -0.13111138
-0.045175362 0.21010372 -0.22765987 -0.03766608 -0.16556631 -0.1095773 -0.2675055 -0.09759769
-0.16204116 -0.40071487 -0.06817114 -0.081083246 -0.46681768 0.07587145 0.013794082 -0.037072267
-0.43173483 -0.4726067 -0.40450144 -0.17858732 -0.19362941 -0.28258213 -0.12409065 -0.4656031
-0.14105175 -0.03349925 0.22804992 -0.21593784 -0.17498982 -0.33329055 -0.35977077 -0.21296908

layer_2.weight f4 [300, 400]
00000000: 0d0b 8cbd 2407 94bc 0e07 b0bd 2fe1 d7bc
00000010: 3fb9 34bd ecc9 8c3b b8e6 513d f767 13bd
00000020: 7918 40bd 0fa5 a5bd 689d 72bd c63f 9e3c
00000030: a8cd 813a a88c 8abd d80d 33bd 2cb1 3dbd
00000040: a2a4 293d 41c5 bfbc b2ce 0fbd 7160 9cbd
00000050: cc70 81bd 800c c1bc 40ae 83bd d7aa c1bd
00000060: 7cad cbbc a7df 1fbd 076f 86bd 22a7 70bd
00000070: 1878 9f39 6ceb 55bd baa2 5dbd edfe 61bc
00000080: 3cea 30bd 1549 ccbc f327 acbd 9f29 83bd
00000090: b940 2bbc 474f 9b3a d97f 8dbd 880c 2abc
000000a0: 2c68 8abc c69b dc3c f620 b5bd 0e9b acbd
000000b0: 8951 a5bd 9d5d aebc c1e5 bebc b5f2 68bc
000000c0: 8ecc 8fbb cb0b e5bb fb53 523d 168c 22bd
000000d0: a1bb d7bc 0335 99bd 98c8 babc c599 30bd
000000e0: f8d3 363b 3c48 4cbd 8fba f93c 8bae 4d3c
000000f0: 7f47 523c 2dd2 a1bd e705 cc3b d731 d53c
00000100: 8232 acbd 22ff 243c 756d 003c 6082 8cba
00000110: 05bb 77bd e4f9 fb3b 3456 e83b 638a 85bd
00000120: 85a0 803c 7e3c 5fbc 3f70 50bd 8d80 0f3c
00000130: e269 79bc ebd7 7abd 9c45 26bd 2a38 e23a
00000140: 565e 043c e5ba 8bbb c249 e33b 014a 883c
00000150: 55c5 7b3c f52a 5dbd 6881 3cbd 0dc8 e23c
00000160: 3463 23bd c3e6 28bc 6ee3 94bd 6106 4a3c
00000170: afb3 c2bb 0263 0b3c d210 35bd 35fc 34bd
00000180: cf6c 02bd 7b43 eebc 313f 1c3c 67b9 fc3b
00000190: 08ec 77bd 1d25 033c c701 f93b 54df d7bc
000001a0: 23bd f4bc 5794 20bd 234b 40bd 9e7a 4dbd
000001b0: 1d7f 633d adce c5bc f4f8 58bc 2938 87bc
000001c0: 3b51 743c 0c43 8abd 959c 84bc e9c1 223c
000001d0: 4951 3cbd eaa8 35bd 879d 73bd 490e 54bc
000001e0: 2853 65bd 859c 113c 6bd1 a4bd 17d1 963c
000001f0: e7fa cfbc 57fa 493a b65a 60bc 2df5 4dbd
00000200: 528d c5bc ace2 a4bb 6a67 a6bd f857 93bd
00000210: 2d4a d7bc 70bd 37bc 1ba3 fbbc 1ae6 99bd
00000220: 39a5 ee3c a24e 3dbd 62d7 09bc 5fa9 95bd
00000230: 3bb8 39bd 8572 963b c9cf 0f3d 398b 0cbd
00000240: 8d1b f0bc a2a9 40bd 40b5 db3b 1180 edbc
00000250: 84eb 95bb f563 9cbc 4fea 4abc 8614 7ebd
00000260: 9485 f8bc e56e 983d 6f08 993d de79 f8bc
00000270: 32a6 83bc 6c86 9bbd 745e b53c 672d 79bc
00000280: a887 123d ad68 b2bc acaf 81bc 065a 0dbd
00000290: 2c7b aa3b a293 a4bd cc18 58bd 4e77 93bb
000002a0: 7c30 843c 685b a1bd b1c5 6cbd e57a 16bd
000002b0: ceed f93c 03e5 34bd c7aa 3ebb 19f2 3bbc
000002c0: bb00 edba 105a 3fbc 9aa4 84bd 931e efbc
000002d0: ae57 abbd 71ee a2bb d047 32bd e8e7 94bd
000002e0: 489d 98bd c3be 6d3c 8b29 b63c d3b5 133d
000002f0: 997e 9ebc 65e3 1abd 330f c5bc 9aa5 96bd
00000300: 4f21 8f3c 3378 82bd 6ec1 92bd 1fa4 5abd
00000310: 2332 6abd 2125 b23b 8575 8abc c654 103d
00000320: dcb8 823c a362 1cbd a410 57bd 1dab 303d
00000330: 073e 5ebd 5655 83bd db63 7abc bdd9 f0bb
00000340: 3c6e b2ba 56b9 083c 9798 73bd 4e6b 52bd
00000350: 98d4 3bbc ae66 72bd b149 80bd 95d2 383b
00000360: 20cd f1bc 48cf 38bd 1085 5ebd 0412 11bd
00000370: 29d7 9dbd a0a1 fdbb c47f 86bd 482f 153c
00000380: 2201 29bd 62da 69bd 0379 59bc 3d02 a0bb
00000390: 9509 a43c ae6e 32bd 2fec 733c 5b5b a9bd
000003a0: cd92 a73c aea9 6bbd 8fc6 36bd e48b 56bd
000003b0: 922c c73b 6cfc a53b 2f09 6dbd 6545 49bd
000003c0: 3549 81bd d7f8 a2bc 12fc 1dbd e73e 8cbc
000003d0: ef5e ea3c 085c 5cbd 6966 723d 00f6 373c
000003e0: 09dd b4bd 7d32 27bd b95a c3bd 374c e73c
000003f0: 518e 96bd 71fb 22bd db2a 0c3c 68fe 86bd
-0.06838045 -0.018069811 -0.085950956 -0.026352493 -0.044121977 0.004296532 0.05124542 -0.03598782
-0.04689834 -0.08088123 -0.059232146 0.019317519 0.0009903209 -0.06765109 -0.043714374 -0.046311542
0.04141677 -0.023409488 -0.03510923 -0.07635582 -0.063203424 -0.02356553 -0.0642972 -0.09456413
-0.024862997 -0.03903165 -0.065641455 -0.05875314 0.0003041632 -0.05222647 -0.054110266 -0.013793689
-0.043192133 -0.024937192 -0.08406057 -0.06404423 -0.010452443 0.0011849188 -0.06909151 -0.010378964
-0.016895376 0.026929747 -0.088441774 -0.08428012 -0.08072192 -0.021284873 -0.023302915 -0.014218022
-0.0043883985 -0.006989931 0.05134962 -0.039684378 -0.026334586 -0.07480814 -0.022800729 -0.043115396
0.002789734 -0.049873576 0.030484466 0.012553821 0.012834429 -0.07901416 0.0062262896 0.026024742
-0.08408071 0.010070594 0.007838597 -0.0010720007 -0.06048109 0.0076897014 0.0070903543 -0.06520536
0.015701542 -0.013625262 -0.050888296 0.008758676 -0.015222998 -0.06124107 -0.04059373 0.001725917
0.008079132 -0.004264223 0.006936283 0.01663685 0.015366872 -0.053996045 -0.04602185 0.027683282
-0.03988953 -0.010308924 -0.07269941 0.012330622 -0.00594183 0.008507492 -0.044205494 -0.044185836
-0.03184205 -0.029084912 0.00953655 0.0077125314 -0.06052783 0.008004454 0.007599089 -0.026351608
-0.029875344 -0.039203968 -0.046946656 -0.050165765 0.055541147 -0.024146402 -0.013242949 -0.016506271
0.014911945 -0.067510694 -0.016187945 0.009933927 -0.045975957 -0.044350542 -0.0594764 -0.012942859
-0.055987507 0.008887415 -0.08047756 0.018410249 -0.025388194 0.0007704845 -0.013693502 -0.050282646
-0.024115238 -0.005031904 -0.081251934 -0.07194513 -0.026280487 -0.011214599 -0.030717423 -0.075145915
0.029131519 -0.04621757 -0.008413168 -0.073076956 -0.04534171 0.0045912885 0.03511027 -0.03431246
-0.029310012 -0.047036774 0.0067049563 -0.02899173 -0.004575195 -0.019090632 -0.012384965 -0.06203129
-0.030337133 0.074430265 0.07472312 -0.030331548 -0.016070459 -0.07593998 0.022139765 -0.015208579
0.035773903 -0.021778429 -0.015830837 -0.03450968 0.0052026715 -0.08035971 -0.052758023 -0.004500306
0.0161364 -0.078787625 -0.05780572 -0.036738295 0.030508902 -0.044163715 -0.002909349 -0.011471295
-0.0018081883 -0.011679187 -0.06476708 -0.029189384 -0.08366333 -0.004972272 -0.043525517 -0.07270795
-0.07451874 0.014510813 0.022236606 0.036062073 -0.019347476 -0.037814517 -0.0240551 -0.07355805
0.017471937 -0.063705824 -0.071658 -0.053379174 -0.05717672 0.005436555 -0.01690174 0.035237096
0.015957288 -0.038180005 -0.052506104 0.043131936 -0.054258373 -0.06412761 -0.015282596 -0.007350175
-0.0013613175 0.008344969 -0.059471693 -0.051371865 -0.0114642605 -0.059179954 -0.062640555 0.0028201689
-0.029516757 -0.045119554 -0.054326117 -0.03541757 -0.07707054 -0.0077402145 -0.06567338 0.009105511
-0.041260846 -0.05709303 -0.01327348 -0.0048830793 0.0200241 -0.043562584 0.0148878535 -0.08269378
0.020455742 -0.057534866 -0.044622954 -0.052379504 0.0060783112 0.0050654914 -0.057870086 -0.049138445
-0.06312791 -0.019894047 -0.03857047 -0.017119838 0.028609721 -0.053798705 0.059179697 0.011228085
-0.088312216 -0.040819634 -0.09538788 0.028234584 -0.073513635 -0.039790574 0.008555139 -0.06591493

layer_2.bias f4 [300]
00000000: 0582 3fbd 8f7b 4c3d 1c50 fb3c 12d9 b0bd
00000010: acb8 023e 1889 d0be 0bb7 80bd 997f 7cbc
00000020: a887 b2bd 9e19 a0bd 54e4 ae3e 2d84 e23d
00000030: a631 2d3e 9995 033e 3cca f83d 8b26 cdbd
00000040: 5acc 06bf becd 82be 2bb8 a1bd e049 36bc
00000050: d20d 843e e7cd 73bd 5da2 24bf 8eb3 15be
00000060: 5ef2 72bc 9234 b5bc b1fc a7be 0122 54bd
00000070: 4fd7 9abc be6b 08be 78a2 15be 76ea 93be
00000080: 0afa 56bd 9c06 083d 4b15 473e 8fd8 32be
00000090: 62d1 5fbe 3532 a63d 6e19 003e 8783 043d
000000a0: a410 36bd 2c62 afbd a1a2 8b3c 4ffd 31bd
000000b0: 06d8 5f3d 710e d7bd edc4 76bd 1702 263e
000000c0: 7b04 cfbd 5fef bbbd c5b7 a9bd 5426 7e3d
000000d0: 52a8 143e 53ce 21bd b920 60be 9d3a ddbe
000000e0: 0cfd 95be b3e6 a6be c223 96bb 719d 8ebe
000000f0: 4788 b8bd b7e1 b2bd 4e64 603e 47b8 6c3d
00000100: 6787 d1bd 9e97 b7bd 68f9 61be 8eab 463e
00000110: a239 cdbe ae40 80be 7681 eabd 7b34 de3e
00000120: a303 0bbe e802 efbd b070 8ebd 9000 2dbe
00000130: 0c07 663e c242 02bf fc14 193d 83b5 06be
00000140: 315b 74bd 1916 e43c b391 a93e bf00 09be
00000150: 5b58 80bc 7d65 1bbe af27 58bd 4def 3fbe
00000160: dd0a e13e d8ed 8abc 31eb 9cbd 15a4 ef3d
00000170: 7972 e8bd 7972 75bd 2f2c 70bd d798 00be
00000180: 6e7a 903d 1c0e 723c 9774 28bd 04b2 a2bc
00000190: e66b 7fbd c02a 9abd 20f1 34bd 2d02 0abe
000001a0: 290a 66bd 390a 62bd 05f3 98bd 4ec0 cfbd
000001b0: 6c51 da3c 42a9 eeb9 d5ad f4be 5939 8fbb
000001c0: 8b6e 783d 226a 3ebf 1428 f0bc 3a1f 8ebe
000001d0: 69fe 2ebe c174 ccbd f9d3 16bf 257d 38be
000001e0: 7fe8 863e f20b 0cbd c467 7ebe f5c5 93bd
000001f0: 23da bbbe 9d66 edbc 4b95 5dbe 1700 ecbd
00000200: 7d08 70bd 6cee 273d 1eeb ddbc b0af 65bc
00000210: 09a9 04be ccd7 c23d c88e 933e 8046 57bd
00000220: f3a4 ffbe 5766 d6be 30fc 14bf 6778 a8bd
00000230: ce11 e4bc 4c39 b6bc 192c 96be 4031 a63d
00000240: cb18 44be 9c9a 54bb c687 843d fc37 41bc
00000250: cc9b 95be 0aad 9ebd 8e60 b6bc 89f8 b0bd
00000260: 28a6 84bd e5aa 41bd 7778 a2be e013 453c
00000270: 4f6c 2cbe 0f11 29be 2fe7 e3bc 1891 abbd
00000280: 5f1c 8ebd 9b66 83bd 4137 9c3d 56f2 5ebd
00000290: 69dd ccbe ae8f 163c 0188 cdbd 1060 9d3d
000002a0: 4343 2cbe c409 fc3d 0aa1 e3bd 9a93 33be
000002b0: 850c 31bd 2cbf cabe b6b3 813c 55ef 57be
000002c0: 186a 85bd cb9a 6abe eb42 bcbe c01f f1be
000002d0: a7d3 84bd 82dc 41be f559 83bd 1f6b 89bd
000002e0: 6b9d 443d bfb1 0ebd dd63 d63d 01e4 e8bd
000002f0: 35e9 1bbe f53d 8bbe ad61 81bd 3f66 acbd
00000300: fa78 30bd 09ba d3be 457f 07bd f480 c7bd
00000310: 0907 b0be 88ba 67bd 38d4 bbbe c2c7 b2bd
00000320: c515 a13c 78fa 813d 174e 313d 2707 5bbd
00000330: 1712 c3bd 8195 1e3e 1a7c 8abe f72e 1bbd
00000340: 63c6 9abe 167b 083d 7825 ccbd c665 abbc
00000350: 684c 47be 229c a13d ab43 1bbd 269e 5f3d
00000360: 65f9 7e3d f5c6 07be 1eb2 f5bd d7a7 e3bc
00000370: b015 60bd b3a5 af3e 940e 73be 32cb b3bd
00000380: 0cde b3be 8b62 2abd 0911 763e 400d 75be
00000390: 2948 02bd e287 80bd e42f eabb 8413 aebe
000003a0: 4fb1 0cbe 3073 503e 5a55 1c3c 4e77 0fbd
000003b0: 9f53 a3bd af61 84bd adf8 bcbc fcd1 88bd
000003c0: aeac 0fbd 7e7b d0bd 2355 95bc 69a5 4ebd
000003d0: 57d5 87be 14e2 73be 0cc9 993e 4e0d ce3b
000003e0: da51 a9bd 68c4 c7bd 5551 983e 4dc2 65bd
000003f0: 9b81 f3bd 7eef a0be 7594 9bbd cf34 cb3d
-0.046754856 0.049922522 0.030677848 -0.08635153 0.12765759 -0.40729594 -0.06284913 -0.015411281
-0.087172806 -0.07817386 0.34158576 0.11060367 0.1691347 0.12850036 0.12147948 -0.10017117
-0.52655566 -0.25547594 -0.078964554 -0.011126012 0.25791794 -0.059522536 -0.64310247 -0.14619276
-0.014828293 -0.022119794 -0.32809976 -0.05179024 -0.018901495 -0.1332235 -0.14612758 -0.28889817
-0.05248455 0.03320943 0.19441716 -0.17465423 -0.21857217 0.08115045 0.125097 0.032351997
-0.044449463 -0.08563647 0.017045321 -0.043454465 0.054649375 -0.10500801 -0.060246397 0.16211735
-0.101082765 -0.09176516 -0.082870044 0.06204827 0.14517334 -0.039503407 -0.21887483 -0.4320878
-0.29294622 -0.32597885 -0.0045818994 -0.27854493 -0.09010368 -0.08734458 0.21913263 0.057792928
-0.10230904 -0.089644656 -0.22067797 0.1940138 -0.40083033 -0.25049347 -0.11450474 0.43399414
-0.13575606 -0.11670476 -0.06955087 -0.16894746 0.22463626 -0.50883114 0.037373528 -0.13155179
-0.05965728 0.027842568 0.33118972 -0.13379191 -0.015667131 -0.15175433 -0.05277222 -0.1874363
0.439536 -0.016959116 -0.07662047 0.11701218 -0.11349959 -0.059923623 -0.058635887 -0.12558304
0.070546016 0.014773872 -0.041126814 -0.019860275 -0.06235876 -0.07527685 -0.044175267 -0.13477392
-0.056162033 -0.05518553 -0.07468227 -0.10144101 0.026650153 -0.00045521004 -0.47788873 -0.00437085
0.060652297 -0.74380696 -0.029315986 -0.277582 -0.17089237 -0.099832065 -0.58917195 -0.18016489
0.26349255 -0.03419108 -0.24844271 -0.07215492 -0.36689863 -0.028979594 -0.21638982 -0.11523455
-0.058601845 0.04099886 -0.027089652 -0.014018938 -0.12955107 0.09513816 0.2881987 -0.05255747
-0.49930534 -0.41874954 -0.5819731 -0.0822609 -0.027840521 -0.022244118 -0.2933052 0.081148624
-0.19150083 -0.0032440787 0.06471209 -0.011793133 -0.29220426 -0.07747848 -0.022262838 -0.08641154
-0.06477004 -0.04728212 -0.31732532 0.012028664 -0.16838191 -0.16510414 -0.027820198 -0.08377284
-0.06939005 -0.06416055 0.07627726 -0.05443033 -0.40012673 0.009189529 -0.10035706 0.07684338
-0.16822533 0.1230655 -0.111147 -0.17536774 -0.04322483 -0.39598978 0.015832763 -0.21087392
-0.065143764 -0.22910611 -0.36769804 -0.47094536 -0.06485682 -0.18931773 -0.06413642 -0.06709885
0.048001688 -0.03483748 0.10468266 -0.11371613 -0.1522568 -0.27195707 -0.06317458 -0.084179394
-0.043084122 -0.4135287 -0.033080358 -0.09741393 -0.34380367 -0.056574374 -0.36685348 -0.08729507
0.0196637 0.06346601 0.043287363 -0.053473618 -0.09524935 0.15486719 -0.27047807 -0.037886586
-0.30229482 0.03332051 -0.09968084 -0.020922553 -0.1946274 0.07891108 -0.03790633 0.05459418
0.06224956 -0.1325949 -0.11996864 -0.027789993 -0.054708183 0.34306106 -0.2373603 -0.08778991
-0.35130346 -0.041597884 0.24029936 -0.23930836 -0.0318071 -0.062759176 -0.0071468223 -0.33999264
-0.13739513 0.2035644 0.009541834 -0.035025887 -0.07974934 -0.06463944 -0.023067797 -0.06680676
-0.03507679 -0.10179804 -0.018229073 -0.050450716 -0.26529953 -0.2381671 0.300362 0.006288207
-0.08267565 -0.097542584 0.2974955 -0.056093503 -0.11889955 -0.31432718 -0.07596675 0.09922182

layer_3.weight f4 [6, 300]
00000000: 2ba6 25bd 5c21 e0bd 1fbf ec3a 67be 8fba
00000010: ec06 e9bd 4094 abbe bf73 f2bc c560 913c
00000020: e953 13bd accd 93bf 9fb4 123d 5051 36bf
00000030: 5a98 d4bd a384 cd3c 1d57 c1bc 1dbb 7039
00000040: a6b9 113e 861d 93bd ca48 55bd 14c9 b1bb
00000050: d110 913e a270 5a3c d524 b63e 53d5 aabd
00000060: 3384 fd3c 74b8 95bd aa3b 1abd 1ae9 d13c
00000070: 3279 f93c 586b c1bc cc3b b2be a060 32be
00000080: 1d6e db3c ab8a 403e b50c 84be 99b7 b6bd
00000090: f004 4ebe b9a6 0c3b 022e 6b3e 2ef7 5a3e
000000a0: 6edd e33b e3f7 adbc 19ac f63d ffb4 edbc
000000b0: 0ac9 033e 775f 21bd e8d6 00bd 7f63 413e
000000c0: 2414 403d 8460 1ebc 2cf9 5e3c 4fd6 a8bf
000000d0: 1182 25be 50a9 22bd 58e4 91be c0cb 473e
000000e0: 596a a13e 676f c63e db1d 543d 7465 3a3d
000000f0: 0e18 b53c 0779 2aba c8f0 ddbe fb9a 533d
00000100: 84bd 8a3c f0b0 fbbd 6138 0b3e 87f2 ad3d
00000110: 0172 07bd 3846 353e 6389 9b3c 4d58 ebbc
00000120: b4cf 63be 8ed4 7dbe f51f 07bb bc2b a4bd
00000130: e644 0abf ec28 63bd 1c79 07bf d54f 323d
00000140: 4be0 aebd 4b7f 94bf bc35 a93c 641c cc3d
00000150: d6c8 43bc 7e55 eabe 57bd ac3d 7658 a5bd
00000160: 5d36 93bf 4ddb b0bd 8b00 a5bc 6c6d b6be
00000170: 97e6 703d ff49 41bc 3668 8dbd 66ba 1dbc
00000180: dae8 ba3b d0d6 7cbe 7f85 e2bc 578c db3a
00000190: ff37 e13c c466 03ba 8cf9 4dbc 36a6 59bd
000001a0: c16d 633d a771 553d 6cd0 5bbd 623d 923d
000001b0: 596f 533e 79a6 cc3d 0893 383e 7252 e2be
000001c0: 36e8 453c 7a83 713e 209a fe3a b3bd 04be
000001d0: cd47 a63d 3e0b 19bd 6711 9ebd 065e b7b9
000001e0: 01c0 dd3c 4614 1bbd ff41 21be fa9f 42bc
000001f0: 115e 503e 7620 893c 538d a7be 83f3 f6bc
00000200: 6616 bfbd 6b0c 773b 6b90 563d b6cb 18bc
00000210: b4d7 7bbd 2545 02be ae11 e7bd b4ca 04bd
00000220: 7920 fdbd dba1 2ebd 72f2 913d 9325 9ebd
00000230: 7ac7 31bc fc95 31bf fee9 c23c 5570 cabe
00000240: 8141 02bd ef18 39be 719e d0be 5515 be3d
00000250: 406b 4dbd 300f 1d3d ca69 83bf 473c 663e
00000260: 5f29 1bbe d9a5 1e3d d944 073a 14ae 37be
00000270: c7ef 893d 98fb ddbd b7f5 22bd 075c 9cbe
00000280: f653 f7bc 7d6a d6be 64d7 dfbc 2fbf 903c
00000290: 8258 533e 8525 4cbc 1bef 57bc 9379 ad3e
000002a0: fa8c 333d e21c 573e e715 48bb 8fd8 4fbe
000002b0: e63e 4eba e771 163e 6c3d eb3d bbd5 773e
000002c0: fbc1 1dbd cb63 58be 41a7 963d 228b e0bc
000002d0: 4ea0 163d 9191 75be af31 f13c 91fd f93c
000002e0: 7da7 d4be 9d34 1e3d 3934 08bd 509a 49be
000002f0: 234d bc3d a48f 3c3e 984f 31bc f88a 263c
00000300: 7ca4 97bd 5c0f 8cbc e5d2 a83c f6d5 713e
00000310: f6ac 3a3e 7904 8e3c ba13 b83d 89da 313e
00000320: 1dfd 83be 7a9b d7bc 5a3e 18be a3ef bd3c
00000330: dd43 18bd 2079 623d 232f bebe a3eb 46bb
00000340: 8694 d5be 2649 41be bf30 debb 1649 0dbd
00000350: afaf a23e 52a4 273d 5cd8 953c 9434 42be
00000360: c1fb c63e 7c78 46bf 3700 103e b8f7 da3d
00000370: 4d78 473e 14a4 c23c a4e4 413d 80ce 233d
00000380: efbc f2bd 0e85 303b 19a4 b4bd 2073 db3c
00000390: 344f 82bd 6b17 963d 9689 913b 98b8 fcbc
000003a0: a3c3 073e 1fbc bd3e fde2 3b3d 74cc ea3c
000003b0: a155 25bc 11c8 383c a0be 273e 6e06 37bd
000003c0: e87d 2bbd f099 4f3d d0e9 2abc 6f4a 9c3d
000003d0: fba1 77bd 320e 9b3d 181e 223b 9713 383d
000003e0: aa70 223c ad0f aabe 8e85 c1bd f37e 0a3e
000003f0: ac07 b93d a6fc 84bc 0b51 d0bc 5210 2f3e
-0.040441673 -0.10943863 0.001806233 -0.0010966779 -0.11378273 -0.33511543 -0.029596208 0.017746339
-0.035968695 -1.1547141 0.035816785 -0.71217823 -0.10380621 0.02508766 -0.02360111 0.00022957889
0.14230976 -0.071833655 -0.05207137 -0.0054255817 0.28333142 0.013332518 0.35574976 -0.083414696
0.030946827 -0.07310572 -0.037654556 0.025623847 0.030453298 -0.023610756 -0.34811246 -0.17419672
0.026785905 0.18802898 -0.25790945 -0.08921737 -0.20119071 0.002146168 0.2296677 0.21383354
0.0069538867 -0.021236366 0.12044544 -0.02901697 0.12869659 -0.039397683 -0.03145495 0.18885611
0.046894208 -0.009666566 0.013609212 -1.3190402 -0.16162898 -0.03971225 -0.28494525 0.19511318
0.3152645 0.38756868 0.051786285 0.04550691 0.022106197 -0.000650302 -0.43347764 0.051661473
0.016936071 -0.122896075 0.13595726 0.08493524 -0.033067707 0.17702568 0.01898641 -0.028728629
-0.22247201 -0.24788114 -0.0020618413 -0.08016154 -0.5401138 -0.055458948 -0.52919173 0.043533165
-0.08538874 -1.1601347 0.020655505 0.099663526 -0.0119497385 -0.4576835 0.08434551 -0.08073513
-1.1500965 -0.08635578 -0.02014186 -0.35630357 0.058813658 -0.011797427 -0.06904642 -0.00962696
0.0057040276 -0.2469132 -0.027651547 0.0016750199 0.027492521 -0.00050125667 -0.012571704 -0.053137027
0.05552459 0.05211034 -0.053665563 0.07140614 0.20647945 0.0999269 0.18024838 -0.44203526
0.012079289 0.2358531 0.0019424595 -0.1296299 0.08119164 -0.037364237 -0.07718163 -0.00034974533
0.027069094 -0.03786113 -0.15747832 -0.011878962 0.20348383 0.016739111 -0.3272501 -0.030145412
-0.09330444 0.003769661 0.05238382 -0.009325912 -0.061485007 -0.12721689 -0.11282669 -0.032419875
-0.12359709 -0.042634826 0.07126321 -0.077220105 -0.010850782 -0.69369483 0.023793217 -0.39538828
-0.03180075 -0.18075918 -0.4074588 0.092814125 -0.05015111 0.038344562 -1.0266659 0.22483931
-0.151525 0.038732383 0.00051601004 -0.179375 0.06735187 -0.10839003 -0.039785113 -0.3053896
-0.030191403 -0.4187812 -0.027324386 0.017669288 0.20639232 -0.012460117 -0.013179566 0.33881816
0.043835618 0.21007112 -0.0030530633 -0.20297454 -0.0007867649 0.14691888 0.11486325 0.24202625
-0.038515072 -0.21131818 0.0735612 -0.027410094 0.036773972 -0.2398131 0.029442636 0.030516418
-0.41534033 0.038624395 -0.03325293 -0.19687772 0.091944 0.1841417 -0.010822199 0.010164969
-0.0740442 -0.017097168 0.020608375 0.23616776 0.18230042 0.017336117 0.089881375 0.17368521
-0.25779048 -0.026319254 -0.14867535 0.023185557 -0.037174094 0.055291295 -0.37145337 -0.0030352853
-0.41714877 -0.1887556 -0.0067807133 -0.03449353 0.3177466 0.040928192 0.018291645 -0.1896537
0.38863948 -0.77527595 0.14062582 0.1069178 0.19479485 0.02375988 0.04733719 0.039991856
-0.118524425 0.0026934776 -0.08820362 0.026788294 -0.06362763 0.073286854 0.0044414503 -0.03084974
0.13258223 0.37057588 0.04587077 0.028661944 -0.010091216 0.011278168 0.16381311 -0.044683866
-0.04186812 0.050683916 -0.010431722 0.076313846 -0.06045721 0.07571067 0.0024737176 0.044940557
0.0099145565 -0.33215085 -0.09449302 0.1352499 0.090346664 -0.016233753 -0.02542927 0.1709607

layer_3.bias f4 [6]
00000000: 0a99 12bd 1efa 91bc d468 24b9 1b23 94bd
00000010: b6dd a0bd 865e 6abf
-0.03579048 -0.01781946 -0.0001567931 -0.07233258 -0.07854788 -0.9155048
