models/all_td3/TD3_TradingEnv7_42_400_critic_1.pth (torch, 582239 bytes, 5 tensors)

layer_1.weight f4 [400, 60]
0	0xbe954f5b	-0.29162106
1	0x3ef8be92	0.48582894
2	0xbe7710fe	-0.24127576
3	0xbe220cb9	-0.15825166
4	0x3dcfe554	0.10151163
5	0xbee2cc3d	-0.44296446
6	0xbf1c455d	-0.6104334
7	0x3f9f6bb0	1.2454739
8	0xbe32d2af	-0.17463182
9	0xbe76f1ba	-0.24115649
10	0xbf1c33f9	-0.61016804
11	0xbe3964d1	-0.18104865
12	0xbe85c958	-0.26130176
13	0xbf244a0d	-0.6417549
14	0xbdb01406	-0.08597569
15	0xbea6735c	-0.32509887
16	0xbf7eaa03	-0.9947817
17	0x3d9be895	0.07612721
18	0xbe8383ed	-0.2568659
19	0xbf737b45	-0.9510997
20	0xbe19cfa0	-0.15020609
21	0xbe2284b9	-0.15870942
22	0xbf6de99f	-0.929346
23	0xbd92ef6f	-0.071745746
24	0xbba1322a	-0.00491931
25	0xbe4cd719	-0.20003928
26	0xbe1d63ae	-0.15370056
27	0xbedaff1b	-0.42772755
28	0xbe68e447	-0.22743331
29	0xbe8e519f	-0.27796647
30	0xbe551387	-0.2080823
31	0x3fadb509	1.3570873
32	0xbe4e37e7	-0.20138513
33	0xbef671c2	-0.48133665
34	0x3ed04e39	0.4068468
35	0xbdcae148	-0.0990625
36	0xbeb6939c	-0.35659492
37	0xbed5113b	-0.41614708
38	0xbe62aa32	-0.22135237
39	0xbeb00874	-0.3438145
40	0x3f5f00a7	0.8711037
41	0x3ee68ba8	0.45028424
42	0xbccf1817	-0.025280042
43	0x3f930fc3	1.1489185
44	0xbd40cdb4	-0.047071174
45	0x404cf6c6	3.2025619
46	0x3ec815ae	0.3907904
47	0x3eb76bad	0.35824338
48	0x3f5230d7	0.82105774
49	0xbebfffe9	-0.3749993
50	0x3d26e3b0	0.040744483
51	0x3d7d7d90	0.061887324
52	0xbd02ef96	-0.03196677
53	0x3d85f254	0.06540361
54	0x3eeb5274	0.45961344
55	0xbeab58ae	-0.33466095
56	0x3ee84ab1	0.45369485
57	0x3edecc52	0.4351526
58	0xbe6d4b90	-0.23173356
59	0x3e95cc72	0.29257542
60	0x3f64e70a	0.8941504
61	0xbf1ed823	-0.6204855
62	0x3f7e4ed4	0.9933903
63	0x3f6f6a10	0.93521214
64	0xbf47f6bd	-0.7811087
65	0x3e97a385	0.29616943
66	0x3f1d2ca9	0.6139627
67	0x3f9e2ba9	1.2357074
68	0xbd0efe76	-0.03491064
69	0xbebbe0bf	-0.36694905
70	0xbef029e7	-0.4690697
71	0xbeb02657	-0.3440425
72	0xbec60b8c	-0.38680685
73	0xbf01d926	-0.5072197
74	0x3ba0103e	0.0048847487
75	0xbe0fc6c3	-0.14040665
76	0xbf0fca76	-0.56168306
77	0x3dfe3bfc	0.12413785
78	0x3ea14351	0.3149667
79	0xbf143128	-0.57887506
80	0x3e31d8e3	0.17367892
81	0x3e962049	0.29321507
82	0xbf39e8f7	-0.726211
83	0xbe81ce1b	-0.25352558
84	0xbea26a65	-0.31721798
85	0x3fe019fe	1.7507932
86	0x3dc6c85a	0.09706183
87	0xbe28cccc	-0.16484374
88	0xbf3e4d14	-0.7433636
89	0xbeaf39f2	-0.34223896
90	0xbe99b3c4	-0.30019963
91	0x3ee15b4d	0.4401497
92	0x3f185b0d	0.5951393
93	0xbf1632ff	-0.58671564
94	0xbf5bff98	-0.8593688
95	0x3e4af674	0.19820577
96	0x3d338c3e	0.043834917
97	0xbf0118e9	-0.50428635
98	0x3e056026	0.13024959
99	0x3d4000cf	0.04687577
100	0x3e90f7b5	0.28313985
101	0x3e4cdcdc	0.20006126
102	0xbf2193c7	-0.63116115
103	0x3f28f992	0.66005814
104	0xbcd5a238	-0.026078328
105	0x3f7ad691	0.9798365
106	0x3f003282	0.5007707
107	0x3e8d3f4d	0.27587357
108	0x3f19f52a	0.60139716
109	0xbd0ac31b	-0.033877473
110	0x3df43c80	0.11925602
111	0xbce96794	-0.028491773
112	0x3dc5de1a	0.09661503
113	0x3bc45460	0.0059915036
114	0x3d8b1659	0.06791372
115	0x3e16a2ec	0.14710587
116	0xbdd77c00	-0.10521698
117	0x3e3f2466	0.18666229
118	0x3ddc622a	0.10760911
119	0xbf19bf7e	-0.6005782
120	0x3d8617ed	0.06547532
121	0xbf5d3f58	-0.8642478
122	0x3d0b77f2	0.034049936
123	0x3e00caa6	0.12577304
124	0xbf0af9d7	-0.54287475
125	0x3ea9b17a	0.33143216
126	0xbe255673	-0.16146259
127	0x3f669c29	0.9008203
128	0x3d9c3458	0.07627171
129	0x3ef6667e	0.4812507
130	0xbf338dad	-0.70138055
131	0x3ef1412a	0.4712003
132	0x3ef58dab	0.47959647
133	0xbd0be502	-0.034153946
134	0xbe880bef	-0.26571605
135	0x3d13fb92	0.036128588
136	0xbf057e41	-0.52145773
137	0xbad3ceda	-0.0016159669
138	0x3eb4a5d3	0.35282764
139	0xbf3ccd7b	-0.7375104
140	0x3e6a5ffe	0.2288818
141	0x3ef086cc	0.46977842
142	0xbf43f13d	-0.76539975
143	0x3e79b196	0.2438415
144	0xbe00fec5	-0.12597187
145	0xbfab3163	-1.3374447
146	0xbe12c15b	-0.14331572
147	0x3c507e78	0.012725465
148	0xbf1e1909	-0.6175695
149	0x3e0d1e89	0.1378118
150	0x3e1fccc2	0.15605453
151	0xbd8e1101	-0.06936837
152	0x3ec00c68	0.37509465
153	0xbe845119	-0.25843123
154	0xbf1253e3	-0.5715925
155	0xbdba049f	-0.09082913
156	0x3d40bd58	0.047055572
157	0xbdc158b6	-0.094407484
158	0x3e53fddb	0.20702307
159	0x3d9e5efb	0.0773296
160	0xbe0c8511	-0.13722636
161	0x3f53a81e	0.826784
162	0x3ec647dc	0.387267
163	0x3f2745d4	0.65340924
164	0x3dd5710b	0.10421952
165	0xc07a047f	-3.9065244
166	0xbfb604e0	-1.4220238
167	0xbfc6baf6	-1.5525806
168	0xbfb46f79	-1.4096519
169	0xbe2c3844	-0.16818339
170	0xbda32553	-0.079661034
171	0x3c837be0	0.01605028
172	0x3da489e2	0.080341116
173	0x3debe14e	0.11517583
174	0x3ee5840d	0.4482731
175	0xbc9a20ac	-0.018814407
176	0x3e786e86	0.24260911
177	0x3e9eb966	0.31000823
178	0x3d980557	0.074228935
179	0xbf397e21	-0.7245808
180	0xbe705125	-0.23468454
181	0xbda98ac4	-0.082784206
182	0xbec24d8a	-0.37949783
183	0xbeb752cf	-0.35805365
184	0x3ed7df2a	0.42162448
185	0x3bb1e59a	0.005428982
186	0x3e094eed	0.13409014
187	0x3faa8dac	1.3324485
188	0x3c914965	0.017735193
189	0xbf04a2c4	-0.5181086
190	0xbd52ae34	-0.051435664
191	0xbf3f9c2e	-0.74847686
192	0xbf19b975	-0.6004861
193	0x3d6ca54e	0.057774834
194	0xbd8fa746	-0.07014327
195	0x3d49c8c5	0.049263734
196	0xbe880e18	-0.26573253
197	0xbe6e7459	-0.2328657
198	0xbf221cbb	-0.6332509
199	0xbe16be42	-0.14721015
200	0xbf2f4a35	-0.68472606
201	0xbf197811	-0.5994883
202	0xbf8b583b	-1.0886301
203	0xbe591b15	-0.21201737
204	0xbe238e38	-0.15972221
205	0x3fa36e70	1.2768078
206	0xbe82ba46	-0.2553274
207	0xbea79565	-0.32731166
208	0x3ecfaa64	0.40559685
209	0xbebf014a	-0.3730567
210	0xbeea2ff8	-0.45739722
211	0xbfd99e5f	-1.7001456
212	0xbea4babd	-0.3217372
213	0x3eccb32b	0.39980444
214	0xc037daa1	-2.872719
215	0xbf2619fc	-0.648834
216	0xbec77031	-0.38952783
217	0xbe46383e	-0.19357392
218	0xbeada3a4	-0.3391391
219	0xbeb04582	-0.3442803
220	0xbf8a9cf0	-1.0829144
221	0xbea6481a	-0.32476884
222	0x3e8c5be5	0.2741386
223	0xbe691f8e	-0.22765943
224	0x3d24540d	0.04011922
225	0x3ffc34c7	1.9703606
226	0x3fa3b58c	1.2789779
227	0x3f6aeebb	0.91770524
228	0x3e979b11	0.29610494
229	0xbec5cae7	-0.38631365
230	0x39d12a00	0.0003989488
231	0xbdff5653	-0.12467637
232	0xbda1a6b0	-0.07893121
233	0x3d4f650c	0.050633475
234	0xbefd9ba3	-0.49532804
235	0xbd20b4c6	-0.0392349
236	0x3f5e3b7c	0.86809516
237	0x3e87c5dd	0.26518145
238	0x3b919743	0.0044430806
239	0x3eaec5e7	0.34135363
240	0x3f75972b	0.9593379
241	0xbf48c246	-0.7842144
242	0x3f774403	0.9658815
243	0x3f6e9588	0.93196917
244	0xc04184c5	-3.0237286
245	0x3f5490e7	0.83033603
246	0x3f969620	1.1764565
247	0x3edbbeb5	0.42918935
248	0x3db9d030	0.09072912
249	0x3e3c27fb	0.18374626
250	0xbf8bd6d6	-1.0924938
251	0x3e5865b3	0.21132545
252	0x3e93b1a3	0.28846464
253	0xbf3bda11	-0.7337962
254	0x3d342c91	0.043987814
255	0xbcc7ea72	-0.024403784

layer_1.bias f4 [400]
0	0xbf040e92	-0.5158473
1	0x3e51ae9e	0.20476767
2	0xbeb4b3a9	-0.3529332
3	0x3c4e333e	0.012585459
4	0x3e89166a	0.26774913
5	0xbeaadf9d	-0.33373728
6	0xbe571be1	-0.21006729
7	0x3ebfce16	0.3746192
8	0xbf323b4c	-0.6962173
9	0xbcc188eb	-0.023624858
10	0xbe76faaf	-0.24119066
11	0xbf23e04d	-0.6401413
12	0xbe871ef2	-0.26390797
13	0xbef38ef1	-0.47569993
14	0x3ea0ba8e	0.3139233
15	0x3e9a44ff	0.30130765
16	0xbf34dbd8	-0.70647955
17	0x3ef0cdad	0.47031918
18	0xbe428931	-0.18997647
19	0x3e80bf59	0.25145987
20	0xbe71985b	-0.23593275
21	0x3d3b8494	0.045780733
22	0xbe7a3d40	-0.24437428
23	0xbecdf3a0	-0.40224934
24	0x3e80ae5a	0.2513302
25	0x3ee5c9be	0.4488048
26	0xbe80ff7a	-0.25194913
27	0xbe8b8b9e	-0.27254957
28	0x3f07e512	0.5308391
29	0xbeea73a1	-0.45791343
30	0xbf09cf8d	-0.5383232
31	0xbd5f6396	-0.054538332
32	0x3e36d30f	0.1785395
33	0x3ed84620	0.42241
34	0xbd9e4533	-0.077280425
35	0xbf046a87	-0.5172505
36	0xbe8e7af7	-0.2782819
37	0x3e72e9a7	0.23721944
38	0xbbdec23b	-0.0067980564
39	0xbe838e19	-0.2569435
40	0xbdb773c3	-0.08957627
41	0xbe80746f	-0.25088832
42	0xbd224f25	-0.03962626
43	0xbca4a040	-0.020095944
44	0xbe2fe665	-0.17177732
45	0xbec1c3c0	-0.37844658
46	0xbdbea9c8	-0.09309727
47	0x3e9798b8	0.29608703
48	0x3f045365	0.5168975
49	0xbeb954a6	-0.36197394
50	0xbe9fa1ca	-0.31178123
51	0x3defe30b	0.11713227
52	0xbe56d9b7	-0.20981489
53	0xbd0e234d	-0.034701634
54	0x3e819fbc	0.2531718
55	0xbe6200b0	-0.22070575
56	0xbe59fd6b	-0.21288078
57	0xbdbeffa1	-0.09326101
58	0xbe42d8c9	-0.1902801
59	0x3e829ea5	0.2551166
60	0xbebcd39d	-0.36880198
61	0xbf42e5db	-0.7613198
62	0x3f182c6c	0.5944278
63	0xbdfe6fda	-0.12423678
64	0xbeb858dd	-0.36005297
65	0x3f17fb5f	0.59367937
66	0xbe70d2db	-0.23517935
67	0x3fe0ca8f	1.7561816
68	0x3fa4cf6a	1.2875798
69	0xbc8100e6	-0.015747499
70	0xbedd6339	-0.43239763
71	0xbeb613bc	-0.3556193
72	0xbf2a94a5	-0.66633064
73	0xbf182fb2	-0.5944778
74	0xbda35022	-0.079742685
75	0x3d0bb2b5	0.034105975
76	0xbe87b737	-0.2650697
77	0x3f07eb68	0.53093576
78	0xbf03d8d8	-0.5150275
79	0x3f3e05b2	0.7422744
80	0xbeac4eef	-0.33653972
81	0xbe85c733	-0.2612854
82	0x3e0a4666	0.13503417
83	0x3e85571a	0.26043016
84	0x3d54cac2	0.051951177
85	0x3e4863fb	0.1956939
86	0xbbb94999	-0.0056545255
87	0x3e8d7766	0.27630156
88	0xbd8db702	-0.069196716
89	0x3e78eb79	0.24308576
90	0x3eac6347	0.33669493
91	0xbd670a7b	-0.05640648
92	0x3e091dd4	0.13390285
93	0x3ebe6652	0.3718744
94	0xbebbd3ea	-0.36685115
95	0xbe91a967	-0.28449556
96	0x3d656cbe	0.056011908
97	0xbf25dd12	-0.6479045
98	0xbf2f5226	-0.68484724
99	0xbf428cf5	-0.75996333
100	0x3e95a239	0.2922533
101	0xbea33d72	-0.31882817
102	0xbef8bc50	-0.4858117
103	0x3e80acf0	0.2513194
104	0x3f13fc30	0.5780668
105	0xbf0ee718	-0.5582137
106	0xbb92a7ba	-0.004475561
107	0x3e69d34f	0.22834514
108	0xbf0de991	-0.5543452
109	0x3edad059	0.42737082
110	0xbe3b16ed	-0.18270464
111	0xbe2af2f5	-0.16694243
112	0xbed0d045	-0.40783897
113	0xbea209a5	-0.31647983
114	0xbe7be9d9	-0.24600925
115	0xbf1083ce	-0.5645112
116	0xbe438e92	-0.19097355
117	0xbdffb807	-0.12486272
118	0xbe29b36a	-0.16572347
119	0x3de77d43	0.11303189
120	0xbdab6f9b	-0.083708964
121	0x3f19cb77	0.6007609
122	0xbda56ff9	-0.08077998
123	0xbe69a559	-0.22816981
124	0xbc11f053	-0.008907395
125	0xbeae94b0	-0.34097815
126	0x3ceb8654	0.028750576
127	0xbeaf566d	-0.34245625
128	0x3e737841	0.23776342
129	0xbedb0f6d	-0.42785206
130	0xbf3dcd35	-0.74141246
131	0xbec4ed27	-0.38462183
132	0xbec6c8ea	-0.3882516
133	0xbec648b5	-0.38727346
134	0xbd1cf68f	-0.038321074
135	0xbdf5be77	-0.11999219
136	0xbe699cf0	-0.22813773
137	0xbe2aa29b	-0.16663592
138	0x3f743844	0.95398355
139	0xbe05c6c8	-0.1306411
140	0xbde3352e	-0.110941276
141	0x3d8ab060	0.06771922
142	0xbe9c9390	-0.3058133
143	0x3f036614	0.51327634
144	0xbf11f87a	-0.5701977
145	0xbed390e2	-0.41321474
146	0xbeacc991	-0.33747533
147	0x3f0daf66	0.5534576
148	0xbd9dd970	-0.077074885
149	0xbf1728e2	-0.5904676
150	0xbcce7dea	-0.025206525
151	0x3dc48cca	0.09597166
152	0x3e43eb13	0.19132642
153	0x3e811504	0.25211346
154	0x3e93afdf	0.28845116
155	0xbe0646c2	-0.1311293
156	0xbd958e3b	-0.07302519
157	0xbef22995	-0.4729735
158	0x3eb0c363	0.34524068
159	0xbe732539	-0.23744668
160	0xbe96164c	-0.29313886
161	0x3db518a6	0.08842592
162	0x3ef466c8	0.47734666
163	0xbe8d94ba	-0.27652532
164	0x3dc6d5bf	0.097087376
165	0xbdfa6a28	-0.12227279
166	0xbe89a1f1	-0.26881364
167	0xbebb0cfa	-0.36533338
168	0xbe98bb97	-0.2983062
169	0x3dd262f2	0.102727786
170	0xbec1b92e	-0.37836593
171	0xbe71f46f	-0.236284
172	0xbef0097b	-0.46882233
173	0xbf23c193	-0.63967246
174	0xbeb4f273	-0.35341224
175	0xbea0180d	-0.3126835
176	0xbedfc9fe	-0.43708795
177	0x3f221763	0.63316935
178	0x3e0f7140	0.14008045
179	0x3d9ddc3f	0.07708024
180	0x3f65bb95	0.8973935
181	0x3d86adba	0.065761045
182	0x3ecf1214	0.4044348
183	0x3fafc8d1	1.3733159
184	0xbe9fbb91	-0.3119779
185	0xbd8a8813	-0.06764235
186	0xbee5d31f	-0.44887635
187	0x3c97a725	0.018512318
188	0x3d070f72	0.032973714
189	0xbe5a471e	-0.21316192
190	0xbf2e1bc6	-0.6801113
191	0x3d64f766	0.0559
192	0xbd736c0e	-0.05942922
193	0x3e913538	0.28360915
194	0xbd82f1fa	-0.063938096
195	0xbe085739	-0.13314523
196	0xbeeba1d7	-0.46021912
197	0xbeb9bcb2	-0.36276776
198	0xbe1725fc	-0.14760584
199	0xbe38e653	-0.18056612
200	0xbdb2e9cf	-0.08736002
201	0x3e64622f	0.22303079
202	0xbdb6c586	-0.08924393
203	0x3f5accef	0.85468954
204	0x3eeb0edc	0.45909774
205	0x39c36254	0.00037266559
206	0xbecdacb9	-0.4017084
207	0xbc2d79cc	-0.010588121
208	0xbecc575c	-0.399104
209	0x3f163d28	0.5868707
210	0x3db5f53e	0.08884667
211	0xbe1f6c7d	-0.15568729
212	0x3e02d660	0.1277709
213	0xbda15f84	-0.07879546
214	0xbe4534be	-0.19258401
215	0xbf0693c2	-0.5256921
216	0xbf5adc52	-0.8549243
217	0xbe98a07a	-0.29809934
218	0xbe914175	-0.28370252
219	0x3e8f5cdf	0.28000543
220	0x3e941009	0.28918484
221	0xbdb502ac	-0.088384
222	0xbd9dd041	-0.07705737
223	0xbe7817cc	-0.24227828
224	0xbf18627c	-0.59525275
225	0x3ce22729	0.027606564
226	0x3f229d8e	0.6352166
227	0xbf0695fa	-0.52572596
228	0xbe8b1409	-0.27163723
229	0xbe99572b	-0.29949316
230	0xbf3816aa	-0.7190958
231	0xbea9b35a	-0.33144647
232	0xbf1406dd	-0.5782297
233	0xbf2a1b4b	-0.66447896
234	0xbd9fb1ff	-0.07797622
235	0xbdf984b3	-0.121835135
236	0xbedc5832	-0.43036038
237	0xbc3f4e30	-0.011676356
238	0xbeda2193	-0.4260374
239	0xbd27bb2d	-0.04094999
240	0x3dbf2ef8	0.093351305
241	0xbd268bf5	-0.040660817
242	0x3f354be4	0.70818925
243	0xbe7e93ab	-0.24861018
244	0xbd36521d	-0.044511903
245	0xbf0d53e0	-0.5520611
246	0xbd5bc611	-0.053655688
247	0xbc0a6ea8	-0.008449234
248	0x3f048389	0.51763207
249	0x3ef70cc2	0.4825192
250	0xbe16d2b4	-0.14728814
251	0x3c707664	0.014676664
252	0x3d868979	0.065691896
253	0xbf30851f	-0.68953127
254	0xbe5783f1	-0.21046425
255	0x3e6f8035	0.23388751

layer_2.weight f4 [300, 400]
0	0x3ba7b383	0.005117835
1	0xbce9fe16	-0.02856354
2	0x3a1b953d	0.0005935019
3	0xbdef1bac	-0.116752
4	0xbd9226bf	-0.071362965
5	0x3bf94c79	0.007607993
6	0x383a6fca	4.4449967e-05
7	0xbd10df64	-0.035369292
8	0xbd3afa58	-0.045648903
9	0xbd088f9c	-0.03334008
10	0xbd5d8bf5	-0.05408855
11	0xbdb407b2	-0.0879053
12	0xbd2f6f70	-0.042830884
13	0xbb915440	-0.004435092
14	0xbd62b0eb	-0.055344503
15	0xbd83d087	-0.06436258
16	0xbc15a56d	-0.009133679
17	0xbb64647d	-0.0034849935
18	0xbd3e58db	-0.046471458
19	0xbc830d97	-0.015997691
20	0x3b1d8538	0.0024035703
21	0xbd211d76	-0.039334737
22	0x3b4413b6	0.0029918975
23	0x3d19e4e3	0.0375718
24	0x3ce0c272	0.027436469
25	0xbd50433c	-0.05084537
26	0x3d0e3a36	0.034723483
27	0x3ad3e3e3	0.0016165938
28	0xbd3ed052	-0.04658539
29	0xbacc0ad3	-0.0015567191
30	0xba6f255f	-0.0009122695
31	0xbd951421	-0.0727923
32	0xbda5aadb	-0.08089229
33	0xbd0eb600	-0.034841537
34	0xbbea0eb3	-0.0071428656
35	0xbd34edc0	-0.04417205
36	0xbb18c4ae	-0.002331059
37	0xbcc27426	-0.023737025
38	0xbc3e532b	-0.0116165085
39	0x3b969eee	0.0045965826
40	0xbd127e93	-0.03576524
41	0xbc7ceb8d	-0.015437019
42	0xbc4c2729	-0.012460508
43	0xbbb77869	-0.005599071
44	0xbcf4a193	-0.0298622
45	0xbd44a3f1	-0.04800791
46	0xbcacd08e	-0.02109554
47	0xbd3ae4bd	-0.045628298
48	0xbd52f5af	-0.051503833
49	0xbc92f969	-0.017941194
50	0xbd336507	-0.04379752
51	0xbc02116c	-0.007938724
52	0xbdacbc0c	-0.084343046
53	0xbd765818	-0.060142606
54	0xbc5728b1	-0.01313226
55	0x3c8736d8	0.016505644
56	0xbd6171b7	-0.055040088
57	0x3d03a942	0.03214384
58	0x3d1845e0	0.037176013
59	0x3c4e7327	0.012600697
60	0xbc27e036	-0.010246327
61	0xbcb69837	-0.022289379
62	0xbca70f73	-0.020393109
63	0xbd9279b9	-0.07152123
64	0xbd447d31	-0.047970954
65	0xbd6c369a	-0.05766926
66	0xbdb273c4	-0.08713487
67	0xbcf96ab2	-0.030446384
68	0xbd4ae772	-0.04953713
69	0x3ca5bd96	0.020232003
70	0xbb2098f6	-0.0024505234
71	0xbced18e9	-0.028942542
72	0xbd54944b	-0.051899236
73	0xbd278207	-0.040895488
74	0xbb62e635	-0.0034622077
75	0xbcc1c2d8	-0.023652479
76	0x3cb7f5c2	0.022456054
77	0x3bc3846f	0.005966715
78	0xbd3dc507	-0.046330478
79	0xbdb0ce90	-0.08633149
80	0xbd459c7d	-0.048244942
81	0xbd8f3aa9	-0.069936104
82	0xbc04f4ef	-0.008115037
83	0x3cefffda	0.029296804
84	0xbd81da43	-0.06340458
85	0xbd95fdb4	-0.07323781
86	0xbdaa99bf	-0.08330106
87	0xbc9eaef5	-0.019370535
88	0xbc9fd0c3	-0.019508725
89	0xb99d41c5	-0.00029994376
90	0xbd4d9777	-0.050193276
91	0xbc592bb6	-0.01325505
92	0xbd119df8	-0.03555104
93	0x3ca5317e	0.020165201
94	0x3d1e38e0	0.03862846
95	0x3c42f98d	0.011900318
96	0xbcafde3e	-0.021468278
97	0x3ce3d4fe	0.027811524
98	0xbd0a6a5e	-0.033792846
99	0xbc130dc6	-0.008975452
100	0xbcf6a555	-0.030108133
101	0x3cf0925c	0.029366665
102	0xbd37e977	-0.044900384
103	0xbdbd59d9	-0.09245653
104	0xbd13f6cc	-0.036124036
105	0xbc2aea47	-0.010431833
106	0x3d0be4ac	0.034153625
107	0xbd8f8a50	-0.07008803
108	0xbd54a935	-0.05191918
109	0xbc5b2d5d	-0.013377515
110	0x3cb61e0b	0.022231122
111	0xbcd33cbb	-0.025785794
112	0xbd4b16c3	-0.049582254
113	0xbb1715e1	-0.0023053812
114	0xbd1e8aa9	-0.038706455
115	0x3bc3aff8	0.005971905
116	0xbd23fb45	-0.04003455
117	0xbc0a9249	-0.008457729
118	0xbd97bd8a	-0.074091986
119	0xbd6cc07a	-0.057800747
120	0x3cea6a18	0.028615043
121	0xbbbd98e9	-0.0057860506
122	0xbd822c59	-0.06356115
123	0xbc17df73	-0.009269583
124	0x3d221a87	0.03957608
125	0xbbfe5b38	-0.007762339
126	0xbd2f7aa5	-0.042841572
127	0x3c401d14	0.011725683
128	0xbc0d6ccf	-0.008631899
129	0x3d2c520f	0.042070445
130	0xbd253b8c	-0.04033999
131	0xbc8e3f63	-0.01736421
132	0xbcf865d1	-0.030321987
133	0xbd830b18	-0.063986
134	0xbb63577a	-0.0034689591
135	0x3c6eed37	0.014582924
136	0x3cadfc97	0.021238608
137	0xbb58a5e6	-0.0033057868
138	0xbb504ec9	-0.003178524
139	0xbd87dd7c	-0.06634042
140	0xbc7b8cae	-0.015353365
141	0xbd849927	-0.06474524
142	0xbd30053b	-0.04297374
143	0xbcee622f	-0.029099552
144	0xbd4bf771	-0.049796525
145	0xbc724430	-0.014786765
146	0xbd0a8056	-0.033813797
147	0xbbe7eee8	-0.0070780404
148	0xbb3b0d3f	-0.002854183
149	0x3ce4297d	0.027851814
150	0xbd29dc2c	-0.041469738
151	0x3cdab826	0.026699137
152	0xbc7c0520	-0.015382081
153	0xbcbde2ef	-0.0231795
154	0x3b3bfca6	0.0028684526
155	0xbd4f4455	-0.050602276
156	0xbc2533e9	-0.010083177
157	0xbd1a882d	-0.037727524
158	0xbc26e1c4	-0.010185663
159	0xbd9fe825	-0.0780795
160	0x3bc3fb4b	0.005980884
161	0xbd9d7b1b	-0.07689496
162	0x3c2d7872	0.010587798
163	0xbc7dd4d0	-0.015492633
164	0xbd804a07	-0.062641196
165	0xbbde8c60	-0.0067916363
166	0xbd9c79c8	-0.076404154
167	0xbc14c1b3	-0.009079385
168	0xbd064783	-0.032783043
169	0x3bc78919	0.0060893414
170	0x3ca3738f	0.019952564
171	0xbd203c4f	-0.039120015
172	0xb9c950cf	-0.00038397915
173	0xbb56a05f	-0.0032749397
174	0xba1557cf	-0.00056969834
175	0xbd6030be	-0.054733984
176	0xbcc8d789	-0.024516838
177	0xbd62db35	-0.055384833
178	0xbc54ce00	-0.012988567
179	0x3c957382	0.018243555
180	0xbd1a2ce2	-0.03764046
181	0xbc912d1a	-0.017721701
182	0xbce867c1	-0.028369786
183	0xbc8099ae	-0.01569828
184	0xbcd38c20	-0.025823653
185	0x3be56bc7	0.0070013735
186	0xbd6d531c	-0.057940587
187	0xbd830175	-0.06396762
188	0xbc48d5ff	-0.012258052
189	0xbc4da700	-0.012552023
190	0xbb9bf973	-0.0047599613
191	0xbd8b8333	-0.06812134
192	0x3cb06c50	0.021536022
193	0xbb21ff50	-0.0024718828
194	0xbd564d36	-0.052319728
195	0x3d39bf4d	0.045348454
196	0xbd541bc4	-0.051784292
197	0x3bb44e60	0.005502507
198	0x3bbd12a5	0.005770045
199	0xbc6794e7	-0.014134622
200	0xbc3d2ed4	-0.011546809
201	0xbd444131	-0.047913734
202	0xbd9d5392	-0.076819554
203	0xbd503050	-0.050827324
204	0x3c424f93	0.011859792
205	0x3c4ddba1	0.012564571
206	0xbdc18aa6	-0.09450273
207	0xbca9bf50	-0.020721108
208	0xbda7ff40	-0.08202982
209	0xbd2593ff	-0.040424343
210	0x3cadee68	0.021231845
211	0x3b305804	0.002690793
212	0x3c1df78b	0.009641538
213	0xbb9709b3	-0.0046093105
214	0xbca4fd32	-0.020140264
215	0xbd80a5ba	-0.0628161
216	0xbdaf98f7	-0.085740976
217	0xbd0ac572	-0.033879705
218	0x3c768e7f	0.015048622
219	0xbd8f2f38	-0.06991428
220	0xbb84d74b	-0.0040539852
221	0xbd4d50a6	-0.05012574
222	0xbdc5727b	-0.09640976
223	0x3d2f1040	0.042740107
224	0xbd894efa	-0.06704517
225	0xbb44d394	-0.0030033337
226	0xbc814a79	-0.015782582
227	0xbcf5f1bf	-0.0300225
228	0xbc952fc6	-0.018211257
229	0xbbdcdef9	-0.0067404476
230	0x3a747250	0.0009324895
231	0xbda784fe	-0.08179663
232	0xbca22ac4	-0.019795783
233	0xbcbd8257	-0.02313344
234	0xbcaa8709	-0.020816343
235	0xbd19e6de	-0.037573688
236	0xbc8cfafd	-0.017209524
237	0x3c8ec5ad	0.017428244
238	0xbdaa4814	-0.08314529
239	0xbd208992	-0.039193697
240	0xbd545f5b	-0.05184875
241	0xbc51866c	-0.012788396
242	0xbd398249	-0.045290265
243	0xbd2e8e76	-0.04261633
244	0xbcd32436	-0.025774103
245	0x3d01c57b	0.031682473
246	0xbd8d14b7	-0.06888717
247	0x3ccb20b2	0.024795864
248	0xbd31a7e6	-0.04337301
249	0xbd20e45e	-0.039280288
250	0xbb1ed7e3	-0.0024237565
251	0xbbb2a087	-0.0054512653
252	0xbd7fcfdd	-0.062454093
253	0xbcc9ee9c	-0.02464991
254	0xbcd9bd8d	-0.026579643
255	0xbd0b90c1	-0.034073595

layer_2.bias f4 [300]
0	0xbdb34659	-0.08753652
1	0xbd8fd4b9	-0.070229955
2	0xbe5956d4	-0.21224529
3	0x3e8f84e6	0.2803108
4	0x3b89c849	0.004204784
5	0xbe3f1642	-0.18660834
6	0xbb4fe8a2	-0.0031724353
7	0xbd5ecaf4	-0.05439277
8	0xbcd29bfa	-0.025709141
9	0x3cfff5e3	0.031245178
10	0x3e024bfc	0.12724298
11	0xbc786072	-0.015159713
12	0xbdf30eb3	-0.11868038
13	0xbe4fd9b0	-0.20297885
14	0xbd9b896d	-0.07594571
15	0x3d6e087a	0.058113553
16	0x3ef3a8e5	0.47589794
17	0xbe08ceb8	-0.13360107
18	0x3d8c6bb4	0.0685648
19	0x3ca91856	0.020641487
20	0x3eb38e62	0.35069567
21	0xbd6d1e7d	-0.057890404
22	0xbd048d08	-0.03236106
23	0xbccbf3aa	-0.024896462
24	0x3f495769	0.78649
25	0xbc6f8842	-0.014619889
26	0xbe1c5586	-0.15267
27	0xbf03a186	-0.5141834
28	0xbdbfa8ad	-0.09358344
29	0xbd77b938	-0.060479373
30	0x3fa02603	1.25116
31	0xbda1f4b5	-0.07908002
32	0x3d533fb8	0.05157444
33	0xbd03fdbb	-0.032224398
34	0x3f371a5c	0.71524596
35	0xbdb470f5	-0.08810607
36	0x3ecaca4e	0.3960747
37	0xbdfa40d6	-0.12219398
38	0xbd2f6c2d	-0.042827774
39	0x3eaada71	0.33369783
40	0x3f12974a	0.572621
41	0x3f39407a	0.7236401
42	0xbf0c26f3	-0.5474693
43	0xbda8e217	-0.08246248
44	0xbe69d47f	-0.22834967
45	0xbd8c8246	-0.06860785
46	0xbd09a95f	-0.03360879
47	0xbe294996	-0.16531977
48	0xbe31b39c	-0.17353672
49	0xbd302003	-0.04299928
50	0xbd1ca0dd	-0.03823935
51	0x3b22b8cc	0.0024829386
52	0xbd87dd5b	-0.06634017
53	0xbcecee8d	-0.028922344
54	0xbe63f908	-0.22262967
55	0xbdb76df7	-0.08956521
56	0x3f24b40d	0.64337236
57	0xbd87e5a1	-0.06635595
58	0xbd9b2b9a	-0.07576676
59	0xbd3e2498	-0.046421617
60	0xbb977c65	-0.0046229833
61	0xbe70e9f7	-0.2352675
62	0xbee6de45	-0.45091453
63	0x390496da	0.00012644698
64	0xbe2fc563	-0.17165141
65	0xbdea1b9f	-0.114310496
66	0xbdef67dc	-0.116897315
67	0xbdb9a4ea	-0.09064658
68	0xbdafb453	-0.08579316
69	0xbda28838	-0.07936138
70	0xbd664322	-0.056216367
71	0xbd43af89	-0.047774825
72	0x3f33e13d	0.7026556
73	0xbd8b888b	-0.06813153
74	0x3cb4d7d2	0.022075567
75	0xbd1dca06	-0.038522743
76	0xbd9936f4	-0.074811846
77	0x3d7c9725	0.06166758
78	0xbdba8a54	-0.09108415
79	0xbda7db2a	-0.08196099
80	0xbdc7eae2	-0.09761597
81	0x3d81f1f2	0.063449755
82	0xbd56cbed	-0.052440573
83	0xbd4c4dbf	-0.049878832
84	0x3f027a62	0.5096799
85	0xbd95cfc4	-0.07315019
86	0xbd7aefeb	-0.06126396
87	0xbcbb50df	-0.02286571
88	0xbcdcd181	-0.026955368
89	0xbd1dd5f4	-0.03853412
90	0xbe95bcf4	-0.29245722
91	0xbdaf90ae	-0.08572517
92	0x3e9c6cb8	0.30551696
93	0xbda187fb	-0.07887264
94	0x3c1ab8bc	0.009443458
95	0x3c8725a4	0.01649744
96	0xbd0d24cc	-0.03445892
97	0xbdfb615d	-0.1227443
98	0xbd2da600	-0.042394638
99	0xbe905046	-0.28186244
100	0x3d471adb	0.048609596
101	0xbda3bb8d	-0.07994757
102	0xbdbc4f84	-0.09194854
103	0xbdadb8df	-0.08482527
104	0xbdc89526	-0.09794073
105	0x3cc9eb3e	0.024648305
106	0xbd6535ed	-0.05595963
107	0xbde510a1	-0.11184812
108	0x3fb89bbd	1.4422528
109	0xbe37de0e	-0.17955801
110	0xbe6bad61	-0.23015358
111	0xbe4854ed	-0.19563647
112	0xbd80b7e6	-0.06285076
113	0x3f33280a	0.6998297
114	0x3d7961af	0.060884174
115	0x3d41fcbf	0.047360178
116	0xbd6df035	-0.058090407
117	0x3e85d7c8	0.2614119
118	0xbda15b56	-0.07878749
119	0xbe9f0c80	-0.31064224
120	0xbdc8c16f	-0.098025195
121	0xbd83febf	-0.06445073
122	0xbda5e9d2	-0.08101238
123	0xbe329aed	-0.17441912
124	0xbde75f7b	-0.11297508
125	0xbe055537	-0.13020788
126	0x3d15a77e	0.036536686
127	0x3bee0598	0.0072638504
128	0xbd7c440c	-0.061588332
129	0xbe817a99	-0.25288847
130	0x3c110e2e	0.008853478
131	0x3f34caa2	0.70621693
132	0xbca79396	-0.020456117
133	0xbd853832	-0.06504859
134	0xbd47568d	-0.048666526
135	0xbe5ed4fd	-0.21760936
136	0xbdafe2c9	-0.08588178
137	0xbcdfcdb0	-0.02731976
138	0xbe064d36	-0.13115391
139	0x3f6e7ac7	0.93156093
140	0xbd205b60	-0.039149642
141	0xbc880553	-0.016604101
142	0xbd8bc4a4	-0.068246156
143	0x3d4b4c71	0.049633447
144	0xbe02fd5e	-0.12791964
145	0xbd9255b6	-0.07145254
146	0xbe24a0f7	-0.16077028
147	0x3ec5f0b4	0.38660204
148	0xbd909634	-0.07059899
149	0xbdbc4f33	-0.091947936
150	0xbd8e2698	-0.06940955
151	0xbd89e587	-0.06733232
152	0xbe76b7f2	-0.24093607
153	0xbe6801c4	-0.22656924
154	0xbd328864	-0.043587103
155	0xbdb14bb0	-0.08657014
156	0xbc616f84	-0.013759498
157	0xbda72c11	-0.08162702
158	0xbd2832d8	-0.041064113
159	0xbe3ef4eb	-0.18648116
160	0xbd7057dd	-0.058677543
161	0x3d5346b0	0.051581085
162	0xbb2dde7e	-0.002653032
163	0x3f1a8e80	0.6037369
164	0xbd68d692	-0.056845255
165	0x3eac915d	0.33704653
166	0xbcb736cf	-0.022365002
167	0xbd373084	-0.044724002
168	0xbd2af89e	-0.041741006
169	0xbd7986cb	-0.060919564
170	0xbec29f15	-0.38011995
171	0xbc983a6e	-0.018582549
172	0xbf09ff35	-0.5390504
173	0xbc72b04d	-0.014812541
174	0xbe8b40e9	-0.2719796
175	0xbd329aef	-0.043604787
176	0x3f8838b4	1.0642304
177	0xbdbc9513	-0.09208121
178	0xbd07b139	-0.033127997
179	0x3eac3356	0.33632916
180	0x3d88298c	0.066485494
181	0xbb9ab62b	-0.004721423
182	0xbe1c2d3b	-0.15251629
183	0xbda452f3	-0.08023634
184	0xbd2eb79f	-0.042655583
185	0x3ec81c13	0.3908392
186	0x3cce412e	0.025177564
187	0xbebd548e	-0.36978573
188	0xbe2f7f46	-0.17138395
189	0x3e0bb225	0.13642175
190	0xbdb5b261	-0.08871914
191	0xbce409a0	-0.02783662
192	0xbd9564d4	-0.07294622
193	0xbd120e7c	-0.035658345
194	0x3c9186d4	0.017764486
195	0xbdcdb02b	-0.10043367
196	0xbd6d43df	-0.057926055
197	0xbe0a6206	-0.13513955
198	0x3f292c93	0.6608364
199	0xbd5a1cdc	-0.05325018
200	0x3e510b90	0.20414567
201	0xbd349369	-0.044085894
202	0x3ee84937	0.45368358
203	0xbe3ca575	-0.18422492
204	0xbea1baa2	-0.31587702
205	0xbd56c7f5	-0.052436788
206	0xbe6052fe	-0.21906659
207	0xbd9e8bae	-0.077414855
208	0x3c3339a7	0.010939038
209	0xbdab429c	-0.08362314
210	0x3bd0e2b8	0.006374683
211	0x3cade17a	0.02122568
212	0xbbbb566b	-0.005717089
213	0x3a9f76ef	0.0012166182
214	0xbd226747	-0.039649274
215	0x3d921b0b	0.07134064
216	0xbd38dd36	-0.04513284
217	0x3eb63bcd	0.355925
218	0xbe2bcdb7	-0.16777693
219	0xbd39cf10	-0.045363486
220	0xbd6f560c	-0.05843167
221	0xbe240a4f	-0.16019557
222	0x3f14c251	0.58109003
223	0xbda25664	-0.07926634
224	0xbd957887	-0.072983794
225	0x3f833da0	1.0253181
226	0xbe3dcb71	-0.18534638
227	0xbdc5b871	-0.0965432
228	0xbd3d858c	-0.04626994
229	0x3b4a0881	0.0030827823
230	0xbdd62bff	-0.1045761
231	0x3ec29612	0.3800512
232	0x3c2589d5	0.0101036625
233	0xbeb87df7	-0.36033604
234	0xbe16f2c4	-0.14741045
235	0xbdebc496	-0.11512105
236	0xbd1d7b68	-0.038447767
237	0x3f2633dd	0.6492289
238	0x3e3fc7d9	0.1872858
239	0xbdaa749d	-0.083230235
240	0xbca0a8d6	-0.019611757
241	0xbe448566	-0.19191512
242	0x3e6ba59f	0.23012398
243	0x3f21cf45	0.63206893
244	0xbd2e0e6a	-0.042494215
245	0xbdf91d64	-0.12163809
246	0xbd5b1b0e	-0.0534926
247	0x3cac089b	0.021000197
248	0x3f5c0d5f	0.859579
249	0x3f280828	0.65637445
250	0xbe3eaa62	-0.18619683
251	0x3d9c89d5	0.07643477
252	0x3f21bafb	0.63175935
253	0xbcd04e0c	-0.02542784
254	0xbd5366a4	-0.051611558
255	0xbdb4825c	-0.088139266

layer_3.weight f4 [1, 300]
0	0x3cea29f3	0.028584456
1	0x3a7f1cf6	0.00097317935
2	0xbb782657	-0.003786465
3	0xbe0dd68b	-0.13851373
4	0x3ae9ed8e	0.0017847286
5	0xbda6554f	-0.0812174
6	0x3ce0fd31	0.027464481
7	0x3ceed32f	0.029153435
8	0x3ad12dad	0.0015959047
9	0x3cdf67bd	0.027271146
10	0xbe954263	-0.29152212
11	0xbc598c9e	-0.013278155
12	0xbec375d0	-0.3817582
13	0xbd4c9177	-0.049943414
14	0xbcefe923	-0.029285973
15	0xbec06cd4	-0.3758303
16	0x3e356bfc	0.17716974
17	0xbbafc5eb	-0.00536417
18	0x3c307451	0.0107699195
19	0x3bf7b767	0.007559705
20	0xbf9a3de0	-1.2050133
21	0x3c9a1a86	0.018811475
22	0x3c348546	0.011018103
23	0xbca3f665	-0.020014951
24	0x3e43e5d9	0.19130649
25	0xbcdfea39	-0.027333366
26	0xbdd7e216	-0.10541169
27	0xbe23248c	-0.1593191
28	0xb7b00c6e	-2.0986623e-05
29	0xbc99c774	-0.018771864
30	0x3f08da92	0.5345851
31	0xbc7f5c2f	-0.015585943
32	0xbd9d78e4	-0.07689074
33	0xbcde726e	-0.027154174
34	0x3e518b1a	0.2046322
35	0xbe4d3070	-0.20038009
36	0x3e889f6d	0.26684132
37	0xb94c810d	-0.00019503031
38	0x3bc5bec1	0.0060347025
39	0x3ec0a94b	0.3762916
40	0x3e3b613e	0.18298814
41	0x3e8c4a44	0.2740041
42	0xbf01e612	-0.50741684
43	0x3c21de62	0.00987968
44	0xba93cdf0	-0.0011276584
45	0xbcda7f75	-0.026672104
46	0xbadf4388	-0.0017033676
47	0xbcdd58b4	-0.027019836
48	0xbc9e0dfb	-0.019293776
49	0xbd165a1c	-0.03670703
50	0xbc1eb4a2	-0.009686621
51	0xbcfc9dac	-0.030836903
52	0x3c84cdab	0.016211351
53	0x3c7b3725	0.015332972
54	0xbe073c63	-0.1320663
55	0xbc880238	-0.01660262
56	0x3e49bc31	0.19700696
57	0xbb8f916b	-0.004381349
58	0x3ca61070	0.02027151
59	0xbc21108c	-0.009830605
60	0xbd35be73	-0.04437108
61	0x3e98a6c8	0.29814744
62	0xbf3525b7	-0.70760673
63	0x3cbd91f1	0.02314088
64	0x3c131c04	0.008978847
65	0x3b90c40c	0.004417902
66	0xbcb60190	-0.022217542
67	0xbcfd6af3	-0.030934786
68	0x3abe063f	0.0014497711
69	0x3d5f1641	0.054464582
70	0xbb4d4919	-0.0031324087
71	0xbd864963	-0.06556966
72	0x3e2188bc	0.15774816
73	0xbc242dd2	-0.01002069
74	0xbc8adb8d	-0.016950393
75	0xbec5ef61	-0.38659194
76	0x3b8e97c8	0.00435159
77	0x3e2ba24a	0.16761127
78	0xbea57628	-0.3231671
79	0x3bc70b78	0.006074365
80	0xbcc8f3a5	-0.024530241
81	0xbd5f773b	-0.054557066
82	0x3c00eb2a	0.0078685675
83	0x3c7745c2	0.015092315
84	0x3dd4a946	0.10383849
85	0xbdf42b6c	-0.119223446
86	0x3b8106c1	0.0039375727
87	0xba09e1b0	-0.00052597653
88	0x3bb15512	0.0054117525
89	0xbc929f64	-0.017898269
90	0xbdcd440f	-0.10022747
91	0x3cca65e7	0.024706794
92	0x3ecaa9f4	0.3958279
93	0x3ce88490	0.028383523
94	0x3c8f9aa6	0.017529797
95	0xbc38e4ad	-0.011284989
96	0xbc744439	-0.014908844
97	0x3cbb14f4	0.02283714
98	0xbc2d0258	-0.010559641
99	0xbe600f7e	-0.2188091
100	0x3cf68d35	0.03009663
101	0xbc200eaf	-0.009769126
102	0x3b98da9c	0.004664732
103	0x3c83e70d	0.016101385
104	0xbcbbb6ea	-0.022914369
105	0x3cd7ed60	0.026358306
106	0xbcf43326	-0.029809546
107	0x3c720748	0.014772244
108	0x3ebb82c5	0.36623207
109	0xbea8518f	-0.32874724
110	0xbe11e0a0	-0.14245844
111	0xbd819367	-0.06326943
112	0xbafb0094	-0.0019149953
113	0x3e08fcfc	0.13377756
114	0xbdb4ad14	-0.088220745
115	0x3ed539a2	0.41645533
116	0xbe087df9	-0.13329305
117	0x3e888272	0.26662022
118	0x3cb17fe9	0.021667438
119	0x3dea3df6	0.11437599
120	0xbcea1901	-0.028576376
121	0x3ce4707e	0.027885672
122	0xbccd2800	-0.025043488
123	0x3b447011	0.0029974023
124	0xbb653e7b	-0.0034979868
125	0xba6cc5cd	-0.000903216
126	0xbc7f65a5	-0.015588199
127	0x39325e5d	0.00017010556
128	0x3c35938c	0.011082541
129	0xbe75dfcf	-0.24011157
130	0x3cf12968	0.02943869
131	0x3e99a28c	0.30006826
132	0xbcc1e9e4	-0.023671098
133	0xbe551136	-0.20807347
134	0x3bb35689	0.0054729623
135	0x3c0c85e7	0.008576847
136	0x3dde6f9a	0.1086113
137	0x3c70bdb2	0.014693664
138	0xbde099c4	-0.109668285
139	0x3ea77900	0.32709503
140	0xbca296b3	-0.01984725
141	0xbc0a1c66	-0.008429622
142	0xbb94ae0b	-0.004537349
143	0xbc0cc925	-0.0085928785
144	0xbe271f77	-0.16320597
145	0xbbfcd785	-0.0077161216
146	0xbe4e1dcd	-0.20128556
147	0x3e24a1bd	0.16077323
148	0xbdc1e1c1	-0.09466887
149	0x3ca5b38a	0.020227212
150	0xbc5082e5	-0.01272652
151	0xbcd26d99	-0.025687026
152	0xbcb2c705	-0.021823416
153	0x3b0d7d6e	0.0021589654
154	0xbc2b419b	-0.010452653
155	0x3cdaa148	0.026688233
156	0x3cbc837f	0.023011921
157	0x3cefed41	0.029287936
158	0xbbe8b187	-0.007101241
159	0xbb45ccfc	-0.0030181995
160	0x3b11cc38	0.0022246968
161	0xbca6699b	-0.020314028
162	0xbd610b32	-0.054942317
163	0x3e0ae9d6	0.13565764
164	0xbf1b506c	-0.6066959
165	0x3ea73231	0.3265548
166	0xbc70b29b	-0.01469102
167	0x3b7aa988	0.003824802
168	0xbd0088e7	-0.03138056
169	0xbd733a45	-0.059381742
170	0xbe17d5c1	-0.14827634
171	0x3c4c083d	0.012453136
172	0xbe7bf873	-0.24606495
173	0xbc73b99d	-0.014875797
174	0xbe30f5f7	-0.17281328
175	0xbc512312	-0.012764709
176	0x3e8bf0d0	0.27332163
177	0x3c4aafaf	0.012370988
178	0x3c96e9f6	0.018422108
179	0x3e05e21b	0.13074534
180	0xbc12a5fd	-0.0089507075
181	0xbcc26b50	-0.023732811
182	0x3edf2b77	0.4358785
183	0x39e2c472	0.00043252442
184	0xbdb2ba07	-0.08726888
185	0x3e649e84	0.22326094
186	0xbd005001	-0.031326298
187	0xbe87ac9f	-0.26498887
188	0xba941119	-0.0011296599
189	0xbe6e5b34	-0.23276979
190	0xbca9804b	-0.020691058
191	0xbc50d4a1	-0.012746007
192	0xbc40dbeb	-0.0117711825
193	0xbb562c88	-0.0032680351
194	0xbe19d5f5	-0.15023024
195	0xbdab13a3	-0.08353355
196	0x3bdadd9c	0.00667925
197	0xbe3780e1	-0.17920257
198	0x3e418663	0.1889892
199	0xbdc8bf68	-0.09802133
200	0x3e24f05e	0.16107318
201	0x3c5e42bf	0.013565718
202	0x3e6eec15	0.23332246
203	0xbe78fc7a	-0.24315062
204	0xbf0bd25c	-0.5461786
205	0xbc955fc3	-0.01823414
206	0xbe0ec176	-0.13940987
207	0x3b2a5f4c	0.0025996743
208	0x3c4bdc69	0.012442687
209	0xbe7bc1d7	-0.24585663
210	0x3a98e18a	0.0011663896
211	0xbc3a72b4	-0.011379886
212	0x3c475bc9	0.012167879
213	0xbb03c00b	-0.002010348
214	0xbcc35355	-0.023843447
215	0xbba7e2cd	-0.0051234723
216	0x3bc6b469	0.006063987
217	0x3e856e19	0.2606056
218	0xba23f42e	-0.0006254342
219	0xbd641b62	-0.055690177
220	0x3bfacd35	0.007653857
221	0xb95deaab	-0.00021163623
222	0x3e3f619c	0.18689579
223	0x3c0d91de	0.0086407345
224	0xbe339caa	-0.17540231
225	0x3edc773b	0.43059716
226	0x3e6880ae	0.22705337
227	0x3caca7a2	0.021076027
228	0xbcf5367e	-0.02993321
229	0xb7ea685e	-2.7943574e-05
230	0xbe75da6f	-0.24009107
231	0x3e54e824	0.2079168
232	0xbaf0aef2	-0.0018362685
233	0x3e153667	0.14571534
234	0x3b6e9e98	0.0036410447
235	0xbeceb59a	-0.40372926
236	0x3bc60118	0.006042611
237	0x3e3238d2	0.17404488
238	0x3ec313a8	0.38100934
239	0xbc56e135	-0.013115217
240	0x3ceccddd	0.028906757
241	0xbdb6ab2a	-0.08919366
242	0xbe576cec	-0.21037644
243	0x3e6dac5e	0.23210284
244	0xbbf0d393	-0.0073494404
245	0xbab6de4c	-0.0013951748
246	0x3cea4372	0.028596614
247	0x3b3290ff	0.002724707
248	0x3dd0b535	0.101908125
249	0x3f01cbb4	0.5070145
250	0x3e156f16	0.14593157
251	0x3e5a6356	0.21326956
252	0x3ee23c25	0.44186512
253	0xbda5a9f0	-0.08089054
254	0x3cf964ad	0.030443514
255	0xbb4027bf	-0.0029320566
