models/all_td3/TD3_TradingEnv7_robust_deep_51_100_critic_2.pth (torch, 590319 bytes, 7 tensors)

layer_1.weight f4 [350, 60]
-1.0879143 0.41691574 -1.3044271 -1.0995178 0.2081609 -0.47376585 0.57965904 4.4713573
-0.318885 -1.2965322 0.059426587 -1.3612583 -1.4390928 0.9061576 -0.06959449 0.3237987
0.10686596 -0.14174858 -1.281899 -0.2114783 -1.1632326 -1.3795598 -2.0265813 0.3901623
0.3866438 -8.244235 -0.011367572 -1.276694 0.22293422 -1.1342007 -1.2718775 0.110040866
-0.13136303 0.2622028 2.994192 0.06839835 -1.1776224 0.194314 -1.2192149 -1.067295
0.080579646 0.40061843 0.7674387 2.1488912 0.065171696 3.5695243 0.5888492 0.26761645
0.86950684 0.15055914 0.07978408 0.028356373 0.09566024 -0.027296707 2.014996 -4.9963303
-0.65049046 -0.02309558 0.7449363 3.4999304 0.4926813 -0.14922355 0.40641466 0.3827391
0.13317819 -0.17999674 0.23729007 0.76291317 -0.32550249 0.3149458 -0.6521512 0.13933192
0.21964279 0.16375853 -0.17140605 -0.05546253 0.43870246 0.19021577 0.47092047 -0.43778956
0.25591683 0.36113822 -0.048038475 1.2493771 -0.02194654 -0.72474843 -0.36454684 0.24126357
-0.20232588 0.26384386 0.14024496 0.3348322 0.014151262 -0.3607867 -0.6970874 -0.5740082
0.55214953 -0.23218524 0.31740245 0.5322824 0.1860983 0.0966666 -0.03973126 -0.84682846
-0.42362806 -1.2922778 -0.4183804 -0.31461716 0.16178282 0.1414662 -0.05260992 0.04351248
0.083381236 -0.032086626 -0.4407699 -0.011426462 -0.011810946 -0.63854486 -1.519806 0.5352724
0.6395113 -0.16579181 0.6258522 0.6076413 0.16092882 -0.27820104 0.09264961 0.07417487
-0.08822608 0.55733395 0.055595625 0.3815375 0.6549191 -0.5079719 0.11642938 -0.027825233
0.79912746 -0.124716416 0.46320248 0.15606551 0.4008507 0.4953455 0.1364126 -0.043285143
0.20333384 0.46709305 0.040056333 0.3995306 -0.1731507 0.24988714 0.36350793 0.04352187
-0.44579652 0.35147825 0.8004484 0.09840068 0.4357176 -0.46026865 0.43456215 0.3893954
-0.33028933 0.025326777 -0.37153694 0.036981996 -0.09881368 -2.3088963 0.26530442 -0.37638605
-1.6697168 0.13690658 -0.059333503 -0.041635968 0.024442255 -0.10227119 -0.7794191 -1.0947428
0.37214768 -0.2969792 -0.55002844 -0.3824522 -0.36415 0.5941255 -0.18188043 -0.3192889
-0.12573212 0.2977157 1.2121043 1.8156871 0.4221611 -1.5920317 0.5785128 -1.4035406
-1.4399745 0.2654598 0.4410185 0.053328555 3.188992 0.030758156 -0.5664803 0.03528181
-0.72940636 -0.4792576 0.09568246 -0.33586136 -0.10259575 -2.3107634 0.17113228 -0.98251706
0.3418478 -0.8093497 -0.94460136 -1.2085426 0.15920883 1.4191746 -0.72824574 -0.21781537
-0.5845269 0.60577637 -0.44709033 -0.4072198 -0.6339472 -0.07248595 0.2431357 0.90639853
0.14639416 3.0249658 1.9632206 1.2051983 0.18352143 0.11157226 0.032142848 0.10373095
-0.05104308 0.046194777 0.94830203 1.1256539 2.6352293 1.5774119 0.08010383 -1.4230063
-0.83284587 -0.7330047 -0.5934997 -0.92603165 1.2842638 -0.07305184 0.055144656 -0.9003356
0.037438836 -0.37492585 -0.10089232 -0.41150308 -0.3577346 -0.030537516 0.047218323 -0.010107253
00000000: c740 8bbf fb75 d53e 78f7 a6bf 00bd 8cbf
00000010: 2228 553e 7091 f2be 8964 143f 5c15 8f40
00000020: e544 a3be c4f4 a5bf 4b69 733d b63d aebf
00000030: 3134 b8bf f2f9 673f 8e87 8ebd f1c8 a53e
00000040: 8adc da3d 8a26 11be 4415 a4bf c48d 58be
00000050: cee4 94bf 6a95 b0bf 82b3 01c0 5ac3 c73e
00000060: 2df6 c53e 63e8 03c1 0d3f 3abc b66a a3bf
00000070: de48 643e 7d2d 91bf e2cc a2bf 1b5d e13d
00000080: 0884 06be 723f 863e d7a0 3f40 6f14 8c3d
00000090: 55bc 96bf 40fa 463e 3c0f 9cbf 1f9d 88bf
000000a0: f106 a53d dc1d cd3e dd76 443f 6f87 0940
000000b0: bd78 853d 1673 6440 d2be 163f 0605 893e
000000c0: 0098 5e3f 2d2c 1a3e d665 a33d a04b e83c
000000d0: 84e9 c33d 589d dfbc b2f5 0040 f0e1 9fc0
000000e0: 8b86 26bf f132 bdbc 25b4 3e3f dcfe 5f40
000000f0: b940 fc3e 0fce 18be 9515 d03e 61f6 c33e
00000100: dd5f 083e 1151 38be 2bfc 723e 474e 433f
00000110: 43a8 a6be 9340 a13e 62f3 26bf 07ad 0e3e
00000120: 0aea 603e 51b0 273e 1185 2fbe ae2c 63bd
00000130: 9c9d e03e ecc7 423e 7d1c f13e f425 e0be
00000140: 8807 833e 1ce7 b83e fec3 44bd 97eb 9f3f
00000150: 3bc9 b3bc 1d89 39bf e2a5 babe cc0d 773e
00000160: 842e 4fbe 8b16 873e 609c 0f3e 206f ab3e
00000170: b2da 673c 09b9 b8be 5274 32bf 34f2 12bf
00000180: ac59 0d3f f8c1 6dbe 9382 a23e a943 083f
00000190: 8e90 3e3e 23f9 c53d 3fbd 22bd c0c9 58bf
000001a0: c7e5 d8be 5c69 a5bf f535 d6be 8015 a1be
000001b0: 65aa 253e 84dc 103e 807d 57bd 243a 323d
000001c0: c8c3 aa3d 446d 03bd 98ac e1be 0e36 3bbc
000001d0: b382 41bc ad77 23bf 0189 c2bf 9d07 093f
000001e0: 03b7 233f 54c5 29be da37 203f 618e 1b3f
000001f0: 86ca 243e 5e70 8ebe 14bf bd3d ffe8 973d
00000200: e0af b4bd 70ad 0e3f 3db8 633d e258 c33e
00000210: c7a8 273f 720a 02bf 8772 ee3d bef1 e3bc
00000220: 9e93 4c3f 526b ffbd e028 ed3e a3cf 1f3e
00000230: 4e3c cd3e ed9d fd3e bfaf 0b3e c34b 31bd
00000240: bf36 503e d226 ef3e 1c12 243d 468f cc3e
00000250: 6b4e 31be 6ae2 7f3e b61d ba3e fd43 323d
00000260: 713f e4be f5f4 b33e 30ea 4c3f 4c86 c93d
00000270: 6116 df3e 55a8 ebbe ee7e de3e d55e c73e
00000280: af1b a9be 1a7a cf3c 173a bebe 6f7a 173d
00000290: d45e cabd f5c4 13c0 fbd5 873e acb5 c0be
000002a0: 48b9 d5bf 3d31 0c3e b007 73bd 7a8a 2abd
000002b0: 203b c83c 8f73 d1bd 0388 47bf 8820 8cbf
000002c0: 248a be3e a80d 98be aace 0cbf c6d0 c3be
000002d0: de71 babe 9c18 183f dd3e 3abe d679 a3be
000002e0: ecbf 00be 316e 983e 3c26 9b3f 6f68 e83f
000002f0: 8025 d83e b2c7 cbbf 6a19 143f 38a7 b3bf
00000300: 1651 b8bf 59ea 873e 2dcd e13e 0b6f 5a3d
00000310: 7218 4c40 87f8 fb3c da04 11bf a983 103d
00000320: 60ba 3abf 4161 f5be 2af5 c33d 05f6 abbe
00000330: b81d d2bd 8ce3 13c0 4d3d 2f3e 3d86 7bbf
00000340: ad06 af3e 8b31 4fbf 65d1 71bf 86b1 9abf
00000350: a407 233e 83a7 b53f 506e 3abf fe0a 5fbe
00000360: 8ea3 15bf 2914 1b3f 06e9 e4be 1d7f d0be
00000370: 5d4a 22bf 8473 94bd 91f8 783e bc09 683f
00000380: 5ae8 153e 0a99 4140 d04a fb3f f043 9a3f
00000390: 0bed 3b3e ff7f e43d 38a8 033d e470 d43d
000003a0: 8c12 51bd bc36 3d3d ecc3 723f 6d15 903f
000003b0: 99a7 2840 a2e8 c93f 7a0d a43d 1225 b6bf
000003c0: 6335 55bf 32a6 3bbf 99ef 17bf 6910 6dbf
000003d0: c262 a43f 349c 95bd 5ddf 613d 657c 66bf
000003e0: 7759 193d 48f6 bfbe a2a0 cebd 88b0 d2be
000003f0: fd28 b7be d029 fabc 0068 413d e498 25bc

layer_1.bias f4 [350]
-0.7677081 -0.1170362 -0.021919116 0.34335876 -0.70970833 -1.193015 -0.9146535 -0.021288631
0.6652517 -0.4558135 -0.32093382 -1.191175 0.09822369 -1.1371348 -0.9661229 0.969393
1.6087949 -0.10619637 -0.70821714 0.1496081 0.5891228 -0.73245615 -0.15182234 -0.3494527
0.70343304 -0.16621779 -0.68978626 0.09506296 -1.1294721 -0.9159056 -0.5498639 0.31262714
-0.11524201 -1.0497652 -0.95116585 0.2333935 0.25121084 -0.5940379 -0.6986482 -0.35666162
-0.8876755 0.96059847 -0.2775107 -0.07857898 -0.32472652 -0.4198567 0.018203182 0.13547966
0.13215312 -0.7753673 -1.7741839 -1.2445368 -0.40837288 0.30858332 -0.2699109 0.6554098
-0.04925846 0.2983817 0.42770264 -0.94059116 -0.34708568 -0.15229732 -0.833342 1.4887819
0.19349656 0.113410145 0.1430974 -0.3637268 0.7635063 0.17087762 -0.86289215 -0.4092436
1.6609595 0.32109475 -0.15981436 0.06756714 0.1394943 -0.02153493 -0.43563765 1.0457529
-0.8104751 -0.5963746 0.707124 0.27008834 -0.085248366 0.4068088 -0.56520456 -1.1876662
-0.7679109 1.7230821 1.5841596 -1.3062615 0.394065 -0.76539826 -0.49325922 -0.91757685
-0.5485789 -0.365188 -0.6896579 -1.6891216 -0.58186454 -0.56632966 -0.11074132 -1.3421149
-0.62042415 -0.34386235 -0.7015579 1.5229173 -1.1188278 -1.177655 -0.6794661 0.21029988
0.44462526 -0.38249403 -0.5380077 -0.31360114 -0.6283827 -0.5724826 -0.25366324 0.11053673
0.66408044 1.7647123 -1.6014142 -0.38644227 -0.5925576 -0.6224555 -0.29786044 0.24571809
-1.4214238 -0.109911405 -0.36557955 -0.023054307 -0.054497957 -0.25910866 -0.25598624 -0.89856803
-0.9663935 -0.46469858 -0.16664329 -0.6686954 -0.1823882 -1.1576688 0.45794713 -0.8165058
-0.3601429 -0.22308657 1.2897809 -0.47457576 -1.390732 -0.9775491 -0.038528882 1.0545251
-0.40435636 0.35431197 -0.09331286 -0.47431868 -0.7827488 -0.91526324 0.97476625 1.6082737
0.1383295 -0.227719 -0.8989514 -0.641613 -0.041229747 -0.11336091 -0.54030687 0.87330157
-0.9994675 -0.12758918 -0.68655515 0.22657432 0.31869307 -2.0131836 -0.6872074 0.60684717
-0.4705391 0.416991 0.545527 -0.69978315 -1.0071584 -0.5185036 0.50832987 -0.506269
0.22871353 0.23270312 0.9003665 -0.054176886 -0.6509024 1.0832944 -0.38158464 -1.3713117
-0.36142522 0.39485374 -1.6765605 -0.4589475 -0.3025799 -0.49941933 -1.316577 -0.2267857
1.0226552 -0.17753215 1.1910095 -0.14432243 -0.5474533 0.0046202247 -0.23041081 -1.3440948
-0.6973614 -0.6011639 0.6393866 -0.32237276 -0.07168061 -0.06657496 -0.917193 -0.26914427
1.4666932 -0.14455022 0.08690582 0.9408205 -0.89177847 0.24818441 -0.12556008 -0.30897084
-0.37591618 -0.9373417 -0.0841767 1.3342819 -0.20526077 -0.997208 -1.2729647 -0.74131304
-1.4908987 -1.0807081 0.40731004 -0.34419155 -0.4258196 -0.63335186 -0.6330133 -0.3298896
-0.38255215 -1.6145469 -0.9169638 -0.017654687 0.93532485 -0.39894065 -0.8310796 -0.5910581
-0.019356785 0.43486136 -0.61034614 1.0723702 0.14649571 0.05366494 -0.3644238 -0.4541442
00000000: 8588 44bf adb0 efbd b88f b3bc b8cc af3e
00000010: 72af 35bf b7b4 98bf bb26 6abf 7f65 aebc
00000020: ef4d 2a3f 6360 e9be 7051 a4be 6c78 98bf
00000030: 8129 c93d a28d 91bf d553 77bf 242a 783f
00000040: feec cd3f 7c7d d9bd b84d 35bf de32 193e
00000050: c0d0 163f 3f82 3bbf 5177 1bbe 77eb b2be
00000060: 3014 343f ff34 2abe d595 30bf 5fb0 c23d
00000070: 8b92 90bf ca78 6abf e1c3 0cbf aa10 a03e
00000080: 0104 ecbd b55e 86bf 9b7f 73bf b5fe 6e3e
00000090: b59e 803e de12 18bf 9cda 32bf 5a9c b6be
000000a0: b43e 63bf c8e9 753f e215 8ebe 04ee a0bd
000000b0: 8e42 a6be 75f7 d6be d71e 953c 2ebb 0a3e
000000c0: 2653 073e 797e 46bf 7518 e3bf fb4c 9fbf
000000d0: 4016 d1be a2fe 9d3e c331 8abe f0c8 273f
000000e0: 3dc3 49bd 7cc5 983e d7fb da3e 95ca 70bf
000000f0: 37b5 b1be d4f3 1bbe e755 55bf 6890 be3f
00000100: f623 463e 9443 e83d 2088 123e 663a babe
00000110: 2675 433f 8bfa 2e3e 80e6 5cbf 6188 d1be
00000120: 529a d43f 8866 a43e 60a6 23be a460 8a3d
00000130: 98d7 0e3e 066a b0bc e60b dfbe 3bdb 853f
00000140: 4c7b 4fbf 01ac 18bf 1406 353f 0549 8a3e
00000150: b296 aebd 3e49 d03e 3fb1 10bf 7205 98bf
00000160: cf95 44bf f48d dc3f bec5 ca3f 9433 a7bf
00000170: e3c2 c93e 24f1 43bf 798c fcbe 51e6 6abf
00000180: ab6f 0cbf ecf9 babe 6c8d 30bf 2335 d8bf
00000190: 13f5 14bf fbfa 10bf 58cc e2bd 6cca abbf
000001a0: 1ed4 1ebf ba0e b0be 4c99 33bf f4ee c23f
000001b0: c035 8fbf 66bd 96bf 7ef1 2dbf da58 573e
000001c0: eca5 e33e 42d6 c3be dfba 09bf 5490 a0be
000001d0: b0dd 20bf 388e 12bf 26e0 81be 1561 e23d
000001e0: 2d01 2a3f 18e2 e13f 24fb ccbf c3db c5be
000001f0: dbb1 17bf 3e59 1fbf 2a81 98be 869d 7b3e
00000200: 37f1 b5bf 3b19 e1bd 3e2d bbbe 63dc bcbc
00000210: 4039 5fbd e4a9 84be a110 83be 8e08 66bf
00000220: 9065 77bf f9ec edbe 8aa4 2abe 9f2f 2bbf
00000230: f9c3 3abe 7e2e 94bf 0c78 ea3e 8606 51bf
00000240: a664 b8be ce70 64be 8a17 a53f 98fb f2be
00000250: 8203 b2bf a840 7abf 76d0 1dbd aefa 863f
00000260: cc07 cfbe 6168 b53e d01a bfbd e6d9 f2be
00000270: 3a62 48bf b14e 6abf 488a 793f eadb cd3f
00000280: 40a6 0d3e 2b2f 69be ae21 66bf c040 24bf
00000290: 86e0 28bd c429 e8bd 8d51 0abf b190 5f3f
000002a0: 1add 7fbf bda6 02be 14c2 2fbf 1903 683e
000002b0: bd2b a33e 00d8 00c0 d3ec 2fbf 565a 1b3f
000002c0: 80ea f0be d87f d53e a8a7 0b3f fd24 33bf
000002d0: 91ea 80bf a7bc 04bf e821 023f d89a 01bf
000002e0: e133 6a3e ba49 6e3e 6b7e 663f 95e8 5dbd
000002f0: 8aa1 26bf 64a9 8a3f 105f c3be 2487 afbf
00000300: ba0c b9be 452a ca3e 8999 d6bf 2bfb eabe
00000310: c1eb 9abe e4b3 ffbe 9885 a8bf 833a 68be
00000320: 5ee6 823f fdca 35be 0073 983f 42c9 13be
00000330: e625 0cbf 4165 973b d0f0 6bbe 4c0b acbf
00000340: 4786 32bf e1e5 19bf d7ae 233f 0b0e a5be
00000350: 49cd 92bd 7458 88bd 29cd 6abf 47cd 89be
00000360: 9abc bb3f f904 14be aefb b13d 9dd9 703f
00000370: 984b 64bf 0e24 7e3e d292 00be 6d31 9ebe
00000380: 1678 c0be a0f5 6fbf d564 acbd c0c9 aa3f
00000390: e12f 52be 0649 7fbf 82f0 a2bf b1c6 3dbf
000003a0: c5d5 bebf a554 8abf f18a d03e e039 b0be
000003b0: 0705 dabe 5923 22bf 290d 22bf 4ae7 a8be
000003c0: e0dd c3be 79a9 cebf 24be 6abf 90a0 90bc
000003d0: 7371 6f3f f341 ccbe a2c1 54bf 954f 17bf
000003e0: 1f92 9ebc 26a6 de3e a53f 1cbf 6d43 893f
000003f0: f902 163e c5cf 5b3d c295 babe 9785 e8be

layer_2.weight f4 [250, 350]
-0.3488719 -0.07412872 -1.2935766 0.746303 0.5280401 0.27033576 0.12345161 -0.4421256
-0.2057865 -0.48996478 -2.182833 -0.0139093 0.11535872 -2.3629515 -1.7711895 1.3093525
0.02797638 0.3594843 -0.31256798 0.51105446 0.26955727 0.16103967 0.74904954 -0.44927338
-0.07222731 -0.4952412 -1.134417 0.46650162 -0.0007273676 -0.15325707 -1.2542326 -0.33743888
-0.6001156 -0.5168009 -0.22481409 0.69505715 0.91688734 -0.07990989 -0.31516922 -0.9326179
-1.349767 0.5541065 -0.22818226 0.22468443 0.0023244168 1.0648937 0.18024217 0.35603765
-1.0978767 0.8686706 0.5946576 -0.21124291 -3.8880758 0.12972967 0.061438605 -0.9277271
0.041690446 -1.2625716 -0.18258508 -0.27967972 -0.64778984 -0.32007784 0.12837084 0.8807975
0.23351094 -0.21105972 0.46290946 -0.10783549 1.4074459 -2.4188955 -0.63284516 0.21363029
-0.084372446 1.3750039 0.04714207 0.1656277 0.29885483 0.12955247 -0.72295845 0.72241646
-1.6019269 -0.34052756 -0.7229884 0.291646 -0.21953198 0.052763224 0.16645329 -0.27729753
-1.3253472 0.3011425 -0.9457942 -1.9637355 -1.2427593 -0.37664625 0.29221788 -0.81114095
-0.2969393 -0.28101376 -1.7593594 -0.28795043 -0.17468409 0.25774053 -0.14797303 0.095682785
-0.41224423 0.38427168 -1.0662426 -0.20667738 -0.10610996 -1.0494177 -0.065559156 0.11984164
-0.06345095 -1.2508557 1.1124663 0.007644409 -0.34275484 -1.0188313 -0.057715636 0.5693112
0.24337794 0.10387368 0.0656396 -1.472885 -0.3722296 -0.49602398 0.15664653 0.32099977
0.9952827 0.20171759 -0.4058063 0.03854311 0.1591887 0.14084262 0.27219695 -0.9231301
-0.2320771 0.055927165 -0.08190983 -1.2338706 -0.17307481 -1.7147728 0.10245764 1.084339
-0.02844142 1.2973366 0.19298004 0.27951074 0.083568424 -0.7674573 -0.059119314 0.7102645
-1.0087262 -1.2260383 0.23829181 1.1753315 -0.868958 0.683036 0.98647493 0.5297603
-0.40823543 1.9320081 -3.1315792 0.002449912 0.049897116 2.7787445 -1.4123706 -1.0083177
-0.21540518 0.3459139 -0.07455357 0.098302506 -0.040886596 0.082355194 -1.1023713 0.03198756
0.28046367 0.5725353 -2.0204704 0.45993772 0.09236388 0.6209693 0.4221553 -0.00894048
-0.14693551 -0.1871933 0.6481024 0.13072652 0.52696043 -0.42689368 0.37735337 -0.48652163
0.18221034 0.14333613 -0.30295846 -0.096626766 -2.2222404 -0.5752852 -0.02022763 0.50747365
-0.3555128 0.34967038 -0.4514927 -0.39705703 -0.5303385 -0.11268634 -0.029747745 -0.4515197
0.6885103 -0.7667045 -0.44365704 -0.68293166 0.1424248 -0.8945909 -0.2872441 -2.4731226
0.37059176 0.1793257 0.49976268 0.01139251 0.43035194 0.191594 -0.4975314 0.20333913
-1.0229381 -1.1184988 -0.3554838 0.61269593 -0.8782735 -0.077580504 0.41402543 -0.0063195224
0.30893803 0.9069129 -0.19902466 -0.67499757 -0.7948875 -0.71292216 -1.5941808 -0.28635788
-0.6738291 -1.3261915 -0.028946625 0.122850545 0.38923994 0.85242885 -0.2395869 -0.2973733
-0.6719257 1.0324062 -1.2360249 -0.17304392 0.5026648 -0.30384144 0.32114184 -0.6281857
00000000: 569f b2be ccd0 97bd eb93 a5bf b70d 3f3f
00000010: a32d 073f 7369 8a3e 33d4 fc3d 495e e2be
00000020: b2b9 52be aadc fabe 89b3 0bc0 d5e3 63bc
00000030: 3141 ec3d 993a 17c0 56b6 e2bf dd98 a73f
00000040: b92e e53c 530e b83e e908 a0be 77d4 023f
00000050: 6903 8a3e 95e7 243e b6c1 3f3f 2907 e6be
00000060: e9eb 93bd 4190 fdbe 9434 91bf 4dd9 ee3e
00000070: d0ac 3eba 6cef 1cbe b28a a0bf cac4 acbe
00000080: 2da1 19bf 104d 04bf aa35 66be 44ef 313f
00000090: 21b9 6a3f cca7 a3bd dc5d a1be 0cc0 6ebf
000000a0: 2ac5 acbf ecd9 0d3f 9ca8 69be ad13 663e
000000b0: 3e55 183b 704e 883f 6791 383e 914a b63e
000000c0: 3987 8cbf 3261 5e3f 7b3b 183f 1050 58be
000000d0: 3cd6 78c0 dbd7 043e 0ca7 7b3d 867f 6dbf
000000e0: 9ac3 2a3d f29b a1bf 95f7 3abe 2e32 8fbe
000000f0: 8ed5 25bf 3ee1 a3be a573 033e f27b 613f
00000100: 7e1d 6f3e 0a20 58be 7802 ed3e dad8 dcbd
00000110: 3027 b43f 2fcf 1ac0 2402 22bf e6c1 5a3e
00000120: 76cb acbd 2100 b03f 0b18 413d 4f9a 293e
00000130: 8003 993e 67a9 043e ce13 39bf 49f0 383f
00000140: f10b cdbf a159 aebe c515 39bf a052 953e
00000150: fecc 60be 401e 583d bb72 2a3e f1f9 8dbe
00000160: faa4 a9bf 5a2f 9a3e 921f 72bf af5b fbbf
00000170: bd12 9fbf c7d7 c0be 959d 953e efa6 4fbf
00000180: 6e08 98be 09e1 8fbe b032 e1bf 3d6e 93be
00000190: 63e0 32be 91f6 833e 3e86 17be 56f5 c33d
000001a0: ad11 d3be 42bf c43e a37a 88bf 3ca3 53be
000001b0: 2e50 d9bd 5253 86bf e143 86bd 896f f53d
000001c0: 92f2 81bd 0a1c a0bf 4c65 8e3f f37d fa3b
000001d0: 907d afbe 1069 82bf 3b67 6cbd 61be 113f
000001e0: 1138 793e b9bb d43d 0e6e 863d 7f87 bcbf
000001f0: e194 bebe dbf6 fdbe f367 203e 155a a43e
00000200: d9ca 7e3f 0e8f 4e3e d8c5 cfbe 61df 1d3d
00000210: 5d02 233e 0c39 103e 665d 8b3e 4152 6cbf
00000220: 9fa5 6dbe e213 653d 57c0 a7bd 79ef 9dbf
00000230: 863a 31be ad7d dbbf 50d5 d13d 9fcb 8a3f
00000240: fbfd e8bc 200f a63f 8f9c 453e 081c 8f3e
00000250: ec25 ab3d 1578 44bf 1827 72bd e5d3 353f
00000260: f11d 81bf d3ee 9cbf c502 743e 4371 963f
00000270: 0874 5ebf 73db 2e3f 9f89 7c3f 5f9e 073f
00000280: 3c04 d1be 0b4c f73f cb6b 48c0 b48e 203b
00000290: eb60 4c3d f3d6 3140 8fc8 b4bf 8e10 81bf
000002a0: 2d93 5cbe a01b b13e 8baf 98bd d352 c93d
000002b0: b478 27bd d7a9 a83d 811a 8dbf 6305 033d
000002c0: ef98 8f3e ac91 123f 634f 01c0 f57c eb3e
000002d0: 4629 bd3d d8f7 1e3f bd24 d83e 177b 12bc
000002e0: 4376 16be 9aaf 3fbe 0aea 253f 2cdd 053e
000002f0: e1e6 063f cf91 dabe 7634 c13e 5d19 f9be
00000300: 5995 3a3e b5c6 123e 5f1d 9bbe 41e4 c5bd
00000310: 3039 0ec0 e445 13bf 6ab4 a5bc cbe9 013f
00000320: c605 b6be ff07 b33e 0d2a e7be 0f4b cbbe
00000330: 44c4 07bf 19c8 e6bd 8bb1 f3bc 972d e7be
00000340: 3642 303f bf46 44bf 0427 e3be 9cd4 2ebf
00000350: cfd7 113e e903 65bf a911 93be a447 1ec0
00000360: 34be bd3e 28a1 373e e5e0 ff3e a6a7 3a3c
00000370: 1757 dc3e 3831 443e 70bc febe 2238 503e
00000380: a3ef 82bf f82a 8fbf f901 b6be a4d9 1c3f
00000390: 88d6 60bf 87e2 9ebd 24fb d33e ff13 cfbb
000003a0: 202d 9e3e 722b 683f 1fcd 4bbe a4cc 2cbf
000003b0: bf7d 4bbf 1182 36bf 1e0e ccbf 809d 92be
000003c0: 1080 2cbf a5c0 a9bf 7921 edbc 1199 fb3d
000003d0: 754a c73e c738 5a3f 4556 75be 5041 98be
000003e0: 5303 2cbf e325 843f 1036 9ebf 6d32 31be
000003f0: a4ae 003f 1b91 9bbe b46c a43e c7d0 20bf

layer_2.bias f4 [250]
0.5923229 0.6585942 -0.0106089525 -0.030072859 0.0020019405 -0.058664504 -0.0138354 -0.10644967
-0.04198156 -0.07261166 -0.07709866 0.006409701 0.15712252 -0.11816985 0.3323601 -0.0458209
-0.7680573 0.40554044 -0.106310524 0.11713584 -0.029439095 -0.5281499 -0.57995284 -0.025798118
-0.07925322 -0.2536715 1.0540771 -0.02714781 2.0551643 -0.063391864 -0.04498427 -0.17300919
0.3631746 -0.027544612 1.0285499 0.016889762 -0.040949844 0.014516424 0.023723124 -0.03339169
0.8334981 -0.037771143 -0.59659845 -0.041355573 -0.15270407 -0.04534922 2.3641074 -0.08207673
-0.050795134 -0.034475483 -0.011299499 2.6839461 -0.013167243 -1.3502365 -0.059950877 -0.02247137
-0.044348612 -0.04319221 0.39597103 -0.2913204 1.0942829 2.3384273 -0.085176885 -0.19042373
-0.90374917 -0.09105794 -0.037174918 -0.045081913 -0.6152088 -0.07636956 -0.1629913 -1.5189155
-0.20650776 -0.27464613 -1.8870597 1.6582656 -0.0918044 -0.017298795 -0.071023226 -0.03802385
-0.07116203 -0.4133462 -0.041615054 -0.07182287 -0.07366277 0.11096697 -0.01152405 0.92208254
0.36829364 0.41940358 0.93143284 -0.004207258 0.17164029 0.02383423 -0.2468375 -0.6454552
-0.072527505 -0.030208696 -0.079907864 -0.02090208 0.8311034 -0.78765035 -0.07162253 0.45272845
-0.7407987 -0.05169332 -0.5018184 -0.119685255 -0.07389946 -0.14886437 -0.05709271 -0.075421184
-0.057682365 -0.087438285 0.016992431 0.007775114 -0.0012417774 -0.07130513 -0.058558352 -0.056512564
-0.9960677 0.48397517 -0.06905837 -0.82865614 -0.17902008 -0.25288787 -0.039578356 -0.01030531
-0.24079715 -0.08951705 -0.72918326 -0.03863951 -0.07026083 0.02065648 1.0968579 0.5543803
-0.0013499506 0.7822046 -0.31324825 0.7276447 -0.04890125 -0.06534739 -0.11262819 0.043801878
-0.018501552 -0.04426261 -0.9561367 -0.060272735 -0.3189063 -0.2977371 -0.65086925 0.014606242
-0.07043275 -0.05224762 -0.07039069 -0.028603362 -0.028392838 0.0029793961 -0.034147687 -0.06929819
-0.029758835 -0.030714849 -0.033120837 -0.113360815 -0.038166866 -0.88970435 -0.06675343 0.24656713
-0.004368162 0.08707001 0.9834505 0.786313 0.011745884 0.7572635 -0.057576854 -0.07135431
-0.26447487 -0.09810272 -0.11637258 -0.07733687 -0.080273286 -0.95680296 -1.1682441 -0.49698818
-0.052178513 0.52323484 0.7467406 0.14721113 -0.03424801 -0.07381648 -0.052862242 -0.1075869
-0.0050098533 -0.06832932 0.014314319 -0.009720189 -0.04824426 -0.07439247 -0.028388837 -0.019159583
-0.60353416 -0.08317085 -0.05391892 -0.03335307 0.7275685 -0.025830014 -0.084047444 0.21584629
1.3109186 -0.48892555 -0.09182209 1.277735 -0.041400842 0.008129275 -0.036055215 0.0029640025
0.69408983 0.0032266665 -0.008945645 -0.027947549 -0.040359918 -0.018533127 0.009462044 1.4064051
0.8701867 -0.0680465 0.71369684 0.37435198 -0.4148151 -0.7545007 -0.0710398 0.122196324
0.43836963 0.35057196 -0.061007652 0.07175775 -0.07670824 -0.048271578 -0.019853676 -0.08434826
-0.03089907 -0.019639015 -0.012667982 0.026464805 -0.32235965 -0.7909688 0.027923625 -0.08924501
0.9487214 -0.058857426
00000000: 79a2 173f a199 283f 2cd1 2dbc 5b5b f6bc
00000010: fd32 033b 314a 70bd e0ad 62bc 4902 dabd
00000020: dbf4 2bbd 6cb5 94bd e7e5 9dbd 7808 d23b
00000030: bae4 203e 0903 f2bd 1a2b aa3e b2ae 3bbd
00000040: 679f 44bf ffa2 cf3e 55b9 d9bd eae4 ef3d
00000050: 422a f1bc d534 07bf ca77 14bf 9356 d3bc
00000060: 834f a2bd 3be1 81be 00ec 863f 1665 debc
00000070: d087 0340 98d3 81bd 6d41 38bd 5229 31be
00000080: 05f2 b93e 3da5 e1bc 86a7 833f 665c 8a3c
00000090: 06bb 27bd 4cd6 6d3c ff56 c23c bac5 08bd
000000a0: 2260 553f eab5 1abd adba 18bf 7664 29bd
000000b0: 755e 1cbe 1bc0 39bd 894d 1740 d817 a8bd
000000c0: 8f0e 50bd 2a36 0dbd 8921 39bc c6c5 2b40
000000d0: 6cbb 57bc 8dd4 acbf 0d8f 75bd e115 b8bc
000000e0: e4a6 35bd 51ea 30bd b7bc ca3e f327 95be
000000f0: 7611 8c3f cba8 1540 3871 aebd 70fe 42be
00000100: 1b5c 67bf 967c babd ba44 18bd d0a7 38bd
00000110: 537e 1dbf a567 9cbd 31e7 26be d36b c2bf
00000120: c576 53be 6b9e 8cbe 2c8b f1bf 0c42 d43f
00000130: f203 bcbd 34b6 8dbc a074 91bd e6be 1bbd
00000140: 66bd 91bd 1da2 d3be 8c74 2abd de17 93bd
00000150: 82dc 96bd a742 e33d 5ecf 3cbc 9a0d 6c3f
00000160: fc90 bc3e 11bc d63e 6272 6e3f 0add 89bb
00000170: 79c2 2f3e 0140 c33c f8c2 7cbe 8d3c 25bf
00000180: 4d89 94bd 3a78 f7bc bca6 a3bd d73a abbc
00000190: 31c3 543f 74a3 49bf d5ae 92bd 06cc e73e
000001a0: fca4 3dbf 60bc 53bd 2c77 00bf 8b1d f5bd
000001b0: 9a58 97bd e76f 18be 0cda 69bd 6c76 9abd
000001c0: 5844 6cbd d812 b3bd b633 8b3c 62c6 fe3b
000001d0: 23c3 a2ba 6d08 92bd e2da 6fbd b879 67bd
000001e0: 4bfe 7ebf 98cb f73e 7a6e 8dbd cf22 54bf
000001f0: 0a51 37be 857a 81be ea1c 22bd 9ad7 28bc
00000200: 8793 76be b754 b7bd c1ab 3abf 7644 1ebd
00000210: e9e4 8fbd c737 a93c d765 8c3f deeb 0d3f
00000220: d3f0 b0ba 903e 483f 1362 a0be ec46 3a3f
00000230: ad4c 48bd dad4 85bd 9ca9 e6bd 9969 333d
00000240: 9190 97bc b64c 35bd 60c5 74bf 8be0 76bd
00000250: b047 a3be ff70 98be 5e9f 26bf 054f 6f3c
00000260: 0c3f 90bd 9a01 56bd fe28 90bd 9951 eabc
00000270: 1998 e8bc f941 433b 72de 0bbd 36ec 8dbd
00000280: cdc8 f3bc b59d fbbc b7a9 07bd b729 e8bd
00000290: dc54 1cbd aac3 63bf 06b6 88bd 187c 7c3e
000002a0: cc22 8fbb c351 b23d 69c3 7b3f cf4b 493f
000002b0: cf71 403c 05dc 413f b5d5 6bbd 3522 92bd
000002c0: 4069 87be 14ea c8bd bf54 eebd cb62 9ebd
000002d0: 5266 a4bd 0af1 74bf 0689 95bf 3c75 febe
000002e0: 23b9 55bd b8f2 053f 642a 3f3f 84be 163e
000002f0: a447 0cbd 182d 97bd 1486 58bd 8556 dcbd
00000300: b229 a4bb 3ef0 8bbd 9b86 6a3c 6d41 1fbc
00000310: c69b 45bd 145b 98bd b58f e8bc 8ff4 9cbc
00000320: 3781 1abf 7b55 aabd 16da 5cbd 3b9d 08bd
00000330: ee41 3a3f 7799 d3bc 1121 acbd cf06 5d3e
00000340: 2ecc a73f 7354 fabe 380d bcbd d28c a33f
00000350: ee93 29bd a730 053c a2ae 13bd b63f 423b
00000360: dfaf 313f 7b76 533b c190 12bc 42f2 e4bc
00000370: 7150 25bd c9d2 97bc b006 1b3c 1505 b43f
00000380: 8ec4 5e3f f75b 8bbd d6b4 363f 10ab bf3e
00000390: a562 d4be f526 41bf 517d 91bd 1142 fa3d
000003a0: fc71 e03e 2b7e b33e 29e3 79bd baf5 923d
000003b0: 3619 9dbd 6bb8 45bd 2da4 a2bc c8be acbd
000003c0: 0c20 fdbc 00e2 a0bc 5e8d 4fbc b8cc d83c
000003d0: 530c a5be ee7c 4abf 16c0 e43c 16c6 b6bd
000003e0: 68df 723f 7c14 71bd

layer_3.weight f4 [150, 250]
0.82412875 -0.26123187 1.1178464 0.008207768 0.19089413 -0.037149787 -0.018041564 -0.38101977
0.02268775 -0.068155296 0.056784876 -0.018112164 -0.10130615 -0.54187757 0.052894067 -0.009076896
-0.18276252 0.20657872 -0.028682997 -0.6361991 0.010559218 -0.5379687 -0.07769306 -0.04940658
-0.0144437635 -0.17821582 0.89065486 -0.04014457 -0.29132286 0.012353111 -0.043294348 -2.1462717
-0.30043545 -0.051531993 -0.28666526 0.91238993 0.04173762 0.059088018 -0.57038534 -0.03352664
-0.13884602 0.037593264 0.5716009 0.051746015 -0.022827227 -0.007628679 -0.27164698 -0.0024844683
0.008437544 -0.033927996 -0.021251474 -0.11281512 0.0145893395 0.21879862 0.041581802 0.041517153
0.009847802 -0.017024694 -0.04410863 0.02568101 -0.069399126 -0.49421674 -0.064033 -1.82071
-0.43395793 -0.05951355 0.0020303961 0.003494702 0.22130306 -0.020254035 0.11183116 -0.5271402
-0.49547392 -0.044223856 -1.5401735 -0.84642017 0.047887232 0.020424291 -0.05671773 -0.011657152
0.015290717 -1.4831243 -0.05379716 -0.023806946 0.026174415 -0.5406195 0.028413968 0.01301523
-0.17462502 -0.10196332 -0.35733962 -0.019625157 -0.6829855 0.050212763 -1.5943987 -0.23598059
0.0024996165 -0.006916906 -0.014558855 0.05598029 0.7629835 -0.6258307 0.04609636 -1.5984529
-0.92248726 0.037868805 0.29275313 -0.036431603 0.026616383 -0.069520764 0.019491177 -0.061249122
-0.017185017 -0.009840086 0.025947537 0.030530466 0.016788492 -0.05340172 0.06071506 -0.005135529
-0.83626336 -0.098560646 -0.06369543 -0.80020756 0.042163115 -0.06663568 -0.1666492 0.025188148
-0.18879253 0.013514525 -0.36471295 0.056712274 -0.03019401 -0.053015646 -0.38259098 0.007749795
0.05566441 0.13473146 -0.5804525 -2.3453512 -0.592955 -0.04373642 0.12645024 -0.0010486329
-0.048476245 0.016554847 -1.3232442 -0.006386657 0.0012095622 -0.07622602 -0.11642823 0.022210386
-0.6095441 0.051770218 -0.26539722 -0.005851271 -0.038174804 0.006128184 0.010404485 0.021204611
0.022953866 0.0062581077 0.04999306 -0.2835923 -0.06260202 -0.041311916 -0.015558212 -0.27808833
0.023090282 0.18526584 1.5161443 -1.6483747 -0.01936801 -0.68066007 -0.04908836 0.009415703
-0.0036886171 -0.02426189 -0.26258707 0.057695314 -0.01891381 -1.7663673 -0.4444037 -0.26629207
-0.058572724 0.6514575 -1.0000554 -0.3275318 -0.03031494 -0.13102323 0.04653551 -0.014636744
0.026725681 0.032619745 -0.003424473 0.046351627 0.048215736 -0.0264995 0.0022977202 0.051840354
-1.1149633 -0.05854111 0.043111734 0.009047786 -0.29997173 -0.03613966 0.033734094 -0.07760858
0.16502324 -0.29960188 -0.003823095 -0.06729401 0.032764297 0.043049164 -0.0038768859 -0.0136996545
1.0352226 -0.049047504 -0.029114662 0.025437329 -0.021770848 -0.018462392 0.017782776 -0.8534022
-0.7772352 -0.006706734 -0.14086728 -0.11834821 0.832483 0.0037236682 0.046660595 -0.027161771
-0.14571266 0.0077494457 -0.011112485 -0.36549738 0.026792344 -0.05256767 0.063755706 -0.049955104
-0.020166326 0.014244575 0.058290936 0.057912584 -0.001567035 -0.007636329 0.037150282 -0.10494418
0.006527312 0.049829308 -2.3651934 -0.26153022 -2.5917933 -0.044995967 -0.4157281 -0.039534613
00000000: 1afa 523f 2fc0 85be 9715 8f3f e079 063c
00000010: c079 433e 602a 18bd e7cb 93bc 0615 c3be
00000020: a9db b93c 0195 8bbd 4297 683d f65f 94bc
00000030: 9979 cfbd 7db8 0abf 73a7 583d 43b7 14bc
00000040: 1926 3bbe 5f89 533e 9bf8 eabc f2dd 22bf
00000050: 9200 2d3c 51b8 09bf 8a1d 9fbd 8e5e 4abd
00000060: 89a5 6cbc 357e 36be f501 643f a26e 24bd
00000070: 4528 95be b464 4a3c 6a55 31bd 845c 09c0
00000080: add2 99be 3613 53bd cac5 92be 6392 693f
00000090: 11f5 2a3d 4706 723d c604 12bf 3b53 09bd
000000a0: a72d 0ebe 65fb 193d 7054 123f a1f3 533d
000000b0: 2a00 bbbc fff9 f9bb 5015 8bbe 76d2 22bb
000000c0: a03d 0a3c 15f8 0abd 9217 aebc 9d0b e7bd
000000d0: 2008 6f3c bf0c 603e ae51 2a3d e40d 2a3d
000000e0: ad58 213c 5f77 8bbc 40ab 34bd fb60 d23c
000000f0: 2121 8ebd fa09 fdbe bc23 83bd 060d e9bf
00000100: bc2f debe 7bc4 73bd 6510 053b 5f07 653b
00000110: 459d 623e caeb a5bc bc07 e53d a9f2 06bf
00000120: c2ae fdbe 1324 35bd 6824 c5bf feae 58bf
00000130: 6725 443d d850 a73c da50 68bd a4fd 3ebc
00000140: ea85 7a3c 04d7 bdbf 695a 5cbd c906 c3bc
00000150: ba6b d63c 0a66 0abf 69c4 e83c d53d 553c
00000160: e7d0 32be 25d2 d0bd 38f5 b6be f0c4 a0bc
00000170: 23d8 2ebf e6ab 4d3d 4215 ccbf e5a4 71be
00000180: 9bd0 233b 37a7 e2bb 4488 6ebc 974b 653d
00000190: e352 433f 7136 20bf 89cf 3c3d 1b9a ccbf
000001a0: 2028 6cbf 521c 1b3d bde3 953e 4e39 15bd
000001b0: 9a0a da3c e760 8ebd f6ab 9f3c 5ce0 7abd
000001c0: 98c7 8cbc 5038 21bc ee8f d43c 071b fa3c
000001d0: 0588 893c c3bb 5abd 5bb0 783d f147 a8bb
000001e0: 5b15 56bf 2ada c9bd c072 82bd 67da 4cbf
000001f0: 3bb3 2c3d 4a78 88bd 16a6 2abe 6057 ce3c
00000200: d452 41be 076c 5d3c a8bb babe 214b 683d
00000210: 6e59 f7bc ef26 59bd f7e2 c3be fef1 fd3b
00000220: 5d00 643d 0bf7 093e 8998 14bf 3c1a 16c0
00000230: e6cb 17bf f624 33bd 2c7c 013e 4872 89ba
00000240: 078f 46bd 089e 873c 1160 a9bf 2947 d1bb
00000250: 2c8a 9e3a 631c 9cbd ed71 eebd 8ef2 b53c
00000260: 150b 1cbf 020d 543d 25e2 87be 05bc bfbb
00000270: 2f5d 1cbd efce c83b 9377 2a3c 4bb5 ad3c
00000280: bf09 bc3c d010 cd3b 86c5 4c3d 0333 91be
00000290: 7d35 80bd af36 29bd dfe7 7ebc 9861 8ebe
000002a0: d527 bd3c 54b6 3d3e 0411 c23f f1fd d2bf
000002b0: a9a9 9ebc bd3f 2ebf e010 49bd 5244 1a3c
000002c0: babc 71bb dfc0 c6bc d071 86be ec51 6c3d
000002d0: 22f1 9abc 5318 e2bf e288 e3be 6f57 88be
000002e0: f4e9 6fbd ebc5 263f d101 80bf 40b2 a7be
000002f0: 0957 f8bc f42a 06be 059c 3e3d f4ce 6fbc
00000300: d1ef da3c 489c 053d 206d 60bb 34db 3d3d
00000310: dd7d 453d 7b15 d9bc 5995 163b 8d56 543d
00000320: 1eb7 8ebf cec8 6fbd ee95 303d 2a3d 143c
00000330: e595 99be 2e07 14bd c32c 0a3d 3ff1 9ebd
00000340: dafb 283e 6b65 99be e48c 7abb 71d1 89bd
00000350: db33 063d 5254 303d 5a13 7ebb 8474 60bc
00000360: 2d82 843f 09e6 48bd df81 eebc f261 d03c
00000370: c758 b2bc 713e 97bc 2fad 913c 9178 5abf
00000380: e3f8 46bf 2ac4 dbbb 833f 10be 8c60 f2bd
00000390: 9b1d 553f c908 743b 2e1f 3f3d 5d82 debc
000003a0: b335 15be 10ef fd3b 2411 36bc 7922 bbbe
000003b0: 9e7b db3c 3251 57bd 5a92 823d b99d 4cbd
000003c0: da33 a5bc 1462 693c 7ac2 6e3d bf35 6d3d
000003d0: f864 cdba 2c3a fabb e52a 183d f9ec d6bd
000003e0: 10e3 d53b d119 4c3d 545f 17c0 4ae7 85be
000003f0: f1df 25c0 b14d 38bd 50da d4be 0cef 21bd

layer_3.bias f4 [150]
-0.07336172 -0.2415261 -0.43691546 1.3469439 1.8476036 0.04846268 0.7876633 1.7393359
0.89146435 1.5880989 -1.112471 -0.19110833 -0.21483284 -0.5110398 -0.2002453 -0.21478027
-0.09003922 2.8886757 -0.8951742 0.08152641 -0.13714099 -0.27050957 -0.30884317 -0.5511082
-1.4933696 -0.097179815 -0.090510346 -0.08606222 -0.08237839 0.5351155 -2.147305 3.0746682
-0.29487285 -0.1278631 -0.9908973 1.1925527 0.73982084 0.16735448 1.0771403 0.84202707
-0.0538425 -0.25542283 -0.38717285 0.378686 -0.7912044 0.6301333 -1.5135899 -1.1803612
-1.4563004 1.3714373 1.8654742 -1.287826 0.27524513 1.1464472 -0.73007214 -1.1179038
-0.5330072 -0.12528144 1.505607 -0.020252982 -0.39715505 -1.6893897 -1.0381202 -0.3310119
2.6041284 -0.20002665 0.69404966 2.8198104 -0.19604982 -0.10503781 -1.0361286 -0.7583437
-0.09062739 -0.042835336 -0.12392895 -0.16218062 -0.12421349 -0.05886043 -0.0603429 0.6934789
0.13077518 -2.218763 -0.7693725 -0.6984012 0.49011287 -0.5418122 -0.6368721 -0.18852082
0.41576535 -1.5925864 0.5959601 -0.021775816 -0.06052439 -0.11219648 -0.38892394 -0.83745426
-1.0588254 -0.17488723 -0.18147358 -0.2669084 -0.15665449 0.30105373 -0.22294736 0.6586171
-0.52111876 -0.5542184 -0.31131685 -1.1152167 -0.45181054 1.0371403 -0.14229043 -1.5649556
-0.20280086 0.52978265 -3.0667863 -0.26921958 -3.1186495 -0.18478969 -1.6080941 -0.12763639
-0.051575907 2.1105297 -2.9256866 -0.41186768 -1.9461004 0.33655584 -0.66121095 -0.055226117
1.9823068 -1.0261282 -0.20021865 -1.1494794 1.1778337 -0.19216909 0.5628715 -1.1957272
0.44575036 -0.65237725 -0.83835375 -0.37406483 1.7084196 -0.11802753 0.054758385 -0.20678313
0.9430543 0.004129919 1.168818 0.801808 2.01085 0.26807868
00000000: ab3e 96bd 9e52 77be 62b3 dfbe a868 ac3f
00000010: 467e ec3f ce80 463d 4da4 493f 8fa2 de3f
00000020: 0237 643f d346 cb3f 7365 8ebf e7b1 43be
00000030: 24fd 5bbe 81d3 02bf 1b0d 4dbe 5cef 5bbe
00000040: 7c66 b8bd 10e0 3840 232a 65bf 52f7 a63d
00000050: b06e 0cbe 3b80 8abe b120 9ebe 6d15 0dbf
00000060: bc26 bfbf 3606 c7bd 7d5d b9bd 6441 b0bd
00000070: 00b6 a8bd 54fd 083f 726d 09c0 5dc7 4440
00000080: 93f9 96be 8bee 02be 72ab 7dbf 91a5 983f
00000090: e664 3d3f f95e 2b3e bcdf 893f 168f 573f
000000a0: f489 5cbd c8c6 82be 853b c6be 22e3 c13e
000000b0: 5f8c 4abf 6a50 213f 50bd c1bf 1316 97bf
000000c0: 0d68 babf 428b af3f dcc7 ee3f 7bd7 a4bf
000000d0: eeec 8c3e c8be 923f 02e6 3abf 7917 8fbf
000000e0: 2973 08bf c749 00be bbb7 c03f 95e9 a5bc
000000f0: e857 cbbe ec3d d8bf 1fe1 84bf 647a a9be
00000100: 0aaa 2640 c9d3 4cbe 3dad 313f c677 3440
00000110: 49c1 48be 101e d7bd dd9f 84bf d022 42bf
00000120: da9a b9bd 1b74 2fbd 76ce fdbd ad12 26be
00000130: a463 febd a217 71bd 1e2a 77bd d587 313f
00000140: eee9 053e 3700 0ec0 99f5 44bf 6cca 32bf
00000150: 13f0 fa3e 34b4 0abf 0d0a 23bf 9a0b 41be
00000160: 32df d43e dfd9 cbbf d790 183f 3263 b2bc
00000170: 6ce8 77bd 45c7 e5bd 0a21 c7be 6763 56bf
00000180: 9787 87bf a315 33be 36d4 39be 38a8 88be
00000190: 096a 20be b723 9a3e 504c 64be 219b 283f
000001a0: 0a68 05bf 42e1 0dbf ec64 9fbe 6cbf 8ebf
000001b0: b653 e7be 03c1 843f 95b4 11be 7750 c8bf
000001c0: 07ab 4fbe d69f 073f 3a46 44c0 26d7 89be
000001d0: f497 47c0 8239 3dbe 07d6 cdbf 1db3 02be
000001e0: 4241 53bd eb12 0740 733e 3bc0 52e0 d2be
000001f0: d119 f9bf 0c51 ac3e 1f45 29bf c834 62bd
00000200: 3bbc fd3f 2b58 83bf 1e06 4dbe 2422 93bf
00000210: 41c3 963f f9c7 44be 5918 103f 970d 99bf
00000220: 6439 e43e 3202 27bf 5a9e 56bf 6d85 bfbe
00000230: 7ead da3f 6bb8 f1bd 544a 603d f5be 53be
00000240: 026c 713f 4654 873b d49b 953f 4a43 4d3f
00000250: c4b1 0040 9c41 893e

layer_4.weight f4 [1, 150]
0.013358667 0.114873834 0.032455508 -0.0026647423 -0.5784069 -0.011116855 0.01758806 -0.028705696
0.0061072446 0.006668815 -0.02039386 0.010109503 -0.001413204 -0.42559993 0.0973812 0.10270716
-0.036570933 0.061518118 -0.029602297 -0.037389673 0.01514918 0.017336307 0.023633534 -0.11084374
0.023343122 -0.011023754 0.02667924 -0.028283762 0.1417059 -0.0076019415 -0.00205794 0.07290669
-0.101647966 0.0026835322 -0.0005034549 -0.46458876 0.026570048 -0.017124373 -0.035282332 0.33414125
-0.01326777 -0.051900577 -0.065304965 -0.16269799 -0.050060347 0.07380211 -0.012423569 -0.08809292
-0.033782374 0.11809922 0.028324634 0.0111612305 0.042796962 -0.025983443 0.033670288 -0.065197006
-0.07064691 -0.07240272 0.0836379 -0.021238927 -0.008769277 -0.010307418 -0.051957626 -0.048798233
0.043038156 0.12347152 -0.11040052 0.040215287 0.0163931 0.1250382 0.15865037 -0.08136767
-0.030492956 -0.0039856182 -0.5375913 0.001771666 -0.011274281 -0.42963675 0.013905514 -0.046218798
-0.067772724 -0.00019334402 -0.027336257 -0.0682266 -0.0046850205 -0.025561918 -0.071649216 0.021502133
-0.048398517 -0.045033727 -0.018300317 0.018408388 -0.036209367 0.022492284 0.0021656195 -0.03185297
-0.0007515365 -0.007585432 0.010075945 0.0036656465 -0.0152791105 -0.016613668 -0.0021014528 0.020584226
0.12496593 -0.019818315 0.030438842 -0.00893935 0.0006012924 -0.010652365 -0.0056341146 0.022332925
-0.015815625 -0.12879008 -0.009874162 -0.03396102 0.05934819 0.005151904 -0.16247922 -0.013397046
-0.011760022 -0.014853885 0.5090146 0.02381474 0.08591423 0.019209685 0.02843144 0.013201395
0.16592143 -0.038469218 -0.004828245 0.062459704 -0.122045234 0.009377425 -0.08364464 0.030217076
0.04575588 -0.06679428 -0.03720938 -0.0053998823 0.17348385 -0.037859038 -0.0043362547 0.0033184555
-0.01760941 -0.0009001669 8.819965e-06 0.08806816 0.01847254 0.04187161
00000000: 4fde 5a3c f942 eb3d 11f0 043d f5a2 2ebb
00000010: 7912 14bf 7823 36bc d614 903c 3528 ebbc
00000020: 481f c83b 1386 da3b 0611 a7bc 54a2 253c
00000030: 423b b9ba 3ce8 d9be cb6f c73d 2258 d23d
00000040: 67cb 15bd 6cfa 7b3d 8480 f2bc ea25 19bd
00000050: 4434 783c df04 8e3c 1d9b c13c 0b02 e3bd
00000060: 133a bf3c fa9c 34bc 6c8e da3c 59b3 e7bc
00000070: 5a1b 113e b519 f9bb 81de 06bb 1a50 953d
00000080: cf2c d0bd 33de 2f3b 49fa 03ba 94de edbe
00000090: 6ea9 d93c 6a48 8cbc 3584 10bd 9014 ab3e
000000a0: 1061 59bc b395 54bd 9cbe 85bd 4d9a 26be
000000b0: 140c 4dbd 9025 973d 3a8c 4bbc 106a b4bd
000000c0: 635f 0abd 01de f13d 1009 e83c 98dd 363c
000000d0: de4b 2f3d 3bdb d4bc dbe9 093d 0286 85bd
000000e0: 54af 90bd e147 94bd 594a ab3d 42fd adbc
000000f0: 03ad 0fbc 72e0 28bc 85d1 54bd a8e0 47bd
00000100: c748 303d a3de fc3d ab19 e2bd c9b8 243d
00000110: d34a 863c 040a 003e 3e75 223e 18a4 a6bd
00000120: 5dcc f9bc ca99 82bb 959f 09bf 3f37 e83a
00000130: c3b7 38bc 59f9 dbbe f4d3 633c ec4f 3dbd
00000140: 6dcc 8abd 64bc 4ab9 49f0 dfbc 63ba 8bbd
00000150: cd84 99bb 3a67 d1bc d3bc 92bd 3e25 b03c
00000160: 863d 46bd 4975 38bd 8cea 95bc 30cd 963c
00000170: 4650 14bd bd41 b83c 11ed 0d3b 4378 02bd
00000180: c302 45ba 378f f8bb 9415 253c 583b 703b
00000190: 3c55 7abc 6319 88bc 87b8 09bb 40a0 a83c
000001a0: 23ee ff3d 055a a2bc e15a f93c 5a76 12bc
000001b0: 0da0 1d3a 4287 2ebc 619e b8bb 8af3 b63c
000001c0: c58f 81bc 8ce1 03be 3dc7 21bc b61a 0bbd
000001d0: 1617 733d 4ed1 a83b f460 26be 497f 5bbc
000001e0: 1bad 40bc b65d 73bc c84e 023f 2117 c33c
000001f0: cdf3 af3d a15d 9d3c 0de9 e83c aa4a 583c
00000200: 4fe7 293e e691 1dbd 4136 9ebb bfd5 7f3d
00000210: daf2 f9bd c5a3 193c e24d abbd cd89 f73c
00000220: 856a 3b3d 71cb 88bd dd68 18bd 7ff1 b0bb
00000230: c0a5 313e 1412 1bbd 2417 8ebb 727a 593b
00000240: 9c41 90bc 2ef9 6bba 76f9 1337 145d b43d
00000250: b953 973c 9181 2b3d
