models/all_td3/TD3_TradingEnv9_tts_42_1550_critic_1.pth (torch, 591839 bytes, 5 tensors)

layer_1.weight f4 [400, 66]
00000000: 22e6 17bd 33e9 1ebc 26be b1bc 2f8a 12bd
00000010: 9122 81bd ea03 74bd 5508 3fbe 749c 683d
00000020: 86f1 1abf 0133 bdbc d3bb 61bd 7659 c0bd
00000030: 85bc 70bd 8f73 62bd 5bd5 51bd c51f a93d
00000040: 8f88 f8bd a159 a9bd e880 cabd 860a 04be
00000050: f856 9bbd a752 c73c 74a1 9ebd 7522 9bbd
00000060: f5d4 d03d e2f2 82b9 a1ce 21bd fa96 a73c
00000070: 3050 22be 8d8b abbc 7e17 33bd e19e 8fbd
00000080: 2be9 e4bc c49f 25bd 3ad8 ac3c d6b3 393d
00000090: 38ff 75be b421 4cbd d24a 03bd 1694 1abd
000000a0: e7b6 34bd bbc0 f8bc e359 10bd 1461 2fbd
000000b0: 3d5c 3a3d 25d0 a93d 67d2 01be 8214 ed3c
000000c0: e40e 7abb 23cc c9bd ea66 e93b d985 8dbd
000000d0: 2d3a adbd 9c6d e63d f41f 8a3d fc3a 0000
000000e0: 554a 332b 535b 0180 0b13 0080 2bd3 0100
000000f0: 156f a53e f160 dabc 91d9 21be fe41 86bd
00000100: 1092 b8bd 6a6e fcbb 3824 073d c8a2 0f3d
00000110: 4a8e f43c 04d7 e63c 8e88 0dbd f7fa ff3d
00000120: ba45 64bd 8ed8 713d a68f 82bd 2628 5f3d
00000130: b952 3c3d c418 5e3d 1d9a 743d e5ee 333d
00000140: 8884 95bb 1410 d53c d002 e0bd e3e9 b43b
00000150: 05fc 7dbd 9882 0f3e c51d 8f3c 4bb1 593d
00000160: 428f ac3c 9514 953c 1e34 8d3c 8c45 20be
00000170: 11bc 96bd 68b2 b2bd b286 bbbd b887 cebd
00000180: 342e dc3c 6c26 af3c 37ea f93c 7bbf de3c
00000190: 9269 873d 8085 54be 4584 5fbe 1f3a ccbd
000001a0: b6a1 28be cfe9 823d 9091 e73c d439 263d
000001b0: c3e3 0d3d 513d e93c 1300 a73d fa47 35be
000001c0: 8c2f 2bbe d317 233d a791 f0bc e675 dc3d
000001d0: 8ae9 8e3e 4537 943d c290 733d 73a6 c0bd
000001e0: 3216 1f3d 9858 5ead 018d 0280 eb86 0480
000001f0: f1b1 0780 c914 0100 01a2 2abc d6b3 123e
00000200: 8e67 40be 617d 0ebd 61c3 a2bd 99b8 823a
00000210: 7048 d8bc a7ff 6cbc 6066 ddbc 4d19 dcbc
00000220: e497 abbc 4c69 c43c 1fed ba3d f563 c1bc
00000230: b0a3 6cbd 0b56 cd3c 3734 d1bc d3a8 babc
00000240: d34f d0bc eba6 d1bc f17b b4bc 0872 a5bc
00000250: b684 7d3c c969 0080 9cab 8fb4 6b45 2c3d
00000260: 387a dfbc 0b2a bcbc ecb8 e1bc b0ce debc
00000270: f2da 9cbc e4b6 b03c 15d6 7c3c 7e06 0380
00000280: 494b 7bb6 023b fd3c 0019 e0bc 7991 c7bc
00000290: 118f e6bc ac1e e3bc d6fa ebb9 7e2c b03c
000002a0: 563f 333d c873 0080 df4f d98a 5b1c dc3c
000002b0: f025 dabc 2420 c8bc 2821 dfbc 4378 dcbc
000002c0: 12ce 8abc 5c1c c33c d4a5 c53c e20b 0480
000002d0: 8e2e e7a4 dd89 ca3c f7a3 f6ae 1f34 cfbc
000002e0: a164 fbbc df87 3fbc 082c 0dbe d716 0380
000002f0: dbbf 0480 e8c5 0380 e26a 0780 3348 0300
00000300: 5742 a6bc bbc9 bf3c 3b5e bd3c 7e4f bc3c
00000310: 06b6 d13c 94ce adbc 024e 37bd bc74 af3d
00000320: 9e11 8bbd 6d6f 56bd 16d3 59bd cd76 fcbb
00000330: 30ed 4fbc e844 07be c0bc 01be c25c 5f3e
00000340: 593a 6cbd 5e02 a13d 8223 5abd f276 65bd
00000350: 6712 d4be 7a1f 763d 3d57 71bc 756c 3537
00000360: ed37 2abe 57ac 0a3e dac3 e4bc e517 e4bd
00000370: fa15 e9bc 3560 93bc 84c1 2dbd b415 5bbe
00000380: fd92 82be 9697 6fbd c31e 64be e571 20be
00000390: 7e45 54bd f03c 94bd 5e09 7bbd 1397 5abd
000003a0: 5732 31bd ddc7 71bd 03a7 6a3d b933 10ba
000003b0: 5108 97be 344e 24bd 870b 4bbd 1d0d 0dbe
000003c0: 33bf 4dbd d1ab 46bd b22f 19be 6c90 1abe
000003d0: 6356 debd 3301 3db9 0f3e 9dbd 73a8 973d
000003e0: 4e08 9bbe ca2e 31be cf19 69bd acc9 623e
000003f0: fcad 19be e640 c32d ad57 0680 05a4 0380
-0.037084706 -0.009699154 -0.021697115 -0.035776313 -0.06305421 -0.059574045 -0.18655522 0.05678983
-0.60524786 -0.02309561 -0.055110764 -0.09392063 -0.058773536 -0.055285987 -0.051228862 0.08258013
-0.121354215 -0.082690485 -0.09887868 -0.1289464 -0.07584947 0.024331404 -0.077456385 -0.075749315
0.10196868 -0.00024976494 -0.039503697 0.020457733 -0.15850902 -0.020940566 -0.043723576 -0.070127256
-0.027943214 -0.040435567 0.021099199 0.04533752 -0.2402314 -0.04983683 -0.032053776 -0.037738882
-0.04411974 -0.030365339 -0.035241973 -0.04281719 0.04549812 0.082916535 -0.12677918 0.028940443
-0.0038155848 -0.09853389 0.007122864 -0.06910295 -0.08458362 0.11251375 0.06744376 2.116e-41
6.369673e-13 -1.24596e-40 -6.831e-42 1.67588e-40 0.3231131 -0.026657553 -0.15805651 -0.06555556
-0.09012234 -0.007703592 0.032993525 0.03506735 0.029853005 0.0281787 -0.034554057 0.124990396
-0.05573056 0.059044413 -0.06375055 0.054481648 0.045977328 0.054222837 0.059717286 0.043929
-0.004562918 0.026008643 -0.109380364 0.0055210455 -0.062007923 0.14014661 0.01747025 0.053147595
0.021064404 0.01819829 0.017236765 -0.1565153 -0.073600896 -0.087254345 -0.091565505 -0.1008448
0.0268775 0.021380626 0.03050719 0.027190914 0.06611933 -0.20754051 -0.218278 -0.09972023
-0.16467938 0.06392252 0.028267652 0.040582493 0.03464104 0.02847162 0.08154311 -0.17703238
-0.16717356 0.039817642 -0.029366327 0.10764675 0.2791255 0.07237104 0.059464224 -0.09406748
0.038839526 -1.2638911e-11 -2.34254e-40 -4.15741e-40 -7.06682e-40 9.9292e-41 -0.010414601 0.14326414
-0.18789503 -0.03478754 -0.07947422 0.0009973227 -0.026401728 -0.014465249 -0.027026355 -0.026867533
-0.02094645 0.02397599 0.091272585 -0.023607234 -0.057773292 0.025065443 -0.025537593 -0.02278558
-0.025428688 -0.025592288 -0.022031756 -0.020195976 0.015473535 -3.7949e-41 -2.6760688e-07 0.04205839
-0.027279958 -0.022969266 -0.027553998 -0.027198166 -0.01914737 0.021571584 0.0154319005 -2.77835e-40
-3.7445736e-06 0.030911926 -0.02735567 -0.024361359 -0.028144391 -0.027724586 -0.0004500958 0.02150559
0.043761574 -4.1534e-41 -2.0926384e-32 0.02686899 -0.026629418 -0.024429388 -0.02723749 -0.026912814
-0.016943965 0.023817234 0.024126925 -3.71605e-40 -1.0025915e-16 0.024723941 -1.1215911e-10 -0.025293408
-0.030687632 -0.011690109 -0.13786328 -2.837e-40 -4.36167e-40 -3.46502e-40 -6.81191e-40 3.01407e-40
-0.020295305 0.023411622 0.023116222 0.022987124 0.02559949 -0.021216668 -0.04475213 0.08567187
-0.067904696 -0.052352358 -0.053179823 -0.007704592 -0.012690827 -0.1320988 -0.12669659 0.21812728
-0.057672832 0.0786178 -0.05325652 -0.05602164 -0.4142029 0.060088612 -0.014730272 1.0813693e-05
-0.16622896 0.13542305 -0.02792542 -0.1113737 -0.028452862 -0.017990211 -0.04242088 -0.21394998
-0.25502768 -0.058494173 -0.2227736 -0.15668447 -0.051824085 -0.072381854 -0.06128823 -0.05336673
-0.0432609 -0.059028495 0.05728818 -0.00055008713 -0.29498532 -0.040113643 -0.04957154 -0.13774534
-0.05023117 -0.0485037 -0.149596 -0.15094155 -0.10856321 -0.00018024891 -0.07677852 0.07405176
-0.30279773 -0.17303005 -0.05690938 0.22147244 -0.15007776 2.2197754e-11 -5.82465e-40 -3.34346e-40

layer_1.bias f4 [400]
00000000: 743c 79bd 44e6 b63c 6a47 f1bc 7a93 f4bc
00000010: 642e 1d3e 2522 42be 2dfd 02be f76f 85bd
00000020: cd76 b6bc 9675 53b3 4c98 8b3d 5614 34bc
00000030: 7baa 0f3c 9fe5 43be e4b6 e9bc e308 90bd
00000040: 763a ebbd 8431 903d 2278 183e 4968 603c
00000050: 81ba d938 aca7 b93e ec66 a63e 7b68 26be
00000060: 4e23 103d 0013 15bd 5802 babc 3a55 a43c
00000070: ff06 88b9 c597 9bbe 9de0 bcbd 4f36 9fbe
00000080: ffb1 bbbc 821d 24be c262 30bd 6cfd 1ebe
00000090: 35b2 87bc 038d 69bc 3ade c29b 4e78 b13e
000000a0: bbf8 c5bd 303c 4ab9 ec88 993e a2ac 25bb
000000b0: 3c18 853d 1320 01be be9f edbd 146d 06bd
000000c0: cbed 23be 988b a6bd 1ee2 aabd 4ee0 bb3b
000000d0: e1bf 4b3e 4368 d73e ece6 a0bc 99c3 b0bd
000000e0: 1c86 863e 240f af3b f70f f6bc 7e3f 89be
000000f0: 035c 71bc 85da 82bd d2d3 02be 5abf a93c
00000100: ea8a cbbb 451d d2bc 2097 1bbd b247 ce3d
00000110: bc1b 88bb 6537 923d 40b1 10be 5950 c13d
00000120: e744 4abd 6fac 963d 4af4 3dbe 1b2c 14bc
00000130: dbd1 8a3e 748a 01be 42b9 dc9d a9d1 693d
00000140: 188c cdbc 2f57 05bd c75c cabd a0fc 2ebd
00000150: 6aaf 9abe 58b6 30bd 7fa7 00bc 424e 0f3e
00000160: 7ccf c4bd 3ad5 acbd bb70 ec3d b984 93be
00000170: 9671 db3d 4c84 0cbd e903 333c 7d61 f7bd
00000180: c82f 4d3e dadd fabc 050b 5abc acb4 26be
00000190: 961d 55be 8e9f a3bc 01a2 8fbd 7314 bdbd
000001a0: be6c 8cbc c272 3fbd 9bd6 b4bc 1bcd 8e3d
000001b0: b2a1 ca3c 8af8 d23c ecb2 ba3e 7fff 92bc
000001c0: a559 a391 7f2c 82a3 0291 1d3e 4268 643c
000001d0: 14c7 c8bc 85eb 0fbd 4ee9 8bbe 4a9d 23be
000001e0: 819c 44be a72b 253e cca3 bfbc 412e 72bc
000001f0: fc53 62bd 0dbd 96bd b615 1bbc d57b 82be
00000200: 764f 6dbd 8396 1fbe 302b 9bbc 56a4 5abd
00000210: 8095 893e 584f 8fbd 86ed f7bd d9c0 c63c
00000220: 3fd9 62bd b4b1 32be a01f cabd 0ee5 ea3d
00000230: 202e 8dbd 9cb4 a23d bc2a 063e 6c0a 60bd
00000240: d9aa c83b 23a1 c0bd e845 3bbd 135b 5ebe
00000250: c7ec 0abe 09a3 fb3c 10ac cf3d b851 13bd
00000260: ea9a 0dbe dd41 4fbe b1f5 c7bd 2e0a 5e3e
00000270: 41ad a9bc 65e1 84bd 9234 18bd 0cd9 3cbe
00000280: a852 e7bd 3d01 32bd d669 41bd 9bf8 d5bc
00000290: 95d3 9e3d 47d4 6cbd eb0e 12be ef15 4abd
000002a0: be58 81bc f556 18bd cf11 283e 18dc 7ebd
000002b0: 6821 d0bd f92a b33d 25aa d03d 22c3 ba3d
000002c0: 28de babd 7a10 843e c5c8 9abe aa68 4abe
000002d0: 9480 703e 2ddd b5bd bb2c 71bd 5ee7 c13c
000002e0: b971 64a4 90b3 0f3e aef0 9ebc a627 18be
000002f0: 93a4 4ab9 d763 74bb 2d2a 503e ab45 f5bd
00000300: ac54 a9bd 20bb aabb e230 c4bd 474a c83c
00000310: 237a 3b3b 2195 3d3e 36d3 aabc 1e62 1dbd
00000320: 39c6 dc3d 084f 8ebd 1d4c 9c3c 9464 97bd
00000330: 1266 2abd 9ba8 e93d 7fa9 f6bd 4a78 56bc
00000340: 6e3f 153b 28b3 91be 94ef bdbb a1e4 463d
00000350: c09b aebc dad2 d8bc f1a5 93bd 166f ddbc
00000360: a067 0bbd c6a7 23be 2cc2 cdbd ca2d d03c
00000370: 7c3c 1abe 5bd5 08bf 5b5e 2bbe 4c19 3fbd
00000380: 39a6 3b3e 33b0 03b7 b83b 30be e728 ad3e
00000390: 44d5 bcbd 3050 63be 5749 9fbc d46b 4ebe
000003a0: ac6c ceb3 ac3a 56bd b64b 06be 6b2e a4bd
000003b0: db1d 503c bf7f 13bd 0cca b2b9 8de2 bcbd
000003c0: e80e 723e 8985 6d3d 8c01 34bc 9942 0a3e
000003d0: ae92 1699 1e7d c93c fba9 44be 0994 9fbd
000003e0: 01c8 51bd 8625 063e 6ae8 803d 9060 873e
000003f0: d0ed 10bd 6fe5 603e b972 98b6 4e9a d9bd
-0.06084867 0.022326596 -0.029452998 -0.029855479 0.15349728 -0.18958338 -0.12791891 -0.06515496
-0.022273446 -4.923421e-08 0.06816158 -0.010991177 0.008768673 -0.19130562 -0.028529592 -0.07032945
-0.1148576 0.07040694 0.14889577 0.0136967385 0.000103821054 0.36260736 0.32500398 -0.16250794
0.03518992 -0.036395073 -0.022706196 0.02006017 -0.00025945154 -0.30389228 -0.09222529 -0.31096122
-0.022912024 -0.16026881 -0.043062933 -0.1552636 -0.016564468 -0.014254811 -3.2238218e-22 0.34662098
-0.09666582 -0.00019286643 0.29987276 -0.00252799 0.06498763 -0.12609892 -0.11602734 -0.03281887
-0.1600868 -0.08132094 -0.0834391 0.0057335263 0.19897415 0.42071733 -0.019641362 -0.08631057
0.26274192 0.005342381 -0.03003691 -0.26806253 -0.01473141 -0.063893355 -0.12776116 0.020721126
-0.006211628 -0.025648722 -0.03798592 0.100722685 -0.004153697 0.07139472 -0.14130116 0.09439153
-0.049382117 0.07357108 -0.1855022 -0.009043719 0.27113232 -0.12650472 -5.8425067e-21 0.057084713
-0.025091216 -0.032553848 -0.09880977 -0.04272139 -0.30211955 -0.043142647 -0.007852434 0.13994697
-0.09609887 -0.08439107 0.11544939 -0.28812197 0.10715024 -0.034305856 0.010926225 -0.12079141
0.20037758 -0.030623365 -0.013308291 -0.16279858 -0.20812067 -0.019973543 -0.07013322 -0.09232416
-0.017141696 -0.0467403 -0.022074988 0.069727145 0.024735305 0.025753278 0.36464632 -0.017944096
-2.5772113e-28 -1.4113473e-17 0.15387347 0.013940873 -0.02450899 -0.03513672 -0.27326435 -0.1597797
-0.19200327 0.16129933 -0.023393534 -0.014781536 -0.055255875 -0.07360277 -0.0094656255 -0.254851
-0.057937108 -0.1558476 -0.018941492 -0.05337938 0.26871872 -0.069975555 -0.12105851 0.024261879
-0.055382963 -0.17450601 -0.09869313 0.1146947 -0.06893563 0.07944605 0.1310224 -0.05469744
0.0061238823 -0.094057344 -0.045720965 -0.2171443 -0.13566886 0.03071739 0.1014024 -0.035966605
-0.13828626 -0.20239969 -0.09763659 0.2168357 -0.020712497 -0.06488303 -0.03715951 -0.18442172
-0.11295062 -0.043458212 -0.047220074 -0.02611952 0.077552 -0.05781963 -0.14263503 -0.049337324
-0.015789386 -0.037192304 0.16413043 -0.062221617 -0.10162622 0.08748431 0.101887025 0.0911925
-0.09124404 0.2579382 -0.302313 -0.19766489 0.23486549 -0.088800766 -0.05888055 0.023669895
-4.9535946e-17 0.14033341 -0.019401874 -0.14858875 -0.0001932553 -0.0037290954 0.20328589 -0.11976179
-0.08268103 -0.0052102953 -0.09579636 0.02444948 0.0028606735 0.1851392 -0.020852666 -0.03842365
0.107799955 -0.06948668 0.019079262 -0.07392231 -0.041601248 0.11409112 -0.120440476 -0.013090203
0.0022773403 -0.28456998 -0.005796382 0.04855788 -0.021314502 -0.02646773 -0.07209385 -0.027030509
-0.03403437 -0.15981969 -0.10046801 0.025412459 -0.15062135 -0.53450555 -0.16735213 -0.046654984
0.18325128 -7.849233e-06 -0.17210281 0.3382027 -0.09220365 -0.22198558 -0.01944415 -0.2015832
-9.61239e-08 -0.052302048 -0.13114819 -0.08016666 0.012702431 -0.0360105 -0.00034101342 -0.09222899
0.23638499 0.057988677 -0.010986697 0.13501967 -7.78444e-24 0.024595793 -0.19205467 -0.07791907
-0.05121613 0.13100252 0.062943295 0.2644086 -0.035383046 0.21962522 -4.5433085e-06 -0.106251344

layer_2.weight f4 [300, 400]
00000000: d2de c335 d5d5 1dbc f269 0180 8612 2d34
00000010: 2e7c b6bd f126 d83c 4ead 01bd 8504 3a3b
00000020: ba4a d7ba 3bdc 0480 f12c 0280 e81b 0600
00000030: eece 50be 48ac fcbc 77bd 0280 ca1b 2c3a
00000040: 7ab5 0280 6275 38bd 2844 f4bd 5f71 0ebc
00000050: 1ab5 0580 065b 21bd 051d e4bd cf13 02bd
00000060: abf2 f13b 2f45 f9bc 1838 0100 3eed a5bd
00000070: 5765 0600 a319 88bc 8fd6 01bd 0d3c 17be
00000080: ce7f 0239 9123 023d 8a42 8dbd 951f af3b
00000090: b3e8 0000 4495 0080 20d5 0300 c3c4 18bd
000000a0: 421f a7bd 0ef3 753a 26fe 34bc 5631 0180
000000b0: 071e 8c3c 8f2d 38bd 46b4 0812 7e36 5c3d
000000c0: 0d53 2b3b 9fce 9e3c 5fc1 01bd a408 02bd
000000d0: af8f fbbc 9b63 5fbc fea6 11a9 9346 0380
000000e0: 7c0a 63bd 7e0e 02bd 47b0 eabc 43d2 1b3d
000000f0: eea5 0180 7c3d 613e 2b94 ca3c dbd7 e7ab
00000100: 03c8 0580 6c05 fdbc cc62 0580 2b59 12bd
00000110: 6b91 0500 6c62 853c d3cc 0400 6768 253e
00000120: 8ff1 0480 b0ea e0bc ae43 053c 81dc de3c
00000130: f12e c7bd 6bb6 01bd 8656 422a 8f7c 6abb
00000140: 32bc 0180 7102 0200 1091 a73c 9edb f13c
00000150: f7df 10be 51e3 7c3c 988a 4ebd 56d2 f03b
00000160: 8965 c6bc 4455 8e2c 0be0 f8bc c706 02bd
00000170: 0b8d 753d 368f 8a3d 9b3a 053c 400f f7bc
00000180: 0466 03be ecf8 0080 5a14 9733 9884 e03c
00000190: e266 0100 62b7 0480 de1b 1b3d 2dbb 01bd
000001a0: 5048 0100 1bd9 b0bc 2d9a 0680 6482 02bd
000001b0: 052e b0bd 10f0 8b3d 46d1 08bc 13ea 0380
000001c0: 0d9d cd29 34e6 0180 78f3 de3d f78e 623e
000001d0: 3bb4 6c3d 43ea 0080 3da6 0300 f791 01bd
000001e0: 7bb1 86bd 6fbb 33bd ba24 debd 0370 0680
000001f0: 7d36 273d 6824 0600 6c62 cfbc 653e 2a3d
00000200: 6ad3 9dbd b1cf 103d 1d0e acaa 29d9 e5bd
00000210: 55ab 09be 2b9a 203c ea90 fd3c 6397 eabb
00000220: 153e 153e 134a 71bd 19bb 233e 4bbf 72bd
00000230: 752f 0000 0e20 cfbd b431 883d 445d 31bb
00000240: e164 2fbc 7ced 01bd 4260 0000 6b80 0180
00000250: 3ac2 0300 251f e5bd 006c edbd 826a 0500
00000260: b8c3 103e 34ac 423a bfdc 01bd 623d b0bd
00000270: 661e 11aa 58df 85b3 87fc 0000 8f75 83b9
00000280: cc16 6014 42a5 c4bd 0c61 0580 e957 01bd
00000290: 81df fcbd 1267 0180 2ed0 31bd 8f8f f339
000002a0: f01f 0580 5cf3 fbb2 57b0 f2bd 400e 0200
000002b0: c7f3 01bd 4902 3e3d 0ae3 4cbb a70b 0fbd
000002c0: 8e55 0680 9d41 e1bd ecf4 0500 ab5c e53c
000002d0: 7035 303d b427 8bba 0d24 31bd 6fa4 763d
000002e0: 6f64 0100 64e4 e6bc b10c 0180 f8bb 0080
000002f0: 8e4a 0100 a735 ae3d 8ee1 b53d e907 0080
00000300: 4a7c 0180 ab33 0280 edbf 0080 3c9e 40bc
00000310: dcf1 df3a 9d95 e5bd ce0e 0000 43b2 0200
00000320: 4870 0780 f35e a7bd 7f5d 0d3d dd47 0180
00000330: b980 1bbd 53b1 373d 32dc 0580 b999 64bd
00000340: 88c4 01bd 61db 69bd 7521 1fb1 3b8c 21be
00000350: 3307 cd8d fc00 02bd 5e35 203d 3850 0480
00000360: 4c6d aa3d 62c0 bfbc a512 0280 30b1 0380
00000370: e0cd 76bd 9ac3 0180 80ed 01bd 9732 0200
00000380: f88d c1bd e986 02b1 81a2 01bd 42cf 553d
00000390: 1ae6 01bd 69ca 523e 6dd5 0400 c816 dc3c
000003a0: 49d0 0600 39d5 0000 f769 293d fee8 01bd
000003b0: 5735 0280 6f2d 183e 52b0 0700 8d78 0100
000003c0: a9b0 46bd 93f3 3c3a fb89 3234 e045 4e3d
000003d0: 96b7 0080 eb3b d93c 94e3 f7ba f2fd 01bd
000003e0: 6724 253b e6f7 b5bc 6445 09be 0db5 10be
000003f0: 03aa 0180 2452 4ebd e7ca 0100 224a cebc
1.4593481e-06 -0.009633501 -1.29842e-40 1.611862e-07 -0.08910404 0.026385756 -0.031659417 0.0028384042
-0.0016425468 -4.46346e-40 -1.99793e-40 5.61024e-40 -0.20391437 -0.030843869 -2.51638e-40 0.000656542
-2.48773e-40 -0.04503382 -0.11927062 -0.008694022 -5.24144e-40 -0.039393447 -0.111383475 -0.031757172
0.0073836646 -0.030428497 1.11958e-40 -0.08101891 5.87367e-40 -0.016613787 -0.03169876 -0.14769001
0.00012445377 0.0317722 -0.06897457 0.005344341 8.3477e-41 -5.3546e-41 3.51961e-40 -0.03729702
-0.08160259 0.0009382226 -0.011046922 -1.09534e-40 0.017104162 -0.044965323 4.3136237e-28 0.053762905
0.0026142031 0.019385634 -0.031678554 -0.03174652 -0.030708162 -0.013634588 -3.234131e-14 -3.00824e-40
-0.05542992 -0.031752102 -0.028648509 0.038042318 -1.5136e-40 0.2199611 0.024728855 -1.6473449e-12
-5.30928e-40 -0.030886374 -4.94619e-40 -0.03572957 5.11344e-40 0.016282283 4.40819e-40 0.16153108
-4.53997e-40 -0.027455658 0.008133812 0.027204754 -0.0972575 -0.031668108 1.726068e-13 -0.003577981
-1.59347e-40 1.84547e-40 0.020454913 0.029523667 -0.14147936 0.015435056 -0.050425142 0.0073492927
-0.024218338 4.045349e-12 -0.03038027 -0.031744745 0.059948962 0.067655966 0.008131648 -0.030158639
-0.12831885 -8.9296e-41 7.0351874e-08 0.027406976 1.28743e-40 -4.33127e-40 0.037868373 -0.031672645
1.17776e-40 -0.021587899 -6.06321e-40 -0.03186263 -0.086025275 0.06832898 -0.008350676 -3.59476e-40
9.131073e-14 -1.74417e-40 0.10886282 0.2212485 0.05778907 -8.4037e-41 3.35142e-40 -0.031633344
-0.065768205 -0.043879922 -0.10846849 -5.91195e-40 0.04082345 5.64073e-40 -0.025315486 0.04156341
-0.0770634 0.03535432 -3.056313e-13 -0.11223061 -0.13444264 0.0098023815 0.03095289 -0.00715916
0.14574464 -0.058908533 0.15989341 -0.059264462 1.7024e-41 -0.10113536 0.06650105 -0.0027063647
-0.010705204 -0.031720623 3.4531e-41 -1.37903e-40 3.45182e-40 -0.11187581 -0.11592865 4.97385e-40
0.14137161 0.0007426173 -0.03170466 -0.08605458 -1.2889134e-13 -6.233921e-08 9.059e-41 -0.00025073855
1.1313606e-26 -0.09601833 -4.93991e-40 -0.03157798 -0.123473175 -1.2881e-40 -0.043411426 0.0004645553
-4.70634e-40 -2.9330913e-08 -0.118500404 1.88783e-40 -0.031726625 0.046388898 -0.0031263256 -0.034923222
-5.81704e-40 -0.10998843 5.47039e-40 0.02799829 0.043019712 -0.0010616691 -0.04324727 0.06021541
1.27864e-40 -0.028185077 -9.6388e-41 -6.743e-41 1.1858e-40 0.08506327 0.08880912 -2.838e-42
-1.36422e-40 -2.02206e-40 -6.885e-41 -0.011756476 0.001708563 -0.11210177 5.311e-42 2.47619e-40
-6.83127e-40 -0.08172407 0.034512993 -1.17615e-40 -0.037964556 0.044846844 -5.38169e-40 -0.055810664
-0.031681567 -0.05709398 -2.3156563e-09 -0.1577615 -1.2635834e-30 -0.03173922 0.039113395 -3.96119e-40
0.08321628 -0.023407165 -1.9036e-40 -3.3907e-40 -0.06025493 -1.62004e-40 -0.03172064 2.01819e-40
-0.094509065 -1.8994177e-09 -0.031649116 0.05219961 -0.031713583 0.20585026 4.43905e-40 0.026866332
6.25732e-40 7.649e-41 0.04136082 -0.03171634 -2.02806e-40 0.14861082 7.061e-40 1.35081e-40
-0.04850832 0.0007207926 1.6627739e-07 0.050359607 -6.5858e-41 0.026517829 -0.0018912428 -0.03173632
0.00251987 -0.022212934 -0.13405377 -0.14131565 -1.52824e-40 -0.050371304 1.64623e-40 -0.025181834

layer_2.bias f4 [300]
00000000: c025 e5bc 3ba5 65bc 105e e0bc ad32 d6bb
00000010: f058 61bc 9047 9cbc a04b 6ab9 f821 c0bb
00000020: a219 3a3e db3c 033e df40 aebc 6d80 4eb9
00000030: 86e3 1abd 4afd 1d3d 2512 4b3d 9f78 ac3e
00000040: fecb 1bbc c13b f4bc 4c3b c9bc dbdd e0bc
00000050: 14f8 00b9 aeff c4bc c899 2c3e 485c 3fba
00000060: c6f3 1e3e 043b c43e a049 2c3e ebd5 3bbc
00000070: 6d9b 48be 3e2c 9fbc 9be4 76bd 6b75 08af
00000080: 77ff d5bc 8b65 5d9f 2ba3 97bc 0e33 b7a1
00000090: c156 14bc 973e 12af c90c aebb 61da 313e
000000a0: 60a7 32bc bac1 c83e 9f64 c6bc 482f 5bba
000000b0: d3d0 8c3e 18c2 dc3e 7da2 0d3e 010b 8dbc
000000c0: 8439 dabc 9089 45bb 04af e83d 3a5b 233e
000000d0: cfc9 8c3c 3995 b9bc f22d 79b7 fd6f fcaa
000000e0: 885c 093e 8fda 37be d6e8 cabc f777 adbc
000000f0: 49f1 1d3d 6daa 843f 767b 6fbe 0727 a3bc
00000100: 0948 24bd 3f14 c53e 6ff9 87bc 9d7f ebbc
00000110: 28fb 89bd 3db4 17bc cf29 80be e5b5 bbbd
00000120: 6bef 2cbe 9188 773d e814 a1bc 071c 273e
00000130: e90a 733c 1305 89bc cd54 c63e b4f7 609a
00000140: f505 a93d a8a9 b7bc 52e0 adbc f451 03bb
00000150: 9ce0 1fbc 33a7 393d 0270 d7ba c1fe 97bc
00000160: 436e 56bc f98a b23e 485f cebc fe29 56bc
00000170: e9ef 6eb8 5bb4 64b0 56f0 363e 4d56 96bc
00000180: 90f5 013f c51c 4bb6 4ecb bfbc d794 13bd
00000190: 9db7 f4bd 4953 02bd 044f b3bc 010d 90bd
000001a0: 7a48 02bd 088a c53c d1b5 03be 6feb ebbc
000001b0: 2ffe 4dbe de25 bd07 cbd0 e5bd a523 b0bc
000001c0: 6f61 e23e 855f a2bc ad87 55be 59c9 643e
000001d0: 04bd a2bc 52ce a63c 5676 bcbc 66df 1406
000001e0: a358 a0bc e1c1 85bd 5190 b93d 9715 293e
000001f0: 8299 1ebd d828 54bc c697 963e 62f8 1f3e
00000200: 523e 47be 7a93 b9bc b063 a83e b6cd 503d
00000210: f0cb 353e ef90 a1bc 65f4 c3bc 67d4 663d
00000220: a617 453b 3730 3bbc 945d 81be e48a bcbc
00000230: 4fc9 a8bb dd71 9fbc 7a16 1a97 f230 833e
00000240: 8c76 9dbc 3cdd 84bc 6f95 843e f05e b43d
00000250: 5b2a 24bc 476b 033d 0e5b 99bc 58a5 edbc
00000260: b9ae e5b7 0982 103e 4046 9fbc c9bb b1bc
00000270: 820b 13be 7034 89bc 58cf a1bb 207c 2e3e
00000280: 3833 82a9 d630 a1bc af97 f6bc 7dfa f0bc
00000290: 14c9 99bc f3c4 053f a395 233e e130 d93e
000002a0: 9044 9e39 c2f0 81bc 356a eabc d3c4 a9bc
000002b0: 5991 3fbc f066 393f 932c 5d3d 9a61 363e
000002c0: 6399 9bbc 8083 92be 1782 d2bc 8574 be9a
000002d0: e7a5 82bc ea7c 99bc ffb9 86be 99e4 5b3d
000002e0: 2735 a53e e5f9 63b2 d95c 263e 4d78 5d3e
000002f0: ae1c 593f 98fd 263e 82d0 343d 7a1b 73bc
00000300: 027e d3bc c8d1 8cbc 85e1 07bb bfee c23e
00000310: 33b0 26bd 4104 a9bc 5ba8 90bc afd6 0fbc
00000320: d6f2 803e 6b59 a2bd 5df2 10bd df55 203e
00000330: da51 0c3e d83e 4d3e e7cb aebc 7407 64bd
00000340: 1da9 47bc 65c9 cb84 a57f 11bd 8552 97bc
00000350: c027 dbbc 6050 f9bc 276f 90bc 162a 9abc
00000360: 82d9 c5bc bb54 27bd 6b88 66bd 653c 503f
00000370: 6a45 e0bc 4678 81bc 5849 6f3f 4be8 8b3d
00000380: 1160 183d d40a 7fbc 1032 cf2a 1b50 623c
00000390: fc30 d3ae e13c 243e c13b f93d da4a 263e
000003a0: 6589 c3bd 971b 69bc fbb2 f5bc 04ea 3dbe
000003b0: 9b47 88a8 d9c4 be3d 0018 93b5 4e81 9dbc
000003c0: 1429 e1bc 9a58 4b3d 8cfe 013e 43fc b0bc
000003d0: 3938 dabc 4a69 8fbc 4eac ad3d f2dc f43c
000003e0: ef38 0180 90ff c8bc 6940 8abc ab37 09bd
000003f0: 2045 8cbc 4422 43bd a3bd 183e c37e 0ea9
-0.027972102 -0.014016445 -0.027388602 -0.0065368027 -0.0137541145 -0.019077092 -0.00022344152 -0.0058634244
0.1817384 0.12816183 -0.021271167 -0.00019693533 -0.03781464 0.038571633 0.04957785 0.33685777
-0.009509085 -0.02981365 -0.024564408 -0.027449539 -0.00012299448 -0.024047699 0.16855538 -0.0007299823
0.1552268 0.38326275 0.1682496 -0.011464576 -0.1959054 -0.019430276 -0.06027661 -1.2410843e-10
-0.026122792 -4.6882565e-20 -0.018510422 -1.2414076e-18 -0.009053887 -1.3300859e-10 -0.0053115827 0.17368461
-0.010904163 0.39210302 -0.024217902 -0.00083612325 0.2750307 0.43116832 0.13831516 -0.017217161
-0.026638754 -0.0030141808 0.113615066 0.15952769 0.017186074 -0.022654163 -1.4852254e-05 -4.48419e-13
0.13414204 -0.17954467 -0.024769228 -0.021175368 0.038560186 1.036451 -0.2338694 -0.01991607
-0.04010776 0.3849201 -0.016598431 -0.028747374 -0.067373574 -0.009259281 -0.25031897 -0.09165553
-0.16888206 0.060432974 -0.01966329 0.16319285 0.014834144 -0.016726052 0.38736573 -4.6522207e-23
0.08253089 -0.022419766 -0.021225128 -0.0020037862 -0.009758141 0.04532547 -0.0016436579 -0.018554093
-0.013087812 0.34871653 -0.025191918 -0.013071535 -5.6967056e-05 -8.320222e-10 0.17865118 -0.018351698
0.50765324 -3.0266103e-06 -0.023412373 -0.036030617 -0.11949084 -0.03181771 -0.021888264 -0.0703373
-0.0318074 0.02411367 -0.12862326 -0.028798787 -0.20116495 2.8459816e-34 -0.11221465 -0.021501372
0.4421496 -0.019820938 -0.20852537 0.22342433 -0.01986552 0.020362053 -0.023005646 2.7999833e-35
-0.019573515 -0.0653112 0.09060729 0.16512142 -0.038720615 -0.012949191 0.2941267 0.15622094
-0.19457367 -0.02265333 0.32888556 0.05097743 0.17753577 -0.01972243 -0.023920247 0.056354906
0.003007391 -0.0114250695 -0.25266707 -0.023015447 -0.005150951 -0.019463474 -4.9788453e-25 0.2562328
-0.019221567 -0.016218774 0.2589526 0.088071704 -0.010019864 0.03208473 -0.018720176 -0.029009506
-2.7380289e-05 0.14112104 -0.019442677 -0.021695988 -0.14359859 -0.016748637 -0.0049380474 0.17039537
-5.782045e-14 -0.019676607 -0.030101625 -0.029416317 -0.01877264 0.52253646 0.1597505 0.42420104
0.0003018719 -0.015861873 -0.028615097 -0.020723736 -0.011692368 0.72422695 0.053997587 0.1781067
-0.018994039 -0.28615952 -0.025696797 -7.8770406e-23 -0.015948249 -0.018736321 -0.2631378 0.053684805
0.32267115 -1.32699585e-08 0.16246356 0.21627922 0.84809387 0.16307676 0.04414416 -0.014838094
-0.025816921 -0.017189875 -0.0020733785 0.38072774 -0.04069538 -0.020631911 -0.017658403 -0.008779212
0.2518527 -0.079272114 -0.035387386 0.15657757 0.13703099 0.20043504 -0.021337463 -0.05567117
-0.012186316 -4.7910022e-36 -0.035522122 -0.018471966 -0.026752353 -0.030433834 -0.017631127 -0.018818896
-0.024151567 -0.04085229 -0.056282442 0.81342155 -0.02737685 -0.015804421 0.9347129 0.06831416
0.03720099 -0.0155665465 3.6805324e-13 0.013813044 -9.6038705e-11 0.16038848 0.121696 0.16239491
-0.0954769 -0.014227769 -0.029992571 -0.18546301 -1.5130087e-14 0.093148895 -1.0959338e-06 -0.019226696
-0.027485408 0.049645044 0.12694758 -0.021604663 -0.026638137 -0.01750626 0.0848013 0.029890511
-1.1226e-40 -0.024535924 -0.016876416 -0.033500355 -0.017122805 -0.0476401 0.1491609 -3.1640282e-14

layer_3.weight f4 [1, 300]
00000000: eba0 82bc 9494 9bbc f9bf c9bf 3c94 bfbf
00000010: da2c f9b2 2c45 763c b887 2f3c 7bc5 843c
00000020: 9284 dc3e ccaf cf3e aef8 cfbf 1e14 013d
00000030: 2fde 8dbc 9761 0dbf 650c d03e e577 0e3f
00000040: 70f0 cfbf d565 c6bf e92d c7bf 174e cbbf
00000050: b100 debb 5408 ccbf a300 ca3e b556 ab3b
00000060: 5404 cd3e d81f 553f 67df f43e 76f3 bcbf
00000070: 6970 fe3e c751 cabf d055 70bf bc87 203c
00000080: 16dd c7bf 3103 8f3b 872b cabf 1d3e af38
00000090: dad1 c8bf 5e52 37bc 4898 aabc 8652 ea3e
000000a0: b799 cfb9 5374 f8bf 2e94 cdbf 0e4e e1bb
000000b0: 5809 ddbf a156 573f dacf f73e 653c c8bf
000000c0: 9ffd c5bf ca91 6cbc 41af 25bf 28bc e53e
000000d0: e71a 01bc 32c7 d5bf c9f6 97bc a736 dcbb
000000e0: 7c41 dc3e 9e68 f53e b3c5 c6bf e4a3 c7bf
000000f0: 1ff2 d93c 5f3d 5940 cdcc 0fbd b82b c8bf
00000100: 4f90 80bf fad3 543f 6d15 cbbf 7e7f c8bf
00000110: 1268 5cbc acd7 c3be b46f 6d3e 0e98 613f
00000120: deb6 8dbf 4252 fabc e045 d6bf 486f b7bf
00000130: 2238 15bc 88ef cebf 4fc6 f0bf 615d fbbb
00000140: 6000 83bf 7402 ccbf 4b90 ccbf e346 be3c
00000150: 89b1 09bd d4c5 cbbe 0d08 8fb9 8fa5 a8bc
00000160: 9215 62bf 5d63 4e3f a031 ebbc c240 c4bf
00000170: 311b efbc 81c7 80bc 46a4 ee3e a9ab c8bf
00000180: 192f aabf fa94 e5ba bb9d d2bf ff3a c6bc
00000190: 3a96 81bf 30c8 c7bf 50ac cabf a091 67bb
000001a0: 2649 ccbf 6e91 8b3a d138 2ebe 335e c7bf
000001b0: 3a9d 263f 9ab4 e9b7 232e a5bd df86 d1bf
000001c0: 0cf5 b1bf ea6d c1bf 8216 1dbe f543 ff3e
000001d0: 9a14 4ebf 2d96 01bf 81fd cabf 1b73 ab3b
000001e0: 1517 873b 35cf edbd 2e38 2abf 996d be3e
000001f0: c3b7 a7bc 30e7 c9bf cdbe bd3f f52a f43e
00000200: b7ba 853e ea76 d5bf c8b0 133f a811 07bf
00000210: a6fc 61bf 7014 ccbf 3192 85ba 123f 2cbe
00000220: bafd e0be bceb d1bf a2a4 22be 19fb e13c
00000230: 7a65 a6bc bfc4 c8bf 0f7f 8039 c2aa 82bf
00000240: fcc3 cabf 7e60 c8bf 9d68 d5bf adaf 6a3e
00000250: ac80 76bf 7c55 9cbf 3bb3 c6bf 0590 c3bf
00000260: 7fbb cdbc 6d88 dd3e 797b c2bf 5938 c8bf
00000270: 343f 163e f560 c4bf 6b61 c5bc b9b6 ed3e
00000280: 67f4 7e3a d4b9 ccbf c187 f9bb 6aaf c7bf
00000290: d45e cabf d0c1 c9bf ed89 bcbf ae7b 923f
000002a0: 8bc1 bfbf 037d cfbf 3eee cabf 7db6 d0bf
000002b0: 0053 c5bf df61 ae3f 7ae7 25bf b150 f03e
000002c0: 873a c8bf de0e 45bd bfbf cabf fc73 b23c
000002d0: 06af cebf 7032 bbbc 741f f8be 575c 3abc
000002e0: 55df b33e 65d1 15b3 cc98 de3e d348 c9bf
000002f0: 7c2f b43f bd93 003f 97ad 0abf 6dea c2bf
00000300: 588f ccbf 6fb8 723b 47e5 c2bf 6853 4a3f
00000310: ee8d dd3b cb5f cabf a965 bebc fcfa d4bf
00000320: 1ccb 8f3e 5661 e73b a1e9 ddbf aef7 a8bf
00000330: 620a f93e b46e 4bbf c6ea c8bf e462 86bf
00000340: 355a c4bf 9882 b33b 9edc 8fbf 974e c8bf
00000350: 077a c7bf ad43 cbbf be25 cbbf d37c cabf
00000360: 7442 c9bf e3d7 073c e81c d73d 9dd7 b63f
00000370: 6037 ccbf 2ef5 d1bf 0624 1d40 4f16 0abf
00000380: bb37 febe 5a7c d1bf 3480 8dbb f7e4 9f3f
00000390: 9a01 843c 3550 e43e 6b46 e73e 12c7 96bf
000003a0: deeb fe3d 5b75 cebf ef76 c7bf fffc 613e
000003b0: edf1 6f3c 9ae1 1fbf 5935 ee3a 8e82 cabf
000003c0: 3dcb cdbf e6ed 413f 290d 8cbf 924e cabf
000003d0: cd9b c7bf cee1 d2bf 68b5 90be 7db0 253f
000003e0: 9afa 113c dfc0 ccbf 3c32 c7bf 9f78 4dbd
000003f0: 1c5c 3c3c ecf3 363c a373 f13e 0268 503c
-0.015945872 -0.018991746 -1.576171 -1.4967113 -2.9007811e-08 0.01503114 0.01071351 0.016207447
0.43069893 0.4056381 -1.6247766 0.031513326 -0.01731786 -0.55227035 0.40634456 0.55651695
-1.6245251 -1.5499827 -1.5560886 -1.5883206 -0.0067749848 -1.5940042 0.3945361 0.005228842
0.40042365 0.83251715 0.47826692 -1.4761798 0.49695137 -1.5806206 -0.9388094 0.009797987
-1.5614345 0.004364394 -1.5794533 8.35622e-05 -1.5689042 -0.011189071 -0.020824566 0.45766085
-0.00039596643 -1.9410499 -1.6060846 -0.00687576 -1.7268476 0.8411656 0.48400766 -1.5643431
-1.5468024 -0.014439056 -0.6472054 0.44870114 -0.007879949 -1.6701415 -0.018550294 -0.0067203823
0.4301871 0.4793138 -1.5529083 -1.559689 0.02660471 3.3943708 -0.035107423 -1.5638342
-1.004404 0.8313595 -1.5865914 -1.5663908 -0.013452547 -0.38250482 0.23187143 0.8812264
-1.1071432 -0.030556802 -1.6740074 -1.4330835 -0.009107621 -1.6166849 -1.8810519 -0.0076710437
-1.023449 -1.5938249 -1.5981535 0.02322716 -0.033616576 -0.39799368 -0.00027281084 -0.020586757
-0.88314164 0.80620366 -0.028710186 -1.5332263 -0.02918777 -0.01572013 0.46609706 -1.5677387
-1.3295623 -0.0017515712 -1.6454386 -0.024198053 -1.012397 -1.5607967 -1.5833836 -0.0035334602
-1.5959823 0.00106482 -0.17013861 -1.5575622 0.6508366 -2.7859864e-05 -0.080654405 -1.6369284
-1.3902907 -1.5111668 -0.15340617 0.49856535 -0.80500185 -0.50619775 -1.5858613 0.0052322275
0.0041226246 -0.11611787 -0.66491973 0.3719299 -0.020473367 -1.5773678 1.4823853 0.47689024
0.26119015 -1.6676915 0.5769162 -0.52761316 -0.88276136 -1.5943737 -0.0010190663 -0.16820934
-0.43943578 -1.6400065 -0.15883115 0.027585553 -0.02031206 -1.5685042 0.00024508729 -1.0208361
-1.584106 -1.5654447 -1.667255 0.22918577 -0.9629009 -1.2213588 -1.5523447 -1.5278326
-0.02511382 0.43268147 -1.5193931 -1.5642196 0.14672548 -1.5342089 -0.024094304 0.4642847
0.000972575 -1.599421 -0.00761506 -1.5600407 -1.5810189 -1.5762272 -1.4729592 1.1443994
-1.498094 -1.6210026 -1.5853956 -1.6305691 -1.5415955 1.3623618 -0.6480633 0.46936563
-1.5642861 -0.04810988 -1.5839766 0.021783821 -1.6147163 -0.022851199 -0.48461497 -0.011374555
0.35131326 -3.488221e-08 0.4347595 -1.5725349 1.4076991 0.5022543 -0.5417113 -1.5227791
-1.5981245 0.00370362 -1.522622 0.7903352 0.006761304 -1.5810484 -0.023241835 -1.6639094
0.28084648 0.007061164 -1.7336923 -1.3200586 0.48640734 -0.79465795 -1.5696647 -1.0498929
-1.5340029 0.0054782145 -1.1239202 -1.5648984 -1.5584115 -1.5880028 -1.5870893 -1.5819343
-1.5723405 0.0082912175 0.1050356 1.428455 -1.5954399 -1.6402948 2.4553237 -0.5394029
-0.49651894 -1.6366074 -0.0043182615 1.249175 0.016114045 0.44592443 0.45170912 -1.1779501
0.12447332 -1.6129564 -1.5583171 0.22069167 0.014645082 -0.62453616 0.0018173858 -1.5821092
-1.6077648 0.7575363 -1.0941516 -1.5805228 -1.5594422 -1.647516 -0.28263402 0.64722425
0.008909846 -1.599636 -1.5562205 -0.05016386 0.01149657 0.011166554 0.47158536 0.01272011
