models/all_td3/TD3_TradingEnv9_tts_42_1050_predictor.pth (torch, 113439 bytes, 6 tensors)

layer_1.weight f4 [200, 35]
00000000: 144d 24b4 37a3 2aad 34f9 b2b4 d9b3 69b4
00000010: c710 8c34 2325 0080 bc56 762b b0e7 f8b2
00000020: 64c8 cf99 17af aab3 7603 5fb3 7c5f acaf
00000030: ead0 0080 3a32 c830 fa75 30b5 13cb 9731
00000040: 581d fcb5 331a 72b5 b808 df33 937c 30a2
00000050: b664 5d35 9b08 b8b4 9bd2 8b25 180b 82b5
00000060: a357 08b5 be42 ec31 7e3c 069f 54b4 94b2
00000070: 1f25 2db5 71fe 67a5 3c5d c3b5 803e 91b5
00000080: b864 92ab 2caf 0000 8f36 3b2b acf1 6fbc
00000090: 17d4 b13d aefa ee39 43a6 83bc 107f 923d
000000a0: de2c 913d 4277 42bd 0b8e 94bb 6ad9 373c
000000b0: e81a f03b 9c87 adba 743e 963c 519d 80bc
000000c0: 960d 1e3d 6141 f6bc 8e5c af3d 449c 05bd
000000d0: b942 cdbc 3fa6 d03c de9a 2abe 0688 dd3c
000000e0: bb43 ed3a 6809 35bd 6715 623c 1d60 02bb
000000f0: ede3 1b3d ef9f ab3d d375 52bc c7f0 abba
00000100: c2dd e7bc bb1b 623c 1002 cb39 3f20 703d
00000110: 9c90 a739 6ad5 2ebd c0ce 0080 6f00 0380
00000120: ea06 0180 9d20 0180 23d9 0080 5230 0300
00000130: 5886 0400 b82d 0000 6396 0300 8f10 0080
00000140: d452 0000 56f8 0080 d7fd 0200 87d2 0280
00000150: 3895 0080 24b3 0280 f017 0080 5866 0080
00000160: 6dee 0480 eb43 0780 ff18 0780 de52 0080
00000170: 3b98 0000 1879 0080 1950 0080 3e60 0080
00000180: c35f 0180 d673 0200 9c2b 0080 b209 0680
00000190: 835c 0080 5ea0 0080 ac7e 0780 c000 0480
000001a0: 003e 0000 5433 0480 ea59 0380 cf44 0680
000001b0: 6dbf 0480 baf4 0180 6979 0500 cae6 0680
000001c0: 200c 0280 a0f4 0180 cd94 0480 565d 0280
000001d0: 0544 0700 960a 0480 dd00 0080 a5b9 0580
000001e0: bac8 0300 6770 0000 e545 0580 7094 0500
000001f0: fcf7 0080 21af 0300 1adc 0180 5dac 0180
00000200: 35ab 0280 a8c1 0180 d27f 0200 9a1b 0300
00000210: 3252 0100 b8ab 0180 8505 0380 b639 0180
00000220: 9f29 0180 553a 0600 1764 0780 9b76 0480
00000230: 74ef b8b8 1fc4 80b1 da04 b7b8 51f7 95b8
00000240: 8c53 0bb2 6df2 ed08 cb55 c8a9 34c1 18b8
00000250: 282b c3a6 d975 97b8 aecc 00b8 d0fe 8430
00000260: 7bc0 faa0 bf09 ca34 6ea1 91b7 097a b3b1
00000270: ecc7 4237 bc6a 31b7 4297 2fb3 28b6 002d
00000280: 0a9d eaad 79ae f6b8 b1c6 bdab 7663 f8b8
00000290: b3a8 bfb8 7121 5030 c50a 19a3 6e62 73b0
000002a0: 07a6 c1b8 8399 8728 cb63 f2b8 acbc 8eb8
000002b0: db74 cc2d 6f0b 0786 a0de c29e 590a 0680
000002c0: 8197 0080 0ba3 0580 80d1 0480 de0f 0680
000002d0: c2f3 0080 9782 0580 7ccc 0680 d1ae 0380
000002e0: 6c2e 0680 2949 0780 d453 0580 143d 0700
000002f0: 896d 0680 cfce 0380 cf78 0180 39e7 0280
00000300: b860 0380 429c 0680 2ca1 0580 ff91 0380
00000310: 4e03 0780 3258 0680 98da 0680 32f3 0680
00000320: b3f0 0680 b44b 0200 205d 0180 e273 0780
00000330: 97e1 0380 4646 0780 b94b 0780 ec68 0180
00000340: 226e 0180 45aa 0680 ab1b c636 45ab 9933
00000350: 83b7 15b7 327d 8b36 2d70 d9b2 7237 02a6
00000360: 2cdd 9ca7 488f a1b7 1090 a9b0 1374 abb7
00000370: 01fb aab7 c1aa a4b4 7094 6726 2bc5 48b3
00000380: 5a0a 48b8 d260 9eb3 219e 94b8 650e 4bb8
00000390: c4c9 cdb3 2b80 2a30 607c 25b1 1195 f9b7
000003a0: b9dc aeb2 1942 21b8 f519 dfb7 7612 33b3
000003b0: 8511 e526 bb5a a12f 5808 fdb7 3fd3 ad2f
000003c0: 6409 fbb7 7b71 06b8 8974 b8b1 79f4 4128
000003d0: 848b d023 3315 0080 0495 0180 9a7d 0000
000003e0: 0d6c 0000 2f79 0180 53fb 0080 58ad 0000
000003f0: c06f 0080 8cb3 0480 1e46 0080 5649 0080
-1.5301731e-07 -9.699622e-12 -3.3336403e-07 -2.1765244e-07 2.608924e-07 -1.3322e-41 8.7517125e-13 -2.8976359e-08
-2.1484235e-23 -7.9480905e-08 -5.192438e-08 -3.1354463e-10 -7.4944e-41 1.456619e-09 -6.573679e-07 4.4177653e-09
-1.8784003e-06 -9.019015e-07 1.03858326e-07 -2.3918397e-18 8.247547e-07 -3.4278932e-07 2.4255368e-16 -9.688983e-07
-5.0791476e-07 6.8760917e-09 -2.8425642e-20 -1.7311471e-08 -6.450154e-07 -2.0122264e-16 -1.4555767e-06 -1.0821532e-06
-1.0401879e-12 6.284e-41 6.651146e-13 -0.014645021 0.08683031 0.00045581668 -0.01607049 0.071531415
0.07088636 -0.047477014 -0.0045335344 0.011221269 0.007327426 -0.0013239267 0.018340327 -0.015700014
0.038587175 -0.030060472 0.08562575 -0.03261973 -0.02505623 0.025469897 -0.1666064 0.0270424
0.001810185 -0.044198424 0.013799048 -0.0019893714 0.038059164 0.08380114 -0.012845474 -0.0013118022
-0.028303985 0.013800557 0.00038720714 0.058624502 0.00031960465 -0.042683996 -7.4168e-41 -2.75662e-40
-9.4316e-41 -1.03535e-40 -7.7894e-41 2.9284e-40 4.15535e-40 1.6401e-41 3.29455e-40 -5.94e-42
2.9713e-41 -8.9086e-41 2.74732e-40 -2.59194e-40 -5.353e-41 -2.47935e-40 -8.587e-42 -3.6714e-41
-4.52873e-40 -6.67213e-40 -6.51815e-40 -2.9727e-41 5.461e-41 -4.344e-41 -2.8734e-41 -3.4525e-41
-1.26188e-40 2.25225e-40 -1.5644e-41 -5.54491e-40 -3.3187e-41 -5.7529e-41 -6.8829e-40 -3.67611e-40
2.2241e-41 -3.85755e-40 -3.07762e-40 -5.75697e-40 -4.36013e-40 -1.79627e-40 5.02731e-40 -6.33804e-40
-1.8802e-40 -1.7959e-40 -4.20722e-40 -2.17154e-40 6.67249e-40 -3.7114e-40 -3.1e-43 -5.25774e-40
3.47514e-40 4.0322e-41 -4.84251e-40 5.12427e-40 -8.896e-41 3.38331e-40 -1.70793e-40 -1.53668e-40
-2.45089e-40 -1.61306e-40 2.29524e-40 2.85408e-40 1.21322e-40 -1.53437e-40 -2.77487e-40 -1.12538e-40
-1.06766e-40 5.71939e-40 -6.78754e-40 -4.0989e-40 -8.818405e-05 -3.7475867e-09 -8.727024e-05 -7.15094e-05
-8.109861e-09 1.4320913e-33 -8.896667e-14 -3.641956e-05 -1.3542541e-15 -7.222192e-05 -3.07082e-05 9.676686e-10
-4.247902e-19 3.7632523e-07 -1.7360519e-05 -5.2234594e-09 1.1609849e-05 -1.0574873e-05 -4.088293e-08 7.316404e-12
-2.667246e-11 -0.00011762692 -1.3484406e-12 -0.000118440876 -9.1390124e-05 7.571748e-10 -8.296427e-18 -8.854276e-10
-9.233882e-05 1.5054586e-14 -0.00011558047 -6.8062305e-05 2.324401e-11 -2.5399078e-35 -2.0632625e-20 -5.54725e-40
-5.435e-41 -5.17666e-40 -4.42496e-40 -5.56705e-40 -8.7444e-41 -5.06024e-40 -6.24368e-40 -3.38219e-40
-5.67666e-40 -6.69093e-40 -4.8925e-40 6.64759e-40 -5.90307e-40 -3.49695e-40 -1.35173e-40 -2.66618e-40
-3.10203e-40 -6.07068e-40 -5.16995e-40 -3.2788e-40 -6.44034e-40 -5.82651e-40 -6.2943e-40 -6.38255e-40
-6.3736e-40 2.10828e-40 -1.25242e-40 -6.8442e-40 -3.56433e-40 -6.68058e-40 -6.70013e-40 -1.29474e-40
-1.31344e-40 -6.12094e-40 5.904081e-06 7.1557714e-08 -8.923819e-06 4.1570975e-06 -2.5313136e-08 -4.5177953e-16
-4.3538493e-15 -1.9259416e-05 -1.2337313e-09 -2.043884e-05 -2.0382462e-05 -3.067162e-07 8.0345395e-16 -4.6745452e-08
-4.7693356e-05 -7.37506e-08 -7.086644e-05 -4.8412378e-05 -9.582757e-08 6.202778e-10 -2.408136e-09 -2.9752528e-05
-2.0356639e-08 -3.844695e-05 -2.6595759e-05 -4.1693475e-08 1.5894816e-15 2.9350197e-10 -3.0163836e-05 3.1618616e-10
-2.9925905e-05 -3.2053777e-05 -5.3683533e-09 1.0766664e-14 2.2610492e-17 -7.605e-42 -1.45292e-40 4.5057e-41
3.8761e-41 -1.35308e-40 -9.0158e-41 6.2184e-41 -4.0088e-41 -4.31751e-40 -2.5153e-41 -2.6308e-41

layer_1.bias f4 [200]
00000000: cd3e 41b6 f2ca e2bc b464 0000 9091 0180
00000010: c9b0 8ab9 3e22 0680 916d 32b8 16e8 0280
00000020: 397c 0780 a7f1 98bb f240 0380 2411 0380
00000030: 176c 61b8 d15b 0480 8d88 dc3c f483 0080
00000040: 0fcf 3c2d 62a6 6dba 0a85 0280 78f5 cdbc
00000050: 788a e4bc b07f cdbb fd9b 833b ea21 5a3c
00000060: b234 0480 1f93 3bbd cca5 c8b7 4e09 883c
00000070: 92e3 0280 2c04 f5ac 1663 d2bc 621a 0480
00000080: 5178 643c ad97 0080 2314 4d3d 1836 0680
00000090: 76f7 0380 590e 123b 5202 0400 b1d1 0380
000000a0: df59 0780 eb74 0280 46f0 0280 a871 d5bc
000000b0: 4e38 70a8 7678 0480 2035 77b8 7717 0380
000000c0: 483c 9dbb 7237 6936 daa9 0380 8160 8f3d
000000d0: 4fa2 929e c557 bd37 3e59 88b8 dc5d 0380
000000e0: 3c1a d138 c45a 0480 974a 3e98 dc0e 0380
000000f0: a324 ffb9 cea3 0480 1d89 15bd dd9f 16b2
00000100: e742 0280 f01a 51bb 9d78 9827 1ed0 7c3d
00000110: ff96 0280 4efb 98b2 6ea4 0480 51f5 83b9
00000120: a0a4 0500 9884 0000 f2e7 34ba ba60 d4ac
00000130: c5b2 9c3d c83c 0000 4b8c 0280 e354 0780
00000140: e096 83ac f7c5 8eb8 de2a 76bb 0ebd 612f
00000150: 4e40 0380 b5e6 82b6 d9ab 0780 d54c 0d3b
00000160: be03 0280 6c80 e3bb 2ac7 0280 2ba3 c4af
00000170: c97f f9ba 8f72 1f2c ca39 aeba 45f8 0580
00000180: 8e66 ab3c 41f3 0580 a0a1 a78f 5c8d 10a5
00000190: ea5e 8cbc 2f3d 0680 f457 0680 bba7 54bd
000001a0: e9d5 0680 77df 4ca1 e9bc a63b c1bf 0cbc
000001b0: e7f9 26bc 6f22 0780 3a23 0380 f119 56bb
000001c0: 1eed 823d c9de 0680 d95c 27b6 8177 0280
000001d0: 3037 0380 050d 0480 8a66 89bd d88e e4bb
000001e0: 1579 e23b 883d dbb6 6113 12ba 6cbb 4a30
000001f0: 2374 0cb8 0834 e4bc 1ecc dab9 0356 32bd
00000200: 3f4f 0480 f175 7a8f de1e 8abc 2e1d b3bc
00000210: fbd3 0080 eba4 0280 6dbb 0280 1d9a 073b
00000220: 3c05 04b5 e20c 95b5 757f 103b 4909 9b98
00000230: ca9e b5b0 3ea6 0180 ac54 0580 b767 6db1
00000240: 3f9a 89b9 34ec 0180 9edc b5bc 189e 87b9
00000250: 4c27 460c 424f 0000 a312 75a3 e5b3 7a39
00000260: f511 903d 850b 173e 53de 8e39 5ad4 d3bc
00000270: abe6 6cb6 6dc6 35ae 7122 933b a656 e7b1
00000280: dc09 b2b3 5db7 d1af fd7a 0580 09ce 0480
00000290: a354 0280 c525 0300 3b87 19bd 4b2b 0380
000002a0: 2302 5c98 13bf 29af ddfa 0180 08b0 e012
000002b0: 478e e2a4 cb8e 4638 f7fc e399 c0ba 67ba
000002c0: f6b7 13ae 6b1b dea8 e752 18a3 3720 993c
000002d0: f07d 0180 ea2e 0680 c62e 0480 71c0 39bb
000002e0: 2997 0480 8fd1 0580 0717 c4b3 4582 0380
000002f0: 789b c0a2 7e28 6eb5 8fa5 a29e b0d4 46b3
00000300: bb0b 84bb bb46 0000 2904 0000 c70a 15ba
00000310: 4368 953d c359 0580 d86e 0080 2fbe 0680
-2.8795796e-06 -0.027684662 3.6125e-41 -1.44053e-40 -0.00026453126 -5.63297e-40 -4.254055e-05 -2.66928e-40
-6.87411e-40 -0.004667479 -2.98804e-40 -2.81655e-40 -5.3744847e-05 -4.0028e-40 0.026920581 -4.7336e-41
1.0732539e-11 -0.00090656255 -2.31396e-40 -0.025141463 -0.027898058 -0.006271325 0.004016398 0.01331375
-3.86246e-40 -0.045794602 -2.3919063e-05 0.016606 -2.65308e-40 -6.963782e-12 -0.025682013 -3.76806e-40
0.013944701 -5.4411e-41 0.050068032 -5.70418e-40 -3.64279e-40 0.0022286384 3.68174e-40 -3.5073e-40
-6.75088e-40 -2.25613e-40 -2.69865e-40 -0.026055172 -1.33348854e-14 -4.10555e-40 -5.8938866e-05 -2.83924e-40
-0.004798446 3.475198e-06 -3.36438e-40 0.070008285 -1.552548e-20 2.2571427e-05 -6.501608e-05 -3.09177e-40
9.970783e-05 -3.99903e-40 -2.4594583e-24 -2.80837e-40 -0.00048664687 -4.26104e-40 -0.036507715 -8.767498e-09
-2.07671e-40 -0.0031906925 4.2319244e-15 0.061721914 -2.37838e-40 -1.7809409e-08 -4.26328e-40 -0.00025169042
5.18234e-40 4.7566e-41 -0.00069010176 -6.036141e-12 0.07651285 2.1804e-41 -2.33999e-40 -6.733e-40
-3.7399944e-12 -6.8079615e-05 -0.0037562172 2.0530797e-10 -2.98575e-40 -3.9011597e-06 -7.04496e-40 0.0021560688
-1.85013e-40 -0.0069427993 -2.55118e-40 -3.576813e-10 -0.0019035275 2.2658852e-12 -0.0013292369 -5.4824e-40
0.020922925 -5.4644e-40 -1.6529727e-29 -1.2537903e-16 -0.017135102 -5.72962e-40 -5.82565e-40 -0.051917773
-6.2775e-40 -6.941364e-19 0.005088438 -0.00859064 -0.010191417 -6.55201e-40 -2.88143e-40 -0.003266927
0.06392883 -6.30933e-40 -2.4938984e-06 -2.26541e-40 -2.95304e-40 -3.72013e-40 -0.06709011 -0.006975036
0.0069114068 -6.533872e-06 -0.00055723457 7.3753514e-10 -3.3486762e-05 -0.027856842 -0.0004173228 -0.04353906
-3.9577e-40 -1.2348666e-29 -0.016860422 -0.0218645 -7.6044e-41 -2.42832e-40 -2.50907e-40 0.0020691224
-4.918145e-07 -1.1105114e-06 0.0022048627 -4.0075937e-24 -1.3214614e-09 -1.51472e-40 -4.89552e-40 -3.4546994e-09
-0.000262456 -1.76569e-40 -0.022199925 -0.00025866996 1.5265191e-31 2.8432e-41 -1.3285423e-17 0.00023908874
0.07034675 0.14750488 0.00027249995 -0.025858093 -3.5301007e-06 -4.1330873e-11 0.0044901897 -6.7328356e-09
-8.290564e-08 -3.8147166e-10 -5.03297e-40 -4.41253e-40 -2.14033e-40 2.89056e-40 -0.03748248 -2.91037e-40
-2.8435412e-24 -1.5438344e-10 -1.81828e-40 1.4179782e-27 -9.8252904e-17 4.7339865e-05 -2.3573422e-23 -0.00088397786
-3.358732e-11 -2.4658842e-14 -8.257492e-18 0.018692119 -1.37013e-40 -5.67843e-40 -3.84121e-40 -0.0028343464
-4.21568e-40 -5.34353e-40 -9.13115e-08 -3.22238e-40 -5.2206313e-18 -8.8720833e-07 -1.722089e-20 -4.6293906e-08
-0.0040297187 2.5373e-41 1.492e-42 -0.0005685505 0.07295277 -4.91378e-40 -3.9763e-41 -6.19238e-40

layer_2.weight f4 [100, 200]
00000000: 8c47 0480 fdb6 cfbc 7152 0080 db73 0180
00000010: 199c 0680 8b31 0200 5dac a7a6 73fa 092b
00000020: 3146 0780 b081 6c35 1c17 0200 40f2 0300
00000030: 634b 0000 7450 0680 4522 363c 1d1b 0280
00000040: daa7 a618 bdea 0180 633e 0500 2648 d63a
00000050: f10f 463d 3cdc 1634 e4e4 95bc 64c8 a13d
00000060: 9246 0380 fdc1 d63d 9290 0180 b91a 08bc
00000070: 7725 0080 b6ce 1202 52de 143b 69ff 0500
00000080: 8f0b 743c b786 0000 f3e1 4dbd 360f 0680
00000090: 83d9 0000 1563 9f36 7cf2 0100 6a94 0680
000000a0: e4d5 0480 b2e9 0300 6fe7 0180 f9f5 f626
000000b0: e5d1 0080 eada 0500 4d3e 0000 21fb 0300
000000c0: 0051 5917 bd95 ccb5 c251 0100 63a1 3c3d
000000d0: c47c 0080 3421 5490 ebaf 1a31 ad53 0000
000000e0: 68eb 0980 0a2d 0500 bc6e 0200 65ac 0480
000000f0: 9ea4 019f 094a 0280 132c 3f3c ae04 0200
00000100: b57f 0380 ceef 0d20 b855 0500 a4e8 a2bb
00000110: c7cc 0500 cd7c 9ab0 a7c7 0600 6409 59b7
00000120: 2264 0700 674e 0000 4b87 8a3b f9a8 0500
00000130: 5100 88bd c6de 0000 c03e 0200 88c7 0580
00000140: ff72 0180 c9e7 0180 1e71 18bb 70f3 f491
00000150: e12b 0080 df8a 592e d958 0300 0258 833c
00000160: f583 0380 61a4 54b4 291f 0380 975a 0700
00000170: 1b99 9d3c 7973 0180 6f63 0bb8 6afd 0280
00000180: 9784 07bc be9b 0000 fce6 0400 7ed8 0280
00000190: 23e0 223c f806 0100 9dfa 0000 fa74 893d
000001a0: 8066 0180 690a 0000 3381 ea90 e540 debb
000001b0: f753 0e3d a710 0180 452a 0200 83d5 0536
000001c0: c176 5bbd 475a 0100 4e7e 0500 8888 0200
000001d0: 6a92 0580 2e8c 0000 a13e 0b3d f490 743c
000001e0: c43a e6bc 96c2 30b3 f7e2 2300 860a 0480
000001f0: 699b 0380 abde 1b36 6c82 8f32 a455 983b
00000200: 664f 0300 b29d 0680 f5d9 1e34 fdaa 2db9
00000210: e1b7 0100 e46e 0080 1d77 0000 2a3a 3d13
00000220: 384c 0080 e904 0500 82c8 ad2b f401 0280
00000230: b3f1 0000 8246 0480 d543 0780 f066 0480
00000240: 4e1a 7c2a f660 0380 4d84 7d3c 1d7b 0280
00000250: 59f7 d88d ed70 0580 c3e3 0080 fdd8 5fba
00000260: fd59 9fbd 32fa 97bd a44b 35a9 7dc4 9b3c
00000270: 5fc3 0400 f2b0 0b80 a798 7f3c a8e4 0200
00000280: 5179 0180 d918 0480 00df 0400 7842 0480
00000290: 6a17 0580 b4ef 0300 e8e4 d43c f4b4 0200
000002a0: 4bf1 0080 31ed fab1 4e64 0600 8157 d213
000002b0: 7a8b 0000 3661 0100 6d8c 0180 593f c03c
000002c0: a8d0 7417 1fc1 0080 6b3e 0480 da72 16bd
000002d0: 4a6d 0080 3afe 0680 1119 0600 d6a7 d235
000002e0: 47f7 0580 c5c9 0080 af04 fcb0 a57d 0480
000002f0: aee6 0400 1661 0480 4ca5 910e c96b 0000
00000300: d4db 343b 813c 0580 6d2a 0680 f4b4 69aa
00000310: c2bd 2cbd b5d3 0180 e1d9 0280 c045 0300
00000320: 5360 0300 5975 9c3d d967 0080 ccd9 0200
00000330: bbfb 0200 68db 0180 2a36 b027 b591 0380
00000340: 2919 0380 d26b c9b2 642b 0700 6805 0180
00000350: 269a 0380 b9b9 0580 6f98 303d 73dd 0600
00000360: 56b2 1218 1d51 0280 cc64 0280 2180 05ba
00000370: 857f 943d 2053 80b4 341d 9b3d cf91 9abd
00000380: 6655 0300 b6e5 35bd fafd 0500 a538 5cbd
00000390: e820 0300 8cb7 ce82 b9de afbc b1fd 0000
000003a0: ade9 0c3d 8b59 0200 23f7 e03d dc3c 0200
000003b0: 1d86 0200 9de5 3eb7 4fbc 0300 3d42 0480
000003c0: 0b60 0580 ae2c 0400 d143 0480 b57c da28
000003d0: c893 0300 af9f 0580 424a 0180 0494 0080
000003e0: 7508 a323 eb11 9837 94b8 0180 8be2 adbc
000003f0: 8558 0000 0aaa 0300 ee26 49b3 7438 0080
-3.93008e-40 -0.02535581 -2.9574e-41 -1.33397e-40 -6.0701e-40 2.01444e-40 -1.1634672e-15 4.9019746e-13
-6.68028e-40 8.810557e-07 1.91961e-40 3.6241e-40 2.7044e-41 -5.79874e-40 0.011116569 -1.93397e-40
4.307948e-24 -1.76044e-40 4.81558e-40 0.0016348406 0.048355047 1.404996e-07 -0.01829762 0.078995496
-3.00822e-40 0.10486219 -1.43698e-40 -0.008307152 -1.344e-41 1.0785709e-37 0.002271552 5.50801e-40
0.014895334 4.8327e-41 -0.05026431 -5.5647e-40 7.8029e-41 4.750104e-06 1.78822e-40 -6.04254e-40
-4.44071e-40 3.5934e-40 -1.74858e-40 1.713635e-15 -7.5296e-41 5.37709e-40 2.235e-41 3.65595e-40
7.021872e-25 -1.5242764e-06 1.21165e-40 0.046052348 -4.4757e-41 -4.1835207e-29 2.2509947e-09 3.0017e-41
-9.10967e-40 4.75334e-40 2.23395e-40 -4.29185e-40 -2.745298e-20 -2.1023e-40 0.011668223 1.8535e-40
-3.21319e-40 1.2022509e-19 4.89928e-40 -0.0049715806 5.32638e-40 -1.1240445e-09 6.22635e-40 -1.2936394e-05
6.7877e-40 2.8125e-41 0.004227554 5.19793e-40 -0.06640685 7.9916e-41 2.06181e-40 -5.30756e-40
-1.33088e-40 -1.74984e-40 -0.0023260782 -3.8646442e-28 -1.5741e-41 4.946343e-11 3.07379e-40 0.016033176
-3.22844e-40 -1.9803839e-07 -2.86685e-40 6.75346e-40 0.019238045 -1.33259e-40 -3.3232787e-05 -2.74579e-40
-0.008271358 5.587e-41 4.50204e-40 -2.61334e-40 0.009941134 9.4335e-41 8.9903e-41 0.06711765
-1.28606e-40 3.734e-42 -9.249579e-29 -0.0067826384 0.034748044 -9.7809e-41 1.98834e-40 1.9942825e-06
-0.05358005 1.24221e-40 5.04487e-40 2.32649e-40 -5.11701e-40 5.0287e-41 0.033995274 0.014927138
-0.028104194 -4.1155168e-08 3.295662e-39 -3.71117e-40 -3.31257e-40 2.322641e-06 1.67067e-08 0.004648881
3.03989e-40 -6.07583e-40 1.4794189e-07 -0.00016562264 1.57799e-40 -3.978e-41 4.273e-41 2.388383e-27
-2.7342e-41 4.60939e-40 1.2348041e-12 -1.84372e-40 8.6705e-41 -3.92635e-40 -6.67182e-40 -4.04269e-40
2.2391222e-13 -3.1029e-40 0.0154734375 -2.27836e-40 -1.3371575e-30 -4.99688e-40 -8.1706e-41 -0.00085391087
-0.07780836 -0.07420768 -4.025568e-14 0.019014591 4.37428e-40 -1.073666e-39 0.01560036 2.65697e-40
-1.35356e-40 -3.76256e-40 4.4734e-40 -3.91186e-40 -4.67577e-40 3.61496e-40 0.025988057 2.48585e-40
-8.656e-41 -7.302923e-09 5.86996e-40 5.309774e-27 5.0035e-41 1.26708e-40 -1.42211e-40 0.023467707
7.9104013e-25 -6.9279e-41 -3.89733e-40 -0.036730625 -3.9206e-41 -6.42212e-40 5.60005e-40 1.5695066e-06
-5.47884e-40 -7.2381e-41 -1.8336744e-09 -4.12415e-40 4.50094e-40 -4.0217e-40 3.5904435e-30 3.8666e-41
0.0027596848 -4.80882e-40 -5.66232e-40 -2.0757338e-13 -0.042173155 -1.67782e-40 -2.61831e-40 3.00528e-40
3.10061e-40 0.0763957 -3.7254e-41 2.61802e-40 2.73975e-40 -1.70544e-40 4.8908538e-15 -3.27776e-40
-2.84532e-40 -2.344851e-08 6.58414e-40 -9.3775e-41 -3.30805e-40 -5.25802e-40 0.043114122 6.30454e-40
1.8960094e-24 -2.12769e-40 -2.1983e-40 -0.000509264 0.07250885 -2.390234e-07 0.075739294 -0.07547342
3.06142e-40 -0.044408523 5.50287e-40 -0.053764958 2.87311e-40 -3.037433e-37 -0.021468507 9.1007e-41
0.034402538 2.15793e-40 0.109846376 2.05503e-40 2.31782e-40 -1.13783435e-05 3.43059e-40 -3.91104e-40
-4.93631e-40 3.8337e-40 -3.9167e-40 2.4256945e-14 3.2852e-40 -5.16461e-40 -1.18474e-40 -5.3098e-41
1.7676077e-17 1.8128156e-05 -1.5805e-40 -0.021226188 3.1755e-41 3.36505e-40 -4.6834366e-08 -2.0252e-41

layer_2.bias f4 [100]
00000000: 92fb 113c 2f73 3a3d 7813 1d3d fcca 3b3c
00000010: f3d4 393d f0b8 503c bab5 1d3d 2822 783c
00000020: aa0a 363c 3911 1b3d f1d2 37b8 0a57 133c
00000030: a561 de3b 9930 293c 3f38 613c 4b2f 103c
00000040: 2ca0 203d e79d 313d 43cd 233d 4cf1 3c3c
00000050: cdd4 693c 97f1 363c 832d f33c 1051 293d
00000060: a187 0e3d 2184 143c a5cc 1d3d 0bea 183d
00000070: 95ee bd3b b115 433d f3b8 113d ed00 193d
00000080: 1b7a 0c3c 8d8a 253c c024 303d e5b3 1a3c
00000090: 9d49 2c3d 5f29 303d e46f b4af 6686 193d
000000a0: f453 dc3b b710 3e3c c4c2 233d 76d2 283d
000000b0: d1e8 333c 3980 903c fb1c 233d 764f 293d
000000c0: 2f6d 5b3c 56a5 283c df45 9f3c 07a4 633c
000000d0: 2d96 233d 6cba 323c 8c0b 1f3d 99ef 4e3d
000000e0: 1cf9 2a3d 263f c9bb 5a46 623c 74c8 1a3c
000000f0: 1851 2e3d 31cd 933c 3297 1a3d 86b2 d2a0
00000100: f359 883c c46f 1c3d a839 453d 9969 213d
00000110: afe9 2c3d 84ce a73c be9c 193d d11d 183c
00000120: 6c91 1a3c 841c 163c 184b 603d 7e69 183d
00000130: f911 1f3d df45 2f3c 8f2b 943b 91d1 393c
00000140: 1b4f 203d 9adc 5d3c 1393 95ab 94fc 3d3d
00000150: 2e75 d63b 50bc 243d c301 933d 5864 1c3d
00000160: 34cc 383c 4a17 273d 3e76 2d3c d480 513c
00000170: 5701 2b3d 8a26 453d 6ace 2a3d 48d2 9a3b
00000180: 635b 523c add5 663d 78af ed3b 7ad8 1c3d
0.008910077 0.045520004 0.038348645 0.011461969 0.0453691 0.012739405 0.038503386 0.015144862
0.011110941 0.03785822 -4.3827054e-05 0.00899292 0.0067865425 0.010326528 0.01374632 0.008800338
0.03921525 0.043363478 0.039990675 0.011532139 0.014271927 0.011165998 0.029684788 0.041337073
0.034797315 0.009064705 0.038525242 0.037332576 0.0057962635 0.04762811 0.035576772 0.0373544
0.008574034 0.010103834 0.043003798 0.009442304 0.04206239 0.043008205 -3.2821312e-10 0.037481688
0.006723875 0.011600665 0.039980665 0.041216336 0.010980801 0.017639266 0.03982256 0.041335545
0.013392731 0.010293325 0.019442497 0.013894088 0.03993814 0.010908704 0.03882937 0.050521467
0.041741475 -0.006141561 0.013810718 0.009447206 0.042557806 0.018042179 0.037741847 -3.569352e-19
0.016644454 0.038192526 0.04815069 0.039407346 0.042215046 0.020484217 0.037502997 0.009284453
0.009434085 0.009162072 0.054759115 0.03720998 0.0388355 0.010697811 0.004521794 0.011341468
0.03913794 0.013541365 -1.0627908e-12 0.046383455 0.0065447306 0.04021865 0.071780704 0.038181633
0.011279155 0.040793695 0.010587273 0.012787063 0.041749325 0.048132457 0.041700758 0.0047247745
0.012839171 0.05635612 0.0072535835 0.038292386

layer_3.weight f4 [5, 100]
00000000: e02e 96bd a6ce 233e f6c0 ff3d cd6a 85bd
00000010: b3fb ef3d a825 b4bd 523f fb3d 9eaf c7bd
00000020: 883d 80bd 13ab ff3d f766 432e 460e 93bd
00000030: 1bfc 9d3c 6647 a3bd 4ee9 7dbd 7bb6 33bd
00000040: 0889 e13d abfb b93d f85d 0a3e dbb2 f8bc
00000050: 99af bcbd 5460 08bd 169e 85bd 7cdf d73d
00000060: ea76 06be 45b4 92bd 15da e23d f02e b33d
00000070: 72e5 62bd e627 043d 9668 9b3d c18e 033e
00000080: d02f 8cbd 8f9f 6fbd 1213 fc3d 46b0 97bd
00000090: caa0 a8bc f017 cd3d caa5 0000 30c2 023e
000000a0: be0f 9cbd 17b4 a7bd aace de3d 4084 cd3d
000000b0: 1dc9 a4bd def9 a6bd 5172 d83d 16bb d83d
000000c0: 620e babd a8d2 68bd 532f ebbd 08f2 bcbd
000000d0: d407 b83d e74d 95bd 69f6 dd3d c878 2b3d
000000e0: b219 f03d df84 813d 511f bcbd a18c 8cbd
000000f0: a388 e63d 4c9b c6bd 227b 053e b80d 0280
00000100: a086 b8bd f648 d0bd 2442 063c 0b2e 6e3e
00000110: 68a9 f93d e8e2 bcbd 91e8 073e 36ff 94bd
00000120: 2dcb 88bd 475c 8dbd 790e b83d 43b4 063e
00000130: 5ad5 023e af8d 96bd 818d 1abd abe0 a5bd
00000140: 3e32 7d3d 5bbc bbbd b265 3593 65a9 333e
00000150: 6463 9abd c03a d63d 4f7c bbbd 05bc f43d
00000160: 8f0f 1bbd 15a3 093e d756 7abd d5a6 2dbc
00000170: 7f62 063e f1cc fa3d 25e4 c83d 8eaf 19bd
00000180: c0dd b2bd 5650 1b3e 9603 94bd 61f5 8d3d
00000190: c157 d8bd 586f 853e 6a7a 0b3e 51f4 52bc
000001a0: 584e 5b3e cfcb 07be 3cb8 063e 7387 1abe
000001b0: 3079 16bc 05e9 083e 9c17 68b4 ed6b d8bd
000001c0: eb36 8abc d01a f1bd 39b4 45bb bd55 183d
000001d0: d21f f53d 6820 0d3e 6e48 1c3e ab70 4e3d
000001e0: de69 12be a898 3c3d 5fbd 3cbe 0b6e eb3d
000001f0: c63a 9bbe 8887 d8bd 364a ed3d 0e87 0e3e
00000200: f5ad ecbc c419 4d3d 58c6 0b3e b406 0b3e
00000210: 3f12 27bd efd5 84bc 305c 383e 7958 42bd
00000220: ae29 03bd b34b 613e 2eae 1187 f713 0a3e
00000230: 0c8d cabd 62f9 f9bd 0d24 023e 3f3e d93d
00000240: 0503 f7bd 3bfc 18bd 3e1c d83d 1513 cc3d
00000250: e2bd 0dbe 9062 6ebc 409b 0dbe 0246 12be
00000260: 47ca 123e cc4f 31bd 194e ee3d 1da5 1e3d
00000270: e7d2 073e 7026 cdbd de1e 0fbe c0d6 1dbd
00000280: e58b 023e 3fb9 40be ff90 113e 6060 0200
00000290: f31e 3dbe af17 72be eb3d eebb 0f49 863e
000002a0: e394 343e ac6c 47be 8d8f 123e b616 dcbd
000002b0: f9e6 10bd 4150 20bd 7412 3dbe 0045 0f3e
000002c0: 72dd 0f3e 3b0d 05be dfa6 07bd 4fe3 f9bd
000002d0: 0c06 603d 449a 0cbe fe19 e919 15b3 883e
000002e0: 36a6 c9bd bf78 df3d 2d46 55be 9be5 013e
000002f0: c74f 223d 74ab 2a3e 643f a1bc ead3 ab3d
00000300: 4636 1f3e 5847 7d3e 24dd d83d a730 4dbc
00000310: 85f6 0bbe c26c 933e 7af2 bbbd 3555 983d
00000320: 445c 2bbe a840 0dbd eda8 133e 7d0e 2cbe
00000330: 7c0c f73d e75d 38be 79e9 143e 6645 55be
00000340: e4b3 34be 7f3f 123e 9a47 912f 1452 2cbe
00000350: ca24 90bd d87a 28be 54ca 29be 5e28 3cbe
00000360: 2620 123e 18db 1a3e 8895 1b3e 6260 51be
00000370: a4f5 46be 1ad2 50be dbff 993d 3f65 1b3e
00000380: f06f 16be 2a4d 2bbe e7e2 0f3e 5c13 fe3d
00000390: cb6d 36be 4272 323e 0682 d93d 3524 123e
000003a0: 15cf 2abe c306 2dbe 7807 103e 831b 2dbe
000003b0: 3f68 303e 5f9a d13d 54ff 468b 03e7 113e
000003c0: b8a9 27be e6fb 39be 5376 0f3e cbaf 183e
000003d0: 28a2 38be 0f82 2dbe c1a1 183e e93b 1a3e
000003e0: 9937 3cbe 7495 38be 9e7e 13be 5947 46be
000003f0: 28b2 0b3e f748 28be 183b 103e 1634 383e
-0.073331594 0.15996799 0.12487976 -0.06514511 0.1171793 -0.08796245 0.12267937 -0.09750293
-0.06261736 0.12483802 4.4429318e-11 -0.07180457 0.019285252 -0.079726025 -0.061990075 -0.0438752
0.11012465 0.09081205 0.13512409 -0.030358722 -0.0921318 -0.03329499 -0.06524293 0.10540673
-0.131313 -0.0716329 0.11076752 0.08749187 -0.055394597 0.032264613 0.075883076 0.12847425
-0.06845057 -0.058501776 0.12308325 -0.07406668 -0.020584483 0.10014331 5.9474e-41 0.12769389
-0.0762019 -0.08188646 0.10879262 0.1003499 -0.08046172 -0.08153127 0.10568679 0.10582559
-0.090847746 -0.056841522 -0.11483636 -0.09225851 0.08985868 -0.07290249 0.10838015 0.041863233
0.11723651 0.06324171 -0.09185661 -0.0686276 0.1125653 -0.09697589 0.13035253 -1.88592e-40
-0.09010053 -0.10170166 0.00819448 0.23259751 0.12190515 -0.092229664 0.13272311 -0.0727524
-0.06679378 -0.06902366 0.089871354 0.13154702 0.127767 -0.07351243 -0.037732605 -0.08099493
0.061815493 -0.09166785 -2.2895551e-27 0.17545088 -0.075384885 0.104604244 -0.09154569 0.119499244
-0.037856635 0.13441117 -0.061117973 -0.010598858 0.13123511 0.12246121 0.0980914 -0.037520938
-0.08733702 0.15167364 -0.072272465 0.06931568 -0.10563613 0.2606151 0.13620916 -0.012875632
0.21416605 -0.1326134 0.13156217 -0.15090732 -0.009184167 0.1337014 -2.1615273e-07 -0.1056746
-0.01687189 -0.11772692 -0.0030167236 0.03719114 0.1196896 0.13781893 0.15262005 0.050400417
-0.14298198 0.04604402 -0.18431614 0.114955984 -0.30318278 -0.105727255 0.1158642 0.13918707
-0.028891543 0.0500734 0.13649881 0.13576776 -0.040788885 -0.016215293 0.18003917 -0.047447655
-0.03202217 0.22001533 -1.0959774e-34 0.13484178 -0.09890184 -0.12205769 0.12709065 0.106075756
-0.12061123 -0.03734992 0.10552262 0.09964577 -0.13841966 -0.014549866 -0.13828754 -0.14284518
0.14334975 -0.04328899 0.1163599 0.038731683 0.13264047 -0.10017097 -0.13976619 -0.03853488
0.12748678 -0.18820666 0.14215468 2.18244e-40 -0.18468837 -0.23641847 -0.007270565 0.26227614
0.17634921 -0.19475049 0.14312573 -0.10746519 -0.035376523 -0.039139036 -0.1846407 0.13991165
0.14049318 -0.12993328 -0.033118125 -0.12201559 0.054693267 -0.13730723 2.4102134e-23 0.2669913
-0.09846155 0.10911702 -0.20827551 0.12685244 0.039626863 0.16666967 -0.019683547 0.08390029
0.15548047 0.24734247 0.10589054 -0.012523807 -0.13668258 0.28793913 -0.09177108 0.07438127
-0.16734415 -0.03448549 0.14419909 -0.16802402 0.12062928 -0.18004571 0.14542188 -0.20827255
-0.17646748 0.14282034 2.6426222e-10 -0.16828185 -0.07038267 -0.16453111 -0.16581088 -0.18374774
0.14270076 0.1512264 0.1519376 -0.20446923 -0.19429642 -0.20392647 0.07519504 0.15175341
-0.14691138 -0.16728655 0.140514 0.12406036 -0.1781532 0.17426398 0.10620503 0.14271624
-0.16680558 -0.1689711 0.14065349 -0.16905026 0.17227267 0.10234522 -3.83255e-32 0.1424828
-0.16373336 -0.18162498 0.14009981 0.1491081 -0.18030608 -0.16944145 0.14905454 0.15061916
-0.18380584 -0.18025762 -0.1440377 -0.19363154 0.1364218 -0.16434084 0.14085042 0.17988619

layer_3.bias f4 [5]
00000000: d27f 56bd c446 91bb 9800 803d b2a3 bf3d
00000010: 7662 ee3c
-0.052367993 -0.0044334847 0.06250113 0.09357394 0.029099684
