models/all_td3/TD3_TradingEnv9_robust_warm_42_450_critic_2.pth (torch, 582239 bytes, 5 tensors)

layer_1.weight f4 [400, 60]
00000000: 8e71 90bf 627f 413f a6d0 87bf 4189 84bf
00000010: cfbd e93e 50b0 a03f 1d35 fbbf 6af0 adbf
00000020: afe6 873d 0e29 d3bf 1a74 0ec0 b0d0 f1bf
00000030: 09b9 c5bf e190 61c0 13bb b9bf 92e1 0bbf
00000040: 7d75 f23e 57b2 9e3d b57a 4ebd a37d f8bf
00000050: 6184 8fbe 1713 a43c 0873 9c3d 4bf9 a03e
00000060: cce5 8fbf 1372 32bf 1a7b 4a3e fcc6 21bf
00000070: 4a99 7ebe c89e 27bf 72bb 1ebf 7cee abbf
00000080: bb68 0a40 654a 0040 6d00 e33d 0c2b a639
00000090: ecb8 16bf 1248 cbbf cdf4 4bbf 43ca 0bbf
000000a0: 6d2f 86c0 ee18 45c0 be77 45c0 b6e2 abbe
000000b0: 7505 c13e f94c 853e 1d52 c23e 68e9 143f
000000c0: 2f65 943f 5253 92bd d012 0b00 f4b1 0500
000000d0: 8a5e 0300 132b 0580 6240 5a3f c61e a0be
000000e0: 0bc1 fdbe c83a 863f 59b5 3bbf 5ef4 ad3e
000000f0: 2b08 2a3f b1e4 6b3f 271f f33e 4c92 db3e
00000100: 6321 753f c814 41c0 4af6 cf3f ce06 513f
00000110: 7f37 933d 7f80 e03f 9d9b 5b3e dbda d53f
00000120: 989c d43f 27a7 06c0 8211 e0bb d9d0 febf
00000130: 6ac6 9dbe 5f59 353e ef00 8e3f e06f 4440
00000140: f156 b63f 4da9 853f 89b6 e4be 565f b240
00000150: b6d2 3840 45f6 043f 51c5 1dbd 38ad 093f
00000160: 4f45 0840 7097 173f 5bcc ec3e eb4d 5abe
00000170: d2cc 39be a2cd aabf b780 23bf 572e 993d
00000180: 4ef8 343f 4200 cf3f ab46 023f 027e 083f
00000190: 154c 6140 f66b 86bf 5aea 9f40 f1fb 803e
000001a0: a29e 8b3c 0931 593f 90c4 0ebf 9ae7 5fbf
000001b0: 904c 6fbf 3a10 6d3d 6dee 0580 b2a1 0b80
000001c0: ddee 0b80 42c9 0980 248e 42bf d36c a73e
000001d0: 5e66 8c3e 8801 08be 0413 5c3f 4511 33bd
000001e0: 9921 2b3e 0a81 cfbe d039 283e 0619 453e
000001f0: 8478 8d3e 3fa2 23bc 8f7d 0abf 092a 063f
00000200: 1422 443e 75f9 513e 226f 40be e530 4f3e
00000210: 7a05 653e 50a7 4a3d 453b cb3f 81d1 ed3e
00000220: c9f7 ac3e 0c97 7d3c c947 f0bc 6e8f cfbb
00000230: c6cd 65bd 8748 7ebc 90d8 9b3c f265 41bf
00000240: 0bf6 88be 6683 9e3e e5bb 59bf df59 0c3d
00000250: 9679 c73d 5090 073d 56b0 743d 7661 df3e
00000260: 534f 83bf 19b8 423e 9322 013e a5f0 40be
00000270: 9aa4 b13d 25a6 18bf b2bc f33d a6df d93d
00000280: 0c59 933d 95a1 993e 30e2 433f 1912 bebe
00000290: b8fe dfbc 7c7c b43e c521 2a3e 5ef3 773c
000002a0: 31e5 bb3e 3524 003d c9d8 0c80 f03d 0f00
000002b0: c364 0700 135d 0500 564b a2bd d867 b83e
000002c0: b62e d63d e5ae 15bf e1d5 fe3e 3c3c 87be
000002d0: c336 89bf 3c05 93bf 0745 bdbf 753d 9ebf
000002e0: cad5 06bf d616 a7c0 055b 1140 7387 793f
000002f0: 9d41 9a3b 90cc 1abf 510e 343f dd6c 82bf
00000300: 2250 e9be 4331 af40 971f fd3f 41b0 d03f
00000310: e7b1 0abf 3145 473d d2c5 6dbf b6a2 0040
00000320: 2314 58bf 895a 99bf 4a55 ca3f 7dfa 2240
00000330: e6bb 8540 e5c4 4c3f 8689 023c db9d 043f
00000340: 5f05 31bf 948b a23e 0fbd 3c3e 9881 2c40
00000350: 69b0 44c0 6f1c c540 13b0 273d 5322 883d
00000360: a3ca aa3d 1b48 1040 8895 50bd f98e f5bd
00000370: 19dd 36c0 e6c6 13bf 43e8 863f 51b7 7b3f
00000380: 8fb9 8a3d 37b9 3bbf fdbd 9b3e e7b7 023f
00000390: 4957 9c3e fa37 033e 275a 0200 7abc 0100
000003a0: e106 0100 78f7 0100 44b5 e8be 7eb1 efbe
000003b0: 6ade 723e 97bf 7abe 97da f63e b8fd eabd
000003c0: 8d1c d03c 3ec0 ec3e f4c3 9a3b 7d5c 003c
000003d0: 5729 733e d951 e93e 0946 833f 32e3 4b3e
000003e0: fc83 23be 105f 81bd 03f6 033e c933 adbd
000003f0: dcd3 6fbd cb16 9bbe ce7f 503f f280 fa3c
-1.1284654 0.75584996 -1.061055 -1.0354387 0.45652625 1.2553806 -1.9625584 -1.3588994
0.06635796 -1.6496904 -2.2258363 -1.8891811 -1.5447093 -3.5244677 -1.4510216 -0.5464107
0.4735526 0.077488594 -0.05040999 -1.9413341 -0.28030685 0.020028634 0.07639128 0.31440195
-1.1242003 -0.69705313 0.19773522 -0.6319425 -0.24863163 -0.65476656 -0.6200477 -1.3432155
2.1626422 2.0045407 0.110840656 0.0003169406 -0.5887592 -1.5881369 -0.7967041 -0.546055
-4.1932893 -3.0796466 -3.0854335 -0.33571404 0.37699476 0.26035288 0.37953272 0.5816865
1.1593379 -0.07144798 1.016939e-39 5.23015e-40 3.09421e-40 -4.7463e-40 0.8525449 -0.31273478
-0.49561343 1.0486689 -0.7332359 0.339755 0.66418713 0.9214583 0.47484705 0.42885053
0.9575407 -3.0168934 1.6247036 0.8165101 0.071883194 1.7539214 0.2144608 1.6707414
1.6610289 -2.1039522 -0.0068380246 -1.9907485 -0.3081544 0.17709874 1.1094035 3.0693283
1.4245282 1.0442291 -0.44670513 5.5741377 2.8878608 0.5193828 -0.038518254 0.53779936
2.1292303 0.5921545 0.4624966 -0.21318786 -0.18144539 -1.3344004 -0.6386828 0.07479542
0.7069138 1.6171954 0.5088908 0.5331727 3.5202687 -1.0501697 4.9973574 0.25192216
0.017043415 0.84840447 -0.5576868 -0.8746277 -0.934762 0.057876803 -5.44709e-40 -1.068196e-39
-1.095878e-39 -8.98717e-40 -0.7599814 0.32700214 0.2742185 -0.13281834 0.85966516 -0.04371764
0.16712035 -0.40528136 0.16428304 0.19247827 0.2763101 -0.009987413 -0.5409784 0.5240789
0.19153625 0.20505317 -0.18792394 0.20233496 0.2236537 0.049475968 1.5877463 0.464489
0.33782795 0.015477907 -0.029331105 -0.006334237 -0.056104444 -0.015520222 0.019024163 -0.7554618
-0.26750216 0.30959624 -0.8505233 0.034265395 0.097399876 0.03309661 0.05973848 0.43629044
-1.0258583 0.1901554 0.12610845 -0.18841799 0.086739734 -0.59628516 0.11901225 0.10638361
0.07194719 0.3000609 0.7651701 -0.37123182 -0.027343139 0.35251224 0.16614445 0.015133707
0.36698297 0.03128453 -1.179794e-39 1.399751e-39 6.78995e-40 4.92566e-40 -0.079245254 0.36016726
0.10458128 -0.5846999 0.49772552 -0.26413143 -1.0719837 -1.1485972 -1.478669 -1.2362505
-0.52669966 -5.2215376 2.2711804 0.97472304 0.0047075287 -0.6046839 0.70334345 -1.0189472
-0.4556895 5.4747634 1.9775265 1.6303788 -0.5417771 0.04864997 -0.92879975 2.009931
-0.84405726 -1.1980754 1.5807278 2.5465386 4.179187 0.7998794 0.007967358 0.5180337
-0.6914882 0.31747115 0.18431495 2.6954098 -3.0732672 6.159721 0.0409394 0.06647172
0.08339431 2.254401 -0.050923854 -0.119901605 -2.8572447 -0.5772537 1.0539631 0.98326594
0.06773674 -0.7332949 0.30418387 0.5106186 0.30535343 0.12814322 2.16012e-40 1.59448e-40
9.4303e-41 1.8061e-40 -0.45450795 -0.46815103 0.23717657 -0.24487148 0.48213646 -0.11474174
0.02540424 0.4624042 0.0047230665 0.007834551 0.23746239 0.45570257 1.0255748 0.19910887
-0.15968317 -0.0631696 0.12886815 -0.08457143 -0.058551654 -0.30290827 0.81445014 0.030579064

layer_1.bias f4 [400]
00000000: 0ae4 153f cffa a1bf befc ffbb 9c69 a73e
00000010: e190 193e 1107 e13f 6189 bf3f 47f6 a53f
00000020: 00d2 703f 1f2d 123e dbe5 86bd b1af c43e
00000030: 71f8 27be 1bcc 2b3f c420 99bd d259 f7bb
00000040: 438f fdbd bdea 623f befe e0bf 7c64 673d
00000050: c488 cbbf bf00 6ebf 869b 68bd 27ee 883e
00000060: 66e3 7a3f 4cf9 acbd 5d95 6c3e ad49 5b3e
00000070: 2fc0 fabe b4a9 b33f f9cc f43d 648f 083f
00000080: dce1 e63c e53a e9bf 00a4 073e cc6b bd3f
00000090: f81b 8a3f 74d7 2a3b 803f 88be 3c4c 783f
000000a0: a1c6 a13c 9b2c c2bf 4b83 be3e c4a5 823f
000000b0: 9b32 083f 9eec c33f 6ee8 023f 963c 803f
000000c0: 8aa3 aabd bf6b 90bd e8a4 d8bf 7a1c 5b3e
000000d0: 9e9a cb3e 9a41 883e 09e3 833e 5f84 aabf
000000e0: 5aa9 663f bbfd 943f 1db2 4dbf 4bbb 8f3e
000000f0: a420 8d3f 353a 40bf e7c1 9dbf a4cb 843f
00000100: 0abe babe 170a 49bf e31d d8bd 1de6 783f
00000110: 3a97 963e 5afb c9bc 22a9 0a3f 0897 2c3e
00000120: 6ec3 063d ee0c 32be 19fd 3a3f 04a2 633e
00000130: 19b0 32bf c850 e33b 4fd0 dabe 0a91 3e3f
00000140: b129 5dbf f013 103e 1955 6a3e a277 8ebe
00000150: 80af ce3f 2d08 8e3e b68d b4be 3765 4abf
00000160: f279 583e ef47 813e b530 223f 3114 f9bd
00000170: 073e fd3f 306e 32bf 6559 c93f a333 8a3e
00000180: a5c6 c9bd 52d4 7fbd a570 af3e 676b 92bd
00000190: 49b5 903f ff85 6b3d 6f39 cfbf e118 b4be
000001a0: cab6 943e d9e3 bfbf 31b6 04bf af86 a13e
000001b0: 5538 653d fefb 93be d4d2 5a3f 62b8 873e
000001c0: f930 5ebd 9092 8fbf f244 3f3f ad7d 07bd
000001d0: 63b4 c43e 4b5d 47bf cdc4 8b3c 5f10 ad3d
000001e0: 3456 523f cb2d aebf a21a 463e 1006 ed3d
000001f0: 90aa 98bf fe2f cc3e 6ecb 6ebb e89c dc3f
00000200: b17e 813f bb29 623e 7f74 b03f 0e9a 8cbd
00000210: 4ee9 033e 066e 503d c277 0c3f 460c f63d
00000220: 212a f0be 605e d53d a3b0 b73e c505 efbe
00000230: ee13 e93e e9ad 00bf 3ecc dabd ace6 cb3d
00000240: c50f 223e 0298 cb3e e245 48be db46 ecbe
00000250: fe4c 593e 6c15 a43d 4a76 a73f 6166 933e
00000260: baf6 3a3b 41be f43e 508c 913f 5111 42bf
00000270: 9698 a0be b73e 5c3e bf4d c13e cbc6 243d
00000280: eb22 5abe d55f 6e3f 74b2 6f3e bf42 163f
00000290: aa74 903e c493 be3e f191 e33d 63ef 8ebe
000002a0: 749f 4b3f a036 483e 6ad1 163f 7159 b03c
000002b0: b918 cb3d 65c0 a23f 99ff 00bd 6ccd 1a3d
000002c0: b8ed edbb 06bc 2bbf bf7e c0bd be1b dbbd
000002d0: 63da d1bd 2fe1 763f f7c6 083f 02a1 993e
000002e0: 718d 153f 52be 4b3e ae0a 9b3e 0961 b1bf
000002f0: 8a84 f13d db8e 5b3f a0bf d8bd 3e9c 143f
00000300: 83b7 3fbf 034c 8d3e 8f1a 53be 2a51 69bd
00000310: eef7 bebe 5f73 433e 77f2 603e 22ac 723f
00000320: 51aa 7f3e bb67 9cbd af1d 1c3f cbb0 323e
00000330: 94d6 acbf 01f0 e63f 31fe 713e 79eb 81bd
00000340: 5e3e 133e bd5a 16be 1e7d 253e fb37 60bf
00000350: 5544 203d c6b5 81bf 1ebc e73d 6694 f63f
00000360: c763 823e 6343 223e 3c3e 28bf 168e af3e
00000370: 6304 553f 9e69 e1be 5865 283f f4dd 5bbe
00000380: 23ba a5bc 965a 99bd f9ad abbe 85a0 ed3c
00000390: d142 9ebd ed22 1e3f d262 d73e 2a0d b93f
000003a0: e66f 45bf 0b23 253f 3df4 80be 2615 303d
000003b0: 70bf 273e ceef 663b 3049 be3f e544 a83d
000003c0: ab78 a23d 6045 efbc 493c 963f 5705 af3d
000003d0: 57eb cabc 033d 90bf 1ee1 cdbd 0d71 23bd
000003e0: a241 693e a48b 863d b2cd 1e3f 689c 6bbc
000003f0: ba5c 5ebd 5fdf 263d 30bc 4d3e 0fc6 2c3d
0.58551085 -1.2654666 -0.0078121116 0.3269776 0.14996673 1.7580281 1.49638 1.2965783
0.94070435 0.14275025 -0.0658681 0.38415292 -0.16403367 0.67108315 -0.07476953 -0.007548549
-0.12380841 0.8863943 -1.7577741 0.056492314 -1.5901113 -0.9296989 -0.056788944 0.26744196
0.9800323 -0.08445987 0.23103853 0.21414824 -0.4897475 1.4036164 0.11953158 0.53343797
0.02818387 -1.8221098 0.13246155 1.4798522 1.0789785 0.0026068361 -0.26610947 0.96991324
0.019748034 -1.5169863 0.37209544 1.0206838 0.5320222 1.5306585 0.5113591 1.0018489
-0.08331974 -0.07051801 -1.6925325 0.21397582 0.397664 0.2661255 0.25759152 -1.3321646
0.9010216 1.1639932 -0.80349904 0.2807258 1.1025586 -0.75088817 -1.2324799 1.0374646
-0.36473113 -0.7853102 -0.105525754 0.97226125 0.29412252 -0.024655987 0.54164326 0.16854489
0.03290122 -0.17387745 0.73042446 0.22229773 -0.69799954 0.00693712 -0.42737052 0.7444006
-0.8639174 0.14070106 0.22884025 -0.27825648 1.6147308 0.27740613 -0.35264367 -0.7906069
0.21140268 0.25250193 0.6335557 -0.12162054 1.9784554 -0.6969938 1.5730406 0.2699252
-0.098523416 -0.062458344 0.34265628 -0.071493916 1.1305324 0.057500836 -1.6189402 -0.3517523
0.29045707 -1.4991409 -0.518405 0.31548068 0.055961926 -0.28903192 0.8547795 0.2650786
-0.054245923 -1.1216602 0.7471458 -0.03307884 0.38418874 -0.7787673 0.017061615 0.08450388
0.82162786 -1.3607725 0.19346097 0.11573422 -1.1927052 0.39880365 -0.0036437172 1.7235384
1.0116788 0.22086231 1.3785552 -0.06865321 0.12881967 0.050886177 0.54870236 0.1201406
-0.46907142 0.10418391 0.3587695 -0.4668409 0.45523018 -0.50265366 -0.10683487 0.099561065
0.15826328 0.3976441 -0.19557908 -0.46147808 0.21220776 0.080118984 1.3082974 0.28789046
0.0028528408 0.47801402 1.1370945 -0.7580767 -0.31366414 0.21508299 0.37754628 0.040228646
-0.21302383 0.9311498 0.23407918 0.58695596 0.28214008 0.3722211 0.111118205 -0.27917013
0.7954018 0.19552088 0.5891329 0.021527024 0.09916825 1.2714964 -0.031493757 0.03779356
-0.0072610043 -0.67083776 -0.09399175 -0.10698651 -0.10246732 0.9643735 0.53428596 0.30005652
0.5841895 0.1989682 0.30281585 -1.3857738 0.11792858 0.85764855 -0.105834246 0.58050907
-0.7488939 0.27597055 -0.206156 -0.05696217 -0.3729853 0.1908698 0.21967493 0.94793904
0.24967314 -0.076369725 0.60982794 0.17450254 -1.3502984 1.8041993 0.23632123 -0.06343741
0.1437926 -0.14683051 0.1616101 -0.8758542 0.039127667 -1.0133598 0.113151774 1.9264038
0.2546675 0.15846018 -0.6571996 0.3428809 0.8320982 -0.44025892 0.6577964 -0.21471387
-0.020230358 -0.07487981 -0.33531168 0.029007206 -0.07727588 0.6177204 0.4206758 1.4457142
-0.7712387 0.64506596 -0.2518634 0.04298892 0.16381621 0.003523815 1.4866085 0.082162656
0.07933172 -0.029207885 1.1737148 0.0854594 -0.024770422 -1.1268619 -0.10052703 -0.039902736
0.22778943 0.06569603 0.62032616 -0.014380552 -0.05428765 0.040740367 0.20091319 0.04218107

layer_2.weight f4 [300, 400]
00000000: e0a7 7b3e 21eb b73e 2861 223f dd25 f1be
00000010: 4cda a7be d258 e93c eac3 a6be d272 8abd
00000020: 4256 863d 2e11 923e bdca 0d3f 2fd0 41be
00000030: d3f4 133f 6d6b 113e f08d 1e3e 4a3b 90bd
00000040: 8240 8abe 7ac7 743e 810a f03e b061 95bd
00000050: 56da 523e bb76 743e 1b59 37bc 3ebe 85bc
00000060: f729 6dbd 6cb9 35be 1d4d c33e 66ac a8be
00000070: cbc5 17be 6a25 6cbd 75a6 a03d 5b01 42bd
00000080: b5b7 15be 0b56 263f afe3 2abd a75e ddba
00000090: 7dcd f73d f54b 143f 427d 2b3e e8e1 a2bd
000000a0: 4b70 823e c5ab 0f3e 6095 483d 38e0 d0be
000000b0: d293 0cbf 5b95 b9bc 592f 843e e8d8 543e
000000c0: 60ff a83e 992a c83d bfd6 87bf 86ac 7a3e
000000d0: 9d63 8ebe b227 b93d d79d 81bc 5fd1 f7bd
000000e0: 185d 3dbe d34c 6abe 6c20 3dbe de93 a5bd
000000f0: cbac 3f3e 0118 8cbf 06c2 5d3e d321 c2be
00000100: 4959 303e 84da f1bd d722 52bd 8d21 b9bd
00000110: a1b6 31be b045 f33d b1c3 27bf 2b3d 37be
00000120: 4c8d a03e 50c5 ecbe ff9f 5a3d feff 3f3d
00000130: 584d 3b3e ccc3 ac3e c16e ffbd c29e 32bd
00000140: c685 e63d c978 ee3d c03c 0b3f 0093 cabc
00000150: f49e 74bd 675b f5bd 8991 dd3e 6004 ec3e
00000160: 5a7c 01bd 71b8 213f b351 b4bc b1ab f73d
00000170: 5ca5 36bd a6a7 d2bc 6a3e b1be 8a23 4abe
00000180: 8213 8e3e fcb5 923c 1d95 efbd 5d4b 263d
00000190: b7c9 e5bd 50aa ea3d 9165 9dbe f4ff 86be
000001a0: 1af8 9f3e eb06 863e aff9 4dbf 8347 d5be
000001b0: ace6 8a3d bd65 febd 8d0b 6cbd f1cf 6fbc
000001c0: dbe0 d73e 5204 2dbc 93df e0bd acaa 5bbe
000001d0: c0b2 dabd 9c27 243e ce5b 84be 2f60 f13e
000001e0: 93c3 b53d 6103 20bf 713a 0b3e 5a28 0a3e
000001f0: 252e 88be e606 bfbd c169 6c3e 506c 47bc
00000200: 12f3 b2be 7538 6d3e d508 113c f960 623e
00000210: 5413 50bf 9396 d3bc c822 25bf 4a16 55be
00000220: 329f a3bd e61b c33d 6b14 cd3e afe5 4a3e
00000230: 7520 5cbf 69a3 04be fe04 babd 7a5d a23e
00000240: 6bad 7bbd b425 04bc a3cc 653e 98f6 4e3e
00000250: 99b1 7fbe 39fc 35be 83ff 22be 5de0 8cbc
00000260: 738f 06bd 5b39 173e 9ce6 84be 1986 77bf
00000270: b56d 6f3d e1b5 62be e3ec 57be ae29 a53d
00000280: 0640 ae3e acec d6be f2ed 353e 1b7a 99bd
00000290: f27c 0d3f 8b1e c1be 8d06 f03d 308b cabc
000002a0: 2a0a 0b3e 832d 9c3d 669c cdbc 20b7 b9bd
000002b0: 4f46 963d b578 94bd bd05 d53e bd9a 41bf
000002c0: 11ce 26bd 8902 0cbf 6679 1cbf 1ebe 2e3f
000002d0: bd90 2e3e a550 9abe 294e 193f aee9 ce3c
000002e0: 6765 193e 0f14 ae3e 7ae4 943d 2e27 2c3e
000002f0: 542f 2f3f de6e c43d c508 433e 7281 94be
00000300: 28ac 0b3d 6ca7 39be 1423 033f 4136 163f
00000310: 8d41 90be 4ff1 513e 0c6e 85be 4760 c83c
00000320: 03de 7e3e 5d47 573e bfc7 953e 0130 81be
00000330: 0d2a 66bf b4ec 3d3e ed07 3d3c 22e2 ac3c
00000340: 6caf 0a3c de7c 103d e9e1 cc3d ae3d f3be
00000350: afaa 473e 223b a3be 937a 593e 9956 1c3d
00000360: ba19 72bb 8f8f edbd ccc0 ac3e 803c eabd
00000370: f99f 863b 5fce fb3d 3c22 f1bd 81f8 ad3e
00000380: 0963 ff3c 8ce4 7bbe 3ba3 17bf f540 e33e
00000390: 0f17 a9bc 663c 223f 71ef f6be b63e 31bd
000003a0: 7695 953d 2266 953e 8ab7 533f b95d aabc
000003b0: 4d14 06bd 4e25 793e 5918 94bb b29f 643e
000003c0: 0da6 593e 435f 063f 8326 dfbd a345 1c3d
000003d0: 382e 423b 246f 9ebe 40c5 b43e 99e3 1d3f
000003e0: d3a9 1b3e c995 10be 0501 0dbd e72b 683e
000003f0: 17bc e63d 0a1c aaba a704 02bb 063b b73d
0.24575758 0.35921577 0.634295 -0.470992 -0.32783735 0.028484736 -0.32571346 -0.067601815
0.06559421 0.28528732 0.5538748 -0.18927072 0.5779545 0.14201136 0.15483832 -0.070425585
-0.2700234 0.2390422 0.46883014 -0.07294023 0.20591101 0.23873417 -0.011190678 -0.016326066
-0.05790135 -0.17746514 0.3814477 -0.3294403 -0.14821546 -0.05765287 0.07844249 -0.047364574
-0.1462086 0.6497504 -0.041721042 -0.001688917 0.12099741 0.579284 0.16747001 -0.079532444
0.25476298 0.14030369 0.04897058 -0.40796065 -0.54913056 -0.022654226 0.25817373 0.20785868
0.33007336 0.0977375 -1.061241 0.24479875 -0.27810374 0.090407744 -0.015822334 -0.12100481
-0.18492544 -0.22880869 -0.18469399 -0.08084844 0.18718259 -1.0944825 0.21656045 -0.3791643
0.1722156 -0.11809257 -0.051302757 -0.090396024 -0.17354824 0.11878526 -0.65532976 -0.17894427
0.313578 -0.46244287 0.05337524 0.046874993 0.18291223 0.3374313 -0.124722965 -0.043608434
0.11255984 0.11644132 0.5438957 -0.024728298 -0.059721902 -0.11980324 0.43275097 0.46097088
-0.03161273 0.6317206 -0.022011613 0.120932944 -0.044591293 -0.025714707 -0.3461793 -0.1974012
0.27749258 0.017909043 -0.11698363 0.040599216 -0.11220115 0.11458266 -0.30741552 -0.26367152
0.31243974 0.26177153 -0.8045911 -0.41656122 0.067822784 -0.12421749 -0.057628203 -0.014636979
0.4216374 -0.010560112 -0.109801434 -0.21451825 -0.10678625 0.16030735 -0.2585129 0.47143695
0.088751934 -0.62505156 0.13596512 0.13491955 -0.26597705 -0.09327488 0.23087217 -0.01217182
-0.34951073 0.23166068 0.008852203 0.22107305 -0.8127949 -0.025828635 -0.64506197 -0.20809284
-0.079893485 0.095268056 0.4005464 0.1981418 -0.85987025 -0.12952961 -0.090829834 0.31711942
-0.06144468 -0.00806563 0.22441344 0.20211256 -0.24970092 -0.17771997 -0.15917782 -0.017196828
-0.032851648 0.14767973 -0.2595719 -0.9668899 0.058454234 -0.22139694 -0.21086459 0.080645904
0.3403322 -0.4197744 0.1776655 -0.07493993 0.55268776 -0.37718615 0.117199995 -0.024724573
0.13578096 0.07625868 -0.02509899 -0.090681314 0.07337629 -0.072495855 0.4160594 -0.75626737
-0.040723864 -0.5469137 -0.6112274 0.68258846 0.17047401 -0.30139652 0.5988489 0.025257912
0.14980088 0.33999678 0.07270141 0.16811821 0.6843159 0.09591459 0.19046314 -0.2900501
0.034099728 -0.18130273 0.512254 0.58676535 -0.2817501 0.20502208 -0.26060522 0.024459971
0.24889378 0.21023317 0.29253957 -0.25231937 -0.89907914 0.18547326 0.011537534 0.021103922
0.008464675 0.035275333 0.100040264 -0.47507995 0.19498704 -0.31881052 0.21238165 0.038168523
-0.0036941604 -0.11599647 0.33740842 -0.11437321 0.0041084257 0.122952215 -0.11774108 0.33978656
0.031175153 -0.24598902 -0.59233445 0.44385496 -0.020640878 0.6337341 -0.48229554 -0.043272696
0.07303898 0.29179484 0.82701933 -0.020796644 -0.032734204 0.24330637 -0.004519504 0.22326544
0.2125475 0.5248911 -0.108960174 0.03815235 0.00296296 -0.3094417 0.3530674 0.6167541
0.15201502 -0.14119639 -0.0344248 0.22672997 0.11266344 -0.0012978327 -0.0019839199 0.08946805

layer_2.bias f4 [300]
00000000: 7a93 9bbd e053 1bb9 69fe 933d 5aad 44b5
00000010: 43c2 383d 985f dd3e b43c 0100 55b5 053f
00000020: 0324 0000 3814 17bc e803 05bf c2aa 85b3
00000030: 9472 9a3d 0c62 943c e90f d93d 52d3 9d3e
00000040: 06b4 fcbd 90bd a63d 28f8 3f11 130b eebb
00000050: 988b 873e f0f3 07af d7db 2e3f a6ea 86bc
00000060: b536 d43d 3f58 c83d 918a 973d 6e53 063f
00000070: 8070 ee2a b462 9f3e 91a9 103e b863 733f
00000080: 996d 853d b37c 5ead 8c4c 0cbe edb2 fb9e
00000090: 4251 d13e 80b0 633f 9519 e9bb 9146 bc3e
000000a0: 2866 1d3f 8663 113e 7345 673f 0b47 973d
000000b0: d573 0a3d 8f6c 493d 54b2 783d 9bb7 dc3e
000000c0: 5816 6d3d bfd5 773f abac 8a3d 6000 123f
000000d0: ac0d 41bc 6948 9d3d 0cee 883d e21d 893d
000000e0: 8a17 223d ea46 3ebe a110 4910 4f5c 05a7
000000f0: d3e8 413e 5688 6d3e 47e3 e6ad 2cce 0580
00000100: 43a1 d13f fe75 d03d 3ff9 0680 65b4 97b0
00000110: 79f8 75ae fc6a 863d aeb1 0680 1bc4 473f
00000120: 27a9 433f b06e 22bf cb2a 013d 84b5 513e
00000130: 9033 dc3d 405f 0480 fbd5 0580 46e5 803f
00000140: fa5f 02bb 5fc7 a7bd 48f8 9ebd 2a8c b8be
00000150: 5142 3d3f 77f7 e13e 7a46 143f c746 76bc
00000160: 441d e0b7 218a 043e b1bd 883d 16a8 9d3d
00000170: 3bce afb5 600d 5ebc 66c8 cbbb 66f4 693e
00000180: 2b90 0300 0d3e 083f d6e9 118e df0a cbb3
00000190: fd8c 833d 21be 5c3d c0cb 1c3e 2220 0580
000001a0: 6e1f 683c ea8d 913d 3673 d4bc 1552 363d
000001b0: 2520 2a3e 61d6 953d 8d77 1f3e 40a6 073e
000001c0: e828 99a1 afc6 83bd 4a49 6d3d 411b 933e
000001d0: ed53 0d80 02d3 d23c 569b 5e3d 52f8 90bb
000001e0: ee6e 0c3d 2fae 9eba 1336 043f f7dd 033f
000001f0: 479a fcb1 a1af 8ab6 ec85 b53c d8e8 15bd
00000200: c889 443b b55f 0e00 97c3 133f e919 b4b5
00000210: e3cc 503e 7aa5 86bd c18b 883e cbe4 833d
00000220: f3c5 0480 ae1e 063e fc6b 893d 0ce1 c8ba
00000230: 09f7 bb3e 2b0f c5be 915d 45bc 1be1 da3e
00000240: 47ce cf3e 5d9b f33c 9c25 e93e afa4 323e
00000250: 593c 13ae 4884 d33f 4171 0580 6f9d fc3d
00000260: f9f8 edbb e4f6 503f f484 11bb 8e0e 91be
00000270: 3821 aabc 2ee5 4abb 6efa e0bd 1f37 cdbb
00000280: 4867 40be 2f89 143e 0dec 83bb da7c 12bc
00000290: a182 b9b9 ac09 4c3d 038a 133f a144 c1bb
000002a0: ed1e 8fba f799 713d ac99 273e 218e 0a80
000002b0: 7f69 29ad 1007 ea3d 4030 d03c b044 f2bb
000002c0: 7f6b 603d fa50 503f 957e 843d 93b2 163e
000002d0: 450c 593d a730 41bc abb5 ba3d 8999 1abb
000002e0: c596 a73d 84e3 8f3f d210 053e 8019 03be
000002f0: 9f10 2d3e e0e0 68b7 e2d1 43bc 6274 a13d
00000300: b0c3 54ac b4db 99b3 7f8b b83e dfe3 b89e
00000310: a8a4 b93d 302b 133f 1be3 003f 81e6 d7b5
00000320: 6e23 1abe 4777 e63f 55bf 9d3d ef17 133f
00000330: 8506 b5b3 2f86 0cbe 15a8 a8a4 4a46 833d
00000340: 212d 0100 988f 103f 822a ab3d 1ccc 963e
00000350: e8e7 a23e 2b2f b0bb ae4f 533d 7b12 c93f
00000360: 5ae5 923d e88b 103f 5151 c4be 2402 4dbe
00000370: 5e29 a23d 1145 833d c3d9 043e 76c5 4e3d
00000380: c749 81be d908 6b3e 17b0 48bc ed13 583d
00000390: b225 503d 94c5 553f 6499 283f ae39 8d3e
000003a0: a8ca d53c d916 a93e fcf9 aa3f 7941 44b7
000003b0: 8f8a 5c3f c30a 103e 1095 12a6 4ba4 b23d
000003c0: 40f2 b73c 583d 273e 4d74 863d 8963 cf3e
000003d0: bd95 863e eb96 f0b5 576c 29bf bbf9 903d
000003e0: 3d1c 283f e87a 933d 61e2 f53e 84be 833c
000003f0: e62b 0500 d93a 793d f946 38be 6d6f 003d
-0.07596488 -0.00014813198 0.07226259 -7.326795e-07 0.045107137 0.43236995 1.13612e-40 0.52229816
1.2919e-41 -0.009221129 -0.51959085 -6.224356e-08 0.07541385 0.018113159 0.10598738 0.30825287
-0.12339024 0.08141625 1.5143712e-28 -0.0072645037 0.2647369 -1.2364842e-10 0.683042 -0.016469311
0.10361997 0.097824566 0.07399476 0.52471054 4.2355355e-13 0.31129992 0.14127184 0.95074034
0.06515045 -1.2646928e-11 -0.13701075 -2.664966e-20 0.40882307 0.8894119 -0.0071136453 0.36772588
0.61484003 0.14198121 0.90340346 0.07386597 0.033801872 0.049175795 0.060716942 0.4310883
0.057882637 0.96810526 0.06771215 0.5703182 -0.011783045 0.07679827 0.06686029 0.06695153
0.03957323 -0.18581739 3.965307e-29 -1.8507498e-15 0.18936472 0.2319654 -2.6248904e-11 -5.33138e-40
1.6377338 0.10178755 -6.40426e-40 -1.1037967e-09 -5.592724e-11 0.065633744 -6.14752e-40 0.7803361
0.7642998 -0.63450146 0.03153495 0.20479399 0.10752022 -4.01511e-40 -5.35939e-40 1.0069969
-0.0019893632 -0.08192324 -0.077622 -0.36044437 0.73929316 0.44134113 0.5792004 -0.015031523
-2.6716509e-05 0.12943317 0.06676806 0.076980755 -1.3098537e-06 -0.013552994 -0.0062189577 0.22847137
3.27224e-40 0.5321968 -1.7985218e-30 -9.4549016e-08 0.06423376 0.05389226 0.153121 -4.70705e-40
0.01416765 0.07107146 -0.025933843 0.044511873 0.16613825 0.0731628 0.15572949 0.13247013
-1.0378511e-18 -0.0643438 0.057931222 0.2873173 -1.223968e-39 0.025735382 0.05434736 -0.0044241333
0.03428548 -0.0012106354 0.5164501 0.51510566 -7.3517046e-09 -4.1331664e-06 0.022158585 -0.03659901
0.002998935 1.32003e-39 0.5772032 -1.3418586e-06 0.20390658 -0.06574531 0.26669124 0.06440123
-4.38353e-40 0.13097641 0.067100495 -0.0015325858 0.3671191 -0.38488135 -0.012046234 0.42749867
0.40587065 0.029737169 0.45536506 0.17445634 -3.347753e-11 1.6524744 -4.99805e-40 0.123347156
-0.007262346 0.81626725 -0.002220449 -0.28331417 -0.020767793 -0.0030959356 -0.10985266 -0.0062626745
-0.18789399 0.14505456 -0.004025942 -0.0089409 -0.00035383276 0.04981391 0.57632464 -0.005898074
-0.0010919251 0.058984723 0.16367215 -9.69341e-40 -9.629963e-12 0.11427128 0.025413632 -0.007393442
0.054790016 0.8137356 0.06469456 0.14716558 0.052990217 -0.011791385 0.09116682 -0.002359005
0.08183054 1.1241307 0.12994698 -0.12802696 0.16900872 -1.3880635e-05 -0.011951895 0.078835264
-3.023564e-12 -7.1645815e-08 0.36043927 -1.9576003e-20 0.09064609 0.57487774 0.50346535 -1.6085834e-06
-0.15052578 1.800515 0.07702509 0.57458395 -8.429655e-08 -0.13723062 -7.314313e-17 0.06409891
1.08025e-40 0.56469107 0.08357717 0.29452598 0.31817555 -0.0053767166 0.05158966 1.5708765
0.071726516 0.5646348 -0.3834329 -0.20020348 0.079180464 0.06409658 0.12973695 0.050481282
-0.252516 0.22952594 -0.012249014 0.052753378 0.0508172 0.83504605 0.65859056 0.2758307
0.02609761 0.33025244 1.3357539 -1.1697754e-05 0.86148924 0.14066605 -5.0855943e-16 0.08722743
0.022454381 0.16331995 0.06565151 0.40505627 0.26286116 -1.7925316e-06 -0.6618094 0.07078882
0.6566809 0.07201177 0.48024276 0.016082056 4.74925e-40 0.060847137 -0.17995824 0.031356264

layer_3.weight f4 [1, 300]
00000000: 95ad 083f 7006 eebb 8430 d0bf 587a 2dba
00000010: c8ad e3bf 9b0b 02c0 5c8b 0500 3776 9c3f
00000020: f067 2116 d0cc a53b 3a05 b8bf 9bd0 353c
00000030: 90eb 853f 2004 7a3e 8333 30c0 fd88 d2bf
00000040: ac47 3d3f d838 b53e a1cf 76ba 301f 113c
00000050: 6ea8 bcbf 4d8f 6c3c 8d8e 1fc0 6072 1bbc
00000060: 40b5 19c0 9f7d ffbf f47d e53e 2eaf 18c0
00000070: b429 8bba 64ba 18c0 eeee 54c0 5dd6 fc3f
00000080: f7b3 0b3f 7745 90b9 23c7 493f 056e 9732
00000090: 4e93 f1bf d228 7340 9fe3 a43b df9b 01c0
000000a0: 0583 70c0 38ef e6bf 5a55 cf3f 9e84 a63e
000000b0: b88a 80be 5ead 6ac0 0302 04bf 3082 b63f
000000c0: 0086 823e 6d46 ee3f ebc7 9f3e 403c 39c0
000000d0: aa36 3b3e d69e d03e 33ba 123f 228e 3f3f
000000e0: dfdf 563e 5c77 86bf 81c4 07b9 2013 84b9
000000f0: 9e0a 10c0 3356 93bf 6dd7 6f3c 4265 39bb
00000100: 0e02 8340 6cb3 c43e 261b f6ba 95f5 65bc
00000110: e7da c2ba 79c0 a03e 4e49 f3ba 5ef7 fc3f
00000120: fd42 c7bf 8325 f0c0 df6e 35bf e68a 81bf
00000130: c1b0 babf 5464 f01d 7345 e739 ff01 51c0
00000140: efdf 283b 71d5 863f 16e5 f03e 0abe acc0
00000150: 00b1 843f 5f32 04c0 5821 3dc0 7e65 16bc
00000160: efc9 193c 4b9b 4fbf b16e a43e 4126 f93e
00000170: cc5c ca3b 2904 823c 74a2 8bba 66a9 0dc0
00000180: 373f 0b00 7ed6 18c0 24b9 52bc 08f9 65bc
00000190: 8795 443f 2571 483f 7694 b33f 9280 93bc
000001a0: afbe 81c0 150c aabf 8ff7 b23e 5a20 873e
000001b0: 0599 71bf 7a86 c93e b901 73c0 2405 98bf
000001c0: 6909 35bc 0cb0 9fbf ad5e e33e ddbc 98bf
000001d0: 1e74 85b6 c54c 853e 7560 523f 56a0 f0bb
000001e0: 561d 5c3f c3d6 3b39 0b56 e0bf af9a 14c0
000001f0: 437b 633b 9d2b e2bb b652 a7bd 5727 7b3e
00000200: 8c8a 473b 673d 5537 73f1 39c0 db4a 7ebc
00000210: d52c 0abf c1f0 e83e ac33 d6bf eb6a 123f
00000220: 846b 03bb ab07 6ebf bb22 0e3f 6053 f93b
00000230: 2a19 1340 4922 e1bf 6d6f 74bc aa50 2ec0
00000240: 2082 f9bf 121e 803e 026f fcbf e1b0 dcbe
00000250: 4168 3bbc fd97 7f40 576d 83bc 93cc 3a3f
00000260: ab22 30bc a77b fcbf aefd bd3b a611 63c0
00000270: 98e6 d23e 162f 9c3f b2a2 c1c0 cf02 ecbb
00000280: 0ef3 e23f af6f 06c0 05af babb 1cab d13c
00000290: 1cf8 533c 68ef 8e3f 2cf7 f2bf e4ea 513c
000002a0: f7ab c4ba c610 a53e 53b4 d1bf 0630 91ba
000002b0: e758 23b4 bf5c c7bf e57b 643e 9f43 913f
000002c0: 31bd 883e a3ba 763f e6ac ae3e e304 fdbf
000002d0: e153 ad3f 18ce b93b f821 353f 30d2 7e3c
000002e0: 8eed f03e f956 6740 cd96 b2bf b208 9c3f
000002f0: ec9d 6ebf 36f1 7cbc 489c 7dbc 18c3 b43e
00000300: a681 93ba a957 0dbb df84 e3bf b430 713c
00000310: 5bf0 c03e faaa 3ec0 330b 4cc0 51e0 703c
00000320: ff90 0f3f 19ed bf40 cf42 b63e fdbd 3fc0
00000330: f77a 863c fd73 8fc0 58ba d923 d632 973e
00000340: 478d 97b8 aefc 3ac0 098e d03e 7843 f1bf
00000350: b0bc 40bf 17a2 853c 4ace 823e f305 f03f
00000360: f851 cb3e a5ec 52c0 af94 94c0 41f8 ec3f
00000370: eba2 b83e 62ec 9d3e 9af5 5abf 4360 803e
00000380: 7667 5f40 c621 e4bf 274f ccbc 863a 4e3f
00000390: d27e 443f 9084 a03f d930 79bf 89e2 c0bf
000003a0: d037 bd3f bd10 74bf b63b 1240 4e1c b4bb
000003b0: 1539 2d40 a84e 9cc0 c9e1 80bc 67c3 8a3f
000003c0: b079 463e 901d 03c0 dd08 d93e c733 1cc0
000003d0: 054d 1fc0 d788 57bb d8bb b0c0 6e1d c33e
000003e0: 1139 28c0 f98c 26c0 35ee a3bf 1858 4a3e
000003f0: 47b5 7c3c 5968 8b3e 2aa4 653f 22b2 883f
0.53389865 -0.007263951 -1.6264806 -0.0006617657 -1.7787409 -2.0319583 5.0917e-40 1.2223576
1.3038273e-25 0.005059816 -1.4376595 0.011097099 1.0462513 0.24415636 -2.753144 -1.6448056
0.7393749 0.3539493 -0.00094150944 0.008857533 -1.4738901 0.014438462 -2.4930756 -0.009487718
-2.4016876 -1.9960212 0.44822657 -2.3856921 -0.0010617287 -2.3863764 -3.327083 1.9752918
0.5457148 -0.00027517576 0.78819484 1.7628745e-08 -1.8873079 3.7993665 0.0050320174 -2.0251386
-3.7579968 -1.8041754 1.6197922 0.32523054 -0.25105834 -3.6668315 -0.5156557 1.425848
0.2549286 1.8615242 0.31207213 -2.8943024 0.18282571 0.40746182 0.5731537 0.7482625
0.20983838 -1.0505176 -0.00012947807 -0.0002519125 -2.250648 -1.1510681 0.014638764 -0.0028289114
4.094001 0.38418138 -0.0018776401 -0.014035602 -0.0014866263 0.31396845 -0.0018561275 1.976299
-1.5567318 -7.504579 -0.708723 -1.0120513 -1.4585191 6.3631208e-21 0.00044111497 -3.2657468
0.002576824 1.0533887 0.4704978 -5.398198 1.0366516 -2.0655744 -2.9551601 -0.009179471
0.009386524 -0.81096333 0.321157 0.48661998 0.006175613 0.015871124 -0.0010653273 -2.2134643
1.032868e-39 -2.3880916 -0.012861524 -0.014036424 0.7679066 0.78297645 1.4029682 -0.018005643
-4.054527 -1.3284937 0.34954497 0.2639187 -0.94374114 0.3936041 -3.7969801 -1.1876569
-0.011049607 -1.24756 0.4440817 -1.1932636 -3.9772267e-06 0.26035133 0.8217843 -0.0073433323
0.85982263 0.00017913715 -1.7526258 -2.3219411 0.003471092 -0.0069021718 -0.08170073 0.24526726
0.003044757 1.2710086e-05 -2.905362 -0.015520777 -0.5397466 0.4549618 -1.6734519 0.57194394
-0.0020053098 -0.9298045 0.55521744 0.007608816 2.298411 -1.7588588 -0.014919144 -2.7236733
-1.9492836 0.25022942 -1.9721377 -0.43103698 -0.01143843 3.9936516 -0.016043348 0.72968405
-0.010750453 -1.9725236 0.0057980632 -3.5479522 0.41191554 1.220187 -6.0511103 -0.0072024832
1.7730424 -2.1005666 -0.0056971335 0.025594287 0.012937572 1.1166811 -1.8981681 0.01281235
-0.0015004863 0.3223936 -1.6383156 -0.0011076934 -1.52129e-07 -1.5575179 0.22312887 1.1348761
0.26706842 0.96378535 0.34116286 -1.9767116 1.3541223 0.0056703202 0.7075496 0.015553042
0.4705624 3.6146834 -1.3952271 1.2190154 -0.9320972 -0.015438369 -0.015479155 0.35305095
-0.0011253848 -0.0021567142 -1.7774924 0.014721084 0.37683377 -2.9791856 -3.1881835 0.014701919
0.5608062 5.9976926 0.35597846 -2.995971 0.016416056 -4.4829087 2.3606107e-17 0.29530972
-7.226556e-05 -2.9216723 0.40733364 -1.8848715 -0.75287914 0.016312642 0.2554801 1.8751816
0.39710975 -3.2956936 -4.64315 1.8513261 0.36061797 0.30844408 -0.8553101 0.25073442
3.4906898 -1.7822807 -0.024940087 0.8055805 0.7675601 1.2540455 -0.9734016 -1.5069133
1.4782658 -0.9533804 2.2848945 -0.0054965382 2.706609 -4.8846016 -0.015732663 1.0840882
0.19382358 -2.0486794 0.42389575 -2.4406602 -2.489076 -0.003288796 -5.52293 0.3810839
-2.628483 -2.6023543 -1.280707 0.19760168 0.015424079 0.27228048 0.8970362 1.0679362
