models/all_td3/TD3_TradingEnv9_robust_warm_42_550_actor.pth (torch, 578719 bytes, 6 tensors)

layer_1.weight f4 [400, 54]
0	0x3cffb10c	0.031212352
1	0x3b6c64c9	0.0036070815
2	0x3cea9d1d	0.02863937
3	0x3cfb7f3e	0.030700322
4	0x3d76a1d2	0.060212918
5	0x3d609996	0.05483397
6	0x3d5046fa	0.05084894
7	0xbc9706c7	-0.018435849
8	0xbd52c4a0	-0.051457047
9	0x3cb85b79	0.022504555
10	0x3ce8973f	0.028392432
11	0x3cb80153	0.022461569
12	0x3cb80109	0.022461431
13	0xbc1df758	-0.009641491
14	0x3ca5fcda	0.02026217
15	0xbbab346a	-0.005224754
16	0xbc6792da	-0.014134133
17	0xbda75c62	-0.081719175
18	0x3cb52dca	0.02211656
19	0xba809fde	-0.0009813269
20	0x3cad9d1b	0.021193078
21	0x3caf658c	0.021410726
22	0x3d0d3d5c	0.034482345
23	0x3dbf834e	0.09351216
24	0x3d80ced6	0.06289451
25	0x3cbf8b3d	0.023381824
26	0xbd4f291d	-0.050576318
27	0x3c8eb0ec	0.017418347
28	0x3bc4acdc	0.0060020518
29	0x3c9cf2d5	0.01915876
30	0x3c964af5	0.01834629
31	0xbc41ae41	-0.0118213305
32	0xbd73361c	-0.059377775
33	0xbd164d2e	-0.036694698
34	0x3d014301	0.03155804
35	0x3d406935	0.046975333
36	0x3c9a069b	0.018801978
37	0x3cb6f2e2	0.022332612
38	0x3c950c8d	0.018194461
39	0x3c956581	0.018236877
40	0x3d01ea57	0.031717625
41	0x3d551d68	0.052029997
42	0x3d3b30ee	0.04570096
43	0xbd431e5c	-0.047636375
44	0xbd141e33	-0.036161613
45	0xbca47626	-0.020075869
46	0xbc83d072	-0.016090605
47	0xbc506709	-0.012719878
48	0xbae2c976	-0.0017302472
49	0xbc829039	-0.015937911
50	0x000d32ee	1.212132e-39
51	0x000637b9	5.71002e-40
52	0x80028b8d	-2.33732e-40
53	0x80024082	-2.06812e-40
54	0xbcd45b3b	-0.025922408
55	0xbe7666e3	-0.24062686
56	0xbcac881a	-0.021060992
57	0xbce349f0	-0.027745217
58	0xbe60c522	-0.219502
59	0x3ce75dfc	0.028243057
60	0xbc2f383b	-0.010694559
61	0xbf14f611	-0.5818797
62	0xbd8b0bb3	-0.06789341
63	0x3cc5d031	0.024147125
64	0xbe69eba6	-0.22843799
65	0x3c6e9bd3	0.014563519
66	0x3cc6e60b	0.024279615
67	0xbe4987c6	-0.196807
68	0xbd90a930	-0.0706352
69	0xbbb4a763	-0.005513118
70	0xbce3c4ff	-0.027803896
71	0xbe556d86	-0.20842561
72	0x3c598a21	0.013277561
73	0xbdc7276e	-0.097243175
74	0x3cb9cc02	0.022680286
75	0x3c3b4584	0.011430148
76	0xbeae9f2e	-0.3410582
77	0x3ea4daf6	0.32198304
78	0xbdb1baeb	-0.0867823
79	0xbdb4cb52	-0.08827843
80	0xbdfc181b	-0.12309285
81	0xbd5cebc1	-0.05393577
82	0xbe68d1b3	-0.22736244
83	0xbd492c0f	-0.049114283
84	0xbd65bab4	-0.056086257
85	0xbd964f01	-0.073392875
86	0x3cab5437	0.02091418
87	0xbe4268b6	-0.18985257
88	0xbc9a921d	-0.0188685
89	0xbc97f6a8	-0.018550232
90	0xbdb88387	-0.09009462
91	0xbe316e47	-0.17327224
92	0xbdc2793c	-0.0949578
93	0xbdb8e273	-0.09027567
94	0xbe27c2a5	-0.16382845
95	0xbd6a4ca2	-0.05720199
96	0x3b747290	0.003729973
97	0x3f60865b	0.8770501
98	0x3e02f473	0.12788562
99	0x3e41221d	0.1886067
100	0x3e4ce974	0.2001093
101	0xbd47bc77	-0.04876372
102	0xbef5cb84	-0.48006833
103	0x3cc4b650	0.024012715
104	0x8000e88e	-8.3425e-41
105	0x8003fef1	-3.66962e-40
106	0x0008ebfb	8.19338e-40
107	0x00079d59	6.99294e-40
108	0xba05018c	-0.0005073778
109	0xb8126d9b	-3.491119e-05
110	0xba112902	-0.00055374217
111	0xba0dda09	-0.0005411213
112	0xb85dc83e	-5.2876996e-05
113	0xb66e6a9c	-3.5526818e-06
114	0xb6bb1cba	-5.5763785e-06
115	0x37736ba6	1.45089925e-05
116	0xbcbce721	-0.02305943
117	0xb9596c44	-0.00020735065
118	0xb8ad997c	-8.2778715e-05
119	0xb9710ef8	-0.00022989127
120	0xb9615dc0	-0.00021492597
121	0xb6c1d4bd	-5.776614e-06
122	0xb5ac0bc1	-1.281842e-06
123	0x3699e14c	4.5859833e-06
124	0x39e653ab	0.00043931356
125	0x3bb8e064	0.005641984
126	0xb9e059f9	-0.00042791644
127	0xb948f124	-0.00019163318
128	0xb9eadf79	-0.00044798458
129	0xb9e4cf68	-0.00043642079
130	0xb85e0594	-5.293412e-05
131	0xb81de049	-3.76406e-05
132	0xb866380d	-5.4888475e-05
133	0xb833149d	-4.2696123e-05
134	0x3c5dde85	0.013541822
135	0xb9a218b4	-0.00030917453
136	0xb871e422	-5.7671343e-05
137	0xb9b07c68	-0.00033662026
138	0xb9a5789f	-0.00031561122
139	0xb7bdd9ba	-2.2631943e-05
140	0xb6e3ba73	-6.7868327e-06
141	0xb68aab53	-4.1326653e-06
142	0x34bdab8e	3.5328816e-07
143	0xbc794d28	-0.015216149
144	0xba5a09be	-0.0008317492
145	0xb75ff728	-1.3349381e-05
146	0xba68f51c	-0.0008886622
147	0xba605bf5	-0.00085586245
148	0xb87637c4	-5.8702906e-05
149	0xb57aaf70	-9.338755e-07
150	0x3773e4ad	1.4537171e-05
151	0xb68d9030	-4.218913e-06
152	0xbccd6d27	-0.025076462
153	0x38e0733a	0.00010702615
154	0x3acaf70e	0.0015485005
155	0xbb835fde	-0.004009231
156	0xbac3160b	-0.0014883889
157	0xbcc88310	-0.024476558
158	0x80029923	-2.38606e-40
159	0x0004f4b8	4.5513e-40
160	0x000da674	1.253574e-39
161	0x800e6c0e	-1.32446e-39
162	0x3d8d6f8a	0.0690604
163	0xbdebdabe	-0.11516331
164	0x3d8b2b13	0.06795325
165	0x3d834d2a	0.06411202
166	0xbd95022e	-0.07275806
167	0x3d549994	0.051904276
168	0xbcc53ef0	-0.024077863
169	0x3e0946d9	0.13405932
170	0xbcc1289d	-0.023578936
171	0x3e9ba19a	0.3039673
172	0x3d5175c6	0.051137708
173	0x3e9ad309	0.30239132
174	0x3e9a3704	0.301201
175	0xbd097bdf	-0.0335654
176	0x3e572cbb	0.21013157
177	0x3e01a36b	0.12659995
178	0xbcd967f0	-0.02653882
179	0xbe8158f9	-0.25263193
180	0xbcb8dc49	-0.022565978
181	0xbcf1e2b3	-0.029527044
182	0xbd348574	-0.044072583
183	0xbd119670	-0.03554386
184	0x3e1b4258	0.15162027
185	0x3e4f3802	0.20236209
186	0x3f144c6b	0.57929105
187	0x3d6fd3f4	0.058551744
188	0xbe2282d1	-0.15870215
189	0x3e45569c	0.1927132
190	0x3c8d6059	0.017257856
191	0x3e478b28	0.19486678
192	0x3e413301	0.18867113
193	0x3e0febea	0.14054838
194	0x3e8f3219	0.2796791
195	0xbca2c1ca	-0.019867796
196	0x3cc1ccba	0.023657192
197	0x3d622cd6	0.05521854
198	0x3da60b57	0.08107632
199	0xbd92c891	-0.07167161
200	0x3dbea6af	0.09309136
201	0x3d9b5f8a	0.07586582
202	0x3d31d82a	0.04341904
203	0x3e0cc249	0.13745989
204	0xbd9f4163	-0.077761434
205	0xbd12bf4c	-0.035826966
206	0xbe3a0860	-0.18167257
207	0x3de2ee5d	0.110806204
208	0xbdc52db1	-0.096278556
209	0xbdab4b89	-0.083640166
210	0xbe2e401d	-0.17016645
211	0xbda994ef	-0.0828036
212	0x8002ba5b	-2.50523e-40
213	0x0009106f	8.32415e-40
214	0x0007969d	6.96878e-40
215	0x8004e613	-4.49877e-40
216	0xbf159076	-0.58423555
217	0xbd24bcf8	-0.040219277
218	0xbf13ca8d	-0.5773094
219	0xbf21da28	-0.63223505
220	0xbee51707	-0.4474413
221	0xbccd64e5	-0.025072524
222	0x3f2b5351	0.66924006
223	0xbf024fe2	-0.5090314
224	0xbc466c82	-0.012110831
225	0xbe8067c4	-0.25079167
226	0xbe8e55d0	-0.27799845
227	0xbe3be3fd	-0.1834869
228	0xbeac0863	-0.3360015
229	0xbec55eea	-0.38548976
230	0x3d401e37	0.046903815
231	0xbde4fea6	-0.11181383
232	0xbdccee7a	-0.10006423
233	0x3de1cc40	0.11025286
234	0x3dd206e5	0.10255221
235	0xbf5263bd	-0.8218344
236	0x3e0ed514	0.1394847
237	0xbd020397	-0.031741705
238	0xbf4fa385	-0.81108886
239	0xbe962fa9	-0.29333237
240	0x3e169112	0.14703777
241	0xbc80856e	-0.015688624
242	0xbaf0845e	-0.0018349995
243	0xbe475bb7	-0.1946858
244	0xbe65bb74	-0.22434789
245	0xbe45821d	-0.19287916
246	0xbe5dab51	-0.21647383
247	0xbe0738c2	-0.13205245
248	0xbef2e0ff	-0.47437283
249	0xbe64bc75	-0.22337516
250	0xbecbc8b2	-0.39801556
251	0x3d0fe6c2	0.035132177
252	0xbeb225e2	-0.34794527
253	0xbead8b17	-0.3389518
254	0xbe96ea7f	-0.2947578
255	0xbedc4201	-0.43019107

layer_1.bias f4 [400]
0	0xbb91a189	-0.0044443053
1	0xbe08e87a	-0.13369933
2	0xbb9b87df	-0.0047464217
3	0xbdd01248	-0.10159737
4	0xbc7f428c	-0.015579831
5	0xbc83505f	-0.016029535
6	0xbe61a499	-0.22035445
7	0x3c7f6e19	0.015590214
8	0x3bbc7898	0.0057516806
9	0xbcf288ca	-0.029606242
10	0xbc77e9b4	-0.015131403
11	0xbc416751	-0.011804418
12	0xbb0a8b79	-0.002114026
13	0xbcf51719	-0.02991824
14	0xbe7b7026	-0.245545
15	0x3bc521a2	0.0060159722
16	0xbf448987	-0.7677235
17	0xbe75d6f9	-0.24007787
18	0x3d578656	0.052618347
19	0xbe704818	-0.23465002
20	0xbc0f3190	-0.008739844
21	0x3da72723	0.081617616
22	0xbe500162	-0.20313028
23	0xbda5a84d	-0.080887415
24	0xbc41d676	-0.011830917
25	0xbc89b838	-0.016811475
26	0x3dde04be	0.10840748
27	0xbf403dea	-0.75094473
28	0xbd459dbf	-0.04824614
29	0xb5aff2a5	-1.3109135e-06
30	0x3e261948	0.16220582
31	0xbf2afd58	-0.6679282
32	0xbd1f65c4	-0.03891541
33	0xbc85b1d2	-0.016320143
34	0xbf7c4df3	-0.9855644
35	0xbb369a03	-0.0027862794
36	0xbc68cca2	-0.0142089445
37	0xbd6b130b	-0.057391208
38	0x3ad83a35	0.0016496839
39	0xbe88dc67	-0.26730654
40	0xbd147764	-0.036246672
41	0xb9ab76eb	-0.00032704262
42	0xbd9a087f	-0.07521152
43	0xbed4bd80	-0.41550827
44	0x3d516098	0.05111751
45	0xbf14bb88	-0.5809865
46	0x3cf0b875	0.029384831
47	0xbd10f866	-0.03539314
48	0xbb461683	-0.003022582
49	0xbe749a98	-0.23887098
50	0x3e582bf5	0.21110518
51	0xbdf9d3b7	-0.121985845
52	0x3e8ea4c8	0.27860093
53	0x3ed92652	0.4241205
54	0x3e34401f	0.17602585
55	0xa163bcd4	-7.7160504e-19
56	0x3ec3c81f	0.38238618
57	0xb68d30bc	-4.207801e-06
58	0xbe507cc4	-0.20360094
59	0xbcf79936	-0.030224424
60	0xbd83b00b	-0.06430062
61	0x3e367ab3	0.17820244
62	0x9ec29d68	-2.060565e-20
63	0xbe8eafa7	-0.27868387
64	0xbe9ec54f	-0.3100991
65	0xbd1cb4f2	-0.0382585
66	0x3cca8373	0.024720883
67	0xbe2be087	-0.16784869
68	0x3d011f70	0.03152412
69	0x3e715cd9	0.23570575
70	0xbb48c839	-0.003063692
71	0x9dd00a0d	-5.5067534e-21
72	0xbee2a19a	-0.44263917
73	0x3e15bb86	0.14622316
74	0xbebbd878	-0.3668859
75	0x3d188b3c	0.03724216
76	0x3bebf916	0.007201324
77	0xbd226e04	-0.0396557
78	0xbd577a77	-0.052607026
79	0x3cc0c024	0.02352912
80	0xbcc9718a	-0.024590272
81	0x3d1b7f39	0.037963126
82	0x3c4b967f	0.012426018
83	0xbd4ddfb8	-0.050262183
84	0xbe853c55	-0.26022592
85	0xbd8dc0de	-0.06921552
86	0xbf142bdb	-0.5787942
87	0x3d9d3211	0.07675565
88	0x3b03d1d9	0.0020114093
89	0x3e2d60a1	0.16931392
90	0xb0fa15e8	-1.819612e-09
91	0xbdfd29c6	-0.12361483
92	0x3e1ef7f4	0.15524274
93	0x3d50f0a5	0.051010747
94	0xbe05bde2	-0.13060716
95	0x3e7119ec	0.23545045
96	0x3dcecc86	0.100976035
97	0xbc333a2a	-0.01093916
98	0x3cca1ebf	0.024672864
99	0xbbe6ed35	-0.0070473203
100	0x3c2071c7	0.009792752
101	0x9c178aa0	-5.014088e-22
102	0x3e9f52fd	0.31118003
103	0xbea87f17	-0.32909462
104	0xbe32aae0	-0.17447996
105	0xbe771b88	-0.24131596
106	0xbd28b8e7	-0.04119196
107	0x3d1c823f	0.03821015
108	0xbc4fa53b	-0.012673671
109	0xbaca3baf	-0.0015429164
110	0x3c9a5bea	0.018842656
111	0xbd05a7e6	-0.032630824
112	0xbe62d635	-0.22152026
113	0xbc89b202	-0.016808514
114	0xbd98c9ad	-0.074603416
115	0xbcbe00a5	-0.023193667
116	0xbd02920c	-0.031877562
117	0x3d500df2	0.05079455
118	0xbd84f569	-0.06492121
119	0xbe866a26	-0.2625286
120	0xbe2108d6	-0.15726027
121	0x3a7834b9	0.00094683055
122	0x3d3afe05	0.04565241
123	0xbf2acab0	-0.66715527
124	0xb856a792	-5.1177638e-05
125	0xbda77765	-0.081770696
126	0xbef5c983	-0.48005304
127	0x3d64794f	0.05577975
128	0x3cfe4eee	0.031043496
129	0xbd3f51c8	-0.046708852
130	0x97266711	-5.376758e-25
131	0xbc5d7d32	-0.013518618
132	0x3b9b1cb0	0.0047336444
133	0x3cb56d82	0.022146944
134	0xbbd8e58b	-0.0066191605
135	0xbcbee24f	-0.023301272
136	0xbe837424	-0.25674546
137	0xa6644dfa	-7.920907e-16
138	0xbe1563de	-0.14588878
139	0x3e126c2a	0.14299074
140	0x3ebeb342	0.37246138
141	0xbee9cf81	-0.45666125
142	0xbd13837f	-0.036014076
143	0x3e1d6950	0.15372205
144	0xbb9ef380	-0.004850805
145	0xbda7c4b3	-0.08191814
146	0xbd3f4b9d	-0.04670297
147	0x3d157745	0.036490697
148	0x3dc626a4	0.09675339
149	0xbca8fe67	-0.020629121
150	0xbe8c7cd7	-0.27438995
151	0x3dde8826	0.10865812
152	0xbe1f3977	-0.15549265
153	0xafb0cb81	-3.2158812e-10
154	0x3e24494b	0.16043584
155	0x3ea59838	0.32342696
156	0xba2373e4	-0.00062352256
157	0x3d9bec59	0.07613439
158	0xbecfe32a	-0.40603
159	0xbbf01f74	-0.0073279683
160	0x3e5617dc	0.20907539
161	0xbdcc8fa6	-0.09988336
162	0xbe90994b	-0.28241953
163	0xbd830044	-0.06396535
164	0xbe1e4f7a	-0.15460005
165	0xb4277103	-1.55942e-07
166	0x3e885cf5	0.2663342
167	0x3f0057bb	0.50133866
168	0xbdde2816	-0.108474895
169	0x3c64cd7f	0.01396501
170	0xbf068cca	-0.5255858
171	0x3d0c809e	0.034302346
172	0xbe0ace9d	-0.13555379
173	0xbde37bb3	-0.11107578
174	0xbba6860a	-0.0050818967
175	0x3f00e6b4	0.50352025
176	0xbeb0a78f	-0.34502837
177	0x3df5006c	0.11962971
178	0xbe4a9f83	-0.19787411
179	0x3d80963f	0.06278657
180	0x3e431271	0.19050004
181	0x3e2938de	0.165256
182	0xbeac06f7	-0.33599064
183	0xbd111841	-0.03542352
184	0xbc64d3fa	-0.013966555
185	0x3f1c8bb4	0.6115067
186	0xb7cc6cc8	-2.436935e-05
187	0xbe1f4029	-0.15551819
188	0xbd4c1bab	-0.049831074
189	0xbd4fe674	-0.050756887
190	0xbd22b057	-0.039718952
191	0x3dcf3f93	0.10119548
192	0x3cde7688	0.02715613
193	0xbdbb8d68	-0.091578305
194	0x3c629a97	0.013830802
195	0xbcce9a41	-0.025220038
196	0xbda740cb	-0.08166655
197	0xbb4a8399	-0.0030901192
198	0x3cd40562	0.025881473
199	0xbd12d741	-0.035849813
200	0x3f016a2d	0.50552636
201	0xbdd075b8	-0.10178703
202	0xbceed8ac	-0.029156052
203	0x3f545df7	0.8295588
204	0xbf231ece	-0.6371888
205	0x3ca0dfb4	0.01963792
206	0xbe1b89ea	-0.15189329
207	0xbdbc773b	-0.09202429
208	0xbc39590d	-0.011312735
209	0xbcb5fbdd	-0.022214824
210	0xbecf8650	-0.4053216
211	0xbeaf398b	-0.3422359
212	0xbc46971b	-0.012120987
213	0x3e390c49	0.18071093
214	0xbe206833	-0.15664749
215	0x3d19ec96	0.03757914
216	0xbf12c3f2	-0.5733024
217	0x3e23931c	0.15974087
218	0x3b4dc3e4	0.0031397277
219	0xaa1d530a	-1.3973211e-13
220	0xbcb4777f	-0.022029636
221	0x3d94c64e	0.07264386
222	0xbd7a59b0	-0.06112069
223	0x3eb5a404	0.35476696
224	0xbc070750	-0.0082414895
225	0xbe137d32	-0.14403227
226	0xbc9b6af7	-0.018971903
227	0x3c8c2398	0.017106816
228	0xbe223d65	-0.15843733
229	0x3dfbcc8b	0.12294873
230	0x3e8d1137	0.27552196
231	0xbd4b8536	-0.049687587
232	0xbdd00465	-0.10157088
233	0x3dfdc6d8	0.12391442
234	0xbd8a0e50	-0.06741011
235	0x3ebfa3b6	0.3742959
236	0xbd4c4376	-0.049869023
237	0xbd4c0e7c	-0.0498185
238	0x956b674f	-4.7539368e-26
239	0x3e6aae41	0.22918035
240	0xbd59b05f	-0.053146716
241	0xbedff14e	-0.43738788
242	0xbddd7c2a	-0.10814698
243	0x3d6113be	0.05495047
244	0x3db13257	0.0865218
245	0xbe1f7bad	-0.15574522
246	0x3dccb492	0.099953786
247	0x3e4bac30	0.19889903
248	0xbda1ffd5	-0.07910124
249	0xbdb62faf	-0.08895814
250	0x3e9d07b3	0.30669937
251	0x3b890dd9	0.004182559
252	0x3d559d67	0.052152064
253	0xbda6c68a	-0.08143337
254	0x3e367644	0.17818552
255	0x3e1b792a	0.15182939

layer_2.weight f4 [300, 400]
0	0x3cdd4fbe	0.027015563
1	0x3d0cbb70	0.03435844
2	0xba98804f	-0.0011634919
3	0xbbc66488	-0.0060544647
4	0x3dfd022e	0.12353931
5	0x3bdfdd42	0.006831796
6	0xbcb9ef01	-0.022696974
7	0x3d73092d	0.059334923
8	0x3bf3234d	0.0074199797
9	0xbdcb7ba7	-0.09935694
10	0xbd7934e5	-0.06084146
11	0xbc604226	-0.013687646
12	0xbc83f7db	-0.016109398
13	0x3dc0172a	0.09379418
14	0x3d689f8a	0.056792773
15	0xbdb1a186	-0.08673386
16	0xbe89a405	-0.2688295
17	0x3bb74d3e	0.005593925
18	0xbd2dd4e7	-0.042439368
19	0x3d20e9ee	0.039285593
20	0xbb91c1e3	-0.004448162
21	0x3de62493	0.11237445
22	0xbdb65594	-0.089030415
23	0x3c0be395	0.0085381465
24	0x3939dcab	0.0001772518
25	0x3caa975d	0.020824129
26	0xbd583dd2	-0.05279333
27	0xbe0c80e6	-0.13721046
28	0x3d0163cc	0.031589314
29	0x2c6cdd9d	3.3660637e-12
30	0x3d3cf4b6	0.046131812
31	0x3d2a0588	0.04150918
32	0x3e53a65c	0.2066893
33	0x3cc71453	0.024301684
34	0xbea66601	-0.32499698
35	0xbcaeabc0	-0.021322131
36	0xbaec7c4a	-0.0018042412
37	0x3d10c814	0.03534706
38	0x3cb6a0c6	0.02229346
39	0x3e4af66b	0.19820563
40	0x3d613458	0.05498156
41	0x362be114	2.5611998e-06
42	0x3dfbb9ea	0.1229132
43	0xbea3119c	-0.31849372
44	0x3e1354d6	0.14387831
45	0xbf041581	-0.5159531
46	0x3e360fff	0.1777954
47	0x3e4de34e	0.20106241
48	0x3d9dd924	0.07707432
49	0x3bb514eb	0.0055261753
50	0x3b1daf7e	0.00240609
51	0x3bc9b40b	0.006155496
52	0xbd9f58f3	-0.077806376
53	0x3e28256b	0.16420524
54	0x3c8ed256	0.01743428
55	0x92594cf5	-6.8567983e-28
56	0x3b126197	0.0022336
57	0x2f13a29f	1.3427347e-10
58	0xbdb20dee	-0.08694063
59	0xbd713889	-0.058891807
60	0xbc75baa6	-0.014998114
61	0xbd588c30	-0.05286807
62	0x00015d9f	1.2542e-40
63	0x3ba5571a	0.0050457837
64	0xbd86156e	-0.06547056
65	0xb9618c16	-0.00021509858
66	0x3d727013	0.059188914
67	0xbe45ea98	-0.19327772
68	0xbdfc582f	-0.12321507
69	0xbea03552	-0.3129068
70	0x3c89a693	0.016803062
71	0x800dd5e0	-1.270585e-39
72	0xbdc074d9	-0.09397287
73	0x3ccb4766	0.024814319
74	0xbc43117c	-0.011906024
75	0x3d303034	0.04301472
76	0x3cd7a9d6	0.026326101
77	0xbd7a8a41	-0.061167005
78	0xbe9eccfe	-0.31015772
79	0x3d991f5f	0.07476687
80	0xbb45f918	-0.0030208286
81	0xbcb9d5a5	-0.022684881
82	0x3dc99694	0.098431736
83	0xbd9da34e	-0.076971635
84	0xbe24733c	-0.16059583
85	0xbd066ef9	-0.032820676
86	0xbdbfa77c	-0.09358117
87	0x3e13257c	0.14369768
88	0xbdc223b6	-0.094794676
89	0x3e04a415	0.12953217
90	0x0004fb8b	4.57579e-40
91	0xbd55282e	-0.05204027
92	0x3d331350	0.04371959
93	0x3e3800eb	0.179691
94	0x3e08c5bf	0.13356684
95	0xbd93b6d8	-0.07212609
96	0x3ce088c2	0.027408961
97	0x3d2f08f2	0.04273314
98	0x3ba694e8	0.005083669
99	0xbbb2c66d	-0.005455783
100	0xbb2cabd1	-0.0026347528
101	0x80014357	-1.15992e-40
102	0x3e541f17	0.20714985
103	0xbcb451c4	-0.022011645
104	0xbe0e8df3	-0.13921337
105	0x3df26fa6	0.118377015
106	0xbcec07a4	-0.028812237
107	0x3e1421da	0.14466038
108	0xbcd602b8	-0.026124343
109	0x3dbabb56	0.09117763
110	0x3adff463	0.0017086383
111	0x3e17c1fa	0.1482009
112	0xbdd261e5	-0.10272578
113	0x3d17804b	0.036987584
114	0x361ee434	2.3676666e-06
115	0xbc62b233	-0.013836431
116	0xbda0b36b	-0.07846721
117	0x3db8ab0b	0.09016999
118	0xbdaa9f93	-0.083312176
119	0xbe3c466c	-0.18386239
120	0xbce7f372	-0.028314326
121	0x3e00061f	0.12502335
122	0xbac9a9dc	-0.0015385705
123	0xbec0866c	-0.37602556
124	0xae08c1df	-3.1095012e-11
125	0x3df015be	0.11722897
126	0xbce9384a	-0.028469224
127	0x3d198356	0.037478767
128	0x3e0b2d55	0.13591512
129	0xbd7adfec	-0.061248705
130	0x9b39a89a	-1.535732e-22
131	0xbd0b52dd	-0.03401457
132	0x3cd6f3f6	0.026239377
133	0x3e506c9b	0.2035393
134	0x3ca81b51	0.020520838
135	0x3d6adf18	0.057341665
136	0xbda80cf5	-0.08205596
137	0x0002be65	2.51972e-40
138	0x3e2f983d	0.17147918
139	0x3d20faf4	0.039301828
140	0xbe3e9686	-0.18612108
141	0xbe75bc3b	-0.23997585
142	0xbdcff00c	-0.10153207
143	0x3e4e49b0	0.20145297
144	0x3d3b3884	0.045708194
145	0x3e175819	0.147797
146	0x3d22b1e4	0.03972043
147	0xbd3b05e1	-0.045659903
148	0x3d765b29	0.06014553
149	0x3ca60e9a	0.020270634
150	0xbda13a7f	-0.07872485
151	0x3e0f9643	0.14022164
152	0x3cea55b0	0.028605312
153	0x8004a67f	-4.2707e-40
154	0xbc3f36c4	-0.011670772
155	0x3e054706	0.13015375
156	0xb8c23c8f	-9.261921e-05
157	0xbd81cf10	-0.06338322
158	0xbe516ebc	-0.20452398
159	0x3d63515d	0.055497516
160	0x3d9f98fc	0.07792851
161	0xbce54e7c	-0.027991526
162	0xbe3a08ec	-0.18167466
163	0x3c0ea134	0.008705426
164	0x3d6bf590	0.057607234
165	0x2d293bab	9.619787e-12
166	0x3d0aff09	0.033934627
167	0x3be59516	0.007006298
168	0x3e3806a5	0.17971285
169	0x3c9455d3	0.01810733
170	0xbe8a43e9	-0.27004936
171	0xbe2bd851	-0.16781737
172	0x3d41ad90	0.047284663
173	0xbd742c08	-0.059612304
174	0x3cfef2d9	0.031121658
175	0x3eb03359	0.34414175
176	0xbe81b47e	-0.25333017
177	0x3dadabdc	0.08480045
178	0x3de9254f	0.11384069
179	0xba91211a	-0.0011072487
180	0xbccf638b	-0.02531602
181	0xbe0765e3	-0.1322246
182	0xbde196e4	-0.11015108
183	0x3d4e9bcb	0.050441545
184	0x3dc476b0	0.0959295
185	0x3d18bc39	0.037288878
186	0x37f415f9	2.9097298e-05
187	0xbdf79adb	-0.12090083
188	0x3e0d4d42	0.13799003
189	0x3dd41b7a	0.10356803
190	0xbdb16fad	-0.086638786
191	0xbe9325bf	-0.28739735
192	0x3d766f52	0.060164757
193	0xbb3ddc5d	-0.0028970458
194	0xbd4c4ef1	-0.049879972
195	0x3d899703	0.06718256
196	0xbc8174cc	-0.015802763
197	0xbba4a4e5	-0.00502454
198	0x3d98c927	0.07460242
199	0x3cfb43ae	0.03067192
200	0x3d163f91	0.036681715
201	0xbc5a0e42	-0.013309063
202	0x3d82ceb2	0.0638708
203	0xbc1958ff	-0.009359597
204	0xb1308926	-2.568933e-09
205	0x3e64b40b	0.22334306
206	0xbd019e46	-0.031645082
207	0x3cc7b72e	0.02437934
208	0x3cf9e2aa	0.03050359
209	0x3e018765	0.12649305
210	0x3e0bd8bf	0.13656901
211	0xbb71693d	-0.0036836409
212	0x3d3cd2cc	0.04609947
213	0x3d5d1cc0	0.053982496
214	0xbe35448f	-0.17701934
215	0xbaadc0d6	-0.0013256322
216	0xbead9cea	-0.33908778
217	0x396d8cb6	0.000226545
218	0xbd5b4be0	-0.053539157
219	0xa500ed7b	-1.1182692e-16
220	0x3e1923cd	0.14955063
221	0x3d7f29f0	0.062295854
222	0x3d9066ac	0.07050833
223	0x3e8f02ad	0.2793173
224	0x3e2ad1d7	0.1668161
225	0xbda448f8	-0.0802173
226	0xb819cd25	-3.66691e-05
227	0x3c207a34	0.0097947605
228	0x3d32c530	0.043645084
229	0xbdb5a268	-0.08868867
230	0xbe9615f2	-0.29313618
231	0xbd83c00b	-0.06433114
232	0x3e0e30ff	0.13885878
233	0xbc47ff63	-0.012206885
234	0xbd4f26a4	-0.05057396
235	0x3d0b8459	0.034061763
236	0xbcc3c91f	-0.023899613
237	0xbc9f6a86	-0.019459974
238	0x000bed37	1.095287e-39
239	0x3aa4c5cc	0.0012571155
240	0x3dc9d508	0.098550856
241	0x3d2b40a7	0.041809704
242	0xbd04e7e5	-0.032447714
243	0x3dc97e79	0.09838576
244	0xbd6b225a	-0.057405807
245	0xbe1eb79c	-0.15499729
246	0x3e1b15f7	0.15145098
247	0xbd716f1a	-0.058943845
248	0x3dcb7a16	0.099353954
249	0xbdd1d315	-0.10245339
250	0x3da2fbe0	0.079581976
251	0x3c050a8b	0.008120189
252	0xbd1b4a91	-0.03791291
253	0xbe528ddb	-0.20561926
254	0xbd260eaa	-0.04054133
255	0xbcde7fa2	-0.02716047

layer_2.bias f4 [300]
0	0xbe46b4c4	-0.19404894
1	0xbaaa9261	-0.0013013595
2	0xbde0d22a	-0.109775856
3	0xbd67f539	-0.056630347
4	0xbf2445b6	-0.6416887
5	0xbc27d486	-0.010243541
6	0xbe89056f	-0.26761958
7	0xbe6cc081	-0.2312031
8	0xbea46fbe	-0.32116503
9	0xbd4c6649	-0.049902234
10	0xbd2e18a8	-0.042503983
11	0x3dc5bbce	0.096549615
12	0xbe00e3ba	-0.12586871
13	0xbe833277	-0.2562444
14	0xbbf35594	-0.007425973
15	0x3ccedaf8	0.025250897
16	0xbe99f392	-0.30068642
17	0xbe967fd2	-0.29394394
18	0xbd4a1406	-0.049335502
19	0xb8d32c62	-0.00010069531
20	0x3e102511	0.1407664
21	0xbf17d0e2	-0.59303105
22	0xbe1063c1	-0.14100553
23	0xbd1d5895	-0.038414557
24	0xbe2d8cc0	-0.16948223
25	0xbad59fdd	-0.0016298253
26	0xb0b80ce3	-1.3391425e-09
27	0x3da3c717	0.07996958
28	0xbe10fbab	-0.14158504
29	0xbe395246	-0.18097791
30	0x3e0f96d1	0.14022376
31	0xbd9e4284	-0.077275306
32	0xbec1a954	-0.378245
33	0x3d016fb8	0.031600684
34	0x3cf7e84f	0.03026214
35	0xbc1d0223	-0.009583029
36	0xbd10b70c	-0.035330817
37	0xbe202b3f	-0.15641497
38	0xbe55a930	-0.20865321
39	0x3c5c55d3	0.013448196
40	0xbb88e344	-0.004177483
41	0xbe1f2eee	-0.15545246
42	0xbe56435f	-0.20924138
43	0xbe916514	-0.2839743
44	0xbe3326de	-0.17495295
45	0x3dbdde83	0.09270956
46	0xbe282610	-0.1642077
47	0x3d266399	0.040622327
48	0xbea0cab3	-0.31404647
49	0xbdc765b4	-0.09736195
50	0xbd303018	-0.043014616
51	0x3e55f8e0	0.2089572
52	0xbdc38639	-0.09547085
53	0x3ee746f5	0.45171323
54	0xbdb85229	-0.09000046
55	0xbd49424b	-0.049135488
56	0xbd4bc0b5	-0.049744327
57	0xbd7b47e1	-0.061347846
58	0x3d04236b	0.03226034
59	0x3caf6e61	0.021414937
60	0x3d833a2f	0.06407582
61	0x3e4add3e	0.1981096
62	0xbc4ede7d	-0.0126262875
63	0xbe1814f6	-0.14851746
64	0xbdcba7f9	-0.099441476
65	0x95b6c4a7	-7.381948e-26
66	0x3d5542a3	0.052065503
67	0xbe82e4cf	-0.25565192
68	0xbd804a73	-0.062642
69	0x3c564bdc	0.01307961
70	0x3c07ee80	0.008296609
71	0x3dd52dcc	0.10409126
72	0x3e44c6b9	0.19216432
73	0xbcc02f6a	-0.023460109
74	0xbe1a4b7c	-0.15067858
75	0x3c7eeb55	0.015559037
76	0xbd85ae4a	-0.065273836
77	0xbcb29cc5	-0.02180327
78	0xbf2b7981	-0.66982275
79	0xbe31e6f1	-0.17373253
80	0xbedddc59	-0.43332174
81	0x3d2b220c	0.041780517
82	0xbdcf31b1	-0.101169
83	0xbdde33f8	-0.10849756
84	0x3dba6dfa	0.091030076
85	0x3e8534af	0.26016757
86	0xba8d2f83	-0.0010771606
87	0xbe6e97e7	-0.23300134
88	0x3eec5b50	0.46163416
89	0x3d42b831	0.04753894
90	0x3e09bad3	0.13450174
91	0x3cbad661	0.022807302
92	0xbed4c428	-0.41555905
93	0x3eafdb67	0.34347078
94	0xbda5a349	-0.08087785
95	0xbd6d85eb	-0.057989042
96	0xa39657eb	-1.6300267e-17
97	0xbd9cbcd1	-0.07653201
98	0xbe66cfd4	-0.22540218
99	0xbe6d7fcd	-0.23193283
100	0xbce22df5	-0.027609805
101	0xbe1bf24b	-0.15229146
102	0xb822f67d	-3.885337e-05
103	0xbce0b6ec	-0.027430974
104	0xbd2c5025	-0.04206862
105	0x3eff7665	0.49895015
106	0xbc568730	-0.013093755
107	0x3e9e64b0	0.30936193
108	0xbed032e5	-0.4066383
109	0xbd04827d	-0.032351006
110	0xbccceeb9	-0.025016176
111	0xbe3bbb1b	-0.18333094
112	0xbdd565e7	-0.10419827
113	0x3d04e46a	0.032444395
114	0xbe870f46	-0.2637884
115	0xbd8e01ba	-0.06933923
116	0x3e0bf2fb	0.13666908
117	0xbcc68870	-0.02423498
118	0xbc9db387	-0.019250644
119	0xbda6f7e3	-0.081527494
120	0x3d125d74	0.035733655
121	0xbe5503f8	-0.20802295
122	0xbde8aa61	-0.11360622
123	0x3d135898	0.03597316
124	0xbde60da3	-0.1123307
125	0xbe576269	-0.21033634
126	0xbce44c81	-0.027868511
127	0xbdd34d83	-0.103175186
128	0xbcf50273	-0.029908394
129	0xbc5b6eeb	-0.013393144
130	0xbd5b900e	-0.053604178
131	0xbdd871f9	-0.105686136
132	0x3b9ec8bc	0.0048457067
133	0xbcdb6d11	-0.026785405
134	0xbdb9217b	-0.09039589
135	0xbe588611	-0.21144892
136	0xbcac6ae2	-0.02104706
137	0xbc97cbb5	-0.018529752
138	0xbd2c07db	-0.04199968
139	0x3d1e92de	0.038714282
140	0xbcfc6802	-0.030811314
141	0xbe7203d1	-0.23634268
142	0xbeacc072	-0.33740574
143	0xbd636e41	-0.05552507
144	0xbdf873d0	-0.121314645
145	0x3d9e008a	0.077149466
146	0xbd040fe1	-0.032241706
147	0xbcb4deaa	-0.02207883
148	0x3ccb74a4	0.024835892
149	0x3d67c7a8	0.05658689
150	0xbe1cb366	-0.1530281
151	0xbe1af314	-0.1513179
152	0x3c56fd7f	0.013121962
153	0x901664ea	-2.9660025e-29
154	0xbe4283f9	-0.18995656
155	0x3d4dc687	0.05023816
156	0xbd4814bc	-0.0488479
157	0xb8304b2f	-4.203169e-05
158	0xbe6c7208	-0.23090374
159	0xbdad54c9	-0.08463437
160	0xbd15a7e2	-0.03653706
161	0xbd9df1b1	-0.077121146
162	0xbe6cfd09	-0.231434
163	0xbdaab543	-0.08335354
164	0xbd241874	-0.040062383
165	0x3cbcbd0b	0.023039361
166	0xbb93bbec	-0.004508486
167	0xbe9a2d1e	-0.30112547
168	0xbd2eb63a	-0.042654254
169	0xbd225862	-0.03963507
170	0xbe2f6d75	-0.17131598
171	0xbe8315fc	-0.2560271
172	0xbe35b4df	-0.17744778
173	0xbdcb187b	-0.09916779
174	0xbd3dac9e	-0.0463072
175	0xbd50217a	-0.050813176
176	0xbdf8636a	-0.12128337
177	0xbe966b5f	-0.29378793
178	0xbded6e49	-0.11593301
179	0x3d384b60	0.04499376
180	0xbe84c80d	-0.25933877
181	0xbe8da4f5	-0.27664915
182	0xbe0fb33d	-0.14033218
183	0xbe2a3646	-0.16622266
184	0xbf25e0b0	-0.6479597
185	0xbf0f197e	-0.55898273
186	0xbc522585	-0.012826328
187	0xb3b1ac06	-8.273496e-08
188	0xbeb0e0c7	-0.34546492
189	0xbd13f1af	-0.03611916
190	0xbd854c9f	-0.06508755
191	0xbd1f5d01	-0.038907055
192	0x3cf94379	0.030427681
193	0xbc993e9d	-0.018706614
194	0xbecf2474	-0.404575
195	0xbde5a303	-0.11212733
196	0x3d190ba4	0.037364617
197	0xbebf1669	-0.37321785
198	0xbde820e9	-0.11334402
199	0x3dd1eed2	0.102506295
200	0x3b809ad8	0.003924709
201	0xbe9550b6	-0.2916314
202	0xbe106ca1	-0.14103939
203	0xbd326e32	-0.04356212
204	0xbefca301	-0.49343112
205	0x3e13a9c9	0.14420237
206	0xba5ae39e	-0.00083499576
207	0x3eb3dec2	0.35130888
208	0xbe5df1de	-0.21674296
209	0x3c6e25cb	0.014535378
210	0xbea94e53	-0.3306757
211	0xbd2466bf	-0.04013705
212	0xbe2cee05	-0.16887672
213	0x3bc64457	0.006050627
214	0xbe536fbf	-0.20648097
215	0x3da0c269	0.07849581
216	0x3d871808	0.065963805
217	0xbd28c50b	-0.04120354
218	0x3e52535a	0.20539609
219	0xbd1e2982	-0.038613804
220	0xbdf9d73d	-0.121992566
221	0x3dd029a9	0.10164196
222	0xbdf6a821	-0.12043787
223	0xbe00e1ac	-0.12586087
224	0xbe5d5f16	-0.21618304
225	0xbdc0adf1	-0.09408177
226	0xbe348e50	-0.17632413
227	0x3dab7c4e	0.083733186
228	0x3eed3c6a	0.46335155
229	0x3bc82b48	0.006108675
230	0xbd2f378d	-0.042777587
231	0xbe089f15	-0.13341935
232	0xbd7ce2ce	-0.061739735
233	0xbd3d90d6	-0.046280704
234	0xbe738424	-0.23780876
235	0xbe1cc3ab	-0.15309016
236	0xbf115832	-0.567752
237	0xbd3062a3	-0.043062817
238	0xbc680101	-0.014160396
239	0x3e1b0238	0.15137565
240	0xbdc7e025	-0.09759549
241	0xbdb8328c	-0.08994016
242	0x3f22b862	0.63562596
243	0xbdf0ac60	-0.11751628
244	0xbb4ac2dc	-0.00309389
245	0xbf55c4c0	-0.8350334
246	0xbcc4e842	-0.02403653
247	0x3e233d9b	0.1594147
248	0xbcedd7fb	-0.029033652
249	0x3d74273e	0.059607737
250	0x3e77b236	0.24189076
251	0xbd94024c	-0.072270006
252	0xbe2dc126	-0.16968212
253	0xbdc33e42	-0.09533359
254	0x3d239a01	0.03994179
255	0xbe049ec9	-0.12951197

layer_3.weight f4 [6, 300]
0	0x3eaa5fe8	0.33276296
1	0x3dec9476	0.11551754
2	0xbe6c5bf4	-0.23081952
3	0xbe0fc469	-0.14039768
4	0xbee2bdd1	-0.44285443
5	0x3e331d4f	0.17491649
6	0xbf20c3bd	-0.6279867
7	0x3e7007a5	0.23440416
8	0x3eff4d50	0.49863672
9	0xbd4627e7	-0.048377898
10	0x3dd651cb	0.104648195
11	0x3d5713e1	0.052509192
12	0x3d4c2c63	0.049847018
13	0x3f2592d7	0.64677185
14	0xbd492da8	-0.049115807
15	0x3d0a65e7	0.033788588
16	0xbd6a29cb	-0.057168763
17	0xbeba15bc	-0.36344707
18	0x3d9e7d20	0.077387094
19	0x3e6de071	0.23230149
20	0x3e2a52d0	0.16633153
21	0xbec7dcff	-0.39035794
22	0x3e194dbb	0.14971058
23	0xbda3e506	-0.08002667
24	0xbee0ae75	-0.438831
25	0x2ac0ab76	3.4225026e-13
26	0xb8b292e3	-8.515061e-05
27	0x391b1f14	0.0001479353
28	0x3e3a950e	0.18220922
29	0x3f06479c	0.5245302
30	0xbdcbee87	-0.09957605
31	0xbe4de405	-0.20106514
32	0x3ed0c747	0.40777037
33	0x3cf91f99	0.030410575
34	0xbe75c1b8	-0.23999679
35	0xbc4a27ec	-0.01233862
36	0xbf08c526	-0.53425825
37	0x3d818882	0.06324865
38	0x3e9d2a27	0.30696222
39	0x3cdda87f	0.027057884
40	0x3dddac01	0.10823823
41	0xbe0ad345	-0.13557155
42	0xbbdcaa91	-0.0067342003
43	0x3ddba6ec	0.10725197
44	0xbdb12233	-0.08649101
45	0xbe58d5de	-0.21175334
46	0x3e8719d7	0.26386902
47	0x3c3d910a	0.011570225
48	0x3df70151	0.12060798
49	0xbdeef693	-0.11668124
50	0xbd946325	-0.07245473
51	0xb8d2b54e	-0.00010047351
52	0xbdc25b37	-0.09490054
53	0x3dfbf1b5	0.12301961
54	0x3ee0ad92	0.43882424
55	0x3e926993	0.28596172
56	0xbd6aceaf	-0.057326015
57	0x3d26d90b	0.040734332
58	0x3eb0b482	0.34512717
59	0x3c9ad82a	0.018901903
60	0x3c891aeb	0.016736468
61	0xbabae284	-0.0014258181
62	0x3e8df3eb	0.27725157
63	0x3e28f984	0.16501433
64	0xbc99d7b0	-0.018779606
65	0xb827b0ce	-3.9980565e-05
66	0x3da92c53	0.08260407
67	0xbec0868c	-0.3760265
68	0x3eaad2a3	0.33363828
69	0xbe67553e	-0.22591111
70	0x3e907d8d	0.28220788
71	0x3d8b34c9	0.06797177
72	0xbd52b049	-0.05143765
73	0x3db2bbd0	0.08727229
74	0xbebf0f2e	-0.3731627
75	0xbc5da3eb	-0.013527851
76	0x3d6a1325	0.057147164
77	0xbd5aa25e	-0.0533775
78	0xbdc970b4	-0.098359495
79	0x3edaf82f	0.42767474
80	0x3f1afdb2	0.6054336
81	0x3e122e0a	0.14275375
82	0xbe861655	-0.26188913
83	0x3c8dcf8d	0.017310882
84	0xbd1253ec	-0.035724565
85	0x3ce6d604	0.028178222
86	0x3d31f56a	0.043446936
87	0xbdb3467d	-0.08753679
88	0xbe0f0d38	-0.13969886
89	0xb9acaeb4	-0.0003293656
90	0xbdf483fe	-0.11939238
91	0xbe19ca9a	-0.15018693
92	0xbe558d39	-0.20854653
93	0x3b97a8af	0.004628263
94	0xbec925e2	-0.39286715
95	0xbf13967b	-0.5765149
96	0xb2aa94a8	-1.9858206e-08
97	0x3db565c4	0.08857301
98	0x3f6e2a03	0.93032855
99	0x3d0bf762	0.03417147
100	0xbe9d38c9	-0.30707386
101	0x3db4986e	0.08818136
102	0x3af10e1c	0.0018391046
103	0xbc2dc5da	-0.0106062535
104	0x3dd69654	0.104778916
105	0xbd9df479	-0.07712645
106	0x3e840f3f	0.25792882
107	0xbf3c4c22	-0.7355367
108	0xbdc06077	-0.09393399
109	0xbde6796e	-0.112536296
110	0xbcf3c230	-0.029755682
111	0x3e025b6c	0.12730187
112	0xbd229553	-0.039693188
113	0x3e7e4f90	0.24835038
114	0xbf15ead7	-0.5856146
115	0xbe136707	-0.1439477
116	0x3e98a487	0.29813024
117	0x3cc845f8	0.024447426
118	0x3cfdcbe0	0.030981004
119	0xbdeb9909	-0.115037985
120	0xbc1dd481	-0.009633184
121	0x3d663c5d	0.05620991
122	0x3e0d0d69	0.13774647
123	0x3e0fe746	0.14053068
124	0x3de40ac1	0.11134864
125	0x3ed31f91	0.4123502
126	0x3c828eed	0.015937293
127	0xbe2d82e9	-0.1694447
128	0xbd02d903	-0.03194524
129	0xbcad90bc	-0.021187179
130	0xbd83b504	-0.0643101
131	0xbdf1c68f	-0.1180545
132	0x3e51c956	0.2048696
133	0x3df01e03	0.11724474
134	0xbe6741cd	-0.22583695
135	0xbf0fad04	-0.56123376
136	0x3e14bdae	0.14525482
137	0xbdf3429f	-0.11877941
138	0xbe347eac	-0.17626446
139	0xbdb1aa6f	-0.08675086
140	0xbba58c02	-0.0050520906
141	0x3e90ac6a	0.28256541
142	0x3f1139b1	0.56728655
143	0xbe353f8a	-0.1770002
144	0x3df8956c	0.12137875
145	0x3db747b2	0.08949222
146	0xbe4e9e76	-0.20177636
147	0x3cbcd62f	0.02305135
148	0x3eb50657	0.353564
149	0x3d57e49e	0.05270826
150	0xbd7386f6	-0.05945488
151	0x3cdfb5ed	0.027308429
152	0xbe5348ca	-0.20633236
153	0xb83789d5	-4.3758966e-05
154	0x3d85c06c	0.06530842
155	0xbd4d503d	-0.05012535
156	0xbe93d991	-0.28876927
157	0xbaa35be6	-0.0012463301
158	0x3de8367f	0.11338519
159	0xbd7dd0ad	-0.061966587
160	0x3e10a15b	0.14124052
161	0x3e802e9f	0.2503557
162	0x3d844d82	0.06460096
163	0x3d86d739	0.06584019
164	0xbdbdf902	-0.0927601
165	0x3e7bddc5	0.24596317
166	0xbd20726e	-0.03917163
167	0x3cd7638d	0.026292587
168	0x3e248c4b	0.16069143
169	0xbeff1839	-0.49823168
170	0x3de7682f	0.11299168
171	0xbe556521	-0.20839359
172	0xbea56c72	-0.323093
173	0xbdf5d110	-0.12002766
174	0xbdf8dac5	-0.12151102
175	0x3dcb0592	0.09913172
176	0x3d5b306f	0.053512987
177	0xbe1241ff	-0.14282988
178	0xbeaa209f	-0.33228013
179	0xbd2a73a1	-0.04161418
180	0xbe03e4fb	-0.12880318
181	0x3f3d713f	0.74000925
182	0x3e64d43f	0.2234659
183	0xbeb70730	-0.3574767
184	0xbe8a0367	-0.2695572
185	0x3d233bab	0.039851826
186	0xbe0d50f4	-0.13800412
187	0xb9b00cae	-0.00033578783
188	0xbeb04f37	-0.34435436
189	0xbd074e99	-0.03303394
190	0xbd0dcd31	-0.034619514
191	0xbe933cb4	-0.2875725
192	0x3d940eec	0.072294086
193	0x3cbffe86	0.023436796
194	0x3e7c4c99	0.24638595
195	0xbdb5e114	-0.08880821
196	0xbdbda690	-0.09260285
197	0xbdf0ab10	-0.117513776
198	0xbe02be62	-0.12767938
199	0xbe0ed5a5	-0.13948686
200	0x3dbe6667	0.092968754
201	0x3e28e32e	0.16492912
202	0x3e4cb9b2	0.19992712
203	0x3cfe0726	0.031009268
204	0x3ebd28d3	0.3694521
205	0x3e622949	0.22086062
206	0xbb827686	-0.0039814143
207	0x3d928e30	0.07156026
208	0x3e74a344	0.23890406
209	0xbf0ad70e	-0.542344
210	0x3e858826	0.26080436
211	0xbeac2b18	-0.33626628
212	0xbdeaa41b	-0.11457082
213	0x3e90cc05	0.28280655
214	0xbddfe06f	-0.10931479
215	0x3d93fcca	0.0722595
216	0x3e4026c7	0.18764792
217	0x3cfba204	0.030716904
218	0x3d0ac485	0.033878822
219	0x3d81b46c	0.06333241
220	0x3e02845e	0.12745807
221	0x3e4a8b61	0.19779731
222	0xbea9a654	-0.3313471
223	0xbc803845	-0.015651831
224	0x3e5dcc84	0.21660048
225	0x3ea80eae	0.328237
226	0xbe39d03e	-0.18145844
227	0x3d3ad688	0.04561475
228	0xbdb19026	-0.08670072
229	0x3ba9a6f7	0.0051773745
230	0xbdaf3d76	-0.085566446
231	0xbf318659	-0.69345623
232	0x3e8089a9	0.25105026
233	0x3e34f316	0.17670855
234	0x3d416725	0.047217507
235	0xbe21e35b	-0.15809385
236	0xbd72d182	-0.059281833
237	0xbdcdbbb7	-0.100455694
238	0x3c87d88b	0.016582748
239	0xbe010639	-0.1260003
240	0xbc09bdb2	-0.008407043
241	0xbc842224	-0.01612956
242	0xbe63c171	-0.22241761
243	0x3df897d7	0.12138336
244	0x3a2ab376	0.0006511727
245	0xbea205ab	-0.3164495
246	0x3e963907	0.29340383
247	0xbe38ed8f	-0.18059371
248	0x3d96b22d	0.07358203
249	0x3d3bcfaa	0.04585234
250	0x3ccce92b	0.025013527
251	0x3e475573	0.1946619
252	0x3aa388c1	0.0012476669
253	0x3cfe81f8	0.031067833
254	0xbb1714cb	-0.0023053165
255	0xbcc30c97	-0.023809714

layer_3.bias f4 [6]
0	0xbeeffcde	-0.4687261
1	0x3e6e2d22	0.23259404
2	0x3ea1a9c4	0.31574833
3	0xbe7f9182	-0.2495785
4	0x3eea5ed3	0.4577547
5	0x4013700a	2.3037133
