models/all_td3/TD3_TradingEnv9_tts_42_2500_predictor.pth (torch, 113439 bytes, 6 tensors)

layer_1.weight f4 [200, 35]
000000 19 7a e3 b5 84 f0 fa 2c 3e 50 f4 b5 fd c5 fd b5
       -1.6948353e-06 7.13213e-12 -1.820277e-06 -1.8907591e-06
000010 0d 48 9b 30 6c 9c b6 a3 28 32 07 ac 8e 7d 35 b5
       1.1298212e-09 -1.9798727e-17 -1.9212496e-12 -6.761046e-07
000020 21 a8 7d 27 99 28 33 b5 03 24 63 b5 57 53 08 32
       3.5201946e-15 -6.6741774e-07 -8.4616494e-07 7.935191e-09
000030 16 0b 05 ae 25 52 b8 b4 3e da b3 b5 c2 a6 47 2d
       -3.0250545e-11 -3.433244e-07 -1.3400056e-06 1.1348868e-11
000040 0f f3 31 b5 a1 f2 11 b6 5d c0 bd 32 be 53 35 ac
       -6.6291335e-07 -2.1747912e-06 2.2089973e-08 -2.5768133e-12
000050 02 01 a7 b1 e1 57 52 b6 e6 e7 21 27 f2 2d 8a b6
       -4.8604543e-09 -3.134359e-06 2.246895e-15 -4.1180692e-06
000060 0f 16 65 b6 94 3f b9 2e c9 be 93 9d 37 dd 97 af
       -3.41365e-06 8.42412e-11 -3.9107843e-21 -2.7623923e-10
000070 13 2b 6c b6 33 e2 ec 24 5c b9 98 b6 c1 04 85 b6
       -3.5191813e-06 1.0273188e-16 -4.5515317e-06 -3.9642623e-06
000080 3c 7e 34 a8 fa 49 41 9a 02 0a 2c a5 dc 2c 92 36
       -1.001938e-14 -3.9971222e-23 -1.4922013e-16 4.3563614e-06
000090 cd 10 ab 28 e0 01 3d 35 26 bc ab 36 4a 0d a3 2d
       1.89921e-14 7.0410715e-07 5.1181005e-06 1.8536856e-11
0000a0 74 30 03 00 61 88 1d 18 38 e6 a3 b1 ac 1d a1 a1
       2.92888e-40 2.0360628e-24 -4.770097e-09 -1.0917638e-18
0000b0 3e 96 92 b5 c9 d4 57 34 ef 80 74 b0 07 bf 7f 16
       -1.0921574e-06 2.0100846e-07 -8.894991e-10 2.0659014e-25
0000c0 78 0f 2b 2d ac f6 5e b6 e8 4a 90 ac e2 b2 18 b7
       9.723659e-12 -3.322416e-06 -4.1010424e-12 -9.101555e-06
0000d0 fc 05 45 b6 1c a4 98 b0 4b 97 e6 ae 4a 82 18 2b
       -2.935877e-06 -1.1106098e-09 -1.0486064e-10 5.418206e-13
0000e0 e4 52 99 b6 b6 24 9f 22 9f d9 2e b7 ae d8 8c b6
       -4.569405e-06 4.3135906e-18 -1.0421877e-05 -4.19755e-06
0000f0 1f bd 9a ad 80 db 47 12 57 15 ac 26 67 b2 28 b7
       -1.759176e-11 6.3063883e-28 1.1940682e-15 -1.0055118e-05
000100 4b 39 88 22 d3 bd 37 b7 60 a4 38 b7 d3 72 a0 a9
       3.6923535e-18 -1.0951847e-05 -1.1005526e-05 -7.125346e-14
000110 9e 09 03 00 f9 cb 3d 93 c0 ce 00 80 6f 00 03 80
       2.78956e-40 -2.395572e-27 -7.4168e-41 -2.75662e-40
000120 ea 06 01 80 9d 20 01 80 23 d9 00 80 52 30 03 00
       -9.4316e-41 -1.03535e-40 -7.7894e-41 2.9284e-40
000130 58 86 04 00 b8 2d 00 00 63 96 03 00 8f 10 00 80
       4.15535e-40 1.6401e-41 3.29455e-40 -5.94e-42
000140 d4 52 00 00 56 f8 00 80 d7 fd 02 00 87 d2 02 80
       2.9713e-41 -8.9086e-41 2.74732e-40 -2.59194e-40
000150 38 95 00 80 24 b3 02 80 f0 17 00 80 58 66 00 80
       -5.353e-41 -2.47935e-40 -8.587e-42 -3.6714e-41
000160 6d ee 04 80 eb 43 07 80 ff 18 07 80 de 52 00 80
       -4.52873e-40 -6.67213e-40 -6.51815e-40 -2.9727e-41
000170 3b 98 00 00 18 79 00 80 19 50 00 80 3e 60 00 80
       5.461e-41 -4.344e-41 -2.8734e-41 -3.4525e-41
000180 c3 5f 01 80 d6 73 02 00 9c 2b 00 80 b2 09 06 80
       -1.26188e-40 2.25225e-40 -1.5644e-41 -5.54491e-40
000190 83 5c 00 80 5e a0 00 80 ac 7e 07 80 c0 00 04 80
       -3.3187e-41 -5.7529e-41 -6.8829e-40 -3.67611e-40
0001a0 00 3e 00 00 54 33 04 80 ea 59 03 80 cf 44 06 80
       2.2241e-41 -3.85755e-40 -3.07762e-40 -5.75697e-40
0001b0 6d bf 04 80 ba f4 01 80 69 79 05 00 ca e6 06 80
       -4.36013e-40 -1.79627e-40 5.02731e-40 -6.33804e-40
0001c0 20 0c 02 80 a0 f4 01 80 cd 94 04 80 56 5d 02 80
       -1.8802e-40 -1.7959e-40 -4.20722e-40 -2.17154e-40
0001d0 05 44 07 00 96 0a 04 80 dd 00 00 80 a5 b9 05 80
       6.67249e-40 -3.7114e-40 -3.1e-43 -5.25774e-40
0001e0 ba c8 03 00 67 70 00 00 e5 45 05 80 70 94 05 00
       3.47514e-40 4.0322e-41 -4.84251e-40 5.12427e-40
0001f0 fc f7 00 80 21 af 03 00 1a dc 01 80 5d ac 01 80
       -8.896e-41 3.38331e-40 -1.70793e-40 -1.53668e-40
000200 35 ab 02 80 a8 c1 01 80 d2 7f 02 00 9a 1b 03 00
       -2.45089e-40 -1.61306e-40 2.29524e-40 2.85408e-40
000210 32 52 01 00 b8 ab 01 80 85 05 03 80 b6 39 01 80
       1.21322e-40 -1.53437e-40 -2.77487e-40 -1.12538e-40
000220 9f 29 01 80 55 3a 06 00 17 64 07 80 9b 76 04 80
       -1.06766e-40 5.71939e-40 -6.78754e-40 -4.0989e-40
000230 54 a0 01 80 f1 6a 05 80 25 cf 01 80 a0 d7 01 80
       -1.4935e-40 -4.97541e-40 -1.66145e-40 -1.69187e-40
000240 0b 70 01 00 89 3f 05 80 1f 63 06 80 da 55 01 80
       1.32029e-40 -4.8197e-40 -5.86571e-40 -1.22633e-40
000250 f3 70 00 00 70 66 01 80 d6 70 01 80 1e c2 02 00
       4.0519e-41 -1.28583e-40 -1.32313e-40 2.53307e-40
000260 ba 57 04 80 41 a1 03 00 7e a2 02 80 d2 17 05 00
       -3.98812e-40 3.33353e-40 -2.41962e-40 4.67723e-40
000270 de a3 02 80 83 a9 02 80 39 a6 03 00 f8 4a 05 00
       -2.42455e-40 -2.4448e-40 3.35136e-40 4.86071e-40
000280 49 51 00 80 39 22 02 80 b8 32 02 80 e7 5d 02 80
       -2.916e-41 -1.95948e-40 -2.01865e-40 -2.17357e-40
000290 a1 5a 02 80 c0 41 02 00 2a df 06 00 20 48 02 00
       -2.16183e-40 2.07258e-40 6.31069e-40 2.09545e-40
0002a0 17 ce 01 80 3c 57 02 80 00 dc 01 80 62 5a 02 80
       -1.65767e-40 -2.14965e-40 -1.70757e-40 -2.16094e-40
0002b0 ec ff 05 80 d3 2a 05 80 74 bf 01 00 59 0a 06 80
       -5.50985e-40 -4.7454e-40 1.60516e-40 -5.54725e-40
0002c0 81 97 00 80 0b a3 05 80 80 d1 04 80 de 0f 06 80
       -5.435e-41 -5.17666e-40 -4.42496e-40 -5.56705e-40
0002d0 c2 f3 00 80 97 82 05 80 7c cc 06 80 d1 ae 03 80
       -8.7444e-41 -5.06024e-40 -6.24368e-40 -3.38219e-40
0002e0 6c 2e 06 80 29 49 07 80 d4 53 05 80 14 3d 07 00
       -5.67666e-40 -6.69093e-40 -4.8925e-40 6.64759e-40
0002f0 89 6d 06 80 cf ce 03 80 cf 78 01 80 39 e7 02 80
       -5.90307e-40 -3.49695e-40 -1.35173e-40 -2.66618e-40
000300 b8 60 03 80 42 9c 06 80 2c a1 05 80 ff 91 03 80
       -3.10203e-40 -6.07068e-40 -5.16995e-40 -3.2788e-40
000310 4e 03 07 80 32 58 06 80 98 da 06 80 32 f3 06 80
       -6.44034e-40 -5.82651e-40 -6.2943e-40 -6.38255e-40
000320 b3 f0 06 80 b4 4b 02 00 20 5d 01 80 e2 73 07 80
       -6.3736e-40 2.10828e-40 -1.25242e-40 -6.8442e-40
000330 97 e1 03 80 46 46 07 80 b9 4b 07 80 ec 68 01 80
       -3.56433e-40 -6.68058e-40 -6.70013e-40 -1.29474e-40
000340 22 6e 01 80 45 aa 06 80 cc 71 c0 bc 7c 77 b7 3b
       -1.31344e-40 -6.12094e-40 -0.023491763 0.0055989604
000350 98 d1 c5 bc 26 f2 b5 bc c0 42 9c 3c 4c 57 2e bc
       -0.024147794 -0.022210192 0.019074798 -0.01064093
000360 84 ae c4 bb a1 ba d7 bc 81 ba c1 3b 56 f3 c6 bc
       -0.006002249 -0.026334109 0.0059121256 -0.024285953
000370 55 94 cb bc 3a c9 c3 bb 99 6f 27 bc 6d 19 7e bc
       -0.024851004 -0.005974916 -0.010219478 -0.015508992
000380 a5 f2 21 bc f4 c5 c7 bc 02 ea fd bb 48 3e 0e bc
       -0.009884511 -0.024386384 -0.007748843 -0.008681841
000390 3c b1 73 bc 76 80 b9 3c 87 9b 7c bc 17 ef d6 bc
       -0.014873799 0.022644263 -0.01541794 -0.026237054
0003a0 e6 8f 75 bb 49 7b 86 bc b6 29 c1 bc c7 22 a8 3a
       -0.0037469803 -0.016416209 -0.02357946 0.0012827747
0003b0 ee 5a cb ba 0f 4c 1a bd 25 1d 99 bc e8 0c 58 bb
       -0.001551477 -0.03767019 -0.018690655 -0.0032966677
0003c0 fd 4d 97 bc 98 7d 85 bc b0 01 f9 ba 28 47 82 ba
       -0.018469805 -0.01629524 -0.0018997695 -0.0009939419
0003d0 20 48 f4 bb 0d d7 7d 3b b6 d0 a4 3c 5b 46 5a 3c
       -0.007454887 0.0038732917 0.020119052 0.013322438
0003e0 b6 71 a1 ba c3 d3 c3 3b 7c 8b 48 3d f2 b4 a9 bc
       -0.0012317214 0.0059761717 0.048961148 -0.020716164
0003f0 ee 76 84 3c 23 b7 bc bb 9a 69 55 3c 01 60 8f 3c
       0.016169991 -0.0057591363 0.013025666 0.017501833

layer_1.bias f4 [200]
000000 10 cc 78 b5 60 7b e1 36 b4 64 00 00 90 91 01 80
       -9.268415e-07 6.7198853e-06 3.6125e-41 -1.44053e-40
000010 f9 10 02 80 3e 22 06 80 ca ae 95 bc 92 b8 c2 3b
       -1.8976e-40 -5.63297e-40 -0.018271822 0.0059424127
000020 17 1d 1c 3d 93 8d 02 80 f2 40 03 80 24 11 03 80
       0.03811368 -2.34458e-40 -2.98804e-40 -2.81655e-40
000030 c8 b6 a6 3c d1 5b 04 80 e7 2f fc 3c f4 83 00 80
       0.020350829 -4.0028e-40 0.03078456 -4.7336e-41
000040 92 8d 1c b4 d1 21 2f ad 1f 51 bb 35 18 e5 00 80
       -1.4580135e-07 -9.955107e-12 1.3956195e-06 -8.2183e-41
000050 50 e4 cc b2 49 07 06 80 4f c5 23 ad 6c 19 cc ad
       -2.385255e-08 -5.53626e-40 -9.309289e-12 -2.3203404e-11
000060 b2 34 04 80 d1 69 a7 3c 41 fb 02 80 61 87 ab bc
       -3.86246e-40 0.0204362 -2.73804e-40 -0.020938577
000070 ba 91 86 9d af 1e 49 93 84 d2 01 80 62 1a 04 80
       -3.5620182e-21 -2.5384895e-27 -1.67354e-40 -3.76806e-40
000080 aa 92 f8 ae ab 4a b6 b8 6b 88 8d bc 18 36 06 80
       -1.1303787e-10 -8.692344e-05 -0.017276963 -5.70418e-40
000090 76 f7 03 80 5f b6 e0 3b b4 82 3a 3c b1 d1 03 80
       -3.64279e-40 0.006857678 0.011383701 -3.5073e-40
0000a0 df 59 07 80 92 93 d9 10 28 4b 06 80 30 3e 02 80
       -6.75088e-40 8.5818776e-29 -5.77974e-40 -2.0598e-40
0000b0 0d 98 b2 15 76 78 04 80 86 05 cd af 03 c6 02 80
       7.213352e-26 -4.10555e-40 -3.7293207e-10 -2.54704e-40
0000c0 80 36 b1 38 52 7f 41 bb da a9 03 80 76 43 2e bd
       8.450169e-05 -0.0029525352 -3.36438e-40 -0.042544805
0000d0 48 45 03 80 dc d8 28 bd fc d8 0c a3 38 ef 97 b9
       -3.0036e-40 -0.04122244 -7.6353634e-18 -0.00028979196
0000e0 03 d8 02 80 c4 5a 04 80 f1 07 03 80 8f c6 3a ae
       -2.61161e-40 -3.99903e-40 -2.78355e-40 -4.246786e-11
0000f0 45 12 1f b9 ce a3 04 80 14 98 b7 bb 9a ff 06 80
       -0.00015170228 -4.26104e-40 -0.005602846 -6.42706e-40
000100 e7 42 02 80 7a b2 be aa 14 3c 1f 3c 5e 25 14 99
       -2.07671e-40 -3.3874623e-13 0.009718914 -7.658967e-24
000110 23 1a 03 80 50 40 cc ba 6e a4 04 80 f8 d7 cd ba
       -2.84883e-40 -0.0015583131 -4.26328e-40 -0.0015704622
000120 0f 3a 02 80 49 56 20 b6 6a 88 02 80 c7 4d 02 80
       -2.04498e-40 -2.3892082e-06 -2.32607e-40 -2.11572e-40
000130 7e a7 22 b4 c8 3c 00 00 4b 8c 02 80 e3 54 07 80
       -1.5148359e-07 2.1804e-41 -2.33999e-40 -6.733e-40
000140 56 d2 3a 3c 3f 5a 02 80 99 7e 6d bc fc 1c 03 3d
       0.011402687 -2.16045e-40 -0.014495515 0.032010064
000150 4a 48 50 9d 15 f3 77 b5 16 1a c3 93 23 84 00 80
       -2.7565943e-21 -9.23684e-07 -4.9250643e-27 -4.7402e-41
000160 f9 fd d4 ae cd 9b 01 80 21 ef 35 ba ee d8 58 3c
       -9.6857584e-11 -1.47726e-40 -0.0006940235 0.013235314
000170 42 b0 3d b5 fa 8e af ae d4 14 21 97 45 53 01 80
       -7.0664476e-07 -7.9834764e-11 -5.2048195e-25 -1.21707e-40
000180 5a 50 07 80 41 f3 05 80 50 e5 01 80 df 22 b3 bc
       -6.71673e-40 -5.4644e-40 -1.74097e-40 -0.021867214
000190 27 99 bf bb e8 13 04 80 f4 57 06 80 c2 1c ac b6
       -0.0058471146 -3.74483e-40 -5.82565e-40 -5.1293473e-06
0001a0 e9 d5 06 80 1f 99 e9 36 d8 29 03 80 52 f0 59 af
       -6.2775e-40 6.9617668e-06 -2.90517e-40 -1.9821414e-10
0001b0 09 9b 05 80 6f 22 07 80 3a 23 03 80 b4 1b 05 80
       -5.14794e-40 -6.55201e-40 -2.88143e-40 -4.69115e-40
0001c0 bb a9 0b 9a 33 0f 1c b0 fc 6f a5 b9 81 77 02 80
       -2.8881633e-23 -5.677407e-10 -0.00031554687 -2.26541e-40
0001d0 30 37 03 80 49 f0 45 bd 65 6c 8d a1 13 9d 33 b2
       -2.95304e-40 -0.048324857 -9.583223e-19 -1.0454886e-08
0001e0 ce 7f 9e 3d fb 32 30 b2 68 e7 2f a8 36 84 8f 3d
       0.077392206 -1.025614e-08 -9.76463e-15 0.07007639
0001f0 d3 e0 33 bb c3 4e d4 9b 9c 89 02 80 3f 5b 90 a3
       -0.0027447238 -3.5123357e-22 -2.33036e-40 -1.5651156e-17
000200 45 fc 01 80 60 fb 8d 84 a7 27 02 80 08 e6 02 80
       -1.82333e-40 -3.3379792e-36 -1.97896e-40 -2.6619e-40
000210 4e cd 99 3c 41 87 00 00 09 b0 03 80 c4 9e e9 3b
       0.018774655 4.852e-41 -3.38656e-40 0.007129522
000220 5c 5b 9a 88 a6 69 54 b7 33 fa 28 36 fc 98 02 80
       -9.290016e-34 -1.2660783e-05 2.5179586e-06 -2.38551e-40
000230 c7 05 06 80 90 9a 43 3c b0 d4 ec bb c4 bb df b3
       -5.53085e-40 0.011938706 -0.0072275028 -1.0418401e-07
000240 94 07 4e bd 7c 43 aa bc ba 0c 3f 3d 61 49 63 b8
       -0.050300196 -0.020784132 0.046642996 -5.4189357e-05
000250 9c 3d 07 80 42 4f 00 00 d0 0c a0 ba 26 1c 03 80
       -6.6495e-40 2.8432e-41 -0.001221085 -2.85604e-40
000260 84 cf c4 bc e9 6e 04 80 eb 2d 70 3d ea 6a 02 80
       -0.024024732 -4.07129e-40 0.05863754 -2.22025e-40
000270 c2 1b 3e 3d a4 bc 2b b6 16 e6 0b b2 c4 17 c6 bc
       0.04641319 -2.559079e-06 -8.14318e-09 -0.024181254
000280 f2 94 05 80 af 5a 01 80 a3 cb ae bc 09 ce 04 80
       -5.12609e-40 -1.24367e-40 -0.021337336 -4.41253e-40
000290 e5 16 f3 af c5 25 03 00 45 8b 4c b6 b7 86 b3 bb
       -4.421771e-10 2.89056e-40 -3.0479434e-06 -0.0054787057
0002a0 bf cf 01 3d f5 25 00 80 dd fa 01 80 44 c7 0b bc
       0.031692263 -1.3616e-41 -1.81828e-40 -0.008531395
0002b0 3c 4a 01 00 de 5c d1 bb 90 96 02 80 cd db c8 3c
       1.18466e-40 -0.0063892445 -2.37683e-40 0.024518872
0002c0 f0 a8 9c b2 0f 79 ff ab 77 eb b8 ac f6 f1 06 80
       -1.8237614e-08 -1.815244e-12 -5.2557364e-12 -6.37812e-40
0002d0 4d d3 64 a6 b6 f7 05 80 c6 2e 04 80 58 76 28 b4
       -7.9389756e-16 -5.4804e-40 -3.84121e-40 -1.5689272e-07
0002e0 29 97 04 80 96 29 be bc b5 4e 1e 3d 45 82 03 80
       -4.21568e-40 -0.02321319 0.03864928 -3.22238e-40
0002f0 a6 d3 e4 ad 3a b2 26 3c 67 bc 36 3d 11 5a 11 bb
       -2.601459e-11 0.010174328 0.04461327 -0.0022178928
000300 e6 1e 4f bd bb 46 00 00 95 2d fa 3a 08 16 39 9a
       -0.050566576 2.5373e-41 0.0019087071 -3.82749e-23
000310 f7 2f 00 80 c3 59 05 80 d8 6e 00 80 2f be 06 80
       -1.7207e-41 -4.91378e-40 -3.9763e-41 -6.19238e-40

layer_2.weight f4 [100, 200]
000000 05 65 00 80 5e 8c 14 85 71 52 00 80 db 73 01 80
       -3.6239e-41 -6.984708e-36 -2.9574e-41 -1.33397e-40
000010 a8 3f 00 00 8b 31 02 00 c2 7f 52 b1 08 95 5c ba
       2.2836e-41 2.01444e-40 -3.0631644e-09 -0.00084145414
000020 6d 0f 0a 3c 9e f5 01 80 1c 17 02 00 40 f2 03 00
       0.008426529 -1.79946e-40 1.91961e-40 3.6241e-40
000030 ed 90 df ba 74 50 06 80 e0 f0 0c 3d 1d 1b 02 80
       -0.0017056741 -5.79874e-40 0.034409404 -1.93397e-40
000040 b7 2e 00 00 5f 25 01 00 2c 14 ce 1e 78 93 00 80
       1.6758e-41 1.05242e-40 2.1819441e-20 -5.2902e-41
000050 ce 23 00 00 e8 40 02 00 f2 19 06 80 db 17 04 00
       1.2844e-41 2.06955e-40 -5.6032e-40 3.759e-40
000060 92 46 03 80 ef 71 09 bd 91 ba 03 80 1d ef 4b b8
       -3.00822e-40 -0.03355592 -3.42434e-40 -4.8621663e-05
000070 71 91 05 80 6d 7c 00 00 74 db 04 80 69 ff 05 00
       -5.11352e-40 4.4636e-41 -4.46067e-40 5.50801e-40
000080 99 83 00 80 92 11 01 00 aa 84 09 3d 36 0f 06 80
       -4.7208e-41 9.8139e-41 0.033573784 -5.5647e-40
000090 83 d9 00 00 b0 a5 e5 ba bd ae 49 bc 6a 94 06 80
       7.8029e-41 -0.0017520692 -0.012309727 -6.04254e-40
0000a0 e4 d5 04 80 94 fb 15 93 9d d7 02 80 91 ee 01 80
       -4.44071e-40 -1.8930482e-27 -2.61018e-40 -1.77417e-40
0000b0 2f ee 38 17 ea da 05 00 d7 f4 1f 30 fb de 06 00
       5.9754236e-25 5.37709e-40 5.81918e-10 6.31003e-40
0000c0 ec 0e 06 80 bc b2 01 80 c2 51 01 00 4b 2b 9c bc
       -5.56366e-40 -1.55953e-40 1.21165e-40 -0.019063612
0000d0 c3 af 00 00 f7 44 35 35 df 30 06 80 79 af bc 39
       6.3051e-41 6.752811e-07 -5.68545e-40 0.00035988892
0000e0 97 a6 c3 35 0a 2d 05 00 fd e5 02 00 b0 9e eb 2c
       1.4577116e-06 4.75334e-40 2.66175e-40 6.6967196e-12
0000f0 03 44 40 bb 09 4a 02 80 31 17 df bc 3a bd 04 00
       -0.0029337413 -2.1023e-40 -0.027232738 4.35224e-40
000100 b5 7f 03 80 36 42 02 00 c3 67 8c ba 34 83 39 19
       -3.21319e-40 2.07423e-40 -0.0010712076 9.590772e-24
000110 e6 0c 06 00 f6 2f f2 bc a7 c7 06 00 dd 41 02 80
       5.5564e-40 -0.029563885 6.22635e-40 -2.07298e-40
000120 e4 64 00 00 e3 a4 00 00 59 88 01 80 74 70 00 80
       3.6193e-41 5.915e-41 -1.40748e-40 -4.034e-41
000130 44 c1 01 00 c6 de 00 00 c0 3e 02 00 88 c7 05 80
       1.61166e-40 7.9916e-41 2.06181e-40 -5.30756e-40
000140 b2 96 eb b8 b2 25 02 80 91 59 49 3b ef be d2 3b
       -0.000112337424 -1.97194e-40 0.0030723552 0.0064314525
000150 f2 0e 04 80 c8 18 03 80 10 d0 01 80 44 c7 01 00
       -3.72703e-40 -2.84396e-40 -1.66474e-40 1.63319e-40
000160 14 42 06 00 13 6c 03 00 3b c2 04 80 06 64 98 ba
       5.74717e-40 3.14276e-40 -4.37019e-40 -0.0011626489
000170 92 5a 02 00 09 59 02 80 4f dd 02 80 e6 df 05 80
       2.16161e-40 -2.15611e-40 -2.63062e-40 -5.39497e-40
000180 51 3d 00 80 be 9b 00 00 cc 4c 02 00 9d 42 18 2b
       -2.1996e-41 5.587e-41 2.1122e-40 5.409369e-13
000190 22 63 22 bb b9 43 07 80 9d fa 00 00 d8 90 04 00
       -0.0024778326 -6.67143e-40 8.9903e-41 4.19302e-40
0001a0 80 66 01 80 89 19 00 80 8a 9e 02 80 b0 16 01 80
       -1.28606e-40 -9.16e-42 -2.40544e-40 -9.9974e-41
0001b0 16 8f 06 80 a7 10 01 80 45 2a 02 00 14 d4 06 80
       -6.02343e-40 -9.7809e-41 1.98834e-40 -6.27092e-40
0001c0 fd 9a 06 00 9f b4 02 00 ee 8f 03 00 88 88 02 00
       6.06612e-40 2.48466e-40 3.27139e-40 2.32649e-40
0001d0 6a 92 05 80 04 b7 1d bd 71 9e 05 80 93 d4 02 80
       -5.11701e-40 -0.038504615 -5.16016e-40 -2.59928e-40
0001e0 3e 18 61 3d 7b 4e 03 00 b3 dc 00 00 05 2d 87 3d
       0.05495476 3.0366e-40 7.9172e-41 0.06600384
0001f0 3d 14 6b 3b e3 52 00 00 5f 9c 01 80 a4 c3 01 80
       0.0035870217 2.9734e-41 -1.47931e-40 -1.62018e-40
000200 53 ff 03 00 05 81 e0 03 2a bb 04 80 70 4b 03 00
       3.671e-40 1.3195158e-36 -4.34484e-40 3.02568e-40
000210 16 65 3c 3c 85 ce 04 80 d4 0a 03 00 0c 88 44 bd
       0.01149871 -4.41427e-40 2.79391e-40 -0.047981307
000220 d2 e7 03 80 ce 87 02 a1 e9 df 00 00 26 06 00 80
       -3.58668e-40 -4.422545e-19 8.0324e-41 -2.206e-42
000230 3b 0b 00 80 2c 3e 5f 3a 18 e7 50 bc 69 72 01 00
       -4.029e-42 0.0008516039 -0.01275041 1.32878e-40
000240 8d c9 3f bd 51 df 8f a5 10 95 f9 bc 61 b0 19 00
       -0.046823073 -2.495787e-16 -0.030466586 2.35916e-39
000250 02 06 5b ad ed 70 05 80 c8 d9 1c a9 89 53 05 80
       -1.2450043e-11 -4.99688e-40 -3.4827853e-14 -4.89144e-40
000260 18 69 8d 3c f7 30 00 00 40 fe de bb 9f 4d 02 00
       0.017262027 1.7565e-41 -0.0068052113 2.11516e-40
000270 70 cd 03 3d 73 35 05 00 30 e6 0e 00 ae db 44 b7
       0.032178342 4.78351e-40 1.368273e-39 -1.17336585e-05
000280 6e 8b 04 00 61 ef 05 00 44 9b 3f 3b 78 42 04 80
       4.1736e-40 5.4505e-40 0.0029236833 -3.91186e-40
000290 5c af 07 80 b4 ef 03 00 8a 51 f5 2f ab 4e 5c a9
       -7.05756e-40 3.61496e-40 4.4623177e-10 -4.8918047e-14
0002a0 4e da 63 bb cb 88 05 00 4e 64 06 00 57 2f 4d b6
       -0.003476757 5.0825e-40 5.86996e-40 -3.0574936e-06
0002b0 0e 7b 02 00 2e 87 86 92 26 5a 03 80 23 73 69 bd
       2.27815e-40 -8.489913e-28 -3.07846e-40 -0.05699457
0002c0 6a 69 07 00 1e 97 08 00 95 d7 00 00 ab 3b 06 00
       6.80664e-40 7.88895e-40 7.7336e-41 5.72418e-40
0002d0 8e 74 02 00 c6 ff 02 00 11 19 06 00 8f 5c 03 00
       2.25483e-40 2.75425e-40 5.60005e-40 3.0871e-40
0002e0 47 f7 05 80 7e 27 85 bb c7 0a 08 3d a5 7d 04 80
       -5.47884e-40 -0.0040635457 0.033213403 -4.12415e-40
0002f0 50 61 00 00 28 e6 ff b9 9d d2 66 3d 45 3c 03 80
       3.4909e-41 -0.0004880887 0.0563532 -2.97127e-40
000300 5f a1 02 bd 81 3c 05 80 54 9d af 3c 95 be 05 00
       -0.031892177 -4.80882e-40 0.021437325 5.27545e-40
000310 0f 29 00 80 b5 d3 01 80 e1 d9 02 80 c0 45 03 00
       -1.4729e-41 -1.67782e-40 -2.61831e-40 3.00528e-40
000320 d4 36 03 80 4c 32 04 00 d9 67 00 80 cc d9 02 00
       -2.95175e-40 3.85385e-40 -3.7254e-41 2.61802e-40
000330 91 a3 06 80 68 db 01 80 a3 05 01 00 7d 4c 1b 95
       -6.0969e-40 -1.70544e-40 9.3858e-41 -3.136234e-26
000340 fe 88 2a 15 f8 d3 02 80 64 2b 07 00 68 05 01 80
       3.4439294e-26 -2.59711e-40 6.58414e-40 -9.3775e-41
000350 f0 da 2b 94 b9 b9 05 80 10 a4 16 13 73 dd 06 00
       -8.6764716e-27 -5.25802e-40 1.901355e-27 6.30454e-40
000360 e8 34 03 80 d2 1c 01 00 54 74 00 80 e0 12 01 80
       -2.94486e-40 1.02174e-40 -4.173e-41 -9.8607e-41
000370 d9 a7 06 80 de 94 04 00 da f2 01 00 16 44 00 00
       -6.11225e-40 4.20745e-40 1.78954e-40 2.4425e-41
000380 66 55 03 00 09 2c 8f 93 de 94 01 80 0a 07 01 80
       3.06142e-40 -3.6141697e-27 -1.45239e-40 -9.436e-41
000390 9c 48 02 80 ac 4c 05 00 be 88 00 80 b1 fd 00 00
       -2.09718e-40 4.86682e-40 -4.9054e-41 9.1007e-41
0003a0 8f b2 01 00 9c c0 01 00 18 5d ec 11 dc 3c 02 00
       1.5589e-40 1.60931e-40 3.7291608e-28 2.05503e-40
0003b0 1d 86 02 00 45 76 7b 95 4a 6c e3 14 3d 42 04 80
       2.31782e-40 -5.0782345e-26 2.2963855e-26 -3.91104e-40
0003c0 0b 60 05 80 27 5c 01 80 54 df 00 80 80 1f 03 00
       -4.93631e-40 -1.24894e-40 -8.0115e-41 2.86807e-40
0003d0 49 40 00 80 af 9f 05 80 b0 03 88 88 3f 9a 05 00
       -2.3061e-41 -5.16461e-40 -8.186069e-34 5.1451e-40
0003e0 d0 86 03 80 c7 3c 07 80 94 b8 01 80 80 15 ee 14
       -3.23868e-40 -6.64651e-40 -1.5805e-40 2.4040339e-26
0003f0 b4 75 02 80 52 0b 02 00 dc 3c 06 80 71 30 8e 91
       -2.25895e-40 1.87732e-40 -5.72845e-40 -2.2433504e-28

layer_2.bias f4 [100]
000000 3f 9e b2 3c 3a fc 58 14 03 a7 04 3d 67 a0 0e 3d
       0.021803973 1.0954956e-26 0.032385837 0.03482094
000010 d4 fb a8 3c 5e 05 59 ac 12 86 f6 3c 58 4d a7 3c
       0.020627894 -3.0840534e-12 0.030093227 0.020422623
000020 9d 4d a0 3c 8f 53 09 3d 02 9b 04 3d e0 9d 98 3c
       0.019568259 0.033526953 0.03237439 0.018629968
000030 f6 64 8f 3c 23 e6 d7 3c c4 fd a5 3c 1a 00 90 3c
       0.017504197 0.026354855 0.020262606 0.017578173
000040 77 00 48 3d d8 5f 39 3d ad 38 9e 3c fb 95 a1 3c
       0.04882857 0.04525742 0.019314134 0.019724837
000050 ce fd 53 3d 0e 2e 2a 3d 95 ef ea 3c c3 ad 24 3d
       0.05175572 0.041547827 0.028678695 0.040204775
000060 5b 8c 90 3c c7 5c 94 3c 61 44 0c aa 9a 45 0d 3d
       0.017645052 0.018110646 -1.2458222e-13 0.034490205
000070 fa 74 9d 3c 63 8b 8a 3c d5 b9 8c 3c 12 3b 14 3c
       0.019220818 0.016912168 0.017178455 0.009047287
000080 0b 52 0c 3d 1e 1a 3f 3d 6e ec 01 3d b1 c6 a0 3c
       0.03425793 0.046655767 0.031719618 0.019625993
000090 c0 4f 72 b9 6c c3 8a 3d a5 5a aa 3d 4a f4 9b 3c
       -0.00023108628 0.06775555 0.0831807 0.019037385
0000a0 42 b4 4a b6 c5 c1 9c 3c 64 cd 9e 3c 11 ea 9f 3c
       -3.020527e-06 0.019135365 0.019385047 0.019520791
0000b0 6e 4a 0b 3d d2 1e da 3c 09 dc 9d 3c 4d ea f4 3c
       0.03400653 0.026626024 0.01926996 0.02989688
0000c0 0f 85 11 bc 22 ef 11 bc 91 fd 0b 3d 41 ea d8 3c
       -0.008881821 -0.008907111 0.034177367 0.026478888
0000d0 62 c0 f7 3c d0 15 4d 3d ab 9f e7 bb 03 1d e1 bb
       0.030243102 0.05006963 -0.0070685945 -0.0068699135
0000e0 8f 43 95 3c 2b 03 82 3c 74 33 33 3d 68 42 05 3d
       0.018220691 0.015870651 0.04375024 0.032534033
0000f0 48 01 2b 3d 55 ca 45 3d 78 78 eb 3c cd 5a cd 3c
       0.04174927 0.048288662 0.028743967 0.025067711
000100 58 9d c8 3c be b7 03 3d 4e 90 e3 3c a9 a0 9c 3c
       0.02448909 0.032157652 0.02777877 0.019119577
000110 7e 6e b6 3c 8e bd 09 bc 65 a1 18 3d 9f 3b 75 3d
       0.022269484 -0.00840701 0.037263293 0.059871312
000120 5e 96 03 3d 34 7a 99 3c a3 ef 90 3c 63 a3 82 a3
       0.032125823 0.018735029 0.017692393 -1.4163825e-17
000130 58 34 18 3d 42 df 00 bc d0 d2 86 06 d5 c9 51 3d
       0.037159294 -0.007865729 5.071496e-35 0.051217873
000140 12 1a 99 3c 6b 66 23 3d 79 18 21 3d 96 97 1f 3d
       0.01868919 0.039892595 0.03932998 0.038962923
000150 3d 63 9c 3c 9e c9 01 3d 5b 3b af 3c d9 11 0e 3d
       0.01909029 0.031686418 0.021390608 0.03468499
000160 9b 74 01 3d 65 da a1 3c a0 36 08 3d e3 f5 c4 3c
       0.031605344 0.019757459 0.03325522 0.02404303
000170 0e 5d a0 3c f6 5a 00 3d 34 77 e3 3c 23 83 8a 3c
       0.019575622 0.031336747 0.027766801 0.016908234
000180 5c 13 87 3c 69 ee 0f 3d ba 42 7a ba 24 44 13 3d
       0.016488723 0.035139475 -0.0009546686 0.035953656

layer_3.weight f4 [5, 100]
000000 33 45 f3 3c 40 44 5e 14 6a f8 3c 3d 03 a3 96 bd
       0.029696083 1.1221596e-26 0.046135344 -0.07355311
000010 42 0d 0c bd 42 d5 04 00 2c 9d 86 3d a4 15 68 bd
       -0.03419233 4.43844e-40 0.06572947 -0.056661263
000020 14 3c 92 bc 15 68 8c bd 36 e4 24 3d e1 2f 17 bd
       -0.017850913 -0.068557896 0.0402567 -0.036910895
000030 88 27 0d bc ea f0 8f 3d c5 b2 23 bd 8e f0 22 bc
       -0.008615382 0.070283726 -0.03996541 -0.009945048
000040 16 9e 14 3d 4f d7 29 3d 00 6f 1d bd 65 b1 3a bd
       0.036283575 0.0414651 -0.038435936 -0.045579333
000050 7e ff 90 bd 2b aa 41 3d 12 e6 c6 3c e7 97 7f 3d
       -0.07079981 0.047281425 0.024279628 0.062400725
000060 4e 23 fa bc 76 9d 2e bd fa 8b 00 80 30 2a 2c 3d
       -0.030534413 -0.042630635 -5.0214e-41 0.04203242
000070 2b b5 37 bd ff 1d df bc 42 f0 d6 bc d2 2f 1b 3c
       -0.04485051 -0.027235983 -0.02623761 0.0094718505
000080 ab 9b 9a bd 0a 05 89 bd e9 a3 4e 3d dc 7d 4e bd
       -0.075492226 -0.06690414 0.050449286 -0.050412998
000090 fa ce 5c 31 ae 01 a2 3d 32 26 7d bd ea 7a 46 bd
       3.2131866e-09 0.079104766 -0.061804004 -0.048457064
0000a0 be 09 21 97 2e ae 34 bd 56 97 01 bd 08 9c 18 bd
       -5.20342e-25 -0.044111423 -0.031638466 -0.037258178
0000b0 d8 1a 98 bd 22 ba 88 3d 17 bc 2b bd 1d 08 94 3d
       -0.07426995 0.06676127 -0.041927423 0.0722811
0000c0 8d e1 7b 37 91 d1 db 34 00 2f 9e bd fa 2c b3 3c
       1.5013281e-05 4.0944408e-07 -0.07723808 0.021872032
0000d0 ee 14 8b 3d 0e 57 cb 3c d4 93 88 36 d4 57 08 3e
       0.067911014 0.024821784 4.0703253e-06 0.13314754
0000e0 c7 8e 56 bd 14 0e 2b bd c2 e9 45 3d e1 9a 60 3d
       -0.052382257 -0.041761473 0.048318632 0.054835204
0000f0 5a 7f 72 3d cb 42 0f 3d 20 83 01 3d 9d 52 c4 3b
       0.059203483 0.034975808 0.03161919 0.0059912936
000100 71 b6 3d bd 33 4b 76 3d 2c 09 6d 3d d0 b2 2c bd
       -0.046316568 0.06013031 0.057870075 -0.042162716
000110 35 c6 34 bd a0 92 be 37 25 3a 88 3d ac 11 d7 3d
       -0.044134337 2.2718043e-05 0.06651715 0.105014175
000120 94 9b 72 3d 33 f1 69 bc 6d 8c 9c bc 8c 1c 04 00
       0.059230402 -0.014278698 -0.019109929 3.77583e-40
000130 6d 46 54 3d f0 d0 3a 33 f0 47 4c 04 01 8b b5 3d
       0.051824976 4.3496527e-08 2.4013117e-36 0.088644035
000140 fb c5 33 bd c5 8e 6f 3d ee fe a4 3d 55 66 63 3d
       -0.04388998 0.058485765 0.080564365 0.055517513
000150 cf 9c 27 bd 80 c9 0a 3d ba bd 43 bd 1c 16 97 3d
       -0.04092103 0.03388357 -0.04778836 0.07377264
000160 11 d3 9e bd 84 81 53 bd 1d b5 96 bd ab b7 91 bd
       -0.077551015 -0.051637188 -0.07358763 -0.0711511
000170 05 ee 3d bd 15 8e 14 3d 21 58 85 3d 64 9b 24 bd
       -0.04636957 0.036268312 0.0651095 -0.040187255
000180 de 3a 8e bc 29 45 98 bd 3e 92 99 36 5e d9 29 3d
       -0.017362054 -0.07435066 4.57678e-06 0.041467063
000190 55 6d 32 3d 4f 51 49 14 44 06 cd 3d f1 31 00 be
       0.0435613 1.0163942e-26 0.10010961 -0.12519051
0001a0 62 3a 78 bd 59 a6 02 80 62 fd 85 38 3b 73 ab bd
       -0.060602553 -2.43345e-40 6.3891304e-05 -0.08371588
0001b0 b2 d0 d2 bd 01 ad 6a 3d e1 43 35 3e e6 17 76 bd
       -0.10293712 0.057293896 0.17701675 -0.060081385
0001c0 d6 c1 bb bd d3 31 82 3d 39 97 80 bd 21 db b8 bd
       -0.09167831 0.063571595 -0.062788434 -0.090261705
0001d0 0c 56 ca bd 83 f2 a3 3d eb 9d 83 bd 32 05 87 bd
       -0.098796934 0.0800524 -0.06426605 -0.06592788
0001e0 bc 2c 98 be db b2 81 3d 3f 49 c0 3d 50 68 78 3e
       -0.2972163 0.06332942 0.093889706 0.24258542
0001f0 35 03 a7 bd 2e 28 82 bd 8e b0 01 00 3c 5d 57 3e
       -0.081549086 -0.0635532 1.55171e-40 0.2103166
000200 0b 0c 84 bd d9 c9 9e bd e7 81 a6 bb fe 01 62 ba
       -0.064476095 -0.07753343 -0.0050814035 -0.00086215127
000210 0b 24 06 be 12 06 94 be 1e 8a 0d 3d 81 33 97 bd
       -0.13099687 -0.2891088 0.034555547 -0.073828705
000220 37 58 80 37 0f 9c ae 3e 4e 6a b9 be aa 7b 8d bd
       1.5299867e-05 0.34103438 -0.36213917 -0.06908353
000230 a0 87 2f 17 c7 18 82 bd 3f e1 5b bd 79 21 80 bd
       5.6716733e-25 -0.06352382 -0.05368161 -0.062563844
000240 ac 02 fd bd 15 d4 f8 bb e3 2a 81 bd 41 04 04 3d
       -0.12354025 -0.0075936415 -0.06307008 0.03223062
000250 3f ca df 39 da 91 a6 37 a5 91 0d be 5f d7 f7 3d
       0.0004268456 1.985666e-05 -0.1382509 0.12101626
000260 8e 25 93 bd d7 1b 4f 3e 17 d8 21 39 f5 8a 86 be
       -0.07184897 0.20225464 0.00015434656 -0.2627789
000270 a5 a0 96 bd 74 ce c4 bc bd f6 cd 3d 57 ac 72 3e
       -0.07354859 -0.024024226 0.10056827 0.23698555
000280 e3 b6 45 3e 84 e8 04 be 9a ad 03 3e 04 5a dc bd
       0.19308047 -0.12979323 0.12859192 -0.107593566
000290 bc 67 1e be e9 3f 3b 3d ed 92 c1 bd ef 74 82 bd
       -0.15469259 0.045715246 -0.09451852 -0.063699596
0002a0 01 ae 02 be 18 7b 3a 3a 52 55 b6 3d 69 43 bc 3e
       -0.1276169 0.00071136793 0.08902992 0.3677018
0002b0 56 86 5b 3d 7d 60 10 3d 66 6f a7 bd de 85 00 00
       0.05359491 0.03524827 -0.081755444 4.8022e-41
0002c0 7d 68 43 3e 39 80 2c 36 61 4c 95 84 5c 71 17 3e
       0.19082828 2.5704633e-06 -3.5099875e-36 0.14789337
0002d0 0e d5 82 bd c8 f2 28 be 6b 73 31 be 27 47 df 3d
       -0.06388293 -0.16498864 -0.17329185 0.10902243
0002e0 37 6c 80 bd 2c 0f 38 3e 0f a4 ec bd 25 5a d1 bb
       -0.0627064 0.17974538 -0.11554729 -0.00638892
0002f0 89 21 2f be e2 23 9a bd 22 a3 fd bd ad 54 c6 bd
       -0.17102636 -0.07526375 -0.12384631 -0.096841194
000300 95 b8 88 bd 1e 63 1f 3e f5 9d 0d bd 5a 84 6d bd
       -0.06675831 0.15565154 -0.034574468 -0.05798755
000310 42 fb 82 3d b1 aa 03 be 98 53 65 39 5d 26 04 3e
       0.0639558 -0.12858082 0.00021870283 0.1290526
000320 5b c9 13 3e d0 14 da 94 ac b8 38 3e 61 c5 1e be
       0.1443228 -2.2020584e-26 0.18039197 -0.15504982
000330 08 00 38 be 12 bf 00 80 06 7e 1a 3e 75 79 35 be
       -0.17968762 -6.8543e-41 0.15087137 -0.17722113
000340 e0 55 33 be ac ed f0 3d a5 1c 2c 3e 2e 85 34 be
       -0.17513227 0.11764082 0.16807802 -0.17628929
000350 4f 31 2c be 8e 00 fa 3d 32 e5 3a be 7f e2 2d be
       -0.16815685 0.12207137 -0.18251494 -0.16980933
000360 ad 15 7c 3e 68 a7 24 3e c1 88 40 be 92 36 2c be
       0.24617644 0.16079485 -0.18802167 -0.16817692
000370 62 16 13 bd 30 cf 1a 3e c5 36 0a 3e 99 5d 2b 3e
       -0.035910018 0.15118098 0.13497455 0.16734923
000380 f4 2e 24 be 98 47 36 be 09 7e 06 00 e4 5e 2b 3e
       -0.16033536 -0.17800748 5.96226e-40 0.16735417
000390 d3 8e 36 be 3e 64 2e be d8 7f 31 be 19 3b bf bd
       -0.1782792 -0.17030427 -0.17333925 -0.09337444
0003a0 dd a8 32 be 73 c3 9f bd af 7a 2e 3e 56 55 34 be
       -0.17447229 -0.07800951 0.17038988 -0.17610678
0003b0 00 30 6c b1 7f 6d 4d be 69 fc f1 3d 83 2f 3e be
       -3.4369805e-09 -0.200613 0.118157215 -0.18572812
0003c0 de a1 b0 97 ae ea 34 be 51 d8 2e be da 31 3f be
       -1.1414594e-24 -0.17667648 -0.17074706 -0.1867136
0003d0 ce 13 19 be 0c fe 09 3e 3b 4e 35 be 0b c5 14 3e
       -0.14948961 0.13475817 -0.17705624 0.14528291
0003e0 7c 0f 63 bc af 59 9b bb 4c 04 2d be 39 1a 28 3e
       -0.013858672 -0.0047409157 -0.1689617 0.16416253
0003f0 e4 53 00 3e 52 a2 81 be 47 c1 29 bc ce e4 15 3d
       0.12532002 -0.25319153 -0.010361022 0.03659516

layer_3.bias f4 [5]
000000 ea 9d 69 bb ba 99 29 3c 5d 0d ae 3d 6d 81 b5 3c
       -0.0035647103 0.010351593 0.084986426 0.022156442
000010 f5 ef 64 3b
       0.0034933065
