models/all_td3/TD3_TradingEnv9_tts_42_2300_critic_2.pth (torch, 591839 bytes, 5 tensors)

layer_1.weight f4 [400, 66]
00000000: 379f e23d 1ed2 973f e199 d33c 7c55 d53d
00000010: 71dd 2340 1809 3ec0 2516 c0bf 87b1 3d3f
00000020: 3abb 513e ecfc ab3f 0931 a53d 869b 0140
00000030: bc54 993e 5d96 dc3d 9b55 aebf 8a58 c3bf
00000040: 3d41 f43c 05bd e23f 7472 1d3e ab86 5c3f
00000050: 5cf7 ff3e 9b23 f5be 402f 813e c3c8 fd3e
00000060: 0a8d b9bd 2384 673f 1b38 b0bf 5643 8e3f
00000070: efd6 d1bc 007c 4d3d b2b4 803e 5788 b33e
00000080: d915 c53e f9e5 623e a2d1 3b3f 30ba 3c3f
00000090: e6d8 0cc0 037d da3f a49b 00bd 46a1 f2be
000000a0: 877b 15be 04d6 4a3f 2f9b 943d cc32 2dbe
000000b0: 7d40 d8bf 9dc5 7640 3c6e 9340 d9be 173f
000000c0: 135b 7fbe 3f21 59be 74e0 19c0 2449 12be
000000d0: 5da3 6cbe 3166 e13e e2f0 0fbd e6eb 0000
000000e0: f05c 3eb8 c39b 0080 3ef6 0480 ada3 0480
000000f0: 3656 b6be 6762 84bf b79f 723d c66a 2d3f
00000100: b37d 07bf 4bd6 423f c208 8f3e 15e3 d2be
00000110: 6d67 8e3e bdb6 673e 7585 573f ceaa 5bc0
00000120: b943 0bc0 5728 6c3f cf45 8b3e 65d8 803f
00000130: 255c 143f 2d4e 2540 1b59 8c3f 14fc 393f
00000140: b953 0cc0 31a6 e03e 60e9 23bf 26f0 cb3f
00000150: 67b4 a5bc 6968 403f e320 bbbe f0ee a3bf
00000160: d0fe 01bf 4625 9ebe e086 babe a6ee a840
00000170: f765 613f 7197 7240 16af b8bd 08e2 2b3f
00000180: f48a 873e 6ad0 8b3e 9b49 c03e 9457 9e3e
00000190: 5e63 dfbd 27cd da3e 5eb9 79bf 81f4 5c3f
000001a0: 9976 7ebe 3c29 dd3e 6c50 f33d ee2f 413f
000001b0: 4753 bf3e a8c4 5f3e a64c 29c0 d54a 8a40
000001c0: 961a 4d40 fcd6 0440 1091 d33c 9fd4 013f
000001d0: 9f66 78be 941f e6bd f139 c8be 3436 1c3f
000001e0: 2a33 d0bd 53a6 0680 30d7 0080 7a1a 0180
000001f0: 8cd7 0100 0b98 0700 444c 9c3f 2c97 f7bd
00000200: 7a0d 063e 64d4 343e 98b7 50bf b6e0 2c3f
00000210: ac3a be9f 9546 0280 9d22 04a0 98b5 fd9f
00000220: 5bd7 0280 7dfa 0200 9b88 0100 223f cc03
00000230: 9ff1 b836 e7aa 0300 b065 8a9b 84dc 0180
00000240: ce5c 839b 689e e79b e4b3 0280 01ee 0000
00000250: da47 0100 53ff 0180 537d 8ab8 92fb 0200
00000260: ee68 f69f 1004 0280 74e4 86a1 1bb0 92a0
00000270: 19a5 0180 429b 0100 8709 0100 a4f9 0100
00000280: 0caa a4b2 7d19 0200 c48b f5a1 c416 0280
00000290: ce0d d2a2 528c 55a2 7c70 0280 fe1e 0100
000002a0: ca55 0100 ec2f 0280 05f2 1bb4 ebd7 0200
000002b0: d9cd 1ca2 cdd9 0180 5cae dfa2 7af9 a8a2
000002c0: fdad 0680 0936 0100 4716 0100 d936 0180
000002d0: b2b2 1cb7 d10b 0200 3ee6 0180 5bc8 7da8
000002e0: b4e2 cda9 bc09 0380 3404 3ab9 ac77 0600
000002f0: 983c 0700 8258 0780 2c2b 0380 46be 7eb6
00000300: fe02 ab8e 8f88 340f 9f7c 0680 266d 1c0c
00000310: 1f7e b394 7354 658c e7c4 bdbe 0a4d d33f
00000320: f367 10bf e973 9bbe b7f4 433f 178d 25bd
00000330: f4a0 14c0 9a47 553f 46ac f3bb adcf c43e
00000340: 9102 e6bd 33af 02bf b435 5dbf 58f1 35be
00000350: ce7f 3740 b35d c0bf 243b b33f 359b ea3e
00000360: 18ee 9d3b d797 583e 5694 433f c90a 793d
00000370: ba81 913f c5f1 4c3f cb23 08bf 46f9 7d3d
00000380: 8f73 5abc 18b0 033f 45f2 bd3c 5838 97bc
00000390: 7473 e5be a666 d2bf 30bf ffbe ba28 01bf
000003a0: 9575 a0c0 77ad c1be 1359 933f fc15 123f
000003b0: 0b02 a3bc 1515 413c a3bc 27bf a46b a53e
000003c0: 2962 b3bf 4737 39bf 73e6 6540 a83d 923f
000003d0: d64a 873f 5f5c 073f ae94 c03b 446a 71be
000003e0: 950f 5f3f 2faf 073e 71c4 5a3d d9fd 463f
000003f0: 5f9c cebb 62e2 0300 4625 0280 1b84 0580
0.11065524 1.1860998 0.025830211 0.104166955 2.5603907 -2.969305 -1.5006758 0.7409901
0.20481578 1.3436561 0.08065993 2.0251174 0.2994746 0.10770867 -1.3619875 -1.5261395
0.029816264 1.7713934 0.15375692 0.86142987 0.49993408 -0.47878727 0.2523136 0.49567232
-0.09060104 0.90436 -1.3767122 1.1114299 -0.025615184 0.050167084 0.2513786 0.35064957
0.3849323 0.2215804 0.7336675 0.737216 -2.2007384 1.70694 -0.03139843 -0.47388667
-0.14597903 0.7923281 0.072561614 -0.16913909 -1.689468 3.8558114 4.6072063 0.59275585
-0.24937086 -0.21204089 -2.4043245 -0.14285713 -0.23109193 0.44023278 -0.035141833 8.4624e-41
-4.5386085e-05 -5.5877e-41 -4.55677e-40 -4.26058e-40 -0.3561265 -1.034253 0.059234347 0.6774105
-0.52926177 0.76108235 0.2793637 -0.41188875 0.27813283 0.22628303 0.84188014 -3.4323
-2.1760085 0.92249054 0.27201697 1.0066038 0.579531 2.5828965 1.0964693 0.72650266
-2.19261 0.43876794 -0.64027977 1.5932662 -0.020227624 0.7515932 -0.36548528 -1.2807293
-0.5077944 -0.30887812 -0.36431026 5.279132 0.8804621 3.7904932 -0.0901777 0.6714177
0.264732 0.27307445 0.37556157 0.30926192 -0.10907625 0.42734644 -0.9754847 0.86310583
-0.24849929 0.43195522 0.11880574 0.7546376 0.37368223 0.21852362 -2.6453032 4.321635
3.2047477 2.0756216 0.025826007 0.5071506 -0.24257897 -0.11236492 -0.39106706 0.6102021
-0.10166009 -6.10679e-40 -7.7195e-41 -1.01333e-40 1.69159e-40 6.97391e-40 1.2210774 -0.120893806
0.13091078 0.17659146 -0.8153014 0.6753038 -8.0565194e-20 -2.08991e-40 -1.1192287e-19 -1.0745009e-19
-2.60926e-40 2.73529e-40 1.4084e-40 1.2004537e-36 5.5117557e-06 3.36815e-40 -2.28959e-22 -1.70942e-40
-2.1732106e-22 -3.8318112e-22 -2.48204e-40 8.538e-41 1.17611e-40 -1.83429e-40 -6.603696e-05 2.73917e-40
-1.04358644e-19 -1.85128e-40 -9.140664e-19 -2.48499e-19 -1.51061e-40 1.47532e-40 9.5253e-41 1.8139e-40
-1.9169441e-08 1.92814e-40 -1.6638841e-18 -1.91838e-40 -5.693523e-18 -2.8941168e-18 -2.24023e-40 1.02953e-40
1.22611e-40 -2.00862e-40 -1.4523546e-07 2.61128e-40 -2.1250917e-18 -1.69968e-40 -6.062888e-18 -4.5800635e-18
-6.13428e-40 1.1122e-40 9.9827e-41 -1.11511e-40 -9.33993e-06 1.8791e-40 -1.74431e-40 -1.40877664e-14
-9.1431555e-14 -2.78999e-40 -0.00017739908 5.93943e-40 6.64585e-40 -6.74599e-40 -2.90994e-40 -3.7959703e-06
-4.2157636e-30 8.9009854e-30 -5.95719e-40 1.2050649e-31 -1.8124127e-26 -1.7666931e-31 -0.37064287 1.6507885
-0.56408614 -0.3036187 0.7654528 -0.040417757 -2.3223238 0.8331238 -0.007436308 0.38439694
-0.11230958 -0.5104858 -0.8641007 -0.17767847 2.8671756 -1.5028595 1.4002423 0.4582154
0.0048196428 0.21151672 0.7639822 0.0608013 1.1367714 0.8005641 -0.53179616 0.062005304
-0.013333215 0.5144057 0.023186812 -0.018459484 -0.44814646 -1.6437576 -0.49950552 -0.5045277
-5.0143533 -0.37827656 1.1511558 0.57064795 -0.019898435 0.0117848115 -0.6552221 0.32308686
-1.4014331 -0.7234997 3.5921905 1.1425066 1.0569713 0.5287532 0.005877099 -0.23575693
0.8713315 0.13250421 0.053409997 0.7773109 -0.006305262 3.56717e-40 -1.97042e-40 -5.06568e-40

layer_1.bias f4 [400]
00000000: 4f7d 5e3e e0e2 30be 2058 40a6 f149 24bd
00000010: 2a69 db3d 8849 08bd 09be a43e 8f89 15b7
00000020: 2ec3 d2bd d2bc 2fbe d0db 7bbc 74a1 7dbe
00000030: 547b 9e3c b615 853e a24c 663e accc b4be
00000040: 4c73 d9be a53a e6bd 7b79 8b3d 822f d3bd
00000050: a0ef c5af 3ed7 14bb 6b63 81bc e3ae 23be
00000060: 1562 d83d b5ad 253e 2bb7 b9be 1108 9b3e
00000070: 1958 8ebd 6442 493d 285e 03bf 98f8 aa3c
00000080: db2d 33bd 0e81 9dbc f7e8 9fbd 1628 9ebc
00000090: 3614 1dbe 4b02 8cbc e4f8 3eba a8b2 80bb
000000a0: dc7b ad3e a823 3bae 73b0 f0bd 5ccf 2fbe
000000b0: e7f2 cabe aa8c 0d3e 4813 e83c c70d 21bf
000000c0: 7d05 91be 6641 1bbb 34d2 7dbe fa20 1cbe
000000d0: 42ba b5bd b1e4 2dbe bd0c 3ebb ffa9 eebd
000000e0: 39f6 0ebd 3502 9cbe 0727 6fbb 5868 3dbd
000000f0: d959 a53d 1393 b8bd dcd3 efbd cfc6 60be
00000100: f7c9 05be 7583 573d 8d73 8f3e e15b f2bb
00000110: 5516 9c3e d109 9ebd bb91 bdbe 5cb5 4ebe
00000120: 6d03 3c3e 7783 e5bc 0a87 3ebb f2fa 1dbd
00000130: 9000 5d3e 27fa 6abd d746 bf3d 78c5 07bd
00000140: 4b9a eb3e cabd 69bd ba8c 0cbd 1c38 283c
00000150: 26e6 bc3d 16fb f03d 8218 6ebd 01d6 64bc
00000160: 9be8 89be 0683 4cbe 9184 8fbd fcca 81be
00000170: 36dd 00bd cc98 09bd e0ab 2abc 91ed 833c
00000180: f240 39be cd01 0c3e 0261 54bc 2fc2 b7bc
00000190: 4000 8dbd 9c23 40bd 6a1b ccbd 2492 89bd
000001a0: 76a1 873d 4783 49bd 3dae 8dba 9960 73be
000001b0: 4714 be3d 3984 44be b1f9 7c3d 2d0b 263b
000001c0: 55cb 01bf 2641 11be 7d9e 568f d32c 8cbd
000001d0: b24d 7bbe 08fb 69bd 829a 21bd 9c7a f5bd
000001e0: f5fb bbbc 5816 a53d 8a12 a0be 0911 043f
000001f0: d3a3 2dbd 4d9c 33bd 5280 37be 962b 833c
00000200: 6a26 8ebc 7c03 163e 7c08 323c 8637 04bd
00000210: 0c14 a498 9c62 c4bd 0202 6abc 4a34 40bd
00000220: d5ba b7be f24a a73d cae0 9abe 310d 86bd
00000230: a5fb 1d3e 214d 45be daf6 8a3e d195 053e
00000240: 6d52 bcbe 554e bfbe abc3 72b9 059b eebd
00000250: fbc5 08bd 5dcb 923c 11e1 493e de73 6b3d
00000260: bd23 94bc 8118 22be b329 c0be 3dfa 66be
00000270: 9cc6 c03d a19e 9e3d faf6 53bd 3e3c 5fbe
00000280: 89d9 d6bc 229e 353e b8ad 273d 454d 82bd
00000290: da63 63b6 2847 573e cb7c 733c 903c debd
000002a0: 18aa 013c 0477 533d 979d b1bb 6b08 603d
000002b0: 6c76 60bc ddda babd 639c 19bd 1111 0d3e
000002c0: 6588 d0be 03a6 96be b6b9 4cbc 19b0 97bc
000002d0: 0c35 1b3e 9374 e3bb 80dc 503f 2a29 8ebe
000002e0: e012 213d 8855 53bc 51e1 ccbe 31a4 b5bd
000002f0: 9cb9 263e a027 1fbb 8bab ffb6 8acb bebe
00000300: 134c b8be e42d 5c3e 1fc1 b4bd 4ad5 01ba
00000310: ff86 68bc 2afd 4bbd e4ef 85bc f664 203e
00000320: 8fcb 213c 0ae8 abbe c7a6 99bc 8d89 15b6
00000330: f89c 96bb ec83 1cbe f9e8 f6bc dbec 64bb
00000340: c68d b6bb 8f98 96bd 3dfd a7bc f59f 68be
00000350: 366c c8bc f3bb f4bd 990a c3bc 75be 953d
00000360: 132a 1c3e 6d4e 92be 1cbe 493d d225 debd
00000370: 216c 72be 9a9b c93e 7b04 6dbd 6223 203e
00000380: 6ff2 fc3e 895c 163c 087c 0ebe 9f93 f1bc
00000390: 7a23 57bd b0e8 cbbc bd84 023f 0d35 80ae
000003a0: d15e f8bc fc1c 55bd ba38 70be 1da2 d3bd
000003b0: e816 1da3 fb43 f0be 9a2f 863e 4dff 02bd
000003c0: 8321 343d 185a 4ebe c3c5 a0bc 3f82 a1bd
000003d0: 049d b73d 363d 3bbe b151 97be beb5 02bd
000003e0: 5799 863c 7bf3 08be a7ab 7ab6 2ad2 863d
000003f0: 4747 77be 2368 2e3e c62d fcbc 31a9 4cbe
0.21727489 -0.17274046 -6.6732813e-16 -0.04010958 0.10713418 -0.03327325 0.32176235 -8.91312e-06
-0.10291134 -0.17161873 -0.015372232 -0.2476862 0.019345917 0.25993127 0.2249017 -0.35312402
-0.42470777 -0.11241654 0.0681028 -0.10311796 -3.6004355e-10 -0.0022711302 -0.015794476 -0.15984683
0.10565583 0.16179545 -0.3627256 0.30279592 -0.06950397 0.04913558 -0.51315546 0.020870492
-0.043744903 -0.019226577 -0.078081064 -0.019306224 -0.15339741 -0.017090937 -0.00072850124 -0.0039275475
0.3388356 -4.2550546e-11 -0.11752405 -0.17168945 -0.39638445 0.1382319 0.028329507 -0.6291165
-0.283245 -0.0023690104 -0.24787217 -0.15246955 -0.088734165 -0.1698177 -0.0028999292 -0.11653518
-0.034902785 -0.30470434 -0.0036491768 -0.046242088 0.08073778 -0.09012427 -0.11710331 -0.2195084
-0.13065325 0.0526156 0.28017846 -0.0073962067 0.30485788 -0.07716716 -0.37025246 -0.2018637
0.18360682 -0.028016789 -0.0029072189 -0.0385694 0.21582246 -0.05736747 0.093396835 -0.033147305
0.46016154 -0.057065763 -0.034313895 0.010267284 0.09223585 0.11766641 -0.05812884 -0.013967038
-0.26935276 -0.19971856 -0.07007707 -0.25350177 -0.031460963 -0.033592984 -0.010416955 0.016104491
-0.18091181 0.13672562 -0.012962582 -0.022431461 -0.06884813 -0.04690896 -0.09966166 -0.06717327
0.06622593 -0.04919746 -0.0010809373 -0.23767318 0.09281211 -0.19191064 0.06176156 0.002533625
-0.50700885 -0.14185008 -1.0581538e-29 -0.06844487 -0.24541357 -0.057124168 -0.03945399 -0.119862765
-0.02294729 0.08060902 -0.31264144 0.51588494 -0.042392563 -0.043850232 -0.17920044 0.016011994
-0.017352302 0.14649767 0.010866281 -0.032279514 -4.241325e-24 -0.09589121 -0.014282705 -0.046924867
-0.3588473 0.081685916 -0.30249625 -0.06545485 0.15428026 -0.19267704 0.27141458 0.13045432
-0.36781636 -0.3736445 -0.0002315181 -0.116506614 -0.033391934 0.017919237 0.19714762 0.057483546
-0.018083448 -0.1582966 -0.37531814 -0.22556396 0.09412882 0.077451 -0.051749207 -0.21800324
-0.026226776 0.17736104 0.040937155 -0.06362394 -3.3883757e-06 0.21023238 0.014861296 -0.10851395
0.007914089 0.051627174 -0.0054203975 0.054695528 -0.013700109 -0.09123776 -0.037502658 0.13776042
-0.4072906 -0.29423532 -0.012495449 -0.018516587 0.15156955 -0.006941387 0.81586456 -0.2776578
0.03932464 -0.01289881 -0.40015653 -0.08869208 0.16281742 -0.0024285093 -7.6195624e-06 -0.37264663
-0.3599554 0.21501881 -0.088258974 -0.0004952742 -0.014192342 -0.049801983 -0.01634974 0.15663514
0.009875192 -0.3357547 -0.018756283 -2.2282795e-06 -0.004596349 -0.15284699 -0.030140387 -0.0034931216
-0.0055711 -0.07353317 -0.020506496 -0.22717269 -0.024465661 -0.11949911 -0.023808764 0.073117174
0.15250425 -0.2857546 0.049253568 -0.108470574 -0.2367406 0.39376527 -0.0578656 0.15638497
0.49403712 0.009177336 -0.13914502 -0.029489337 -0.052524067 -0.024891227 0.5098379 -5.83019e-11
-0.03031865 -0.052029595 -0.2345914 -0.10333655 -8.515838e-18 -0.46926865 0.26208192 -0.031981755
0.04397727 -0.20151556 -0.01962555 -0.078861706 0.08965495 -0.18285069 -0.29554513 -0.031911604
0.01643054 -0.1337413 -3.7352818e-06 0.06583054 -0.24148284 0.17031913 -0.030783545 -0.19986416

layer_2.weight f4 [300, 400]
00000000: bdbb 3cbf b1ab 82be ba39 0200 53d2 0180
00000010: 036f 973b dc1d 0080 2c85 febd c485 0200
00000020: d091 0180 b89a 883c 0d35 0280 1b29 0280
00000030: 56a9 0180 3200 913c a8d9 0180 91e3 0abe
00000040: f4ab 76be f0ad 0180 56f6 0180 4da9 0180
00000050: c1e8 0200 2ca5 0ebc 9bd7 0180 acfe 0180
00000060: acc9 a7bb d0cc d43d 6ec4 0000 39e2 5bbe
00000070: 2c1c 0400 791c 0280 91bf 233d 71cc 0180
00000080: 8625 0300 62e9 0180 30ef 7abe 0b09 0380
00000090: 97cf 0180 9c77 5936 6cc7 0180 fe55 0200
000000a0: c242 07bf 97e0 0200 edce 0180 1635 04bf
000000b0: c9c7 eb3d 180f 0280 f6d5 8abc 5701 0280
000000c0: 0d1c 24be 0b4c 0480 9dab 58bd d9fb 0180
000000d0: 0edc 0180 c0bf 0180 fd4f 0600 dcdc cf3c
000000e0: be9f 0180 b027 22be 2167 2ebc e3a7 0200
000000f0: 00c8 82bc 9301 0280 d2ee 0180 5719 43bd
00000100: f6fe 0180 dc16 9fa4 1269 88be 1800 0280
00000110: b33d b1a7 076c f3b8 5bf5 24be 2da0 07af
00000120: e099 9bbd 68ef 0180 2011 4a3a 53d4 0200
00000130: deff 7fbe 9d60 0280 2a6e 0180 3a16 13ab
00000140: b468 06bf 001a 0200 b982 0200 93fc 0180
00000150: 94f4 733d 597f 74bc 183a 0180 1de0 0180
00000160: 1ce2 85bc cb6a 0180 0c11 0280 a125 78bd
00000170: 3f2a 0780 fa4e 26be ee1f 0200 bb0e 56bd
00000180: 08a0 0180 be30 0280 aa78 0180 f935 0200
00000190: 7bca 5ebd 2ad3 0180 4ba4 83be dfbc 75be
000001a0: c33e 0280 f212 0200 4ce0 0100 45c8 a2be
000001b0: ba7d 0180 cd88 42bd 5701 c73b ca83 21be
000001c0: fd04 0280 601d 0280 3dcd 0180 3ed0 0080
000001d0: 94b0 a63d f2e5 0180 a65e ae3b 4243 24be
000001e0: d5b7 0080 c216 0180 b731 64be 6c81 debe
000001f0: 879a 0200 62fb 0100 00c6 0180 28ab b7bd
00000200: 312e 0200 e0ae cbbb 6d61 c3be 759d 0180
00000210: e196 0200 39e8 533d ea7b 0280 f6c1 0180
00000220: 12b6 0180 2d97 81bc 3b42 efbc 3b23 0280
00000230: 99f5 0180 51bb 0180 af24 0280 aa47 4fbe
00000240: 5933 0180 0254 a6bd 5704 0280 51e7 55bd
00000250: 431d 0700 b61d fda8 b81f 94be 4d40 79bc
00000260: 7009 0280 49de 0180 7f39 f3bd f1d4 18be
00000270: 9fe1 2abe 2013 d2ba a6fb 0400 e196 42bd
00000280: f5b8 0200 3ada e0be d902 0400 c632 0280
00000290: 54c7 0180 cd39 80bb 23ac debb 7684 c9bd
000002a0: 07be 0180 9516 2f3d b8ff 0200 141d 93be
000002b0: b1b1 0600 1407 7bbd c608 0280 e282 15bf
000002c0: b8ca 28be b9c7 a3bd ef0f 0280 f192 0080
000002d0: 9c87 89bd 6828 0200 deaa a53e b4dc 0180
000002e0: cc50 38bc ab4e 0180 7617 0280 ed9a 0180
000002f0: 0c7a 0200 2306 0280 af30 0280 9e34 283e
00000300: ff34 58bd 718a babc 52e6 0180 c9f1 0180
00000310: a2cc 0180 be13 e1bc 900f 0280 459c 0200
00000320: 4742 aabe 0c21 0280 43e7 0200 89f6 0200
00000330: 2fcc 0200 14e6 0080 f3b6 0100 59cd 0000
00000340: 0143 0180 6819 83bb 51a9 b2bd 09d7 96be
00000350: ae18 dcbd 24f8 87bc 92f5 0200 94fc 0200
00000360: 1db7 9fbe 3d70 8ebd 5191 d23c bc02 0280
00000370: 2f77 0180 0dd7 dbbe 1bc6 883e 3349 0fbf
00000380: ab41 2fbf b2a6 efbc a70e 0280 a8bb 0180
00000390: 3305 ecb4 65ef 0180 8e8c ebbe 840b 0180
000003a0: 340e 0100 f22b 0280 81ff 80be eedb 0180
000003b0: 6c61 0400 dfef d3bc 4cee 0cbf 7634 253f
000003c0: c866 66be ae17 26bb 871b 0280 d2d0 0180
000003d0: 0909 0280 0729 0280 f544 b1bb e5b4 0180
000003e0: f34c 0380 dc09 0280 0586 0500 7720 0280
000003f0: 7f1d 0280 f224 25bf bb9f 0180 7020 f0bc
-0.73723966 -0.25521615 2.0438e-40 -1.67286e-40 0.004621388 -1.0712e-41 -0.12427744 2.31657e-40
-1.44143e-40 0.016675338 -2.02702e-40 -1.98417e-40 -1.52582e-40 0.017700288 -1.69916e-40 -0.13563372
-0.24089032 -1.54233e-40 -1.80204e-40 -1.52569e-40 2.67167e-40 -0.008706372 -1.6918e-40 -1.83195e-40
-0.0051204767 0.103906274 7.0466e-41 -0.21473016 3.77448e-40 -1.93885e-40 0.039977614 -1.65175e-40
2.88967e-40 -1.75557e-40 -0.24505305 -2.7875e-40 -1.66305e-40 3.2405142e-06 -1.63375e-40 2.14519e-40
-0.5283624 2.64239e-40 -1.66066e-40 -0.516435 0.11512715 -1.89086e-40 -0.016947728 -1.84152e-40
-0.16026326 -3.94621e-40 -0.05289804 -1.82181e-40 -1.70776e-40 -1.60622e-40 5.79707e-40 0.025373869
-1.4914e-40 -0.15835452 -0.010644705 2.43897e-40 -0.015964508 -1.84236e-40 -1.77508e-40 -0.047631588
-1.83298e-40 -6.8993983e-17 -0.26642662 -1.83705e-40 -4.9194263e-15 -0.000116072646 -0.1610922 -1.2335084e-10
-0.07597709 -1.77718e-40 0.00077082403 2.59839e-40 -0.2499995 -2.1833e-40 -1.31355e-40 -5.2255737e-13
-0.52503514 1.92998e-40 2.30565e-40 -1.82442e-40 0.05955942 -0.01492294 -1.12676e-40 -1.72232e-40
-0.016343169 -1.30146e-40 -1.89786e-40 -0.06058276 -6.58004e-40 -0.16241065 1.95125e-40 -0.05226014
-1.49244e-40 -2.01156e-40 -1.35122e-40 2.03033e-40 -0.05439232 -1.67587e-40 -0.25711283 -0.2399783
-2.06186e-40 1.90467e-40 1.72298e-40 -0.3179342 -1.36938e-40 -0.047493745 0.006073158 -0.1577293
-1.8546e-40 -1.94209e-40 -1.65461e-40 -7.4703e-41 0.08139148 -1.74324e-40 0.0053213416 -0.16041282
-6.5947e-41 -1e-40 -0.2228459 -0.43458116 2.39105e-40 1.82015e-40 -1.62865e-40 -0.08968192
2.00241e-40 -0.006215915 -0.38160267 -1.4832e-40 2.37796e-40 0.051735137 -2.28123e-40 -1.61416e-40
-1.5715e-40 -0.015819157 -0.029206386 -1.9631e-40 -1.7994e-40 -1.59032e-40 -1.9683e-40 -0.20242181
-1.10256e-40 -0.08121492 -1.85228e-40 -0.052222554 6.53346e-40 -2.8101528e-14 -0.2893045 -0.015213084
-1.87057e-40 -1.71576e-40 -0.11876201 -0.1492498 -0.1668763 -0.0016027428 4.57616e-40 -0.04750717
2.50021e-40 -0.43916494 3.68364e-40 -2.01885e-40 -1.63341e-40 -0.0039131404 -0.0067954226 -0.09839718
-1.60004e-40 0.042746145 2.75406e-40 -0.28733122 6.14757e-40 -0.061286047 -1.86818e-40 -0.58402836
-0.16483581 -0.079970784 -1.89387e-40 -5.2713e-41 -0.067153186 1.98166e-40 0.32356924 -1.71009e-40
-0.011249732 -1.20056e-40 -1.92087e-40 -1.47412e-40 2.27453e-40 -1.85872e-40 -2.01135e-40 0.16426322
-0.052784916 -0.022771092 -1.74459e-40 -1.78572e-40 -1.65244e-40 -0.027475234 -1.89254e-40 2.3973e-40
-0.3325369 -1.95526e-40 2.66632e-40 2.72111e-40 2.56918e-40 -8.2536e-41 1.57465e-40 7.3665e-41
-1.15872e-40 -0.0040008314 -0.08723701 -0.29460934 -0.10746895 -0.016597815 2.71765e-40 2.74279e-40
-0.31194392 -0.069550015 0.025704058 -1.84652e-40 -1.3459e-40 -0.42937508 0.26713642 -0.5597107
-0.68459576 -0.029254291 -1.88927e-40 -1.59154e-40 -4.3962208e-07 -1.77714e-40 -0.46005672 -9.5967e-41
9.693e-41 -1.99436e-40 -0.25194934 -1.70731e-40 4.0229e-40 -0.025871215 -0.5505111 0.64533174
-0.22500145 -0.0025343704 -1.93546e-40 -1.66746e-40 -1.86912e-40 -1.98389e-40 -0.0054098316 -1.56728e-40
-3.0311e-40 -1.87208e-40 5.07255e-40 -1.95317e-40 -1.94252e-40 -0.645095 -1.49136e-40 -0.029312342

layer_2.bias f4 [300]
00000000: 1d6e b53c 7c9f 0100 fa1f cf3b 8b0c 713c
00000010: cfbc 0180 4f04 833c 6b6c 3d3c e0b3 36bc
00000020: f412 b33c 697f 95bc a7d7 4ebe 6379 5fbc
00000030: cb3e 853a 3bf9 723c 1884 733c f18f 29bc
00000040: ed67 9c3c 2266 243c 0ad5 fbb5 4c5c 573c
00000050: e615 803c f73c af3e 0bee 5c3f 5d9c 01bd
00000060: 8d21 623c 8d1a 953d 4e0d f5af d751 9a3c
00000070: 038c 763c daf9 a53c 0238 b43b 784e d63b
00000080: 3745 e73c fee8 26bf 56b3 a1be b733 723c
00000090: 3d89 e23b 9379 00bd 8322 5db4 0d8e 0600
000000a0: 860f a83e 6814 053e c0f0 cabc ce00 0280
000000b0: d5ab a7bc 0de4 ed3b ad2e 35be eeea 85b1
000000c0: 06cc 43be eb90 71ba 0b53 5f3c e350 683c
000000d0: ebe5 ad3d 1939 a03c baef 88bd 45cb f63c
000000e0: e01b 00be 8d7d 23bd 5294 9e3c fdcf 143f
000000f0: 973c aa3c ae28 e53b c170 333c ed4f fc3b
00000100: d0bb 15bd a064 0300 ddd2 383c 7a59 16be
00000110: 6ea1 de3b 9163 0e3d 5d31 00ac 533b 929c
00000120: 0276 4c3e 5d26 09bb 2bf4 333c bfc4 153c
00000130: e15e 30ab 26ae 633c b53b 56ab 04a5 f7bd
00000140: 72b4 82be 22a0 9bb7 2f8a 173f 1740 bb3c
00000150: 359a e93d 809e 0cbe def8 6894 c3f9 493e
00000160: 429f 03bb 2398 ae3d 5547 643c 9a2f 31ba
00000170: 8d00 393e a915 933c 1867 c43f 4e05 20bc
00000180: 6da4 0580 19eb fd3b e97c 443c 699b 00ac
00000190: 4cf1 213f eac5 063c 27d2 1d3f cdba 703c
000001a0: 37d2 0b3f 72e7 e93d 33f1 0180 f8d8 1f3f
000001b0: 33cc c93d 7f06 7b3c 7dd0 8abd 9aa1 38bf
000001c0: ee70 6ebd 96dc 1a3c eb98 443e cd22 13bd
000001d0: a6fb a6bb d497 10a5 9d86 17b7 e21e 1b3f
000001e0: d92a 433e 64c7 123c be9f 5b3c 76fc 67be
000001f0: 1e16 0100 9067 cea0 e019 a116 3dbf 5b3c
00000200: 4fd5 363c 6e99 9d3d 001f 163f f60a a73c
00000210: 8c11 6a3a d971 943d aeb9 253c d5d5 bd3c
00000220: 6db4 0180 e9cc 03be 2ce1 ac3c 1f9b 293e
00000230: bc42 fe3b 5d8e f9bd a61a 0280 afd4 a73b
00000240: b7ad 873b 77b9 1c3f 346e 40be e845 e13a
00000250: fa24 1f3f f220 21bc 08e8 103c 74f0 173c
00000260: 3704 b9bc 2530 9e3c a0d7 0080 5549 573c
00000270: 6b09 acbd e638 85bc 3edc 5fb9 c6d8 cba9
00000280: f6e4 96bc 8d32 cdbc ceef ee3c 633d 3f3c
00000290: 49d7 1cbc 4143 713c 5f91 7b3d ac11 26bc
000002a0: 596c 10b5 4679 d3bc 2618 573c 3a49 12be
000002b0: aec9 863c c1cd f43e 9cb2 3f3e 8392 793c
000002c0: 51fa 2ab4 dfb0 123e 4712 a3bd a0df 1735
000002d0: f7b0 60be 0de7 e5bd 6d37 2dbd 80aa f53e
000002e0: f481 e23c 5fb1 dfb6 6db4 1e3f f436 d3a9
000002f0: 3034 bd3e f006 ef3d 0f5a 8fbd 157d 1c3f
00000300: 2475 133f 1ad4 113c f637 1e3c f469 1a3c
00000310: 268c e7bc fb06 f23e 8b8c e53e 099c aab3
00000320: 899b 04bf 250c b23c 0703 843c 373b 57bc
00000330: 68b0 be3b 73e9 9f3f 5137 d63b 8cba 243c
00000340: 8c97 0280 b11b c2bb f0f2 f33b 3e53 5a3c
00000350: 99fd 5c3a e08f 453c 56de 203f 2eae efb8
00000360: 4437 153c e2f8 253c 6ac1 4a3c deac 1f3c
00000370: e09d 7e3d 28ab be3c e65c 9b3c 2623 13be
00000380: 00e5 30b4 9216 c1be 1a28 afbc f145 66bb
00000390: 66a4 66be 7efb 343c 8288 edb5 2b13 153c
000003a0: 727a 1db8 bc3c 623c 7ce6 18be 7bed 78a0
000003b0: 8e23 863e d444 9c3c ca06 eba9 c0c1 5c3c
000003c0: cbbb 403c 4c45 493e 262a 1b3f 207a b03c
000003d0: 9937 0280 d85f 743c db3f 8f3d b3fe 5f3f
000003e0: 5ea5 a63c d14f 893c 4f95 90bd b424 683d
000003f0: 67d6 75bc 03e8 dab6 6d98 4f3c 765e d6ba
0.022147233 1.49048e-40 0.0063209506 0.014712463 -1.59567e-40 0.015993265 0.011561493 -0.011151284
0.021859623 -0.01824923 -0.20199452 -0.013639781 0.0010165808 0.014829929 0.014863037 -0.01034926
0.019092524 0.010034116 -1.876296e-06 0.013144564 0.015635442 0.342262 0.86300725 -0.03164326
0.013801944 0.07280455 -4.4574694e-10 0.018837852 0.01504803 0.02026074 0.0054998407 0.006540116
0.028231246 -0.6519927 -0.31582135 0.014782838 0.0069133327 -0.031365942 -2.0594784e-07 6.01971e-40
0.32824343 0.12996066 -0.024773002 -1.8396e-40 -0.020467678 0.007259852 -0.17693587 -3.897518e-09
-0.19120798 -0.0009215015 0.013630639 0.014179441 0.08491119 0.019558476 -0.06686349 0.030126223
-0.12510633 -0.039914656 0.019357834 0.58129865 0.020780845 0.006993375 0.010952176 0.0076999576
-0.036556065 3.11604e-40 0.0112807425 -0.1468257 0.0067941463 0.034762923 -1.8217296e-12 -9.676805e-22
0.19966891 -0.0020927407 0.010983507 0.009141146 -6.265943e-13 0.013896501 -7.6110933e-13 -0.12092021
-0.25528294 -1.8552008e-05 0.59195226 0.022857709 0.11406366 -0.13732338 -1.1762087e-26 0.19724183
-0.0020083939 0.085251115 0.0139330225 -0.00067591073 0.18066616 0.017954664 1.5343962 -0.00976689
-5.18162e-40 0.007748973 0.0119926715 -1.8276164e-12 0.63258815 0.008225897 0.6164879 0.014692974
0.5461764 0.11421098 -1.78361e-40 0.62440443 0.09853401 0.015321373 -0.06778047 -0.72121584
-0.058213167 0.009452006 0.19198959 -0.03592186 -0.005095917 -1.254145e-16 -9.0316435e-06 0.60594
0.19059314 0.008958671 0.013404785 -0.226549 9.977e-41 -3.496629e-19 2.6027282e-25 0.013412294
0.011159255 0.0769528 0.5864105 0.020390969 0.0008929006 0.07248277 0.01011507 0.023173252
-1.5656e-40 -0.12871136 0.021103464 0.1656308 0.00775942 -0.12185357 -1.9323e-40 0.0051217894
0.0041405815 0.61220497 -0.18792039 0.0017186971 0.62165797 -0.009834515 0.008844383 0.009273637
-0.022585018 0.019310066 -7.7352e-41 0.013140042 -0.08400234 -0.016262483 -0.00021348984 -9.052615e-14
-0.018419724 -0.025048519 0.029167082 0.011672351 -0.009572812 0.014725507 0.061417934 -0.010136049
-5.3801847e-07 -0.025814664 0.013128316 -0.14285746 0.01645359 0.47813228 0.18720478 0.015232685
-1.5923548e-07 0.14325283 -0.079624705 5.65773e-07 -0.21942507 -0.1122571 -0.042289186 0.47981644
0.027649857 -6.6665666e-06 0.6199406 -9.379815e-14 0.36953878 0.11671245 -0.06999599 0.6112836
0.5760062 0.008900667 0.009656897 0.009424675 -0.02826507 0.4727095 0.44833788 -7.9446245e-08
-0.5179983 0.021734307 0.016114725 -0.0131366765 0.005819369 1.2493118 0.006537356 0.010054242
-2.38036e-40 -0.005923711 0.007444732 0.013325511 0.0008430123 0.012058228 0.6283926 -0.000114288516
0.009107415 0.010130139 0.012375215 0.009745805 0.06216228 0.023274973 0.018965196 -0.14368877
-1.6474587e-07 -0.37712532 -0.021381427 -0.0035136903 -0.2252365 0.011046289 -1.7697605e-06 0.009098808
-3.7545753e-05 0.0138084255 -0.14931673 -2.1084993e-19 0.26199 0.019075789 -1.0437274e-13 0.013473928
0.011763523 0.19655341 0.6061119 0.021542609 -2.03616e-40 0.014915429 0.06994601 0.87498015
0.020342525 0.016761692 -0.07059728 0.056675628 -0.015004731 -6.523916e-06 0.0126706185 -0.0016355056

layer_3.weight f4 [1, 300]
00000000: ec4e 05c0 4448 b1bb d557 00c0 c39d 02c0
00000010: 06e6 4bbc c742 febf c264 febf b3ec 843a
00000020: e489 fcbf 40a0 673c b6cd 29bf 4c83 6b3c
00000030: 0b43 00c0 cc9d f8bf 815c 00c0 8246 daba
00000040: 4c3b 02c0 3f9f fdbf 8097 05bc b18b fbbf
00000050: cfdc ecbf f72b 1fc0 0bfb af3f ce08 773c
00000060: 3e39 00c0 205a e8bf c312 72bc 6f48 04c0
00000070: 632d 02c0 5abe 04c0 b5d9 f0bf 941b 00c0
00000080: 464a 01c0 587e 11bf 2b7f 1fbf 133f f9bf
00000090: 014b fdbf e1ed cbbc 6e32 763c 0008 ffba
000000a0: f7ae 1ec0 4bd2 0cc0 55c4 ebbc ce5c efbb
000000b0: 79b2 4e3c b4f6 febf 42af 9c3c 5a47 2f3c
000000c0: 423c 2ebf 902b 123d 6842 febf 9ecc 01c0
000000d0: 80c5 7dbd 570c fdbf f5ca 4d3e c21f 02c0
000000e0: a1f4 1abe 9b6c 863f 4213 f9bf 20d9 233f
000000f0: 6d22 05c0 3b41 d8bf 1480 ffbf c00f fdbf
00000100: f783 d33f ed70 4935 b543 febf 3d86 02c0
00000110: 0878 febf e887 00c0 78ea 21bd a494 b939
00000120: a4de 13c0 7f76 fdbf 6f6d fbbf b729 ffbf
00000130: fc6f 4bba 907e fcbf 7d27 f33c dfca 58bf
00000140: 9a71 303f 6bca d6bb adb1 263f bc0e 02c0
00000150: cdaa 0bc0 5bfe a2be 75c0 edbc 3238 13c0
00000160: 2150 b9bc 2bd1 29be edb6 fcbf 6e7d 513c
00000170: f783 2b40 d242 04c0 10fe 1040 0cfe 87bf
00000180: 0bef 452e 9e0d 00c0 1bb7 f9bf 0c15 973b
00000190: 69ae 323f 0e93 00c0 df23 2c3f 987c fabf
000001a0: 00f8 243f deb5 f0bf 4538 bb3c b60a 2f3f
000001b0: 63ba c8bd 61ec fcbf 178e eebd 31cf 36bf
000001c0: d95a 74bd 3883 febf e719 0ec0 3c92 273d
000001d0: c6c1 cd3b 4218 aebb 3842 693a a5cf 2a3f
000001e0: c0ef 0bc0 d6e9 00c0 007e fdbf 0bb6 5bbf
000001f0: efd1 633b 49ef e73b a3de bf8d fc17 ffbf
00000200: 7216 fcbf f51b e1bf 9cc7 223f 664e 03c0
00000210: 9677 fcbf 966d fabf 60ea f7bf 17eb c1bc
00000220: e004 0200 cbe6 f13f 872a 01c0 49ef 7c40
00000230: b609 00c0 9aad 4abf a383 86bc 17e4 fdbf
00000240: 098a fbbf 88ee 263f 157a dbbf 2ba6 f3bf
00000250: bc21 2dc0 51fa 113b 727f f2bf 799d ffbf
00000260: 6f92 a5bc 260a 05c0 d479 95b2 3405 00c0
00000270: 6cf1 77be 3d76 fe3e 187f a33e 024c 15bd
00000280: 9d71 e33b 126c 953f aa4f ffbf 4a6f f9bf
00000290: 5704 18bc ead6 ffbf 7504 1f3f 4389 bcbf
000002a0: 1716 dfbd b461 d93c d13d 02c0 933b 5abe
000002b0: 489c fdbf e81c 35c0 6d43 07c0 eeb0 f8bf
000002c0: 4f81 f83c 839e 1bc0 4658 a03f beff 53b4
000002d0: 086f 26bf 0a47 5e3f 118b 923c 5ddd 34c0
000002e0: 5395 1fbf 23d5 2f3d 1a57 283f dbf6 f1bb
000002f0: 8ac9 1dc0 0772 01c0 dc77 bb3e e697 293f
00000300: 52d4 2a3f 2053 fdbf cd10 00c0 da16 f9bf
00000310: 5708 9e3c 7cb5 33c0 7278 35c0 a8c2 82bc
00000320: 5d6a 7ac0 0b20 00c0 e8a4 04c0 18de 46bd
00000330: 766f 00c0 3d76 66c0 4a58 febf 03fd 02c0
00000340: c306 693b 2057 463a bd86 fabf 0f51 ffbf
00000350: e895 f3bf 9f2c 00c0 e115 2a3f afda 2bbb
00000360: ff03 febf a4c4 f5bf 5798 f8bf 5056 fcbf
00000370: ebdb a5bf bca5 03c0 f6cc 03c0 7521 1ec0
00000380: d3fc b0bb 770b 923f 3078 663d b731 e8bc
00000390: 1c3f 38bf ed8a fdbf 033f 88b7 7acc 47bd
000003a0: c547 a03c 1d36 02c0 4561 3cbf 85ac 4fbc
000003b0: e0a9 3c3f 64b9 03c0 de6f 3e3b 7315 fdbf
000003c0: d8b9 00c0 31b2 13c0 944f 363f 7872 05c0
000003d0: 7ece 2139 43b6 ffbf ca82 00c0 a9b2 a93f
000003e0: 5421 03c0 ab44 febf 6986 863f 0b7e 813f
000003f0: 8623 01bd a04a 91bc 5055 f9bf 8424 cbbf
-2.082942 -0.005410226 -2.0053608 -2.040879 -0.012444979 -1.9864129 -1.9874499 0.0010141343
-1.9729581 0.014137328 -0.66329515 0.014374565 -2.004092 -1.9423156 -2.005646 -0.0016653093
-2.0348692 -1.9814223 -0.008153796 -1.9652005 -1.8504885 -2.4870584 1.3748487 0.015077783
-2.0034938 -1.8152504 -0.014774981 -2.066921 -2.0340202 -2.0741181 -1.8816439 -2.0016832
-2.0201583 -0.5683341 -0.6230342 -1.9472374 -1.9788514 -0.024893703 0.015026672 -0.001945734
-2.479429 -2.2003353 -0.028780142 -0.0073047644 0.012615793 -1.9919038 0.019126538 0.010698164
-0.68060696 0.035686076 -1.9864016 -2.0281138 -0.06195593 -1.9769391 0.20096953 -2.0331883
-0.15132381 1.0501894 -1.9459002 0.6400318 -2.0802262 -1.6894907 -1.9960961 -1.9770432
1.6524647 7.5042664e-07 -1.9864413 -2.0394433 -1.9880381 -2.008295 -0.039530247 0.00035396696
-2.310464 -1.9801787 -1.9642771 -1.9934605 -0.00077605224 -1.9726124 0.029681915 -0.84684557
0.6892334 -0.006554892 0.6511486 -2.0321493 -2.1822999 -0.31834683 -0.029022435 -2.300305
-0.022621216 -0.16583697 -1.9743325 0.012786252 2.6799295 -2.0665784 2.2655067 -1.0624404
4.5004927e-11 -2.0008311 -1.9509004 0.0046106633 0.6979738 -2.0089755 0.67242235 -1.9569273
0.6444092 -1.8805501 0.02285398 0.6837572 -0.098011754 -1.9759637 -0.11648195 -0.714099
-0.05965695 -1.9883795 -2.220331 0.040910944 0.006279203 -0.0053129504 0.0008898112 0.6672309
-2.1865082 -2.0142722 -1.9804077 -0.8582465 0.0034762581 0.0070780856 -1.1824882e-30 -1.9929194
-1.969435 -1.7586657 0.6358583 -2.05166 -1.9723995 -1.9564693 -1.93684 -0.02367167
1.8542e-40 1.8898557 -2.0182207 3.9521048 -2.0005927 -0.79171145 -0.016420191 -1.9835232
-1.96515 0.6520772 -1.7146631 -1.9035085 -2.705184 0.0022274444 -1.8945143 -1.9969932
-0.020211427 -2.0787444 -1.7401284e-08 -2.0003176 -0.24213189 0.49699584 0.31932902 -0.03644944
0.006941034 1.1673605 -1.9946187 -1.9487088 -0.009278378 -1.9987462 0.62116176 -1.4729389
-0.10892885 0.026535846 -2.035023 -0.21311788 -1.9813318 -2.8298893 -2.1134903 -1.9428995
0.030335097 -2.4315498 1.2526939 -1.9743945e-07 -0.6501317 0.86827147 0.017888578 -2.826011
-0.62337226 0.042927872 0.65757906 -0.007384164 -2.465426 -2.0225847 0.36614883 0.66247404
0.66730225 -1.9790993 -2.0010254 -1.9460099 0.019291086 -2.807952 -2.8354764 -0.01596196
-3.912742 -2.0019557 -2.072565 -0.04855165 -2.006803 -3.6009667 -1.9870694 -2.0466926
0.0035557009 0.0007566083 -1.9572369 -1.9946612 -1.9030123 -2.0027235 0.66439635 -0.0026222875
-1.984497 -1.9200635 -1.942149 -1.971384 -1.2957739 -2.0569906 -2.0593848 -2.470792
-0.0054012327 1.1409749 0.056266963 -0.028344018 -0.719713 -1.9808022 -1.6241805e-05 -0.04877899
0.019565472 -2.0345528 -0.7358592 -0.012675409 0.7369671 -2.0581903 0.0029058377 -1.9772171
-2.011343 -2.307751 0.71215177 -2.0851116 0.00015431081 -1.9977497 -2.0079827 1.3257648
-2.0489092 -1.9864706 1.0509769 1.011659 -0.03152802 -0.01773578 -1.947916 -1.5870519
