models/all_td3/TD3_TradingEnv9_tts_42_1700_predictor.pth (torch, 113439 bytes, 6 tensors)

layer_1.weight f4 [200, 35]
00000000: 2a59 ad90 7c64 0590 b5f9 b290 59c6 ad90
00000010: 29fa 0f90 eac9 370f c61b 4b0d 48da a790
00000020: a404 850e 14a8 ab90 ce37 aa90 90e3 318f
00000030: 5e87 498d a4bd 5b0d dc85 c490 1e3a 1390
00000040: 316b c890 231c c990 62aa db8f f783 028f
00000050: 3696 8e8d 015b bb90 1874 d78c 86a2 bd90
00000060: 12f8 ba90 ea24 9a8f 9d6a 860e f855 218c
00000070: 2191 bd90 000c 1e0e b299 bd90 af43 c290
00000080: 60d5 3d0c fff3 5d8f 5934 ad8d e010 d2b7
00000090: a042 66b2 55b2 0fb8 cc71 e5b7 1a68 682e
000000a0: 23d9 81b1 51b3 84a8 8b48 33b7 b267 26a9
000000b0: 8dab b3b7 d143 60b7 4033 ccab ff66 4eac
000000c0: c1f4 3dae 433b 2137 cbf9 a534 9052 dd37
000000d0: 9178 8437 6cf3 a634 ee44 c4b7 b4ff c8b3
000000e0: 50df 3bb8 fd7d 99ab f8ca abb8 b53c 51b8
000000f0: 9e36 0aae 680d 38a8 8fdc 73a6 1171 40b8
00000100: 6d67 08aa 05bc b9b8 e069 74b8 c115 84a7
00000110: 10da c9a3 5eb0 009e c0ce 0080 6f00 0380
00000120: ea06 0180 9d20 0180 23d9 0080 5230 0300
00000130: 5886 0400 b82d 0000 6396 0300 8f10 0080
00000140: d452 0000 56f8 0080 d7fd 0200 87d2 0280
00000150: 3895 0080 24b3 0280 f017 0080 5866 0080
00000160: 6dee 0480 eb43 0780 ff18 0780 de52 0080
00000170: 3b98 0000 1879 0080 1950 0080 3e60 0080
00000180: c35f 0180 d673 0200 9c2b 0080 b209 0680
00000190: 835c 0080 5ea0 0080 ac7e 0780 c000 0480
000001a0: 003e 0000 5433 0480 ea59 0380 cf44 0680
000001b0: 6dbf 0480 baf4 0180 6979 0500 cae6 0680
000001c0: 200c 0280 a0f4 0180 cd94 0480 565d 0280
000001d0: 0544 0700 960a 0480 dd00 0080 a5b9 0580
000001e0: bac8 0300 6770 0000 e545 0580 7094 0500
000001f0: fcf7 0080 21af 0300 1adc 0180 5dac 0180
00000200: 35ab 0280 a8c1 0180 d27f 0200 9a1b 0300
00000210: 3252 0100 b8ab 0180 8505 0380 b639 0180
00000220: 9f29 0180 553a 0600 1764 0780 9b76 0480
00000230: 54a0 0180 f16a 0580 25cf 0180 a0d7 0180
00000240: 0b70 0100 893f 0580 1f63 0680 da55 0180
00000250: f370 0000 7066 0180 d670 0180 1ec2 0200
00000260: ba57 0480 41a1 0300 7ea2 0280 d217 0500
00000270: dea3 0280 83a9 0280 39a6 0300 f84a 0500
00000280: 4951 0080 3922 0280 b832 0280 e75d 0280
00000290: a15a 0280 c041 0200 2adf 0600 2048 0200
000002a0: 17ce 0180 3c57 0280 00dc 0180 625a 0280
000002b0: ecff 0580 d32a 0580 74bf 0100 590a 0680
000002c0: 8197 0080 0ba3 0580 80d1 0480 de0f 0680
000002d0: c2f3 0080 9782 0580 7ccc 0680 d1ae 0380
000002e0: 6c2e 0680 2949 0780 d453 0580 143d 0700
000002f0: 896d 0680 cfce 0380 cf78 0180 39e7 0280
00000300: b860 0380 429c 0680 2ca1 0580 ff91 0380
00000310: 4e03 0780 3258 0680 98da 0680 32f3 0680
00000320: b3f0 0680 b44b 0200 205d 0180 e273 0780
00000330: 97e1 0380 4646 0780 b94b 0780 ec68 0180
00000340: 226e 0180 45aa 0680 b02a 9e82 eeeb 0680
00000350: f3fa 8a82 5e25 8582 03e2 0000 a1d8 0100
00000360: 19d2 0380 0701 0400 9953 0400 4746 0400
00000370: 6200 0400 151a 0080 6c03 0100 3262 0080
00000380: 6fd4 2603 00ba 0680 9361 3205 e3f1 5a04
00000390: e63f 0280 5d35 0280 3adf 0200 af39 9b06
000003a0: ed83 0080 449c 4107 152d b506 c1c7 0500
000003b0: 23a0 0300 a5ea 0180 b6d5 0307 3071 0080
000003c0: c10c 2588 2407 9a04 094f 0100 c653 0080
000003d0: 1f5a 0280 7ec0 273d 59df f73d 3cef e4bb
000003e0: 190f 833d 4561 833e 5dbc 15bc f743 55bd
000003f0: a599 44be 63aa 373e 9185 aebd 16af 43be
-6.837385e-29 -2.6307035e-29 -7.0593355e-29 -6.854207e-29 -2.8394494e-29 9.061484e-30 6.2587636e-31 -6.62062e-29
3.27915e-30 -6.770657e-29 -6.713916e-29 -8.770601e-30 -6.210085e-31 6.7712857e-31 -7.751461e-29 -2.903541e-29
-7.9051245e-29 -7.932387e-29 -2.1660696e-29 -6.43491e-30 -8.787588e-31 -7.389871e-29 -3.3195866e-31 -7.479776e-29
-7.374628e-29 -1.5199791e-29 3.3136215e-30 -1.2428859e-31 -7.477096e-29 1.9480781e-30 -7.478416e-29 -7.662379e-29
1.462424e-31 -1.0943133e-29 -1.067455e-30 -2.5041809e-05 -1.3402911e-08 -3.425994e-05 -2.7351918e-05 5.2843153e-11
-3.7790797e-09 -1.473271e-14 -1.0686122e-05 -3.6949346e-14 -2.1418347e-05 -1.336723e-05 -1.4509297e-12 -2.9331535e-12
-4.319101e-11 9.610146e-06 3.0915393e-07 2.63837e-05 1.579177e-05 3.1097022e-07 -2.3397119e-05 -9.359738e-08
-4.479225e-05 -1.0906273e-12 -8.191721e-05 -4.988602e-05 -3.1426077e-11 -1.0216959e-14 -8.4606474e-16 -4.588167e-05
-1.211511e-13 -8.856509e-05 -5.8272737e-05 -3.6660945e-15 -2.1884817e-17 -6.8127355e-21 -7.4168e-41 -2.75662e-40
-9.4316e-41 -1.03535e-40 -7.7894e-41 2.9284e-40 4.15535e-40 1.6401e-41 3.29455e-40 -5.94e-42
2.9713e-41 -8.9086e-41 2.74732e-40 -2.59194e-40 -5.353e-41 -2.47935e-40 -8.587e-42 -3.6714e-41
-4.52873e-40 -6.67213e-40 -6.51815e-40 -2.9727e-41 5.461e-41 -4.344e-41 -2.8734e-41 -3.4525e-41
-1.26188e-40 2.25225e-40 -1.5644e-41 -5.54491e-40 -3.3187e-41 -5.7529e-41 -6.8829e-40 -3.67611e-40
2.2241e-41 -3.85755e-40 -3.07762e-40 -5.75697e-40 -4.36013e-40 -1.79627e-40 5.02731e-40 -6.33804e-40
-1.8802e-40 -1.7959e-40 -4.20722e-40 -2.17154e-40 6.67249e-40 -3.7114e-40 -3.1e-43 -5.25774e-40
3.47514e-40 4.0322e-41 -4.84251e-40 5.12427e-40 -8.896e-41 3.38331e-40 -1.70793e-40 -1.53668e-40
-2.45089e-40 -1.61306e-40 2.29524e-40 2.85408e-40 1.21322e-40 -1.53437e-40 -2.77487e-40 -1.12538e-40
-1.06766e-40 5.71939e-40 -6.78754e-40 -4.0989e-40 -1.4935e-40 -4.97541e-40 -1.66145e-40 -1.69187e-40
1.32029e-40 -4.8197e-40 -5.86571e-40 -1.22633e-40 4.0519e-41 -1.28583e-40 -1.32313e-40 2.53307e-40
-3.98812e-40 3.33353e-40 -2.41962e-40 4.67723e-40 -2.42455e-40 -2.4448e-40 3.35136e-40 4.86071e-40
-2.916e-41 -1.95948e-40 -2.01865e-40 -2.17357e-40 -2.16183e-40 2.07258e-40 6.31069e-40 2.09545e-40
-1.65767e-40 -2.14965e-40 -1.70757e-40 -2.16094e-40 -5.50985e-40 -4.7454e-40 1.60516e-40 -5.54725e-40
-5.435e-41 -5.17666e-40 -4.42496e-40 -5.56705e-40 -8.7444e-41 -5.06024e-40 -6.24368e-40 -3.38219e-40
-5.67666e-40 -6.69093e-40 -4.8925e-40 6.64759e-40 -5.90307e-40 -3.49695e-40 -1.35173e-40 -2.66618e-40
-3.10203e-40 -6.07068e-40 -5.16995e-40 -3.2788e-40 -6.44034e-40 -5.82651e-40 -6.2943e-40 -6.38255e-40
-6.3736e-40 2.10828e-40 -1.25242e-40 -6.8442e-40 -3.56433e-40 -6.68058e-40 -6.70013e-40 -1.29474e-40
-1.31344e-40 -6.12094e-40 -2.3240515e-37 -6.35649e-40 -2.0421315e-37 -1.9564041e-37 8.1078e-41 1.69547e-40
-3.50875e-40 3.6771e-40 3.97331e-40 3.92553e-40 3.6748e-40 -9.356e-42 9.3063e-41 -3.5226e-41
4.9026877e-37 -6.17737e-40 8.387441e-36 2.5736846e-36 -2.06593e-40 -2.02814e-40 2.6375e-40 5.838928e-35
-4.7326e-41 1.4565629e-34 6.8150875e-35 5.30836e-40 3.32953e-40 -1.7601e-40 9.918149e-35 -4.0604e-41
-4.9667874e-34 3.6211784e-36 1.20188e-40 -3.0052e-41 -2.16e-40 0.04095506 0.12103147 -0.006986527
0.06399364 0.25660148 -0.009139148 -0.05206677 -0.19199236 0.17936091 -0.085215695 -0.19109759

layer_1.bias f4 [200]
00000000: 1e7d ca90 dccd bcb8 b464 0000 9091 0180
00000010: f910 0280 3e22 0680 abb3 9d92 765f 2e3e
00000020: a092 45b8 63f1 56b9 f240 0380 2411 0380
00000030: a359 ad3b d15b 0480 a83d 03b5 f483 0080
00000040: 2a25 7db5 33f5 67bb 4999 96b3 2997 92bc
00000050: 3cf4 67b1 4907 0680 1fe2 fa3c 08f1 7cbc
00000060: b234 0480 7c82 863c 41fb 0280 051c a8ad
00000070: 94bf b8bb 9e00 03b9 84d2 0180 621a 0480
00000080: 7120 86b6 c4c4 cd3a b2aa f9bb 1836 0680
00000090: 76f7 0380 c424 16b9 dff3 f3bd b1d1 0380
000000a0: df59 0780 de2e 1db5 284b 0680 303e 0280
000000b0: ef01 6dbc 7678 0480 ef3a fdb8 03c6 0280
000000c0: 4c2b d33a 891b 71bc daa9 0380 c7ec 57b6
000000d0: 4845 0380 0543 0f3c c8a9 873a 1c85 e4bc
000000e0: 03d8 0280 c45a 0480 f107 0380 67c3 cd31
000000f0: 7f14 8ab1 cea3 0480 712b a0bc 9aff 0680
00000100: e742 0280 6eb4 08a6 be41 e33b 0612 f7ba
00000110: 353b 819e ef26 53b9 6ea4 0480 e3c5 6b95
00000120: 2a55 0cb8 d416 2e39 5e05 808d c74d 0280
00000130: 0ea1 0039 c83c 0000 4b8c 0280 e354 0780
00000140: eedc efba 713b 27a8 43ed 6fbc 4b41 15bd
00000150: 7590 74bc 9581 609d ac32 7cb6 2384 0080
00000160: c8ad 0c8b 1058 efbc 43f0 06b5 26af cbb7
00000170: 37ff 843c 245e 8b3c e2a2 993b 4553 0180
00000180: 6918 3faf 41f3 0580 50e5 0180 bb5c 2bba
00000190: 8b3c 5d3c e813 0480 f457 0680 a231 28bd
000001a0: e9d5 0680 cd44 34b7 d829 0380 8c50 0b3c
000001b0: 099b 0580 6f22 0780 3a23 0380 b41b 0580
000001c0: 8194 72bc fff4 12bd 4485 3abc 8177 0280
000001d0: 3037 0380 ade5 91b1 82b8 0ebb cabc f191
000001e0: a1f0 bf3d 19e1 a4b9 004e 602e 41a7 17b5
000001f0: 169b d822 86a2 7837 9c89 0280 eec2 0ab6
00000200: 5c01 60bb 9069 5daf 6801 7bbb 08e6 0280
00000210: 12ab 05bd 387d 9f3a e716 90a6 6bb3 d48f
00000220: 943d 91ad a30f 59b2 80d8 37bc e087 dc38
00000230: c705 0680 44cc fea7 6439 66bd 80ad e8bc
00000240: 26bd f8ba 36a1 7fb2 7f65 373c f570 57bd
00000250: 9c3d 0780 424f 0000 dce7 9abb ab50 d23c
00000260: 2bf6 423d e96e 0480 158a 490c ea6a 0280
00000270: 75c0 87b8 7ed1 0db8 9ca9 13a0 e460 05b5
00000280: f294 0580 af5a 0180 1c3e 6492 09ce 0480
00000290: af3c 4da1 c525 0300 f2d5 5f38 a227 8b3c
000002a0: 031a 4db8 ffe3 2093 ddfa 0180 df91 73bc
000002b0: af82 1dbc b4ec c13c 977f d5b9 1882 f7b8
000002c0: 1f62 86b6 ffbd 3b3c 69dd 369f f0df 2eac
000002d0: f6a4 cab9 b6f7 0580 c62e 0480 de1a f8bc
000002e0: 2997 0480 b0a9 44bc 6e94 8d3d 4582 0380
000002f0: 4011 03bc 574e 0fba 8057 c7a0 380b adab
00000300: eb51 daab bb46 0000 9434 1637 6b6e 2f3d
00000310: f72f 0080 c359 0580 d86e 0080 2fbe 0680
-7.9867725e-29 -9.002883e-05 3.6125e-41 -1.44053e-40 -1.8976e-40 -5.63297e-40 -9.952385e-28 0.17028603
-4.7105015e-05 -0.00020498554 -2.98804e-40 -2.81655e-40 0.0052902265 -4.0028e-40 -4.8891025e-07 -4.7336e-41
-9.4303925e-07 -0.0035393953 -7.012802e-08 -0.017894344 -3.3753755e-09 -5.53626e-40 0.030625401 -0.015438326
-3.86246e-40 0.016419642 -2.73804e-40 -1.9111832e-11 -0.0056380723 -0.00012493363 -1.67354e-40 -3.76806e-40
-3.997288e-06 0.00156989 -0.0076192254 -5.70418e-40 -3.64279e-40 -0.00014318811 -0.11911749 -3.5073e-40
-6.75088e-40 -5.855526e-07 -5.77974e-40 -2.0598e-40 -0.014465793 -4.10555e-40 -0.00012074957 -2.54704e-40
0.0016110926 -0.014716038 -3.36438e-40 -3.217532e-06 -3.0036e-40 0.008744006 0.0010350281 -0.027895503
-2.61161e-40 -3.99903e-40 -2.78355e-40 5.9885e-09 -4.0186587e-09 -4.26104e-40 -0.019551964 -6.42706e-40
-2.07671e-40 -4.7429006e-16 0.0069353273 -0.0018849976 -1.3682894e-20 -0.00020137032 -4.26328e-40 -4.7613977e-26
-3.3457916e-05 0.00016602437 -7.889901e-31 -2.11572e-40 0.00012267029 2.1804e-41 -2.33999e-40 -6.733e-40
-0.0018300095 -9.2832516e-15 -0.01464397 -0.03643922 -0.014927019 -2.9713145e-21 -3.758042e-06 -4.7402e-41
-2.7093758e-32 -0.029216796 -5.0268517e-07 -2.4281046e-05 0.016234977 0.017012663 0.0046886066 -1.21707e-40
-1.7380021e-10 -5.4644e-40 -1.74097e-40 -0.000653695 0.013503204 -3.74483e-40 -5.82565e-40 -0.04106296
-6.2775e-40 -1.0744855e-05 -2.90517e-40 0.008503091 -5.14794e-40 -6.55201e-40 -2.88143e-40 -4.69115e-40
-0.014805914 -0.035878178 -0.011384312 -2.26541e-40 -2.95304e-40 -4.2461665e-09 -0.0021777456 -3.8139446e-28
0.09372068 -0.00031448228 5.100098e-11 -5.649527e-07 5.871112e-18 1.4819792e-05 -2.33036e-40 -2.0677066e-06
-0.0034180498 -2.0137336e-10 -0.0038300399 -2.6619e-40 -0.03263385 0.0012168055 -9.998215e-16 -2.0973923e-29
-1.6511938e-11 -1.2634618e-08 -0.011221051 0.00010515726 -5.53085e-40 -7.0720627e-15 -0.056207076 -0.028403044
-0.0018977269 -1.4879609e-08 0.011193632 -0.05259796 -6.6495e-40 2.8432e-41 -0.004727347 0.025673231
0.047598045 -4.07129e-40 1.5526029e-31 -2.22025e-40 -6.4731496e-05 -3.3812124e-05 -1.2507503e-19 -4.9687355e-07
-5.12609e-40 -1.24367e-40 -7.202067e-28 -4.41253e-40 -6.9537016e-19 2.89056e-40 5.3366595e-05 0.016986672
-4.8900034e-05 -2.030725e-27 -1.81828e-40 -0.014866321 -0.009613677 0.02367244 -0.00040721588 -0.0001180211
-4.004934e-06 0.011458873 -3.8723145e-20 -2.4851197e-12 -0.00038651348 -5.4804e-40 -3.84121e-40 -0.030286249
-4.21568e-40 -0.012003347 0.06913076 -3.22238e-40 -0.007999718 -0.00054666906 -3.3769814e-19 -1.2295503e-12
-1.5512568e-12 2.5373e-41 8.9529385e-06 0.042829912 -1.7207e-41 -4.91378e-40 -3.9763e-41 -6.19238e-40

layer_2.weight f4 [100, 200]
00000000: cd7f be03 27e6 0680 7152 0080 db73 0180
00000010: a83f 0000 8b31 0200 6e6a 0180 2074 673d
00000020: 46a6 89a0 4085 b52d 1c17 0200 40f2 0300
00000030: c773 18bd 7450 0680 f341 0200 1d1b 0280
00000040: 2f49 0180 43e0 e389 5226 0480 3fb8 8ebc
00000050: 7a9d 9808 e840 0200 56d0 7d3d a2e5 c0bc
00000060: 9246 0380 77bd 89bd 91ba 0380 4ace 322b
00000070: 9260 7b3d d62c 0300 74db 0480 69ff 0500
00000080: 749d 5034 9799 0800 c7bc f13a 360f 0680
00000090: 83d9 0000 cc9e cd21 dea2 cab9 6a94 0680
000000a0: e4d5 0480 5839 0000 9dd7 0280 91ee 0180
000000b0: 2007 383d eada 0500 5bba 0080 fbde 0600
000000c0: 0011 d91d 97d3 070e c251 0100 927b 0300
000000d0: c3af 0000 2eaf 8928 f700 9339 bfca 96bb
000000e0: 4c57 0030 0a2d 0500 fde5 0200 adba 0280
000000f0: 3cc4 0480 094a 0280 f915 4db7 3abd 0400
00000100: b57f 0380 2527 0000 8283 133c 6fa8 ffaa
00000110: 2663 0000 300e 0500 a7c7 0600 16ee 0400
00000120: f065 a487 ebaa 0200 a3f1 0680 7470 0080
00000130: 5a4e 1138 c6de 0000 c03e 0200 88c7 0580
00000140: 3ee4 0600 e6f4 41a8 25c6 fc3a 919f afa7
00000150: 03d9 093d ad5e 0000 f9fa 0180 44c7 0100
00000160: 37c5 2986 85c2 8d3c 7c24 0280 e0e4 0480
00000170: a0b2 59bd 7f40 11bd 52fc 37b9 e6df 0580
00000180: 0d80 0100 be9b 0000 cc4c 0200 37ac f5ac
00000190: 55f4 84bd b943 0780 9dfa 0000 54ae 66bc
000001a0: 8066 0180 3539 0000 8a9e 0280 accd f039
000001b0: 168f 0680 a710 0180 452a 0200 14d4 0680
000001c0: 786b 6ebd 69f8 53af d7ca b10d 8888 0200
000001d0: 6a92 0580 118a 4707 8533 fbaf c869 0000
000001e0: e322 6b3d 0898 0b28 bbba 7f26 2447 0600
000001f0: b1f2 bba3 a239 c69e 5f9c 0180 cbff 8399
00000200: 594b b9ba b95e 0300 92e2 ca1e 704b 0300
00000210: e6e3 7236 8ea1 3d91 639b 0000 25c1 0080
00000220: cfa6 0280 462b 0380 3539 35bc f896 ab99
00000230: 3b0b 0080 96bf 0180 34b5 63bd a9d7 1f3b
00000240: edaa 883a 7e77 a230 a2fa 0f3d 97e4 a5bc
00000250: 30d5 e4b2 ed70 0580 63ab 11bd d3d5 6ebd
00000260: 8052 493a f730 0000 66c0 970a 9f4d 0200
00000270: 9e82 0000 8404 143b 9f0e 0680 ad27 0080
00000280: 6e8b 0400 61ef 0500 f92d 0280 7842 0480
00000290: 090e 0200 b4ef 0300 d98c 50ae bbca 7cbd
000002a0: 257e 0480 f1f2 0200 4e64 0600 93af 0bb7
000002b0: bd0a a93b 8a0d 853b 2c26 83a9 0332 1609
000002c0: d704 0bab 347f 3d3d f224 0100 f897 0600
000002d0: 810b 5684 c6ff 0200 1119 0600 2d44 8fb9
000002e0: 47f7 0580 b97f 1038 9da7 9b3d a57d 0480
000002f0: b98a 450d 8315 0280 e1dc 361f b281 0680
00000300: ee10 0280 813c 0580 5dd2 d10e 5c11 5c3d
00000310: 0f29 0080 b5d3 0180 e1d9 0280 c045 0300
00000320: 73f4 7e03 59a7 0180 d967 0080 ccd9 0200
00000330: 91a3 0680 68db 0180 8f04 0100 8015 683d
00000340: ad3b 16a0 5d25 172d 642b 0700 6805 0180
00000350: 3039 50bd b9b9 0580 6507 0100 73dd 0600
00000360: 3e26 0180 c9ca f20c 6b97 0500 39ef 84bc
00000370: e924 d185 de94 0400 02ee 823d 6757 e3bc
00000380: 6655 0300 2ab0 a7bd de94 0180 0be9 3fab
00000390: 2d92 463d beb0 0200 be88 0080 b1fd 0000
000003a0: 2054 a434 9603 0500 e98e a93a dc3c 0200
000003b0: 1d86 0200 31c7 cf22 5402 1cbc 3d42 0480
000003c0: 0b60 0580 6753 0000 54df 0080 801f 0300
000003d0: e4ae 2d3d af9f 0580 b6e5 0200 3f9a 0500
000003e0: 95c9 dda0 5d68 be90 94b8 0180 93e8 0480
000003f0: b475 0280 61e2 e42b 0028 323a 2df5 c6bb
1.1196538e-36 -6.33576e-40 -2.9574e-41 -1.33397e-40 2.2836e-41 2.01444e-40 -1.30015e-40 0.05650723
-2.3318733e-19 2.0636493e-11 1.91961e-40 3.6241e-40 -0.03721979 -5.79874e-40 2.07329e-40 -1.93397e-40
-1.18089e-40 -5.4859157e-33 -3.81089e-40 -0.01742184 9.18519e-34 2.06955e-40 0.061966263 -0.023546997
-3.00822e-40 -0.06725591 -3.42434e-40 6.3524587e-13 0.061371394 2.9159e-40 -4.46067e-40 5.50801e-40
1.942879e-07 7.89782e-40 0.0018443101 -5.5647e-40 7.8029e-41 1.3933374e-18 -0.00038649788 -6.04254e-40
-4.44071e-40 2.0571e-41 -2.61018e-40 -1.77417e-40 0.04492867 5.37709e-40 -6.6852e-41 6.31003e-40
5.7457e-21 1.6741912e-30 1.21165e-40 3.19835e-40 6.3051e-41 1.5286028e-14 0.00028038744 -0.004601806
4.6690185e-10 4.75334e-40 2.66175e-40 -2.50638e-40 -4.37738e-40 -2.1023e-40 -1.2224068e-05 4.35224e-40
-3.21319e-40 1.4042e-41 0.009003522 -4.5413974e-13 3.5568e-41 4.64267e-40 6.22635e-40 4.52751e-40
-2.473589e-34 2.44985e-40 -6.37696e-40 -4.034e-41 3.4643665e-05 7.9916e-41 2.06181e-40 -5.30756e-40
6.32891e-40 -1.0766756e-14 0.0019285126 -4.874526e-15 0.033654224 3.3963e-41 -1.81868e-40 1.63319e-40
-3.1930258e-35 0.017304668 -1.96759e-40 -4.49447e-40 -0.053148866 -0.0354619 -0.00017546237 -5.39497e-40
1.37771e-40 5.587e-41 2.1122e-40 -6.9824385e-12 -0.06491915 -6.67143e-40 8.9903e-41 -0.014079649
-1.28606e-40 2.0522e-41 -2.40544e-40 0.00045929605 -6.02343e-40 -9.7809e-41 1.98834e-40 -6.27092e-40
-0.05820796 -1.9278591e-10 1.0957299e-30 2.32649e-40 -5.11701e-40 1.501167e-34 -4.569324e-10 3.7947e-41
0.057406317 7.7490165e-15 8.8723964e-16 5.76533e-40 -2.0377364e-17 -2.0987902e-20 -1.47931e-40 -1.3648396e-23
-0.0014136835 3.09487e-40 2.148129e-20 3.02568e-40 3.6193464e-06 -1.4959254e-28 5.5742e-41 -6.9287e-41
-2.4351e-40 -2.9103e-40 -0.0110610025 -1.7741961e-23 -4.029e-42 -1.60564e-40 -0.05559273 0.0024390018
0.0010426916 1.1821013e-09 0.03515113 -0.020250602 -2.663964e-08 -4.99688e-40 -0.035563838 -0.058309387
0.0007679835 1.7565e-41 1.4613143e-32 2.11516e-40 4.6857e-41 0.00225857 -5.56258e-40 -1.4233e-41
4.1736e-40 5.4505e-40 -2.00163e-40 -3.91186e-40 1.88706e-40 3.61496e-40 -4.7418822e-11 -0.061716776
-4.12594e-40 2.70822e-40 5.86996e-40 -8.325925e-06 0.005158751 0.004060452 -5.8241904e-14 1.8079109e-33
-4.9389437e-13 0.04626389 1.05089e-40 6.05529e-40 -2.5160861e-36 2.75425e-40 5.60005e-40 -0.0002732588
-5.47884e-40 3.4451226e-05 0.07600329 -4.12415e-40 6.0872293e-31 -1.91388e-40 3.8722706e-20 -5.97539e-40
-1.89744e-40 -4.80882e-40 5.172505e-30 0.053727493 -1.4729e-41 -1.67782e-40 -2.61831e-40 3.00528e-40
7.4924505e-37 -1.51869e-40 -3.7254e-41 2.61802e-40 -6.0969e-40 -1.70544e-40 9.3471e-41 0.05666113
-1.2725239e-19 8.5916526e-12 6.58414e-40 -9.3775e-41 -0.05083579 -5.25802e-40 9.4488e-41 6.30454e-40
-1.05554e-40 3.740805e-31 5.13496e-40 -0.016227352 -1.9667824e-35 4.20745e-40 0.06393053 -0.027751638
3.06142e-40 -0.081878975 -1.45239e-40 -6.8180243e-13 0.048479248 2.47074e-40 -4.9054e-41 9.1007e-41
3.060859e-07 4.60464e-40 0.0012936267 2.05503e-40 2.31782e-40 5.6318365e-18 -0.009522039 -3.91104e-40
-4.93631e-40 2.9919e-41 -8.0115e-41 2.86807e-40 0.042403117 -5.16461e-40 2.66076e-40 5.1451e-40
-3.7572252e-19 -7.5102583e-29 -1.5805e-40 -4.50774e-40 -2.25895e-40 1.6263207e-12 0.00067961216 -0.0060717077

layer_2.bias f4 [100]
00000000: 662c e73c 99d9 053d cc99 e23c 85ac 343c
00000010: 17e2 d13c 173d 193c 73e3 7a3d 3db1 353c
00000020: ad0d 033c f19c 083d b290 eb3c a9a2 083c
00000030: f7cf f93c 7fdf 083d 8263 a93b 8889 563c
00000040: 2260 fe3c aaa3 e93c 300d af3b 9fd9 593a
00000050: 5da7 303c 3f46 ca3c 8037 153c 731f 0b3d
00000060: ef5f f93b da39 8b3c 882f e53c 3512 fa3c
00000070: 272b bf3b 6bab a8a7 a5c1 44bc fd9e ac3d
00000080: 362f 1d3c a708 a93c 3b1a de3c e5bb a63b
00000090: f2c1 e93c e2af 523c 181e 0a3d 7e35 79bb
000000a0: c9d5 d23b c037 3a3c 1d19 123d cfd5 9f3c
000000b0: 7cd5 fd3c b6eb 193d f9bc 633c 8aa2 033d
000000c0: eaf9 393d 1a93 133d 75a0 083d 42ab 623b
000000d0: f547 243d 934b 5f3c 35f7 fa3c 814f 033d
000000e0: ea72 643c 9136 953b 982f 513c 18b4 b43b
000000f0: 054f 303d bb59 ff3c 217e ea3c efc1 b13c
00000100: 24bc d43d 0914 093d caa7 143d f801 d83b
00000110: f70f 073d f066 cf3c 4afc f43c c376 ac3b
00000120: 575d a0a6 2bb6 543c 616e 5d3c 87f8 033c
00000130: cc8e 003d d586 873c f80e 123c 4387 143c
00000140: 7353 1039 763e 9b3b a92e ec3c 5653 983b
00000150: f06f de3b c977 1f3d 16f6 e53c 0e8b 9b3c
00000160: c418 aa3b 2f27 ff3c 108f b13b 1edb c53b
00000170: 812a b83c 1eec 043d 878f ad3c b2ac 073c
00000180: f7e7 183c da7b ff3c 5252 0a3c 731b f43c
0.028219413 0.03267822 0.027661227 0.01102746 0.025620503 0.009352944 0.06125207 0.01108962
0.007998866 0.033352796 0.02875552 0.008339562 0.030494673 0.033416267 0.005169333 0.013094313
0.0310517 0.028520424 0.0053421482 0.0008310321 0.01078209 0.0246917 0.0091074705 0.03396554
0.007610313 0.01699536 0.027976766 0.03052626 0.0058340016 -4.681522e-15 -0.012009059 0.08428762
0.0095937755 0.020634009 0.027112117 0.0050883167 0.028534863 0.012859317 0.033720106 -0.0038026269
0.0064341766 0.011365831 0.03566848 0.019511132 0.030985586 0.037578307 0.013900035 0.03213743
0.045404352 0.03602896 0.03335615 0.003458694 0.040107686 0.013628858 0.030635456 0.032058243
0.013943413 0.004553624 0.012767695 0.005514633 0.04304411 0.031170717 0.028624596 0.02169892
0.103874475 0.033466373 0.03629283 0.0065920316 0.03297421 0.02531764 0.029905457 0.005263181
-1.112753e-15 0.012982885 0.013515086 0.008054859 0.03138618 0.016543785 0.008914702 0.009065452
0.00013763997 0.0047376705 0.028830843 0.0046486063 0.0067882463 0.038932595 0.028071444 0.018987205
0.0051909406 0.031146614 0.0054186657 0.0060380837 0.022481205 0.03245174 0.021186603 0.00828092
0.0093326485 0.031186987 0.008442478 0.029798245

layer_3.weight f4 [5, 100]
00000000: 869e be3d f0ea b43d 8160 c13d b634 d8bc
00000010: a048 bb3d f460 27bd a8c3 9abc ea07 ebbc
00000020: ca96 87bd 8af3 ab3d 3e8d c63d 071a 51bd
00000030: eb14 b0bd bc94 b93d 67a4 bdbc 786a a2bd
00000040: 4966 a43d b04e e33d 15b6 bfbc cd2b b33c
00000050: 5f5e a93d 8bc9 ae3d 4c62 0abd 040b b63d
00000060: 8ec1 4cbd d244 8ebd 6a33 bf3d 6652 b53d
00000070: 7284 8bbc 3df1 0280 fe1f d035 f301 fabb
00000080: eb3c 16bd 14b0 fc3d 1909 e83d 5920 92bc
00000090: d762 b63d f0e3 8ebd 54e1 b53d 834a 913d
000000a0: b799 a73c 04d9 febc 130d b53d fb3c de3d
000000b0: 65e1 c33d 52f2 f13d af41 82bd 7c54 b33d
000000c0: f740 e83c d20f b53d ab40 bd3d 0cf9 07bd
000000d0: b0be ce3d ea23 77bd 8603 cb3d e1c0 d13d
000000e0: 2b70 56bd 9962 b9bc 9347 8ebd 50cc 57bc
000000f0: 69ce c13d 9aad a33d e384 b53d 3fd7 2abc
00000100: 5570 c7bd ff1a c43d f6c6 f73d 614e 4bbd
00000110: 61a4 e93d 206b c23d 01a7 b23d 68c7 bebc
00000120: beec 0180 7a72 26bd 9d8b 41bd ba3f 893d
00000130: e18d c03d 1d16 73bd 9e8f 22bd e56a 02bd
00000140: d8d9 3eb9 5c30 dcbc 910b a7bd dc97 c1bc
00000150: dfc3 55bd 470f 803d bb92 a33d d14d d83d
00000160: abe0 b5bc 3a02 afbd a60e a0bc e645 47bd
00000170: 3e20 e6bd eb7d b33d 52d7 c73d a82f 4fbd
00000180: 6d38 08bd 32bc c03d b57d 59bd ace2 db3d
00000190: 22cb 033e de9f ef3d 1248 083e 1dd1 e7bc
000001a0: bf01 013e 93e4 81bd ef90 3ebc 79da 03bd
000001b0: 321b 90bd 2807 d33d 2cf1 ef3d 9944 58bd
000001c0: 983b 10be 778e f13d 0edd c53a fddb b2bd
000001d0: 4dfd c53d b407 2f3e 6a7e 5aba 01dd 5d3c
000001e0: 91b9 4c3e 3611 e83d 1a2a 31bd f7ac e83d
000001f0: 9840 50bd b6eb d8bd 0e69 023e 3e26 f23d
00000200: 7163 163c 7ab1 0180 c2de dbbc 74e2 3bbe
00000210: a99a 6dbd d078 623e 7605 633e a7d7 1d3c
00000220: f00f f13d 8c5b a4bd 64ec e83d ece3 833d
00000230: 2f01 273d f679 09bd 8bc2 e53d 0602 643e
00000240: 8518 063e 42c3 883e 6c44 a6bd a2c1 e73d
00000250: 2cfa 8a3c 67bb e33d 847f ef3d fee2 eb38
00000260: ab4b 0c3e f812 b2bd cb18 0e3e 6e27 183e
00000270: 473b aabd a19c 8f3b 4d8b a3bd 9c16 553c
00000280: b7bf 0e3e 0bc5 c43d 9f12 f13d 3026 1fbd
00000290: 1c71 97be 46f0 fc3d e51b 4f3e 8a09 0abd
000002a0: 98f5 403e 4929 083e d449 ea3d 2656 7c3a
000002b0: 5aa3 0400 718c 48bd fd99 67bd 6177 2f3e
000002c0: c973 013e 2468 cabd 7daf 6cbd e4ce 52bd
000002d0: 813f 04b9 7e20 d138 353c 9d3d c9ed 6d3b
000002e0: e92c 21bd c7fc 523d 4de2 ca3d c792 613e
000002f0: 94d5 3d3b ff5a 11be bf42 c43b 7dac 02bd
00000300: f5a4 2bbe c06d ed3d a54c 1b3e 7b22 04bd
00000310: e6ad 5cbd fbf8 003e 24a7 5fbd a405 253e
00000320: a175 ee3d 58b9 0e3e 8b37 eb3d bdfb 04be
00000330: 13ff d63d f01a d9bd 381a 3d3e ccb7 07be
00000340: 1ed3 1dbe 8b76 143e bcf7 e53d 0ab0 0dbe
00000350: 0ec1 b9bd fe08 153e 1fd4 13be 9648 27be
00000360: 6465 0b3e e2ba de3d bb14 10be 64f3 99bc
00000370: 7b75 1cbe 8785 d83d 731a 00be 37a1 173e
00000380: 0545 0fbe a229 22be 2e1c f83d dde4 083e
00000390: 3c30 11be 7028 0600 b974 2f3a 4a0d 243e
000003a0: c32b 01be a0a7 fabc a345 6a3d 53c6 14be
000003b0: a718 fa3d 9f7b 19be d20d 173e 582f 38be
000003c0: 2220 0cbe bb1e 0bbe 46e1 1d3e dd16 5d3c
000003d0: d5bd 033e 9254 163d fe5c 1bbe 9124 113e
000003e0: 011a 0c3e fbaa 1f3e 72d1 133e 15c0 46be
000003f0: 6455 0c3e aa19 1bbe fbdc 063e 8644 063e
0.0930758 0.08833873 0.09442235 -0.026392322 0.091447115 -0.040863946 -0.018892124 -0.028690297
-0.066205576 0.08396061 0.096949086 -0.051050212 -0.0859774 0.09061572 -0.023149682 -0.079304636
0.08027322 0.11098993 -0.023402253 0.021871472 0.08269953 0.08534535 -0.03378515 0.0888882
-0.049989276 -0.0694672 0.09335978 0.08853607 -0.017030928 -2.70211e-40 1.5506519e-06 -0.007629627
-0.03667919 0.12338272 0.1132986 -0.01783769 0.08905571 -0.069770694 0.088808686 0.0709429
0.02045904 -0.03110934 0.08840384 0.10851475 0.09564475 0.11813797 -0.063601844 0.087563485
0.02835129 0.08840908 0.0924085 -0.033196494 0.100949645 -0.060336985 0.099127814 0.10241867
-0.052353065 -0.022630023 -0.069472454 -0.0131712705 0.09463198 0.07992096 0.08863237 -0.010427295
-0.097382225 0.095754616 0.12098496 -0.049635295 0.11408306 0.09493089 0.0872326 -0.023288444
-1.76763e-40 -0.040636517 -0.047252286 0.06701608 0.09402061 -0.05934726 -0.039687745 -0.031840224
-0.00018200965 -0.026878528 -0.08156503 -0.023631983 -0.05218875 0.06252914 0.07986971 0.10561717
-0.022201857 -0.085453466 -0.019538235 -0.048650645 -0.112366185 0.08764251 0.09757866 -0.050582558
-0.033256937 0.094108954 -0.0530984 0.107365936 0.12870458 0.11700414 0.13308743 -0.028297955
0.12598322 -0.06342425 -0.011631235 -0.032190774 -0.07036437 0.10304099 0.11715922 -0.052799795
-0.14085233 0.11794751 0.0015095787 -0.08733366 0.09667454 0.17092782 -0.0008334877 0.013541461
0.19992663 0.11331408 -0.04325304 0.113611154 -0.05084285 -0.10591833 0.12735388 0.118237
0.009178982 -1.55502e-40 -0.026839618 -0.18348104 -0.058008824 0.22116399 0.22170052 0.009633935
0.11770618 -0.08025274 0.11373213 0.06439957 0.040772613 -0.033563577 0.11218747 0.22266397
0.13095291 0.2671147 -0.08118519 0.113162294 0.016964994 0.111197285 0.116942436 0.00011247954
0.1370074 -0.08695024 0.13876645 0.14858791 -0.083120875 0.0043826853 -0.07985554 0.013005879
0.13940321 0.096078955 0.1177113 -0.038854778 -0.29578483 0.12350516 0.20225485 -0.033700503
0.18843687 0.13296999 0.11439863 0.0009625874 4.25941e-40 -0.04896206 -0.05654334 0.17135383
0.12641825 -0.098831445 -0.057784546 -0.051466838 -0.00012612158 9.971949e-05 0.07677499 0.003630506
-0.03934947 0.0515106 0.09906445 0.22028647 0.0028966414 -0.14194869 0.005989402 -0.03190278
-0.16762145 0.11593199 0.15165956 -0.032259446 -0.05387678 0.12594979 -0.054602757 0.16115433
0.1164353 0.1393789 0.11485203 -0.12986656 0.1049787 -0.10600841 0.18467033 -0.13253707
-0.15412566 0.14498346 0.11228892 -0.13836685 -0.090700254 0.14554211 -0.14436387 -0.16336283
0.13612896 0.10875489 -0.14070408 -0.018792816 -0.1527919 0.10572343 -0.1251009 0.14807592
-0.13991173 -0.15836194 0.1211475 0.13368554 -0.14178556 5.65519e-40 0.0006693113 0.16020694
-0.1261435 -0.030597508 0.057195317 -0.1452878 0.12211733 -0.14988564 0.14751366 -0.1798681
-0.13684133 -0.13585941 0.15417966 0.013494221 0.12865384 0.036701746 -0.15172192 0.14174105
0.13681795 0.15592568 0.14435366 -0.19409211 0.13704449 -0.15146509 0.13170235 0.13112077

layer_3.bias f4 [5]
00000000: 0638 30bd a035 90bd 11df be3d 5aaf 3a3c
00000010: 653b 8bbb
-0.043022178 -0.07041478 0.0931989 0.011394346 -0.0042490237
