models/all_td3/TD3_TradingEnvNorm_tts_42_1400_critic_2.pth (torch, 591903 bytes, 5 tensors)

layer_1.weight f4 [400, 66]
-0.13932042 -0.03890087 0.094100825 -0.10807634 -0.01846577 -0.028661516 -0.04438124 -0.05665027
0.03136382 0.0846508 0.09394588 -0.080642715 -0.09951188 0.007110759 -0.062381446 0.037285455
-0.023893097 -0.09449767 -0.07589325 -0.121401794 -0.13010322 0.016628204 0.010349229 0.025280364
-0.0754077 -0.009617449 -0.01005487 -0.050797988 -0.033608235 0.033553928 -0.029872362 -0.1325805
-0.10632009 -0.015059766 0.04959673 0.07543806 -0.060179427 0.084906965 -0.0008466283 0.005481841
-0.041118003 0.04072527 -0.06943359 -0.0016900351 0.023431767 -0.10311828 0.06852805 -0.003654417
-0.0952336 -0.008142005 0.0131865125 -0.07317076 0.0074301576 0.057842914 -0.023081707 0.03337498
-0.0007402152 0.07152185 -0.021755077 -0.08255085 0.0665107 -0.04629687 0.07504465 0.020909222
-0.098810904 -0.025268404 -0.1125354 -0.35222417 0.30784008 -0.07448444 0.554125 0.037366282
-0.5547252 0.5428743 -0.07869342 -0.106611006 0.20871696 0.48789018 0.49448162 0.047801077
1.2104186 1.1160464 -0.486434 -0.045676745 -0.042947993 0.30485076 -2.8877614 0.22956595
-1.8007553 -2.5197897 1.0905906 -0.15570739 -0.31599873 0.4212845 0.02014383 0.4578776
-0.9293524 0.20529704 0.47807416 -0.9434032 -1.0420368 -0.08896 0.11457328 0.5479096
-0.008655809 -0.5545968 0.48398057 -0.19599463 1.1832967 0.53174317 -0.1223661 -0.28468755
0.51637477 0.01280728 0.017969828 -0.14235793 -2.866307 0.32846323 0.33775327 0.017308118
0.18004443 -0.09467993 -0.069427006 0.095704526 0.106236145 0.04311122 0.020437533 0.10640882
-0.31409857 -0.11227493 0.28632087 0.053332377 -0.19406034 -0.3803041 -0.18778668 0.14985676
-1.5181755 0.07364353 0.62745017 -0.67851734 0.08486416 0.23811164 0.42090377 -6.371642
0.3874209 0.5429424 -0.67890716 -0.08685662 -0.20751949 0.17041676 -0.0739724 -0.32387638
0.22529878 -0.7670132 0.069519415 0.16642518 1.8063266 0.6635297 -0.090751246 0.49868813
-0.11545526 -0.027130812 -0.8976142 -1.9009521 0.30686218 -0.8909836 -3.049151 -0.6540813
0.7995034 -0.8674495 -0.065602995 -0.4847039 -1.6890345 -1.7898333 -1.9709629 -1.6623663
0.4137105 0.2536809 0.58393145 -0.19101356 0.021381695 -0.38370958 -0.9660516 -0.29506153
-0.43171117 -0.86179554 -0.05828691 0.04455462 -0.020621806 -0.029978149 0.06983332 -0.10447301
-0.06376327 0.112806626 -0.29232588 0.17243016 0.05273493 0.20767093 -0.7669748 -0.13770196
-0.63946486 -0.75179017 -0.4342976 -0.21426031 0.016305033 0.775384 0.040346418 -0.061640628
-0.3778654 0.060268525 -0.93448615 -0.342092 0.0036786897 -0.11974368 -0.074215114 0.29172662
0.012736951 0.009066696 0.76049685 0.057442907 1.432984 0.40493286 0.21016495 0.37128857
-0.40347996 0.898459 -0.0164206 -0.12548058 -0.5775832 0.025024397 -0.5885167 -0.69636387
0.34561837 -0.05737816 0.1488145 1.0089723 -0.060506757 0.2549149 0.21781416 -0.1606159
0.056144502 -0.12510568 0.14475743 0.07002778 0.15060766 1.2395579 -0.02946268 -0.13817917
-0.75134254 0.74688655 1.2088914 1.4108485 -0.17501283 -0.014830776 -0.037111685 -0.056269437
00000000: 03aa 0ebe 8556 1fbd efb7 c03d 2157 ddbd
00000010: 8745 97bc 8ecb eabc 1ac9 35bd 1d0a 68bd
00000020: 5977 003d 665d ad3d b366 c03d 0228 a5bd
00000030: e2cc cbbd 5f01 e93b b083 7fbd a2b8 183d
00000040: 75bb c3bc ff87 c1bd ec6d 9bbd 81a1 f8bd
00000050: c739 05be df37 883c d08f 293c c418 cf3c
00000060: 5a6f 9abd 8192 1dbc 2ebd 24bc 8d11 50bd
00000070: caa8 09bd d86f 093d e2b6 f4bc 2fc3 07be
00000080: 59be d9bd 3dbd 76bc f125 4b3d 457f 9a3d
00000090: b47e 76bd b4e3 ad3d 43f0 5dba 04a1 b33b
000000a0: 5a6b 28bd 8acf 263d 3333 8ebd 2b84 ddba
000000b0: faf3 bf3c ad2f d3bd 6f58 8c3d f27e 6fbb
000000c0: d509 c3bd 0b66 05bc 3e0c 583c 8dda 95bd
000000d0: ae78 f33b b1ec 6c3d d915 bdbc 34b4 083d
000000e0: 000b 42ba 0c7a 923d b437 b2bc 6c10 a9bd
000000f0: c336 883d c9a1 3dbd 02b1 993d d149 ab3c
00000100: 5f5d cabd afff cebc f678 e6bd ba56 b4be
00000110: 379d 9d3e 4c8b 98bd 23db 0d3f 630d 193d
00000120: 7902 0ebf cff9 0a3f 042a a1bd df56 dabd
00000130: e6b9 553e becc f93e b22c fd3e 10cb 433d
00000140: ffee 9a3f 9cda 8e3f e10d f9be 8a17 3bbd
00000150: 3cea 2fbd 6615 9c3e 15d1 38c0 5613 6b3e
00000160: 267f e6bf 3c44 21c0 7998 8b3f c271 1fbe
00000170: 96ca a1be 9ab2 d73e ac04 a53c ef6e ea3e
00000180: 0aea 6dbf 6339 523e 23c6 f43e df82 71bf
00000190: 7661 85bf a930 b6bd 65a5 ea3d ce43 0c3f
000001a0: 18d1 0dbc 0efa 0dbf 4dcc f73e d1b2 48be
000001b0: 4476 973f 5220 083f 149b fabd 91c2 91be
000001c0: 2331 043f a0d5 513c 7635 933c 47c6 11be
000001d0: 9371 37c0 552c a83e ffed ac3e c1c9 8d3c
000001e0: 915d 383e 8de7 c1bd bf2f 8ebd bc00 c43d
000001f0: 5692 d93d 6495 303d 9d6c a73c deec d93d
00000200: 87d1 a0be 66f0 e5bd a698 923e 0d73 5a3d
00000210: c1b7 46be 38b7 c2be 274b 40be 0d74 193e
00000220: 9353 c2bf 6bd2 963d 93a0 203f 50b3 2dbf
00000230: 43cd ad3d 8ad3 733e b380 d73e 7ee4 cbc0
00000240: 085c c63e 46fe 0a3f dccc 2dbf e2e1 b1bd
00000250: fd7f 54be bb81 2e3e d77e 97bd 20d3 a5be
00000260: b9b4 663e fa5a 44bf 3260 8e3d 5d6b 2a3e
00000270: b635 e73f 15dd 293f cadb b9bd 0d54 ff3e
00000280: cf73 ecbd 7041 debc 0bca 65bf 6652 f3bf
00000290: 0a1d 9d3e 8017 64bf 4a25 43c0 df71 27bf
000002a0: 41ac 4c3f 2c11 5ebf dd5a 86bd 1c2b f8be
000002b0: 4832 d8bf 4219 e5bf 8348 fcbf 6bc8 d4bf
000002c0: ddd1 d33e 77e2 813e 887c 153f 0f99 43be
000002d0: aa28 af3c 9575 c4be 284f 77bf 4e12 97be
000002e0: 3f09 ddbe a29e 5cbf 41be 6ebd e87e 363d
000002f0: 10ef a8bc bc94 f5bc c604 8f3d f2f5 d5bd
00000300: 5196 82bd 2907 e73d bdab 95be 8891 303e
00000310: 9500 583d b0a7 543e 7658 44bf be01 0dbe
00000320: f8b3 23bf 5275 40bf 415c debe 0e67 5bbe
00000330: 2292 853c 917f 463f 4942 253d e27a 7cbd
00000340: 9377 c1be 21dc 763d 7c3a 6fbf af26 afbe
00000350: 2c16 713b 2d3c f5bd 18fe 97bd 315d 953e
00000360: a5ae 503c 7b8c 143c ecaf 423f 4149 6b3d
00000370: 056c b73f 5c53 cf3e 7b35 573e 8919 be3e
00000380: ed94 cebe 6901 663f 7e84 86bc fb7d 00be
00000390: 7edc 13bf f7ff cc3c 08a9 16bf e744 32bf
000003a0: e4f4 b03e 5d05 6bbd d462 183e 0126 813f
000003b0: efd5 77bd 3584 823e ad0a 5f3e 7f78 24be
000003c0: c7f7 653d b41b 00be 4b3b 143e ba6a 8f3d
000003d0: e538 1a3e d5a9 9e3f b85b f1bc d77e 0dbe
000003e0: fc57 40bf f533 3f3f f4bc 9a3f af96 b43f
000003f0: 9036 33be c8fc 72bc 6c02 18bd c87a 66bd

layer_1.bias f4 [400]
0.00455913 0.72641325 -0.42851666 1.3246417 0.32467458 1.6345532 0.52468437 -0.080224514
0.4134396 -0.22336115 0.25009704 -0.08497747 1.3558121 0.32150176 1.3139334 0.93406487
0.98029983 -0.069289856 0.6938393 0.3505539 -0.08585362 1.3154259 -0.13244191 0.35908854
-0.2593075 -1.2372637 -0.048602108 -0.022217382 1.1606554 -0.4877037 0.83170354 1.5885745
1.0143058 0.40840694 0.71619856 -0.16311929 1.4298551 1.0048547 0.27697778 -0.032331936
0.83516127 -0.3681155 -0.043071628 0.31439716 1.6881305 1.5377944 -0.08431628 1.6475855
-0.13984153 -0.083010234 0.9605847 -0.34850493 -0.01648601 1.4783611 0.5653888 1.1150212
1.2118504 0.44276118 0.78128314 -0.13279323 -1.1479897 0.6204652 0.0057064355 0.38454634
-0.76106906 0.45653534 0.8909101 -0.15422887 1.0060213 1.241259 1.3321024 1.3652259
1.0798216 -1.075125 0.50686485 -0.2938655 1.4798169 -0.016946886 1.158721 -0.059030365
1.8449942 0.5818216 1.1041847 -0.007905026 -0.057232924 -0.008441699 1.8430947 -0.9605454
1.4212239 0.0063315383 -0.00929437 -0.36320013 -0.112364694 -0.104032554 1.2893026 0.4231504
1.3012071 0.016365252 1.3494318 -0.12690233 -0.05554666 1.6407802 0.92920905 0.8091856
1.3136915 0.8271474 1.5901481 1.37738 0.0046660355 1.0230982 -0.3689577 1.453626
-0.17777456 -0.02469135 -0.40706503 1.5375108 1.2094915 -0.46392477 1.4696975 -0.19222608
-0.29215539 1.1423585 0.5047706 1.3589994 1.586132 -0.69820017 1.6959682 1.4037589
0.6589712 -0.3176772 -0.1096902 1.5490903 -0.089307874 0.83118194 1.0104095 0.37203377
1.336672 -0.118898205 -0.02734137 -0.78563213 2.0543673 0.4535645 0.8728029 1.0004995
0.81389105 0.92322874 -0.52270985 1.2557658 0.51720256 -0.19217385 -0.038720194 1.3124923
1.5654271 -3.1293309 1.3703218 0.7322403 -2.850647 1.3368568 1.167739 -0.24309586
1.0581697 1.005429 0.9213379 1.4915084 0.59837407 -0.11594928 1.1232293 -0.36453658
1.858515 1.2436744 1.8893427 0.1396226 0.46087244 1.7204859 1.8145384 -0.083267026
1.3326504 0.5615875 0.26299477 -0.13165505 1.2429507 -0.09813958 1.8808976 -0.28461713
-0.13116303 0.38112065 -0.059619874 -0.25800964 1.2926682 1.3548082 -0.4792442 1.2749475
0.33368614 1.6400291 0.5157074 0.91168255 1.5685062 1.2861183 0.9864326 1.3803768
0.17493261 1.2729988 1.5684147 -0.076922596 -0.16633657 1.7416712 1.5010165 -0.13158025
1.2505609 0.9947688 1.3350357 1.4534806 -0.03353963 1.3074111 -0.5977623 0.38358122
-0.2902383 -1.0482479 0.63574356 0.15864265 0.2647184 1.6146877 -0.14325209 -0.32699424
-0.15435624 0.65287113 1.3167295 0.7435267 -0.07388087 -0.7498625 1.2203507 1.2243803
1.1282938 -0.001962832 0.029810824 1.5636815 1.0542399 1.665039 0.8009444 0.44811106
1.3912852 0.46405455 -0.6891314 0.25665572 1.2461982 1.1350464 -0.10252574 0.5320742
1.2613811 0.02142008 1.4442915 1.3784844 1.6357962 -0.6455661 1.8462495 -0.14243521
00000000: c164 953b 38f6 393f 8966 dbbe dc8d a93f
00000010: bf3b a63e 0a39 d13f b751 063f c04c a4bd
00000020: 5bae d33e c9b8 64be b80c 803e ab08 aebd
00000030: 408b ad3f e19b a43e f82e a83f e01e 6f3f
00000040: eef4 7a3f d7e7 8dbd 749f 313f cd7b b33e
00000050: 06d4 afbd e05f a83f da9e 07be 74da b73e
00000060: f4c3 84be a85e 9ebf 0113 47bd 3a01 b6bc
00000070: 5b90 943f 4db4 f9be 86ea 543f 6956 cb3f
00000080: c6d4 813f b71a d13e ca58 373f be08 27be
00000090: 7e05 b73f 149f 803f 08d0 8d3e 7e6e 04bd
000000a0: 21cd 553f a379 bcbe e06b 30bd aaf8 a03e
000000b0: a914 d83f 72d6 c43f 04ae acbd 15e4 d23f
000000c0: 9e32 0fbe 4501 aabd e1e8 753f 3d6f b2be
000000d0: ab0d 87bc f03a bd3f 52bd 103f 04b9 8e3f
000000e0: ea1d 9b3f 98b1 e23e 2c02 483f f3fa 07be
000000f0: 54f1 92bf cfd6 1e3f 0dfd ba3b 42e3 c43e
00000100: 6cd5 42bf 00bf e93e af12 643f 2cee 1dbe
00000110: 4ec5 803f 93e1 9e3f 5582 aa3f b9bf ae3f
00000120: 9837 8a3f b29d 89bf e5c1 013f 8a75 96be
00000130: a46a bd3f 32d4 8abc f850 943f d3c9 71bd
00000140: c528 ec3f 43f2 143f ed55 8d3f 1584 01bc
00000150: 126d 6abd 0d4f 0abc 87ea eb3f 4ee6 75bf
00000160: aaea b53f cb78 cf3b 6a47 18bc 5ef5 b9be
00000170: 761f e6bd 050f d5bd de07 a53f 2ba7 d83e
00000180: f48d a63f 6c10 863c 2eba ac3f aff2 01be
00000190: e584 63bd 1605 d23f a5e0 6d3f ca26 4f3f
000001a0: 0b27 a83f efbf 533f f989 cb3f fd4d b03f
000001b0: 8be5 983b e2f4 823f 06e8 bcbe 6b10 ba3f
000001c0: 890a 36be 8445 cabc d46a d0be 27cd c43f
000001d0: 9ed0 9a3f 8c87 edbe 0c1f bc3f ead6 44be
000001e0: 6495 95be ce38 923f a538 013f b1f3 ad3f
000001f0: 6006 cb3f 3fbd 32bf 7c15 d93f 5fae b33f
00000200: 56b2 283f 96a6 a2be 41a5 e0bd 9748 c63f
00000210: 0ce7 b6bd 57c8 543f 1955 813f 367b be3e
00000220: 1118 ab3f e780 f3bd 02fb dfbc 301f 49bf
00000230: c17a 0340 9b39 e83e 0370 5f3f 5e10 803f
00000240: 2a5b 503f b858 6c3f 50d0 05bf efbc a03f
00000250: 6367 043f 39c9 44be 1199 1ebd bfff a73f
00000260: ea5f c83f f546 48c0 b466 af3f 1a74 3b3f
00000270: 0071 36c0 201e ab3f 7978 953f 1fee 78be
00000280: 1b72 873f e6b1 803f cddc 6b3f bfe9 be3f
00000290: 0b2f 193f d176 edbd fac5 8f3f 8aa4 babe
000002a0: d2e3 ed3f b930 9f3f fbd5 f13f 3af9 0e3e
000002b0: 79f7 eb3e e238 dc3f cb42 e83f e787 aabd
000002c0: 4a94 aa3f 33c4 0f3f 40a7 863e 95d0 06be
000002d0: 0219 9f3f 67fd c8bd 41c1 f03f 56b9 91be
000002e0: 9a4f 06be 3f22 c33e f833 74bd d719 84be
000002f0: 2776 a53f 5b6a ad3f 7f5f f5be 7b31 a33f
00000300: e9d8 aa3e 79ec d13f 6605 043f 0764 693f
00000310: d0c4 c83f 869f a43f d986 7c3f 30b0 b03f
00000320: 8921 333e a0f1 a23f d0c1 c83f 9889 9dbd
00000330: 2254 2abe 15ef de3f 4f21 c03f f9bc 06be
00000340: 6112 a03f 2ba9 7e3f 73e2 aa3f a70b ba3f
00000350: da60 09bd 3f59 a73f f306 19bf c264 c43e
00000360: 1d9a 94be fd2c 86bf 17c0 223f 3873 223e
00000370: 2c89 873e 16ae ce3f adb0 12be ca6b a7be
00000380: 900f 1ebe 9022 273f 988a a83f c457 3e3f
00000390: db4e 97bd fdf6 3fbf 7434 9c3f 7eb8 9c3f
000003a0: ee6b 903f dba2 00bb d435 f43c b726 c83f
000003b0: 55f1 863f ff1f d53f b10a 4d3f d06e e53e
000003c0: a215 b23f 8f98 ed3e ea6a 30bf 6168 833e
000003d0: 6c83 9f3f 3349 913f 04f9 d1bd 0436 083f
000003e0: f074 a13f 2a79 af3c 8bde b83f 2d72 b03f
000003f0: c561 d13f d243 25bf e751 ec3f 89da 11be

layer_2.weight f4 [300, 400]
-0.004145111 -0.5162189 0.35222697 0.17643209 -0.26472083 0.38999245 0.2331623 0.17068021
0.15971059 -0.44122997 0.19054489 0.014780833 -0.32636026 -0.14831248 -0.15779246 0.23538259
-0.33443975 -0.052311603 0.21763474 0.22510993 0.16074648 -0.0057357172 -0.026590815 -0.69757134
-0.35628697 0.05159948 -0.0042287065 0.15624404 -0.31039447 -0.07080466 -0.663115 -0.2404104
-0.5663655 -0.6667833 0.19516568 -0.007346712 0.3894667 -0.26608267 -0.46700063 0.049708456
0.0868392 -0.24092446 -0.082295366 -0.49751806 -0.86017096 -0.35287222 0.067600906 -0.9323445
-0.41064376 -0.11759523 -0.13335378 -0.25779718 -0.00728606 0.38194376 0.21605678 0.16104563
-0.6003139 0.5807971 -0.2625439 -0.017170286 -0.2730965 -0.16834635 -0.798611 -0.05820315
-0.311557 0.1949079 -0.067372225 0.010584546 0.19350024 -0.41387933 -0.22057658 -0.82788926
-0.40807062 0.10250568 -0.5045394 0.1787239 0.48539913 0.23305082 0.20153266 0.03277624
0.02268971 -0.34912413 -0.25514662 0.015481916 -0.3332038 0.016883826 -0.0018902879 -0.12024692
0.13281856 0.02234919 0.17748262 -0.3062332 0.032427613 -0.022628684 -0.26349476 0.18495455
-0.2360722 0.001681422 0.19898857 0.04245336 -0.05282086 -0.13458794 0.11762201 0.062067155
-0.23809421 -0.1452525 -0.15654007 -0.43947256 0.013105845 -0.17661443 0.10327532 -0.37603435
0.40890637 0.044252995 -0.44205582 0.14682181 -0.033043373 -0.27749196 -0.2585995 0.12447056
0.14460692 -0.39537922 -0.25799572 0.018849714 0.038151152 -0.19960058 -0.8732562 -0.47395507
-0.54627544 0.013299028 0.0042503397 -0.11955016 -0.042071622 -0.5109352 -0.24065243 0.24142177
-0.5386621 0.08357275 -0.28932706 0.047610465 -0.26209146 -0.043801434 -0.21597037 -0.25343433
-0.45119596 -0.36384064 -0.16350587 -0.10723113 0.069608234 -0.5919343 0.039983023 -0.16424042
-0.031700253 -0.6983275 0.18207997 -0.08914066 -0.5020869 -0.12428291 0.25069404 -0.3506748
0.17148894 0.1866021 -0.2595964 0.1261796 -0.5762534 0.059031293 -0.40451655 -0.38404474
0.049463455 0.1334186 -0.10018837 0.025187623 -0.18663274 -0.06299384 -0.40850803 -0.073625095
-0.27154112 -0.42967382 -0.81485355 0.06557678 0.08269833 0.040862538 -0.37241116 0.5131641
0.023207616 -0.5181941 0.037538487 -0.07083746 -0.37033972 -0.18198904 -0.42699647 0.27731586
0.052401703 -0.12629053 0.2002405 -0.055788532 -0.026496481 -0.37685022 0.21992321 -0.13104679
-0.10895017 -0.76427054 0.0920462 0.24863437 -0.6034655 -0.57043314 -0.62974256 0.28883615
0.26321915 -0.63781434 -0.5326223 -0.0694608 0.021818358 -0.57659775 -0.8226388 0.081190355
0.34540692 -0.42538452 -0.27675715 0.123813294 -0.16280526 -0.06608688 -0.016279835 0.11012387
-0.44876763 -0.2993026 0.005551611 -0.24174571 -0.03603877 0.17932384 -0.29456645 -0.03356988
0.24949524 -0.024885386 -0.006044871 -0.8234202 0.43218198 -0.5564783 0.14764224 0.3028915
0.1504996 0.029577192 -0.8336421 -0.5809906 -0.15691262 -0.47014612 -0.029357934 -0.277411
0.16865067 -0.004521254 -0.036461763 -0.2392511 -0.8850666 -0.3356717 -0.16805863 -0.3822749
00000000: b6d3 87bb ec26 04bf 1857 b43e 9daa 343e
00000010: 7d89 87be 17ad c73e 19c2 6e3e cbc6 2e3e
00000020: 2c8b 233e e5e8 e1be 331e 433e 4f2b 723c
00000030: b118 a7be 3adf 17be 5994 21be 2208 713e
00000040: b03b abbe b144 56bd a4db 5e3e 3883 663e
00000050: ba9a 243e aff2 bbbb fbd4 d9bc 0994 32bf
00000060: 3f6b b6be fa59 533d f690 8abb 70fe 1f3e
00000070: 06ec 9ebe 0902 91bd e8c1 29bf 252e 76be
00000080: 54fd 10bf 4fb2 2abf 83d9 473e b0bc f0bb
00000090: 2e68 c73e fd3b 88be b51a efbe 189b 4b3d
000000a0: c0d8 b13d e7b4 76be 798a a8bd b0ba febe
000000b0: 2a34 5cbf abab b4be 5872 8a3d 21ae 6ebf
000000c0: e63f d2be c5d5 f0bd e58d 08be fefd 83be
000000d0: e7bf eebb 228e c33e fd3d 5d3e 25e9 243e
000000e0: 2cae 19bf 1eaf 143f 276c 86be b3a8 8cbc
000000f0: 4ed3 8bbe fc62 2cbe c571 4cbf 6d66 6ebd
00000100: 6684 9fbe f095 473e 73fa 89bd ce6a 2d3c
00000110: ed24 463e fee7 d3be d4de 61be 8df0 53bf
00000120: a2ee d0be 7fee d13d 7e29 01bf 6603 373e
00000130: 3c86 f83e e0a4 6e3e 945e 4e3e 6140 063d
00000140: c5df b93c 66c0 b2be 94a2 82be dda7 7d3c
00000150: b099 aabe f34f 8a3c 89c3 f7ba 0444 f6bd
00000160: 9701 083e a615 b73c 01be 353e 99ca 9cbe
00000170: d1d2 043d ca5f b9bc c9e8 86be ba64 3d3e
00000180: e9bc 71be 2963 dc3a a9c3 4b3e 93e3 2d3d
00000190: b05a 58bd 6cd1 09be cfe3 f03d 213a 7e3d
000001a0: f8ce 73be 12bd 14be 0a4c 20be 8c02 e1be
000001b0: e6b9 563c 6ada 34be 0382 d33d 9387 c0be
000001c0: 2d5c d13e a142 353d 2455 e2be 7558 163e
000001d0: 7d58 07bd 6d13 8ebe 2767 84be 6cea fe3d
000001e0: d613 143e 256f cabe 0418 84be b76a 9a3c
000001f0: 6244 1c3d 1864 4cbe b88d 5fbf 3daa f2be
00000200: b5d8 0bbf 2be4 593c 6f46 8b3b b7d6 f4bd
00000210: 4b53 2cbd a6cc 02bf 976d 76be 4537 773e
00000220: c2e5 09bf 3128 ab3d ad22 94be 3103 433d
00000230: da30 86be 2269 33bd 5627 5dbe 25c2 81be
00000240: 2803 e7be 5249 babe 156e 27be ff9b dbbd
00000250: c38e 8e3d 0289 17bf 3dc5 233d a42e 28be
00000260: 20d8 01bd 97c5 32bf 2c73 3a3e 618f b6bd
00000270: c488 00bf 0a88 febd f85a 803e a68b b3be
00000280: cc9a 2f3e 9f14 3f3e d2e9 84be 3a35 013e
00000290: 5885 13bf ccca 713d cb1c cfbe 83a1 c4be
000002a0: 319a 4a3d e39e 083e 8f2f cdbd 4656 ce3c
000002b0: a71c 3fbe ea02 81bd f727 d1be c1c8 96bd
000002c0: 7007 8bbe 35fe dbbe 3e9a 50bf 1e4d 863d
000002d0: be5d a93d 7a5f 273d adac bebe b95e 033f
000002e0: e61d be3c 5ea8 04bf f5c1 193d 3b13 91bd
000002f0: 2b9d bdbe 565b 3abe 489f dabe 58fc 8d3e
00000300: 2ba3 563d 4e52 01be d80b 4d3e 8482 64bd
00000310: 260f d9bc 83f2 c0be 8d33 613e 2131 06be
00000320: 4421 dfbd 3ca7 43bf b882 bc3d 029a 7e3e
00000330: b77c 1abf e807 12bf cf36 21bf 55e2 933e
00000340: a9c4 863e cd47 23bf ef59 08bf 7741 8ebd
00000350: 6abc b23c e99b 13bf 7598 52bf 2147 a63d
00000360: 2dd9 b03e 00cc d9be 1db3 8dbe d391 fd3d
00000370: 6cb6 26be 8f58 87bd 4a5d 85bc a088 e13d
00000380: dfc4 e5be 313e 99be 4aea b53b 308c 77be
00000390: 649d 13bd aba0 373e 6ad1 96be 9280 09bd
000003a0: ae7b 7f3e 70dc cbbc 0e14 c6bb abcb 52bf
000003b0: f546 dd3e 5d75 0ebf 872f 173e 9814 9b3e
000003c0: 911c 1a3e de4b f23c 9269 55bf cdbb 14bf
000003d0: b4ad 20be feb6 f0be 0d80 f0bc d108 8ebe
000003e0: c3b2 2c3e 0727 94bb ee58 15bd 3efe 74be
000003f0: ba93 62bf 29dd abbe 9017 2cbe 89b9 c3be

layer_2.bias f4 [300]
-0.08633963 7.1825194 -2.0794396 1.2183515 9.993728 -0.11388573 17.717058 17.378948
17.968746 0.0053390753 2.0488238 0.65610975 -0.07096411 3.3330564 3.5764604 -0.030040521
-0.1008481 4.523073 0.1088585 0.80859905 -0.43195835 -0.4102664 15.729238 7.067969
16.829023 -0.092967555 -0.15342377 2.55385 0.28418627 0.027480658 -3.2043588 -0.06152577
-0.06852255 -0.47591302 1.3657707 -0.10049424 -1.8092029 0.2674399 14.594513 10.401066
19.300343 0.061999112 0.27247903 12.224087 0.65511686 0.4401342 0.54213655 18.36399
-0.05889881 16.233685 1.2492497 0.30443564 4.464301 0.73983395 4.7827854 -0.20083252
0.3812193 -0.13543868 4.844902 2.718408 -1.1987358 0.07252201 -0.113093644 3.752211
1.632213 -0.14300077 2.085257 1.8081975 0.07676083 0.2738092 0.114742346 -1.0035574
-0.020875651 -1.3150651 1.7583253 -0.16359857 0.014623399 5.346193 16.255728 -0.026768154
1.5842083 -0.9348614 1.1534063 1.0424268 -0.8586599 -0.07518008 -0.769451 -0.061630484
2.1420224 13.317314 0.13817269 1.0834043 2.0342443 0.27525327 12.763706 -0.59560406
-0.12428629 13.550201 -0.056077056 0.62332153 1.8538661 0.5322606 -0.3750214 1.3154964
0.039782956 16.603159 2.8797684 -0.025728157 1.3059766 2.0818307 1.486733 1.5043766
-0.28179976 0.48487267 -0.07304968 0.1267174 18.256268 -0.3223541 15.124935 3.9633224
17.945646 2.1220062 3.9057057 -0.2133956 1.7482369 -0.14982356 -0.20994855 -0.2964958
0.09440434 4.995928 7.664644 0.1352717 0.8818725 3.1260617 -0.18231785 1.3360863
3.772295 0.104049064 17.032177 -0.6633215 -0.12022505 -0.2547585 4.6420913 0.093808085
-0.024749823 0.24885373 0.5737688 9.026608 -0.13907939 18.16305 0.1484584 5.620928
-0.72665226 0.14293134 18.08912 1.3965021 0.3034625 -0.130273 11.007972 0.13315006
2.3161564 11.411129 0.3570208 14.213745 3.8376176 1.8243045 -0.14309104 7.536392
17.977661 3.237386 2.3622117 1.0777117 2.009806 -0.7036951 0.86610126 -0.14640586
3.9090395 1.3587247 -0.2925488 10.003194 8.695813 3.4594462 0.5069304 2.8901951
-1.8610394 3.7514365 2.2656932 17.361423 -0.060310934 0.22765748 6.296595 0.29800126
1.0824227 17.748367 -0.012613607 1.1032857 17.769053 2.9009745 0.3447664 3.1526523
18.17146 18.541965 3.3620188 0.19095393 2.4097624 5.746941 2.2254608 -5.598862
2.860988 -2.2467015 2.7412813 14.052512 0.4759943 0.6645244 -0.100658014 0.20118126
1.6838396 8.42616 0.040548656 -0.6970842 2.8657298 -0.05880612 1.6638812 -0.14212468
-0.14948176 1.1404681 9.070198 0.935876 -0.12106067 -1.5093361 -0.12836179 1.3231974
18.13063 -1.1429272 0.14248598 1.1266671 3.8636415 8.039612 -0.0015272908 0.32301965
1.1221014 -1.9838858 3.534814 1.0193081 0.10929525 0.22327624 0.26669708 -0.004453667
3.5713646 8.721343 1.439809 2.9401646 0.8494326 -2.3703847 0.12970811 -0.08247582
00000000: d5d2 b0bd 33d7 e540 8a15 05c0 f1f2 9b3f
00000010: 4fe6 1f41 ec3c e9bd 89bc 8d41 1608 8b41
00000020: febf 8f41 69f3 ae3b ee1f 0340 cff6 273f
00000030: a255 91bd cc50 5540 bae4 6440 8a17 f6bc
00000040: 7389 cebd 04bd 9040 35f1 de3d 5900 4f3f
00000050: a529 ddbe 700e d2be f5aa 7b41 cd2c e240
00000060: d7a1 8641 c665 bebd 1f1b 1dbe 4772 2340
00000070: dd80 913e 1e1f e13c 3714 4dc0 7202 7cbd
00000080: 8d55 8cbd dfaa f3be 93d1 ae3f edcf cdbd
00000090: f693 e7bf e2ed 883e 2083 6941 c46a 2641
000000a0: 1a67 9a41 c8f2 7d3d 5f82 8b3e dc95 4341
000000b0: bdb5 273f 4559 e13e 76c9 0a3f 74e9 9241
000000c0: e13f 71bd 96de 8141 6ae7 9f3f fdde 9b3e
000000d0: 8edb 8e40 c265 3d3f 940c 9940 0aa7 4dbe
000000e0: 2d2f c33e 70b0 0abe 7009 9b40 66fa 2d40
000000f0: 2d70 99bf 6b86 943d a49d e7bd 3a24 7040
00000100: 5bec d03f cb6e 12be da74 0540 0473 e73f
00000110: c834 9d3d b830 8c3e 09fe ea3d 9274 80bf
00000120: 6a03 abbc 0e54 a8bf ce10 e13f 6286 27be
00000130: fb96 6f3c 0314 ab40 bb0b 8241 e348 dbbc
00000140: 56c7 ca3f 1453 6fbf d1a2 933f 3e6e 853f
00000150: 23d1 5bbf 04f8 99bd befa 44bf 3f70 7cbd
00000160: e516 0940 b813 5541 247d 0d3e feac 8a3f
00000170: 0f31 0240 ffed 8c3e 2438 4c41 8279 18bf
00000180: cf89 febd a0cd 5841 0eb1 65bd 0092 1f3f
00000190: 7c4b ed3f 3b42 083f ce02 c0be 3062 a83f
000001a0: 74f3 223d 45d3 8441 204e 3840 dbc3 d2bc
000001b0: 3e2a a73f b73c 0540 444d be3f 6a8f c03f
000001c0: 0f48 90be 3b41 f83e 129b 95bd 35c2 013e
000001d0: d60c 9241 990b a5be bcff 7141 13a7 7d40
000001e0: af90 8f41 f3ce 0740 15f7 7940 6084 5abe
000001f0: 3ac6 df3f 596b 19be c1fc 56be 4cce 97be
00000200: 1057 c13d a4de 9f40 c344 f540 aa84 0a3e
00000210: 65c2 613f 6511 4840 88b1 3abe e004 ab3f
00000220: 486d 7140 ad17 d53d e641 8841 70cf 29bf
00000230: 8d38 f6bd b56f 82be 038c 9440 741e c03d
00000240: 24c0 cabc 83d3 7e3e 83e2 123f fd6c 1041
00000250: d46a 0ebe ed4d 9141 7b05 183e a4de b340
00000260: e205 3abf 985c 123e 85b6 9041 95c0 b23f
00000270: 705f 9b3e 4966 05be a720 3041 7d58 083e
00000280: e83b 1440 fc93 3641 6ecb b63e 806b 6341
00000290: 879b 7540 cf82 e93f 7586 12be 202a f140
000002a0: 40d2 8f41 5531 4f40 7a2e 1740 75f2 893f
000002b0: a9a0 0040 5d25 34bf d0b8 5d3f 6beb 15be
000002c0: b42d 7a40 b1ea ad3f f5c8 95be 150d 2041
000002d0: 0d22 0b41 9167 5d40 31c6 013f f5f8 3840
000002e0: 8a36 eebf 8917 7040 1e01 1140 32e4 8a41
000002f0: 9908 77bd 0b1f 693e b57d c940 9f93 983e
00000300: d48c 8a3f a8fc 8d41 4da9 4ebc 7738 8d3f
00000310: 0527 8e41 91a9 3940 3985 b03e 0ec5 4940
00000320: 265f 9141 f255 9441 512b 5740 6d89 433e
00000330: 8c39 1a40 f1e6 b740 f36d 0e40 e129 b3c0
00000340: 6d1a 3740 f5c9 0fc0 2771 2f40 17d7 6041
00000350: 86b5 f33e 451e 2a3f ca25 cebd 7602 4e3e
00000360: 0e88 d73f 8dd1 0641 5916 263d 1c74 32bf
00000370: 1e68 3740 b0de 70bd 0ffa d43f 2289 11be
00000380: bf11 19be dcfa 913f 881f 1141 9295 6f3f
00000390: a8ee f7bd ed31 c1bf 4671 03be 885e a93f
000003a0: 880b 9141 704b 92bf d8e7 113e a136 903f
000003b0: e745 7740 40a2 0041 602f c8ba d562 a53e
000003c0: 05a1 8f3f f8ef fdbf 643a 6240 b078 823f
000003d0: 30d6 df3d 87a2 643e 858c 883e 11f0 91bb
000003e0: 3d91 6440 9f8a 0b41 a94b b83f a82b 3c40
000003f0: 6a74 593f 62b4 17c0 34d2 043e 15e9 a8bd

layer_3.weight f4 [1, 300]
-1.0080601 -2.2634902 1.1403173 1.419644 -1.8727747 -0.006369114 -2.9933703 -1.5725639
-1.5473117 -1.092992 -1.4173533 -1.5233885 -0.009473092 -1.7458299 -1.3479228 -1.8057796
-0.010802088 -1.1574792 0.8554993 2.1652393 -0.27757168 -0.82379794 -5.0979013 -1.7730559
-1.4640654 0.011073877 0.0042022276 -1.0457485 -1.6825385 -0.9378751 2.6493754 0.0050589405
-1.2746481 -0.8954603 1.1578709 -0.019404601 3.1811552 -1.7628881 -1.5878375 -1.9691324
-1.7684911 -0.89790994 -1.8209372 -1.6217752 0.57210386 0.41261408 2.3596087 -1.6498942
0.76306033 -1.5570316 1.9385186 -1.9825305 -2.2577846 -1.0778004 -0.99317455 1.2407193
-1.4975598 -0.010332689 -0.8330091 -1.2253976 0.44853762 1.1345315 -0.0147562595 -2.3303242
-1.650324 0.024136001 1.9397879 1.6571441 -1.4397261 -1.8611157 -1.7056015 2.7750437
-0.011255445 6.233211 2.4082706 0.027347924 1.0854156 -0.7229175 -1.5629216 0.76725525
1.7721957 3.8907804 1.7773187 -1.7727083 1.5938017 0.009455556 0.74450535 0.0038128714
-2.3494046 -1.7294998 -1.3569012 1.6299098 -1.6712217 -1.6230155 -1.8576955 3.095535
0.01728009 -1.3833215 -0.008555511 1.5464841 1.4367293 1.2988377 -0.46918136 2.263743
0.7460636 -2.7190428 -1.1706084 3.8427818 2.232487 2.182423 2.337373 0.9779892
-0.6790281 0.58818126 -1.558423 -2.0625513 -1.5439392 1.1660105 -2.6589458 -1.200367
-1.5739328 3.4503095 -2.2732558 1.1797667 2.7885275 -0.20430413 -1.0274425 -1.3134769
-1.582281 -0.9834293 -1.3068756 -1.3311166 1.9638029 -1.6434152 -0.011526388 1.5101393
-0.7589064 0.912326 -1.755476 0.44642618 -0.013610699 -1.6303889 -0.77340597 5.61692
-2.0253057 1.2410289 0.7088082 -1.4098647 -1.6150843 -1.5722786 -1.679911 -2.307984
5.7477584 3.070062 -1.5398456 1.3801614 -1.2528166 0.033617064 -1.6199651 -1.2777578
-1.643809 -1.2671393 1.0626652 -1.5752854 -2.3675227 1.8879651 -0.004897275 -0.9010465
-1.4530655 -1.8576778 3.0586286 1.9371986 -1.8004841 1.9719901 2.5656543 0.052316174
-2.1878855 -0.8699633 -1.3794222 -1.7378229 -1.3925362 -0.85338306 0.63416994 -1.8445133
1.4565252 -1.800138 1.5459896 -3.2267268 0.031590525 0.94308275 -2.8275862 -1.911729
1.2504143 -1.5449873 -1.339673 2.5101075 -1.5604733 -1.3321333 0.9509641 3.1407871
-1.5797693 -1.6019089 -1.3871574 -1.723156 -4.395078 -2.146794 -1.6177081 5.772446
-1.3017193 7.408416 2.1768012 -1.6879044 2.0677238 1.2903888 0.0033134143 -1.7779788
-0.6015179 -2.312554 0.7510587 1.1985501 -2.9634674 0.0055893096 2.9102025 -0.020707354
0.0058928155 1.170441 -1.5095804 3.2621324 0.020793391 1.7351863 -0.0034646536 0.8590417
-1.4386139 2.2945335 -1.5561757 1.8834732 -1.5664977 -2.7989137 -1.5607326 1.08413
2.7848923 0.9888663 -0.98700714 2.0176752 -1.1451622 -1.4361837 1.1847906 -1.1703622
-1.0331329 -2.778438 2.7371042 -1.2645664 -1.0347717 1.7432414 -1.4729743 0.010228739
00000000: 1d08 81bf 06dd 10c0 ebf5 913f e5b6 b53f
00000010: 15b7 efbf 00b4 d0bb 6193 3fc0 c649 c9bf
00000020: 4f0e c6bf 29e7 8bbf d56b b5bf 65fe c2bf
00000030: 0735 1bbc 5b77 dfbf bc88 acbf c923 e7bf
00000040: 3efb 30bc 4728 94bf 0102 5b3f 4893 0a40
00000050: e01d 8ebe 6ce4 52bf 0222 a3c0 7ff3 e2bf
00000060: 7f66 bbbf 356f 353c d7b2 893b 16db 85bf
00000070: 6c5d d7bf 9518 70bf 5e8f 2940 78c5 a53b
00000080: ab27 a3bf e33c 65bf 1d35 943f 66f6 9ebc
00000090: 0c98 4b40 51a6 e1bf 423e cbbf 880c fcbf
000000a0: eb5d e2bf 6ddd 65bf 7814 e9bf 5496 cfbf
000000b0: 6675 123f 2742 d33e d403 1740 bc2f d3bf
000000c0: ec57 433f d04c c7bf 6121 f83f 8fc3 fdbf
000000d0: 8b7f 10c0 5df5 89bf b040 7ebf e4cf 9e3f
000000e0: 0ab0 bfbf 704a 29bc 1640 55bf d4d9 9cbf
000000f0: b9a6 e53e 5438 913f 3dc4 71bc 0824 15c0
00000100: d13d d3bf ddb8 c53c f84a f83f 4c1d d43f
00000110: f248 b8bf 0a39 eebf 2651 dabf 519a 3140
00000120: c268 38bc 7776 c740 1b21 1a40 c108 e03c
00000130: e6ee 8a3f 1f11 39bf d10d c8bf d76a 443f
00000140: 4fd7 e23f 8c02 7940 2e7f e33f 1be8 e2bf
00000150: b201 cc3f 7aeb 1a3c e797 3e3f 5ee1 793b
00000160: a55c 16c0 4060 ddbf f0ae adbf e2a0 d03f
00000170: 98ea d5bf f9be cfbf f7c8 edbf 3f1d 4640
00000180: fa8e 8d3c ae10 b1bf 6a2c 0cbc 31f3 c53f
00000190: bfe6 b73f 5040 a63f 8a38 f0be 2ae1 1040
000001a0: 06fe 3e3f cc04 2ec0 7fd6 95bf 23f0 7540
000001b0: 11e1 0e40 d2ac 0b40 8597 1540 805d 7a3f
000001c0: c9d4 2dbf 0c93 163f 687a c7bf d700 04c0
000001d0: cd9f c5bf d53f 953f 2b2c 2ac0 a0a5 99bf
000001e0: a176 c9bf dfd1 5c40 067d 11c0 9802 973f
000001f0: 3c77 3240 1a35 51be 3c83 83bf 0320 a8bf
00000200: 2f88 cabf 06c2 7bbf b347 a7bf 0762 aabf
00000210: e55d fb3f 6e5b d2bf 2dd9 3cbc 3f4c c13f
00000220: b147 42bf 328e 693f 70b3 e0bf f991 e43e
00000230: 69ff 5ebc 95b0 d0bf effd 45bf cfbd b340
00000240: 9c9e 01c0 09da 9e3f 7474 353f 7276 b4bf
00000250: 15bb cebf 6d40 c9bf 5307 d7bf 03b6 13c0
00000260: a3ed b740 e57b 4440 a919 c5bf 21a9 b03f
00000270: 4b5c a0bf 0cb2 093d 045b cfbf 918d a3bf
00000280: 5568 d2bf 9f31 a2bf 6a05 883f f4a2 c9bf
00000290: 7e85 17c0 d7a8 f13f 5279 a0bb fcaa 66bf
000002a0: 0dfe b9bf 63c8 edbf 92c0 4340 20f6 f73f
000002b0: 4376 e6bf 2c6a fc3f ae33 2440 7c49 563d
000002c0: 5106 0cc0 eab5 5ebf e890 b0bf fb70 debf
000002d0: a03e b2bf 5077 5abf f658 223f 0319 ecbf
000002e0: 6b6f ba3f ec6a e6bf fde2 c53f b182 4ec0
000002f0: 1165 013d df6d 713f 2cf7 34c0 89b3 f4bf
00000300: 930d a03f 25c2 c5bf 687a abbf 9aa5 2040
00000310: 97bd c7bf 5883 aabf 6272 733f a802 4940
00000320: e135 cabf 5a0b cdbf 608e b1bf 6090 dcbf
00000330: 7ba4 8cc0 1365 09c0 0f11 cfbf e1b7 b840
00000340: bd9e a6bf be11 ed40 b650 0b40 400d d8bf
00000350: 9655 0440 762b a53f de25 593b cf94 e3bf
00000360: 14fd 19bf e200 14c0 6245 403f 176a 993f
00000370: 73a9 3dc0 8726 b73b c240 3a40 78a2 a9bc
00000380: 8518 c13b 03d1 953f ee39 c1bf c7c6 5040
00000390: e756 aa3c 961a de3f 3e0f 63bb 28ea 5b3f
000003a0: 8024 b8bf a3d9 1240 c430 c7bf a615 f13f
000003b0: ff82 c8bf 6721 33c0 16c6 c7bf c6c4 8a3f
000003c0: ad3b 3240 5826 7d3f 80ac 7cbf 9721 0140
000003d0: ad94 92bf ded4 b7bf 38a7 973f 6ece 95bf
000003e0: b33d 84bf eed1 31c0 b72c 2f40 50dd a1bf
000003f0: 6673 84bf 8922 df3f 6c8a bcbf 7196 273c
