models/all_td3/TD3_TradingEnv9_tts_42_2500_actor.pth (torch, 588319 bytes, 6 tensors)

layer_1.weight f4 [400, 60]
-0.00685256 -0.030863216 -0.003579905 -0.0041237837 -0.08650934 -0.12807648 -0.069492854 -0.010246752
0.01636233 0.02063724 0.0068656746 -0.02426957 0.013365385 0.008831305 -0.08483502 -0.087166704
-0.047947 0.04815148 0.006839535 0.05193227 -0.04145434 -0.055989858 -0.038379326 -0.041839637
-0.10542636 0.032341346 -0.061039723 0.05550739 0.014088745 0.01978975 -0.020710468 -0.04729263
-0.016009508 -0.019659845 -0.16819122 -0.044019908 -0.026288217 -0.046834867 -0.07297843 0.006979042
-0.010665083 -0.0071853083 -0.008041933 -0.010276878 -0.102682374 -0.068634406 0.043436628 -0.22393872
-0.0802287 0.011056057 -0.019952971 -0.044425555 -0.03191988 0.041058883 -0.027033726 3.46049e-40
-6.90352e-40 8.15971e-12 -5.1718e-40 -3.94404e-40 -0.00085932 -2.3891377e-07 -0.0009292036 -0.00089251495
-1.2301041e-07 5.611409e-15 8.036361e-11 -3.5433217e-07 -0.0049479143 6.9372065e-38 -0.0005451621 -4.992029e-10
-0.0005065466 -0.0005518224 -4.0372763e-07 6.5412786e-10 -3.294738e-08 3.4535947e-11 -0.016911902 -1.0348575e-18
-0.0011322345 -5.593267e-06 -0.0013058056 -0.0011974489 -7.8788375e-08 1.944567e-05 2.6274995e-07 -2.9988434e-27
-0.011356286 -3.291008e-16 -0.0010925244 -5.555489e-09 -0.0012833094 -0.0011679359 -2.229607e-05 2.5807307e-14
8.478975e-05 3.94693e-40 -0.0014733311 -5.871836e-22 -0.00112412 -2.7083892e-08 -0.0012782447 -0.0012150495
-1.1862323e-07 1.2186554e-13 6.789566e-08 2.13255e-40 -0.00714822 2.8159833e-37 -4.2855036e-16 -7.516718e-05
-0.0022902132 -0.0003192872 -0.028828422 -4.04048e-40 5.04511e-40 6.74387e-40 -4.235e-40 5.5872e-40
-0.07887647 0.10268444 -0.05603578 -0.06742941 0.03685858 -0.07940546 -0.25717267 0.0761479
0.056428473 0.17245182 -0.10371763 0.07587678 -0.07823495 -0.0922036 0.105502106 -0.18797591
-0.20746453 -0.16898347 -0.16978446 0.22585769 -0.09694451 0.09846392 -0.09068209 -0.09106325
0.07880573 -0.094862565 -0.22052331 -0.044142634 0.06617322 0.052160114 -0.08202629 0.08631022
-0.067769654 -0.07248835 0.12522338 -0.24465366 -0.22395374 0.005416681 -0.1288798 0.06872276
-0.076353945 0.107367545 -0.05676195 -0.06549266 0.060448438 -0.13134757 -0.18566024 0.08217416
0.17758949 0.09695382 -0.044713456 -0.107475705 -0.09452867 0.08207927 -0.093774535 -3.52753e-40
-9.6743e-41 4.3504e-40 -4.20778e-40 6.13378e-40 -0.0023006855 -0.00013546331 -0.0022599446 -0.0024808072
-0.00021392263 3.439802e-07 5.0601655e-05 -0.010193105 -0.047659088 2.0907825e-07 -0.0023325002 -0.00011665465
-0.0019848102 -0.002573269 -0.0037070755 4.3744647e-05 0.0018806909 -0.005073448 -0.039399248 -3.0961614e-06
-0.008341333 0.0005646767 -0.0073622097 -0.00845819 0.0017572577 0.0084340805 -0.0018284874 4.5693425e-05
-0.0047226166 7.89428e-05 -0.005441511 -0.00039904952 -0.004516291 -0.005298987 0.0005662077 -1.2003132e-05
0.0004101045 3.23796e-07 0.0020370455 -2.4392182e-06 -0.003642377 -0.00019876604 -0.002542805 -0.0036328186
-0.00076992996 2.813182e-07 2.3531564e-05 -9.053978e-05 -0.0045570135 3.0631927e-08 -0.00057137624 -0.020597378
-0.008336702 0.016278524 -0.08077353 6.7431e-40 1.9052699e-08 -3.36087e-40 -3.50598e-40 4.49619e-40
-0.010193175 -0.005518828 -0.010294954 -0.010359976 -0.008619341 -0.00053514057 -0.0006344872 0.022699969
-0.0036276588 -3.9774586e-05 -0.011445895 -0.0036042111 -0.011137769 -0.01161768 -0.0019549679 0.0003242934
00000000: 718b e0bb dbd4 fcbc d79c 6abb ce20 87bb
00000010: cf2b b1bd 7b26 03be 4552 8ebd fee1 27bc
00000020: 4b0a 863c 6e0f a93c 74f9 e03b fad0 c6bc
00000030: 7dfa 5a3c 2eb1 103c fcbd adbd 7584 b2bd
00000040: 1364 44bd 7c3a 453d 2e1e e03b efb6 543d
00000050: 07cc 29bd 9f55 65bd a433 1dbd 0a60 2bbd
00000060: c7e9 d7bd 5c78 043d ca04 7abd b85b 633d
00000070: 7bd4 663c 1d1e a23c 00a9 a9bc ebb5 41bd
00000080: 5f26 83bc af0d a1bc 523a 2cbe 384e 34bd
00000090: 635a d7bc ebd5 3fbd b775 95bd 73b0 e43b
000000a0: 9abc 2ebc bc72 ebbb 50c2 03bc 5a60 28bc
000000b0: 234b d2bd 3290 8cbd 9bea 313d 3150 65be
000000c0: f24e a4bd 7724 353c 6a74 a3bc 92f7 35bd
000000d0: 6cbe 02bd 5c2d 283d d575 ddbc a5c4 0300
000000e0: 6c84 0780 118c 0f2d b0a1 0580 704b 0480
000000f0: fd43 61ba 0f44 80b4 cc95 73ba aaf7 69ba
00000100: d814 04b4 1d2c ca27 b1b8 b02e 0b3b beb4
00000110: 1d22 a2bb 46d9 bc01 36e9 0eba 4838 09b0
00000120: c4c9 04ba 2da8 10ba e7bf d8b4 28ce 3330
00000130: 0782 0db3 05e4 172e d48a 8abc d0b7 98a1
00000140: 7c67 94ba ccad bbb6 9127 abba b8f3 9cba
00000150: 5e32 a9b3 421f a337 1410 8d34 c597 6d93
00000160: b70f 3abc b5b6 bda5 0933 8fba 99e2 beb1
00000170: b834 a8ba 6d15 99ba 7208 bbb7 9973 e828
00000180: 27d1 b138 3e4c 0400 ca1c c1ba 2177 319c
00000190: 3557 93ba 1ca6 e8b2 c68a a7ba 4c42 9fba
000001a0: cfbd feb3 5a35 092a 09ce 9133 7852 0200
000001b0: 9e3b eabb 59a5 bf02 df0a f7a5 13a3 9db8
000001c0: 6717 16bb 0166 a7b9 9529 ecbc 5266 0480
000001d0: 5f7e 0500 eb57 0700 8c9c 0480 7c15 0600
000001e0: fd89 a1bd 384c d23d c685 65bd 6e18 8abd
000001f0: 06f9 163d 549f a2bd 23ac 83be 6ef3 9b3d
00000200: 8b21 673d 3697 303e e969 d4bd 4965 9b3d
00000210: a539 a0bd 3ed5 bcbd 7d11 d83d c27c 40be
00000220: 9571 54be 010a 2dbe fadb 2dbe 3d47 673e
00000230: d88a c6bd 74a7 c93d 88b7 b9bd 5f7f babd
00000240: e664 a13d 4e47 c2bd ddd0 61be e8ce 34bd
00000250: d385 873d d8a5 553d 66fd a7bd 6ac3 b03d
00000260: d1ca 8abd c674 94bd 8f3a 003e 7d86 7abe
00000270: 2154 65be 6a7e b13b 11f9 03be 85be 8c3d
00000280: 755f 9cbd 84e3 db3d 387f 68bd 0421 86bd
00000290: c898 773d fa7f 06be b81d 3ebe ed4a a83d
000002a0: 05da 353e b98f c63d 7525 37bd 391c dcbd
000002b0: 3f98 c1bd 2d19 a83d dd0c c0bd 55d7 0380
000002c0: ae0d 0180 b7bc 0400 f594 0480 d9ad 0600
000002d0: 19c7 16bb 280b 0eb9 941b 14bb 0a95 22bb
000002e0: 6b50 60b9 47ac b834 1d3d 5438 fb00 27bc
000002f0: 2d36 43bd fe7e 6034 dcdc 18bb 7da4 f4b8
00000300: 9713 02bb 4aa4 28bb 68f2 72bb 757a 3738
00000310: 8481 f63a 2b3f a6bb 1b61 21bd a6c7 4fb6
00000320: 16aa 08bc d006 143a b13e f1bb 3894 0abc
00000330: c953 e63a 192f 0a3c dba9 efba f1a6 3f38
00000340: 2ec0 9abb 188e a538 b44e b2bb 8537 d1b9
00000350: 65fd 93bb 20a3 adbb 8e6d 143a 0f61 49b7
00000360: 4b03 d739 2fd6 ad34 f47f 053b 73b1 23b6
00000370: f2b4 6ebb da6b 50b9 30a5 26bb 9514 6ebb
00000380: 20d5 49ba 1408 9734 a665 c537 2de0 bdb8
00000390: 0053 95bb 2990 0333 69c8 15ba d5bb a8bc
000003a0: aa96 08bc 8a5a 853c 986c a5bd b457 0700
000003b0: 54a9 a332 e0a8 0380 53d1 0380 5be5 0400
000003c0: 4601 27bc 49d7 b4bb 2bac 28bc e4bc 29bc
000003d0: 2338 0dbc ad48 0cba b753 26ba 49f5 b93c
000003e0: 04be 6dbb a3d3 26b8 9087 3bbc a134 6cbb
000003f0: 307b 36bc 1558 3ebc eb1e 00bb ec05 aa39

layer_1.bias f4 [400]
-0.028916394 -0.0019844077 -0.07526109 -0.0059859343 -0.010480545 -0.00029606567 -0.079230055 -1.7145334e-14
0.038343105 -3.233346e-09 -6.418955e-32 -0.035766084 -2.013912e-14 -0.003484694 0.046711776 -0.035700794
-6.64375e-05 1.0464142e-35 -3.370231e-06 -0.034534972 -0.034618173 -0.0006016423 -0.020417087 -0.009893031
-1.7345339e-05 -0.013051396 -0.026113812 -0.0070698704 -0.029785298 -0.027477544 -0.011034783 -2.741915e-21
-0.015096319 -0.019995045 -0.021549765 -0.0007020288 -0.01918212 -0.06350286 -0.009460213 -2.5472986e-31
0.00881262 0.08257524 0.0026830814 4.8508887e-35 -0.0029495612 0.19248742 -0.0052381577 -0.0166857
-0.089294404 -0.030686863 -2.9527564e-33 -0.13496017 -0.08839416 -0.0137364995 -0.015644481 -0.015003183
-0.0028017033 -0.020786026 1.5909239e-36 -0.018211251 0.029908957 -3.547968e-09 -0.0038198119 -0.01386808
-1.5789055e-10 -4.4098915e-15 -1.439926e-20 -0.009459652 -0.034813754 -0.009274104 -0.0005036414 -1.0394322e-15
-0.0004869329 -0.11193919 -0.0062678563 -0.010643411 -0.013545739 -0.12852924 -1.0948985e-05 -0.02099414
-0.045322053 -0.106620245 -0.0015737768 -0.01844057 -2.5077917e-08 -0.021686912 0.14608832 -0.0013716758
-0.010578165 -0.027808504 -0.039760344 -1.4640742e-26 0.3176797 -0.010085555 -0.019598689 -0.0081546325
-0.029120093 -0.19260211 -3.3030021e-06 -2.882565e-05 -3.0710299e-09 -0.0030229255 -0.007953846 -0.0069289748
-0.01991453 -0.001354341 -0.017075162 -0.08571482 -0.030002126 -0.04127682 -0.02182785 -8.077087e-06
0.04535353 -0.02595715 -0.022517601 -0.06776676 -6.943309e-15 -2.863863e-17 -0.013900967 -0.022635484
-2.4208988e-22 -0.030199777 -0.026915457 0.05632068 -0.13506977 -1.6339529e-05 -0.001245359 -0.03495724
0.13469905 -1.8701028e-25 -0.0028615745 -2.7663924e-09 -0.0074994913 -0.08152665 0.037931755 -0.012143093
-0.12341114 -0.09179376 -0.007914497 -8.44972e-05 -2.1448051e-05 0.034757107 -0.013658851 -0.03434279
-0.15136702 -0.006283417 -0.00733416 -0.018375898 -0.11977186 -0.003095797 0.04923097 -0.006337379
-5.032967e-06 -0.11883648 -0.00044820865 0.059660412 0.22971301 -0.013215855 -5.3863696e-09 -0.0046030525
-8.9812477e-07 -0.0008061563 0.09089895 -0.015478595 -0.0048136157 -9.923219e-09 -0.12031944 -0.027466033
-0.0058874805 -0.25594765 -0.0057056723 0.18670395 -0.014800676 -0.00063319725 -1.764142e-11 0.032244734
-0.024091639 -0.004905236 -0.0012838743 -8.5741863e-13 -0.014237393 -0.011706328 -0.023567453 -0.012146028
-1.2139135e-05 -0.0149833225 -0.024066573 -6.879904e-12 -0.016803337 -0.00052768027 -0.02297978 -0.030005416
-0.0028494373 -4.6639527e-24 -0.006335935 -0.00727 0.009686628 -0.0057774056 -5.9136014e-06 -1.155015e-11
-0.07262939 -0.010099515 -0.021229511 -0.007502601 4.81869e-39 0.15282637 -2.2162034e-05 -0.031711403
-5.6806332e-15 1.9032158e-35 -0.0610523 -0.03602972 -0.045300882 -0.019110454 -1.931002e-15 -0.0019403171
-0.012627916 -0.011458203 -5.872738e-06 -9.013406e-09 0.013111319 -0.012683176 -0.027519392 -4.712809e-09
-1.4098015e-07 -0.0024799737 -0.05198262 -0.013563373 -1.4658559e-10 -0.016373139 -2.2304246e-05 -0.058932416
-3.658851e-11 -1.3014388e-09 0.18550701 -0.06270117 -0.0078460155 -0.007914104 -0.04191677 -1.5115731e-07
-7.066341e-06 0.24453513 -0.008834652 -0.03495827 -0.004826282 -0.0058283876 -0.09420438 -0.04499757
-0.023161648 -0.010523186 -0.02617119 -0.02120646 -0.004578083 -0.027256241 -0.024652427 -0.03394896
00000000: 13e2 ecbc d60c 02bb 7d22 9abd a825 c4bb
00000010: 98b6 2bbc 4339 9bb9 5e43 a2bd 736e 9aa8
00000020: a90d 1d3d a031 5eb1 46a5 a68b 757f 12bd
00000030: a665 b5a8 775f 64bb d954 3f3d ff3a 12bd
00000040: 5c54 8bb8 358c 5e05 212c 62b6 8b74 0dbd
00000050: c9cb 0dbd 88b7 1dba bc41 a7bc 6116 22bc
00000060: d580 91b7 86d5 55bc a2ec d5bc 5faa e7bb
00000070: 4c00 f4bc 9618 e1bc 3ccb 34bc 592c 4f9d
00000080: 8d56 77bc a6cc a3bc 2289 b0bc 5b08 38ba
00000090: d223 9dbc ca0d 82bd 02ff 1abc 4254 a58c
000000a0: cf62 103c 351d a93d a3d6 2f3b 70f5 8006
000000b0: 6d4d 41bb 6c1b 453e daa4 abbb 73b0 88bc
000000c0: fcdf b6bd 0463 fbbc 2f4e 7589 0033 0abe
000000d0: ff07 b5bd 0e0f 61bc db28 80bc e9cf 75bc
000000e0: c89c 37bb 7547 aabc 4157 0704 c32f 95bc
000000f0: a103 f53c 83d0 73b1 cf55 7abb f236 63bc
00000100: 3d9a 2daf 12e2 9ea7 46ff 879e a8fc 1abc
00000110: de98 0ebd 69f2 17bc cd06 04ba 48cc 95a6
00000120: 074b ffb9 6040 e5bd 9762 cdbb b461 2ebc
00000130: f3ee 5dbc 2b9d 03be 88b1 37b7 e7fb abbc
00000140: 9ea3 39bd b75b dabd 3047 ceba ae10 97bc
00000150: ec6a d7b2 c0a8 b1bc 2d98 153e cdc9 b3ba
00000160: 0a50 2dbc a9ce e3bc bedb 22bd b1fe 9094
00000170: eaa6 a23e e23d 25bc 6e8d a0bc 029b 05bc
00000180: 438d eebc 7d39 45be 25a9 5db6 9dce f1b7
00000190: 210a 53b1 461c 46bb d950 02bc 740c e3bb
000001a0: cc23 a3bc 2584 b1ba 36e1 8bbc 408b afbd
000001b0: 05c7 f5bc e211 29bd 52d0 b2bc d382 07b7
000001c0: a0c4 393d 17a4 d4bc d576 b8bc 4dc9 8abd
000001d0: b928 faa7 8712 04a4 e2c0 63bc 0d6e b9bc
000001e0: 9855 929b 8665 f7bc ce7d dcbc 83b0 663d
000001f0: bb4f 0abe df10 89b7 503b a3ba 532f 0fbd
00000200: 8cee 093e ec81 6796 4189 3bbb e41a 3eb1
00000210: 4bbe f5bb 72f7 a6bd 545e 1b3d d3f3 46bc
00000220: fbbe fcbd 5efe bbbd ceab 01bc 1734 b1b8
00000230: 57eb b3b7 785d 0e3d 60c9 5fbc 06ab 0cbd
00000240: f5ff 1abe 1fe5 cdbb 6553 f0bb 0d89 96bc
00000250: f34a f5bd dbe2 4abb 6aa6 493d caa9 cfbb
00000260: dbe0 a8b6 8a60 f3bd 8cfd eab9 7a5e 743d
00000270: e339 6b3e 5087 58bc 0213 b9b1 34d5 96bb
00000280: aa16 71b5 3c54 53ba 3b29 ba3d ef99 7dbc
00000290: 89bb 9dbb c77a 2ab2 0a6a f6bd 7200 e1bc
000002a0: c4eb c0bb 920b 83be a6f6 babb 522f 3f3e
000002b0: 897e 72bc 26fd 25ba f22c 9bad 0e13 043d
000002c0: d45b c5bc 1abc a0bb ac47 a8ba 8657 71ab
000002d0: f443 69bc e6cb 3fbc 8810 c1bc 2200 47bc
000002e0: 30a9 4bb7 9c7c 75bc 4327 c5bc ab10 f2ac
000002f0: 27a7 89bc 0654 0aba 1740 bcbc ebcd f5bc
00000300: a0bd 3abb 8d6d b498 ad9d cfbb 2e39 eebb
00000310: aab4 1e3c 6450 bdbb 736d c6b6 4031 4bad
00000320: b8be 94bd 7078 25bc 83e9 adbc 61d8 f5bb
00000330: 8c78 3400 847e 1c3e 9be8 b9b7 d1e3 01bd
00000340: 98aa cca7 7662 ca05 fa11 7abd e693 13bd
00000350: 6b8d 39bd 878d 9cbc b324 0ba7 3d52 feba
00000360: 52e5 4ebc 30bb 3bbc 6f0e c5b6 61d9 1ab2
00000370: dcd0 563c 19cd 4fbc 5970 e1bc 4eee a1b1
00000380: 5460 17b4 0e87 22bb baeb 54bd e938 5ebc
00000390: 2d2c 21af f620 86bc 011a bbb7 1e63 71bd
000003a0: 00eb 20ae 4fde b2b0 8df5 3d3e 7969 80bd
000003b0: 938c 00bc 28aa 01bc ebb0 2bbd ce4d 22b4
000003c0: 681b edb6 6b67 7a3e 37bf 10bc 6730 0fbd
000003d0: ca25 9ebb 0ffc bebb 3aee c0bd 5f4f 38bd
000003e0: 7fbd bdbc 7169 2cbc f764 d6bc 2cb9 adbc
000003f0: be03 96bb 7b48 dfbc e3f3 c9bc 110e 0bbd

layer_2.weight f4 [300, 400]
0.016799647 -1.8892042e-06 0.030613925 -0.000507732 -0.0005302837 4.4555328e-35 0.016060485 4.2639236e-16
-0.06446283 -6.63729e-39 5.6041e-41 -0.00091946416 -2.43656e-40 -7.489425e-05 -0.04345323 -0.030736793
-6.4343513e-09 -8.3666e-41 2.495992e-38 -0.0065171756 0.038769074 -3.238226e-19 -0.0026507536 -0.0007450746
-5.601473e-35 -0.0026849622 -0.0051789316 -9.457598e-06 1.7622374e-06 4.7772955e-05 -0.013905077 -3.07284e-40
-0.01716993 2.06025e-40 0.02122637 -7.985288e-17 0.0024184335 -0.02076401 0.021525523 -1.87682e-40
0.017546486 -0.012432614 0.02443252 1.601e-40 3.2200084e-31 -0.07668136 -0.019495282 -0.049188327
0.069057606 0.00016122237 -4.46005e-40 -0.079105064 0.008142677 -0.0037297085 1.9495801e-05 -0.03124179
-4.937813e-05 0.0005309172 -1.54499e-40 0.027618447 0.020300144 -1.1220741e-36 0.0004780387 0.001996807
4.4762e-41 2.37063e-40 -2.25383e-40 0.0038124847 0.013237297 1.73531e-40 2.6785216e-05 -2.1936032e-33
-6.2709173e-06 0.022387167 -0.0028395096 -0.005294606 -1.0874301e-06 0.13504894 -1.0783149e-06 0.011152357
-0.056923844 -0.05862134 0.0006442218 0.02573193 -2.53914e-40 0.0069714817 0.2966672 -3.6986414e-06
0.03943663 -0.009010536 0.015429515 -1.452966e-35 -0.13433737 -0.0007781201 0.011497781 -0.0014988515
0.00013264296 0.015355696 -1.7429901e-32 1.328e-41 -4.3673233e-22 0.010360462 -0.028718518 0.038650706
-0.00016703099 -1.9088543e-10 0.012593893 -0.0063890736 0.0010476874 0.006752312 -0.00012362881 -2.55234e-40
0.061648875 -0.0001296376 4.6120607e-05 0.0620762 8.18248e-39 -1.55953e-40 -0.006653653 0.026704298
-8.107362e-06 -9.225144e-05 -0.0027420453 0.07763896 -0.080612555 8.7220316e-05 6.666849e-08 0.0007754629
-0.032153856 9.6793e-41 -1.3183279e-18 -6.273053e-18 6.502085e-13 -0.090259954 -0.042770855 0.018617436
0.01478037 0.056168485 -8.476793e-10 -9.679883e-12 -4.7916857e-15 0.027712299 -0.011142739 0.00055924436
-0.009518522 0.00013627771 -0.021942878 -2.2676004e-05 -0.0060365647 1.1445243e-22 -0.0073908134 -7.6618846e-08
3.2993576e-22 -0.097113855 -3.008439e-08 -0.0099980645 0.18127002 0.009453866 9.273047e-12 -0.001316623
1.8443081e-37 -1.3963917e-15 -0.23880142 0.023863303 3.5648584e-06 -3.06084e-40 -0.0035843386 -0.023299592
-0.00071662536 -0.042860653 -0.0059859473 -0.016543984 0.011694993 -2.09587e-40 -4.153046e-37 0.08603896
-0.011321852 -0.00027393308 1.1170256e-09 -1.6358334e-36 -0.0014835829 0.0094421925 0.0056589185 -0.0013912846
-1.6013109e-06 -0.030706812 -0.044129264 -5.9179485e-17 -0.03672762 -2.2998235e-07 0.026619067 0.0066893306
-5.9457232e-08 -5.615484e-29 -5.027251e-06 -0.072346576 -0.016582202 0.00020118168 -5.31322e-21 1.71746e-40
0.028324766 0.03136852 -0.00033522764 0.011334148 -5.8539e-41 0.060488984 -4.1691e-41 0.026197113
3.68016e-40 1.3413e-40 0.20426658 -0.011985798 -0.025230495 -0.0035672525 1.8262e-41 -0.00070978573
-4.577797e-06 -0.00039112373 -4.3544196e-07 -9.8615e-41 -0.062383898 -0.0034047838 0.010660126 -5.6392713e-15
-1.34505e-40 -1.4665618e-26 0.0072973794 -2.364087e-05 4.56874e-40 -0.0008161793 5.9118677e-10 0.008696306
4.3124967e-24 7.0704e-41 -0.075200155 1.1121583e-09 0.005056266 -2.34514e-40 0.041641906 1.8999162e-30
1.2775802e-24 0.014442603 -1.5165227e-07 -0.00086591346 0.001275427 -0.017968254 -0.041595075 -0.14090239
0.00358107 -0.011628484 0.0011002172 -0.009613127 0.031266607 -0.0030197822 0.008752095 -0.088940784
00000000: 6a9f 893c 9090 fdb5 0eca fa3c 5119 05ba
00000010: bd02 0bba 92e5 6c06 4791 833c 68cc f525
00000020: 1705 84bd 1046 4880 389c 0000 3208 71ba
00000030: 37a7 0280 8b10 9db8 04fc 31bd bacb fbbc
00000040: 2715 ddb1 3ae9 0080 0de5 0701 088e d5bb
00000050: 52cc 1e3d b026 bfa0 44b8 2dbb 1c51 43ba
00000060: a6e9 9486 31f6 2fbb 07b4 a9bb 13ac 1eb7
00000070: 0486 ec35 d25f 4838 1fd2 63bc 9558 0380
00000080: f4a7 8cbc 503e 0200 ede2 ad3c d220 b8a4
00000090: 957e 1e3b 4919 aabc 4b56 b03c 2e0b 0280
000000a0: a6bd 8f3c 2ab2 4bbc b526 c83c 4bbe 0100
000000b0: 91fd d00c 1e0b 9dbd 92b4 9fbc b379 49bd
000000c0: 136e 8d3d cd0d 2939 48db 0480 d601 a2bd
000000d0: dd68 053c 206e 74bb ea8a a337 c8ee ffbc
000000e0: 5d1b 4fb8 402d 0b3a aeae 0180 1540 e23c
000000f0: 7d4c a63c 38e9 be83 45a1 fa39 dddc 023b
00000100: c77c 0000 d694 0200 4774 0280 e1da 793b
00000110: 3fe1 583c bce3 0100 d0b0 e037 c83c 3689
00000120: c56a d2b6 4b65 b73c 1117 3abb 607e adbb
00000130: d0f3 91b5 454a 0a3e 9eba 90b5 60b8 363c
00000140: fa28 69bd ee1c 70bd fee0 283a c5cb d23c
00000150: cfc3 0280 0771 e43b c3e4 973e 2d36 78b6
00000160: 4e88 213d eda0 13bc 14cc 7c3c 7f81 9a85
00000170: bc8f 09be c2fa 4bba 3061 3c3c 1c75 c4ba
00000180: 1316 0b39 7596 7b3c a000 b58a 0525 0000
00000190: 87fe 039c edbe 293c 1943 ebbc 3450 1e3d
000001a0: 0a25 2fb9 79e1 51af 9e56 4e3c 6f5b d1bb
000001b0: 8e52 893a 8042 dd3b 5ba2 01b9 7dc7 0280
000001c0: 8883 7c3d 54ef 07b9 a071 4138 9d43 7e3d
000001d0: 6d19 5900 bcb2 0180 e306 dabb f9c2 da3c
000001e0: db04 08b7 1d77 c1b8 e3b3 33bb 2d01 9f3d
000001f0: 3218 a5bd 0dea b638 642b 8f33 6f48 4b3a
00000200: c3b3 03bd d20d 0100 058d c2a1 4f6f e7a2
00000210: 7604 372b 36da b8bd 7e30 2fbd 9883 983c
00000220: 5d29 723c ed10 663d 2102 69b0 514a 2aad
00000230: 80a3 aca7 e704 e33c 0990 36bc 419a 123a
00000240: 93f3 1bbc c5e5 0e39 8dc1 b3bc 5938 beb7
00000250: 60ce c5bb 505d 0a1b a32e f2bb a889 a4b3
00000260: 166f c71b a1e3 c6bd 2336 01b3 ecce 23bc
00000270: d99e 393e 63e4 1a3c 1722 232d 8992 acba
00000280: c208 7b02 c33d c9a6 5c88 74be f97c c33c
00000290: cd3b 6f36 3d55 0380 39e7 6abb c9de bebc
000002a0: eadb 3bba a78e 2fbd c425 c4bb 4087 87bc
000002b0: 5b9c 3f3c 3e48 0280 2252 0d83 3235 b03d
000002c0: 4a7f 39bc ad9e 8fb9 d885 9930 4c29 0b84
000002d0: c874 c2ba 6db3 1a3c 736e b93b c45b b6ba
000002e0: a0ec d6b5 da8c fbbc e3c0 34bd 6775 88a4
000002f0: b36f 16bd 11f1 76b4 3b10 da3c 2c32 db3b
00000300: eb5d 7fb3 935e 8e90 c2af a8b6 712a 94bd
00000310: 66d7 87bc 4cf4 5239 50ba c89d c2de 0100
00000320: 5709 e83c 477c 003d 7ec1 afb9 ddb2 393c
00000330: 2fa3 0080 4cc3 773d 3874 0080 549b d63c
00000340: e101 0400 e675 0100 422b 513e 1560 44bc
00000350: 2fb0 cebc 91c8 69bb e832 0000 ea10 3aba
00000360: fa9a 99b6 bd0f cdb9 b0c6 e9b4 e612 0180
00000370: 4286 7fbd cb22 5fbb cfa7 2e3c 192d cba7
00000380: f276 0180 c23d 9194 db1e ef3b 6250 c6b7
00000390: 94f9 0400 def4 55ba 1281 2230 f37a 0e3c
000003a0: e6d4 a618 18c5 0000 8a02 9abd 97da 9830
000003b0: 09af a53b bb8d 0280 b490 2a3d b723 1a0e
000003c0: 2ab2 c517 aba0 6c3c dcd5 22b4 78fe 62ba
000003d0: 3b2c a73a 2932 93bc 995f 2abd b748 10be
000003e0: 63b0 6a3b 6685 3ebc 2a35 903a 6180 1dbc
000003f0: 6a11 003d 8ae7 45bb f264 0f3c 9626 b6bd

layer_2.bias f4 [300]
-0.22106342 -0.07605816 -0.18780307 -0.10635672 -0.44462773 -0.02269399 -0.2360769 -0.2254803
-0.23497121 -0.06536274 0.17514472 0.044482686 -0.104565725 -0.055541977 -0.37744 -0.05527541
-0.010181765 0.13931845 -0.20059614 -0.13285686 -0.03877446 0.02347147 0.045617986 -0.040155325
-0.026825264 -0.009918122 -0.008860798 -0.02250484 0.099954 -0.068875335 -0.07858025 -0.520481
-0.010244107 -1.4310493e-06 -0.07929211 -0.34801945 -0.23060752 -0.19759418 -0.14396484 -0.213597
-0.07164769 -0.20169766 -0.044167977 -0.06545016 -0.09031838 -0.08633459 -0.080543056 -0.04827986
-0.030614913 -0.13107425 -0.33300427 0.01831287 -0.062424432 -0.11932473 -0.18804814 0.00744643
0.019474711 0.010163332 -0.03781162 -3.2865595e-05 -0.030809028 0.13721709 -0.18355893 0.004607163
-0.03819519 -0.21289201 -0.033273604 -0.10793427 -0.025657544 -0.085088514 -0.021760719 -0.007691568
-0.12838587 -0.075177826 -0.04133539 -0.0072899847 -0.0029323075 -0.028553553 -0.08315071 -0.10541998
0.01549576 -0.08911577 -0.07897037 -0.056115042 0.18868259 -6.18622e-06 -0.09623694 -0.045057215
-0.27593055 -0.051804647 -0.029500606 -0.03528641 -0.13533609 -0.027815243 -0.256248 0.021032453
-0.02250815 -0.0079649035 -0.009731807 0.010787734 -0.104 -0.03794609 -0.06601088 -0.03280876
-0.07266335 -0.027039204 -0.08171913 -0.0056915553 -2.357612e-06 -0.28655633 -0.40659913 -0.13592623
-0.010262049 -0.06872499 -0.064464316 -0.08466924 -0.02493354 -0.01984303 -0.09868565 0.04507931
-0.020549923 -0.20098358 -0.01121585 -0.15424958 -0.07658974 -0.19099021 0.28183883 -0.0032397017
-0.031979628 -0.011930407 0.042695925 -1.7105432e-07 -0.10973654 -0.18918361 -0.038978137 -0.05478218
-0.11915182 -0.040337898 0.15368184 -0.12641132 -0.2478994 -0.13390255 -0.04084415 0.033688273
-0.007496129 0.20151864 -0.0671927 -0.00892365 0.03280018 -2.1711287e-05 -0.12972395 0.04442058
-0.0037747098 0.035411082 0.17258403 -0.06826699 -0.10019485 -0.2794073 -1.692973e-07 -0.075114116
-0.106480084 -0.17400324 -0.041290272 -6.3768107e-07 -0.0023742248 -0.045609713 -0.11606279 -0.2167194
-4.581865e-05 -0.23805329 -0.04892815 -0.0062674917 -0.11316289 -0.1415932 0.09278862 0.022785543
-0.18893333 -0.040541075 -0.26086062 -6.032889e-05 -0.1253339 -0.15238306 -0.042230524 0.017636484
-0.26269 -0.030461328 -0.13279001 0.04651166 -0.029156432 -0.0001858472 0.0018952216 -0.1341654
-0.19029966 -0.02227932 -0.19164617 0.007060144 -0.17388368 -0.28809714 -0.084525414 -1.1908585e-10
-0.07762322 -0.21080764 -0.0423882 -0.10156148 -0.04570103 -0.0054677194 -0.33339655 -0.08149019
-0.09713864 0.063618906 -0.047201086 -0.05071855 -0.016201487 -0.051417332 -0.05731274 -0.2886995
-0.016183918 0.18362619 0.1157155 -0.07556972 -0.033940874 -0.13906072 -0.0719964 -0.038476218
0.02252485 -0.05153351 -0.043737657 -0.025021318 -0.05076613 -0.12451042 -0.09585263 0.09302525
0.1856737 0.06608963 -0.35839334 -0.22651601 -0.048957076 -0.11018649 -0.019913372 -0.37467757
-0.13854346 -0.07541684 -0.06521016 -0.025074637 -0.35912153 -0.033344783 0.073465325 -0.0627254
-0.21763106 -0.18479249 -0.041661587 -0.14164843 -0.064356506 -0.004781763 -0.5964006 -0.06501585
00000000: 735e 62be 61c4 9bbd 734f 40be 8dd1 d9bd
00000010: 3fa6 e3be bfe8 b9bc 25be 71be 4fe4 66be
00000020: 4b9c 70be e6dc 85bd 2359 333e 7a33 363d
00000030: 8e26 d6bd fc7f 63bd d13f c1be 7868 62bd
00000040: 6bd1 26bc 7fa9 0e3e 1369 4dbe a10b 08be
00000050: f8d1 1ebd 3e47 c03c edd9 3a3d e979 24bd
00000060: a8c0 dbbc 9e7f 22bc e12c 11bc 125c b8bc
00000070: afb4 cc3d 830e 8dbd afee a0bd 3e3e 05bf
00000080: e6d6 27bc 7b12 c0b5 e763 a2bd 9b2f b2be
00000090: 6124 6cbe 2156 4abe 856b 13be 2cb9 5abe
000000a0: 06bc 92bd d589 4ebe 7be9 34bd bc0a 86bd
000000b0: d8f8 b8bd 31d0 b0bd c2f3 a4bd 1ac1 45bd
000000c0: 20cc fabc 5438 06be 897f aabe df04 963c
000000d0: c3b0 7fbd 8660 f4bd b18f 40be 2f01 f43b
000000e0: 6e89 9f3c 1b84 263c 5be0 1abd 2ad9 09b8
000000f0: 3763 fcbc a382 0c3e dff6 3bbe aff7 963b
00000100: 8f72 1cbd 5d00 5abe e749 08bd a40c ddbd
00000110: c52f d2bc e342 aebd 8943 b2bc 8d09 fcbb
00000120: 9677 03be d5f6 99bd 4c4f 29bd d3e0 eebb
00000130: f52b 40bb 24e9 e9bc eb4a aabd 6ee6 d7bd
00000140: eee1 7d3c 5482 b6bd 38bb a1bd e3d8 65bd
00000150: 0236 413e 3a93 cfb6 df17 c5bd ea8d 38bd
00000160: c546 8dbe 1c31 54bd 41ab f1bc 7c88 10bd
00000170: 8b95 0abe cbdc e3bc f032 83be 404c ac3c
00000180: 0363 b8bc 3a7f 02bc 2872 1fbc 09bf 303c
00000190: f4fd d4bd 5c6d 1bbd b630 87bd 7a62 06bd
000001a0: 86d0 94bd 5281 ddbc 5c5c a7bd 3a80 babb
000001b0: 7737 1eb6 83b7 92be c32d d0be 3f30 0bbe
000001c0: 2722 28bc b0bf 8cbd de05 84bd 1167 adbd
000001d0: 6c41 ccbc da8d a2bc b41b cabd 15a5 383d
000001e0: 5058 a8bc a4ce 4dbe afc2 37bc 9af3 1dbe
000001f0: 15db 9cbd f092 43be 2e4d 903e 2d51 54bb
00000200: 12fd 02bd c177 43bc ece1 2e3d 0eab 37b4
00000210: 8dbd e0bd 59b9 41be 8aa7 1fbd 4763 60bd
00000220: df05 f4bd 5a39 25bd c65e 1d3e f871 01be
00000230: 57d9 7dbe c01d 09be 324c 27bd b7fc 093d
00000240: 16a2 f5bb e75a 4e3e 549c 89bd 8034 12bc
00000250: 7b59 063d a220 b6b7 5bd6 04be 5bf2 353d
00000260: 1f61 77bb 360b 113d deb9 303e 90cf 8bbd
00000270: f532 cdbd 790e 8fbe 16c8 35b4 6ed5 99bd
00000280: 3b12 dabd e82d 32be fd1f 29bd 1c2d 2bb5
00000290: e298 1bbb 40d1 3abd 54b2 edbd b1eb 5dbe
000002a0: 672d 40b8 3ec4 73be e268 48bd 885f cdbb
000002b0: f2c1 e7bd cffd 10be f607 be3d bfa8 ba3c
000002c0: bd77 41be 660e 26bd 868f 85be a709 7db8
000002d0: 8857 00be 4e0a 1cbe eaf9 2cbd 637a 903c
000002e0: 4e7f 86be 098a f9bc 1bfa 07be 0383 3e3d
000002f0: 78d9 eebc fadf 42b9 1669 f83a a862 09be
00000300: eadd 42be 1f83 b6bc e53e 44be c858 e73b
00000310: 900e 32be 7881 93be a91b adbd b0ef 02af
00000320: ecf8 9ebd f5dd 57be 409f 2dbd 77ff cfbd
00000330: 0131 3bbd 8e2a b3bb f4b2 aabe 54e4 a6bd
00000340: a0f0 c6bd a14a 823d ed55 41bd 41be 4fbd
00000350: fbb8 84bc fb9a 52bd c3c0 6abd 6cd0 93be
00000360: 2394 84bc 8108 3c3e 40fc ec3d 4cc4 9abd
00000370: 9605 0bbd ef65 0ebe d972 93bd 3d99 1dbd
00000380: 0986 b83c cd14 53bd 4226 33bd 82f9 ccbc
00000390: 25f0 4fbd 52ff febd 624e c4bd 0684 be3d
000003a0: 3f21 3e3e 005a 873d 557f b7be d0f3 67be
000003b0: 3787 48bd 74a9 e1bd 5e21 a3bc bdd5 bfbe
000003c0: 56de 0dbe 2574 9abd e88c 85bd 5369 cdbc
000003d0: c7de b7be 8a94 08bd fd74 963d 2d76 80bd
000003e0: adda 5ebe 3e3a 3dbe 57a5 2abd 490c 11be
000003f0: 58cd 83bd 56b0 9cbb b6ad 18bf 0827 85bd

layer_3.weight f4 [6, 300]
-0.099231675 0.05330713 -0.112387344 0.07506758 0.30762583 0.010445251 -0.21831065 -0.33295196
-0.26987514 -0.1389366 0.059379034 -0.3072309 -0.102188826 -0.020729447 0.3393732 -0.22950856
-0.19164443 0.0020133904 0.020759799 -0.18984805 -0.041916877 -0.09544182 0.1346448 0.17381932
-0.026073743 -0.32436663 -0.025760986 -0.15556054 -0.06097616 -0.3088561 0.02381461 0.20481741
0.01861021 6.4503096e-05 0.055212386 -0.20056424 0.13907495 0.21564247 -0.48238337 0.36207715
-0.07275207 -0.09626622 0.014870014 0.27668637 -0.055048525 0.017815085 -0.29503897 -0.32794967
0.054468803 -0.15448016 -0.04626266 0.06368656 -0.0133149875 -0.19728507 0.16069788 -0.08702503
-0.22641751 -0.105894834 -0.23732853 0.005690583 -0.02966286 0.07062268 -0.3831448 0.006419485
0.0021213358 0.050691262 -0.04267847 -0.062742494 0.31627342 -0.37069395 0.00050784275 -0.020346455
0.2169654 -0.006939539 0.3377891 -0.03008227 -0.054082487 -0.15012677 -0.26824123 0.004200502
-0.032431107 -0.29819635 0.13582705 0.0068756915 -0.031905152 0.0006261677 0.10139658 0.028742569
0.31066242 0.00095381076 -0.024857704 -0.10579554 0.7353759 0.06896353 -0.07217903 -0.8102396
-0.05239485 -0.14244705 0.0056709554 -0.02121091 -0.06449524 0.06548948 -0.012318209 0.05594112
-0.071417555 -0.053603314 0.0056219753 0.0879464 2.1222968e-06 -0.42017174 -0.22626428 0.08456354
0.39285588 0.025417166 -0.19559127 0.14752942 -0.0045223157 -0.028794773 0.110824764 -0.112101726
-0.137946 0.19463475 -0.19650337 -0.25150946 -0.17443831 0.12844014 0.1005162 0.002255321
-0.01828906 -0.006687557 -0.06768998 -0.0012306612 0.30855358 0.06571506 0.0793482 0.36698988
0.029255835 -0.032747187 0.06215418 0.010413099 0.115769565 -0.008167436 -0.018792309 0.097488776
0.04938619 0.024082448 0.101987235 -0.015101393 0.09000784 -0.010260246 -0.56811327 0.026656281
7.6536435e-07 -0.252827 -0.06924022 0.029805329 -0.09919125 0.5940875 0.0017814022 -0.044764347
-0.10265651 0.039473023 -0.009011581 0.0017918105 -0.0045482535 -0.066438474 0.17605887 -0.3269298
0.0014703537 -0.421564 0.16845678 0.15937933 -0.06296164 -0.66557616 0.00043282664 0.15061308
0.03730805 -0.32394758 0.23028018 0.021603083 -0.1698719 0.26848584 0.2112655 0.316382
0.64943266 -0.110280536 -0.19586247 -0.024411792 -0.19471388 0.010944985 -0.0036384081 0.118847065
-0.66243774 0.03571377 0.5902506 0.04491524 -0.06467551 -0.2710097 0.016487775 0.0045208633
0.19279625 0.2579158 -0.24175906 0.008989743 0.03230216 0.038273994 0.62128335 -0.0699926
-0.04292803 -0.16588211 0.84055454 -0.08131036 -0.045365334 0.00069878914 -0.08536979 -0.013939203
-0.017211383 0.007517879 -0.3375807 -0.20569804 -0.022062697 0.053479478 -0.51138705 -0.032583803
0.13695663 0.04596052 -0.03423476 -0.026074039 -0.01136364 0.07799382 -0.020175334 -0.071201794
-0.12835182 0.038785078 0.2201869 -0.3259845 0.073110476 -0.086286664 -0.028059544 -0.044435002
-0.08356849 -0.08925705 -0.01224167 0.06299903 -0.7667322 0.010454261 -0.009086798 -0.068342194
-0.17826304 0.20834225 0.051215302 -0.21373582 0.11034841 0.029746179 0.17495726 0.024101658
00000000: fa39 cbbd 9458 5a3d 562b e6bd 08bd 993d
00000010: 2281 9d3e 8f22 2b3c d48c 5fbe ae78 aabe
00000020: 132d 8abe 6545 0ebe 6e37 733d 5e4d 9dbe
00000030: 6048 d1bd cdd0 a9bc 53c2 ad3e 4b04 6bbe
00000040: 703e 44be 16f3 033b 7410 aa3c 8767 42be
00000050: 08b1 2bbd 0077 c3bd 54e0 093e b1fd 313e
00000060: 9a98 d5bc 6213 a6be b408 d3bc 434b 1fbe
00000070: 23c2 79bd 6322 9ebe db16 c33c a8bb 513e
00000080: 7074 983c d645 8738 6226 623d b660 4dbe
00000090: aa69 0e3e 61d1 5c3e f4fa f6be 2d62 b93e
000000a0: 0aff 94bd 3927 c5bd 5ca1 733c d6a9 8d3e
000000b0: 907a 61bd f1f0 913c 590f 97be 05e9 a7be
000000c0: ae1a 5f3d 0c30 1ebe ea7d 3dbd 196e 823d
000000d0: 1b27 5abc 1905 4abe fc8d 243e 2e3a b2bd
000000e0: fed9 67be 64df d8bd 4006 73be 1278 ba3b
000000f0: 87ff f2bc a0a2 903d 8e2b c4be 8b5a d23b
00000100: 1c06 0b3b a4a1 4f3d 9fcf 2ebd 237f 80bd
00000110: 97ee a13e 99cb bdbe c020 053a 9cad a6bc
00000120: 2e2c 5e3e 1365 e3bb b1f2 ac3e 186f f6bc
00000130: 9985 5dbd d5ba 19be ea56 89be 5da4 893b
00000140: 7bd6 04bd 31ad 98be 3f16 0b3e 7b4d e13b
00000150: faae 02bd 6725 243a 03a9 cf3d 8975 eb3c
00000160: 250f 9f3e 2809 7a3a 62a2 cbbc 55ab d8bd
00000170: 9841 3c3f c03c 8d3d 99d2 93bd dd6b 4fbf
00000180: fb9b 56bd a4dd 11be 6cd3 b93b 81c2 adbc
00000190: 1516 84bd 591f 863d 50d2 49bc 8422 653d
000001a0: 5e43 92bd 268f 5bbd 8c38 b83b 3e1d b43d
000001b0: c86c 0e36 c020 d7be d3b1 67be a62f ad3d
000001c0: 6824 c93e a937 d03c 1449 48be f411 173e
000001d0: ef2f 94bb 04e3 ebbc 18f8 e23d 9795 e5bd
000001e0: b741 0dbe 554e 473e 2e38 49be d9c5 80be
000001f0: f59f 32be d085 033e 70db cd3d 02ce 133b
00000200: f0d2 95bc 4b23 dbbb 0ba1 8abd 234e a1ba
00000210: bcfa 9d3e 9e95 863d 4f81 a23d 19e6 bb3e
00000220: efa9 ef3c ea21 06bd 6295 7e3d b49b 2a3c
00000230: 9818 ed3d b6d0 05bc 54f2 99bc 32a8 c73d
00000240: 2c49 4a3d 8e48 c53c afde d03d d56b 77bc
00000250: 0856 b83d 971a 28bc df6f 11bf 465e da3c
00000260: 7073 4d35 8a72 81be d1cd 8dbd 4e2a f43c
00000270: c824 cbbd 1e16 183f f07d e93a d25a 37bd
00000280: 943d d2bd 77ae 213d 4fa5 13bc 2fdb ea3a
00000290: 8409 95bb e510 88bd c748 343e 5863 a7be
000002a0: e2b8 c03a 3dd7 d7be ef7f 2c3e 5634 233e
000002b0: 08f2 80bd 3363 2abf 02ed e239 513a 1a3e
000002c0: 53d0 183d 75dc a5be 91ce 6b3e f3f8 b03c
000002d0: e6f2 2dbe fa76 893e fc55 583e d2fc a13e
000002e0: 3841 263f c3da e1bd 2c90 48be 3dfb c7bc
000002f0: 1363 47be 9852 333c 5c72 6ebb 1766 f33d
00000300: 8595 29bf 9a48 123d aa1a 173f 0bf9 373d
00000310: 9874 84bd c9c1 8abe 5f11 873c c023 943b
00000320: 616c 453e 8a0d 843e b08f 77be b749 133c
00000330: 454f 043d 31c5 1c3d 6d0c 1f3f 4858 8fbd
00000340: 4dd5 2fbd 00dd 29be 952e 573f 0c86 a6bd
00000350: 00d1 39bd f22e 373a 5bd6 aebd 4161 64bc
00000360: e3fe 8cbc 8a58 f63b 61d7 acbe 82a2 52be
00000370: d4bc b4bc 4c0d 5b3d 43ea 02bf 9876 05bd
00000380: 5c3e 0c3e 1941 3c3d bf39 0cbd 3999 d5bc
00000390: 902e 3abc 39bb 9f3d be46 a5bc 3fd2 91bd
000003a0: a96e 03be 1add 1e3d ad78 613e 71e7 a6be
000003b0: f2ba 953d 10b7 b0bd 21dd e5bc 7a01 36bd
000003c0: f525 abbd 66cc b6bd 4991 48bc a305 813d
000003d0: 9048 44bf 5948 2b3c cbe0 14bc fef6 8bbd
000003e0: 968a 36be ac57 553e 23c7 513d 90dd 5abe
000003f0: 59fe e13d 42ae f33c ff27 333e d770 c53c

layer_3.bias f4 [6]
-0.17785381 -0.2053809 -0.06634675 0.10328757 -0.019770516 1.0484219
00000000: 4f1f 36be 5f4f 52be cee0 87bd 6f88 d33d
00000010: c7f5 a1bc b032 863f
