models/all_td3/TD3_TradingEnv9_pred_robust_42_300_predictor.pth (torch, 113439 bytes, 6 tensors)

layer_1.weight f4 [200, 35]
0.012863122 0.020247737 -0.054844137 -0.011260335 0.17864874 0.112887815 -0.117907375 0.01809539
0.1223648 -0.017939705 0.034224235 -0.016433218 -0.22325939 -0.018133748 -0.015259353 -0.012261707
0.02877952 -0.114181966 0.03132011 0.013565143 -0.008190405 0.07734637 0.021881575 0.013205372
-0.044515256 -0.083805494 -0.16936007 0.24833332 -0.07563139 0.0005716082 -0.034237873 0.033491146
-0.10125437 0.048440415 0.1672354 0.2716706 -0.06146883 0.20457083 0.26662067 -0.11575885
0.0868901 0.2019559 -0.089875564 0.053096123 -0.2792479 -0.17884958 -0.003539803 0.047640953
-0.09897727 0.09173482 0.08813793 -0.0075833644 0.02842957 0.069123395 -0.017486852 0.046671636
-0.028010635 0.04940573 -0.061591476 0.0045306175 -0.034058213 0.06735466 -0.097396076 0.1324588
0.03475014 -0.011774148 0.12054143 -0.026783029 0.06923584 -0.116472505 0.0070139016 0.03132971
0.012040593 0.0120443655 0.044739302 -0.0065109106 -0.040375657 0.0095122345 0.012415116 0.0042568273
0.009517284 0.0043484233 -0.028263114 0.0038969675 -0.020341529 -0.0137583865 -0.018231086 -0.02278514
-0.022434058 -0.018893564 -0.0046066423 -0.025600107 -0.015412562 -0.032774482 -0.026686076 0.029694172
0.01846853 0.033584796 -0.0016823129 -0.015929302 -0.005008768 -0.0028015834 0.024520293 0.0026248435
0.03362333 0.0015215965 0.01818337 0.00064409955 -7.586348e-05 0.03857841 0.026543248 -0.04431076
0.0200326 0.017087849 0.02420205 0.0179977 0.026704207 0.029333577 -0.029817922 -0.01749747
-0.0048391167 -0.017957646 -0.016625866 -0.01988969 -0.01169025 -0.02665412 0.0059089987 0.010143463
0.008908375 0.00624916 -0.008612292 0.03613101 0.009874131 0.0021512911 0.013119023 0.00449808
0.001593276 0.0011709909 -0.022085426 0.02121503 0.01069719 0.05611543 -0.0039096414 0.066977106
-0.17955662 -0.015603389 0.09174872 0.03483303 0.13471556 0.0011426688 -0.009001336 -0.18615693
-0.055755846 0.0399868 0.07436364 0.023754112 -0.02717576 -0.028895518 -0.033648603 -0.005046554
-0.01343109 -0.0006455369 0.07925989 -0.038922653 0.05722483 0.07673259 -0.10556618 -0.037188064
-0.03834006 0.08304674 -0.023026882 0.020091321 0.0789644 -0.012296691 -0.06091701 0.022632893
0.0006976485 0.009802842 0.0055125467 -0.004558408 -0.0016203545 -0.009581499 0.011312083 0.008010076
0.012463947 0.008712646 0.011008426 -0.0006017924 -0.0097448025 -0.020932592 0.00010683595 -0.008255864
-0.0150072705 -0.0066741193 0.009999223 -0.006346534 -0.012811375 0.00072941266 0.0034488733 -0.006474557
-0.016380481 0.020438403 -0.008486748 -0.0069501824 -0.0003947811 -0.019110376 -0.0059450488 -0.014957651
-0.0010552285 -0.019149419 0.027982 -0.0016526331 0.02857054 0.026613565 0.065446764 -0.02560622
-0.015732192 0.008970058 0.029889915 0.00631158 0.0057381047 -0.00157152 0.010583724 -0.015634257
0.02708553 0.00647781 0.029120501 0.023565525 -0.006038009 -0.029579207 0.029608116 0.005983185
-0.0066879382 -0.0032197612 0.0030991177 0.0076130517 0.049832486 0.07563336 0.01193931 -0.014025847
-0.0038393617 0.00784361 0.009595201 0.020361317 0.03762714 0.18563014 0.0942037 0.11209838
0.07555576 0.040320765 -0.13960245 0.056193702 -0.010798826 -0.15469989 0.016192285 0.06255621
00000000: d8bf 523c 95de a53c 3fa4 60bd 457d 38bc
00000010: b2ef 363e ba31 e73d 6c79 f1bd c93c 943c
00000020: 659a fa3d 4af6 92bc b62e 0c3d f59e 86bc
00000030: 1c9e 64be 3a8d 94bc 5e02 7abc 54e5 48bc
00000040: 07c3 eb3c 3cd8 e9bd 8449 003d 5540 5e3c
00000050: 0c31 06bc c667 9e3d fd40 b33c 585b 583c
00000060: a155 36bd 37a2 abbd ba6c 2dbe 174b 7e3e
00000070: a1e4 9abd fad7 153a 033d 0cbd 032e 093d
00000080: 735e cfbd 7569 463d c23f 2b3e 6918 8b3e
00000090: bdc6 7bbd 047b 513e 8182 883e fa12 edbd
000000a0: 70f3 b13d 87cd 4e3e ae10 b8bd 527b 593d
000000b0: 95f9 8ebe 5824 37be 0afc 67bb 2923 433d
000000c0: 98b4 cabd 77df bb3d a981 b43d df7d f8bb
000000d0: 21e5 e83c 9190 8d3d 9640 8fbc c22a 3f3d
000000e0: 8f76 e5bc aa5d 4a3d 5847 7cbd 9375 943b
000000f0: a080 0bbd 3df1 893d 9877 c7bd 48a3 073e
00000100: 2a56 0e3d 5be8 40bc 6dde f63d 1568 dbbc
00000110: 85cb 8d3d 2389 eebd dfd4 e53b 9553 003d
00000120: e845 453c bb55 453c 8f40 373d 7a59 d5bb
00000130: f260 25bd 34d9 1b3c c568 4b3c db7c 8b3b
00000140: 62ee 1b3c 387d 8e3b 0c88 e7bc 4464 7f3b
00000150: 47a3 a6bc db6a 61bc 5c59 95bc e7a7 babc
00000160: a1c7 b7bc adc6 9abc 51f3 96bb 51b7 d1bc
00000170: f884 7cbc 893e 06bd c29c dabc 3141 f33c
00000180: 514b 973c 3690 093d 0e81 dcba 2b7e 82bc
00000190: 9720 a4bb c59a 37bb c8de c83c 9105 2c3b
000001a0: 9eb8 093d 4e70 c73a 4af5 943c cad8 283a
000001b0: e518 9fb8 6504 1e3d 3a71 d93c 337f 35bd
000001c0: 681b a43c d1fb 8b3c 6143 c63c ea6f 933c
000001d0: c8c2 da3c f84c f03c b744 f4bc db56 8fbc
000001e0: 7491 9ebb ea1b 93bc f832 88bc b4ef a2bc
000001f0: 7688 3fbc be59 dabc 46a0 c13b c430 263c
00000200: 6ff4 113c c1c5 cc3b 921a 0dbc 1cfe 133d
00000210: 1bc7 213c adfc 0c3b 2cf1 563c a164 933b
00000220: 79d5 d03a ef7b 993a 7fec b4bc 25cb ad3c
00000230: 4443 2f3c 4bd9 653d 731c 80bb 4b2b 893d
00000240: b1dd 37be 5ba5 7fbc c1e6 bb3d 14ad 0e3d
00000250: e0f2 093e 9ac5 953a 577a 13bc ec9f 3ebe
00000260: 3e60 64bd 33c9 233d f74b 983d fc97 c23c
00000270: b39f debc 4bb6 ecbc 1ed3 09bd 905d a5bb
00000280: 130e 5cbc 3f39 29ba 0253 a23d 5c6d 1fbd
00000290: 9564 6a3d fa25 9d3d 1533 d8bd 8352 18bd
000002a0: 770a 1dbd 6914 aa3d dfa2 bcbc 8e96 a43c
000002b0: 16b8 a13d 0f78 49bc 1d84 79bd 9e68 b93c
000002c0: 66e2 363a 199c 203c 98a2 b43b b35e 95bb
000002d0: 1362 d4ba b8fb 1cbc 5156 393c b23c 033c
000002e0: 9535 4c3c 7cbf 0e3c af5c 343c 9bc1 1dba
000002f0: aaa8 1fbc d47a abbc 1d0d e038 9a43 07bc
00000300: 0ee1 75bc 92b2 dabb c8d3 233c 96f6 cfbb
00000310: cde6 51bc 0e36 3f3a 7e06 623b 8528 d4bb
00000320: 5c30 86bc 706e a73c 000c 0bbc 5bbe e3bb
00000330: 9ffa ceb9 5d8d 9cbc afce c2bb ef10 75bc
00000340: 984f 8aba 3edf 9cbc 823a e53c 2a9d d8ba
00000350: c40c ea3c b104 da3c f408 863d 23c4 d1bc
00000360: cce0 80bc 26f7 123c b2db f43c 5fd1 ce3b
00000370: b606 bc3b 76fb cdba 5b67 2d3c 6a13 80bc
00000380: 79e2 dd3c cf43 d43b 1e8e ee3c 7d0c c13c
00000390: 7eda c5bb 1850 f2bc b88c f23c 980e c43b
000003a0: 7e26 dbbb a102 53bb 911a 4b3b e876 f93b
000003b0: 261d 4c3d aae5 9a3d 189d 433c abcc 65bc
000003c0: cd9d 7bbb 7c82 003c 3135 1d3c c7cc a63c
000003d0: ea1e 1a3d d415 3e3e dfed c03d d693 e53d
000003e0: fabc 9a3d 6327 253d f2f3 0ebe 5e2b 663d
000003f0: 8fed 30bc a669 1ebe afa5 843c 781d 803d

layer_1.bias f4 [200]
-0.18219174 0.1533104 -0.0061988914 -0.027248615 0.077589236 -0.037419435 -0.036664613 0.064121224
-0.030652778 -0.00905203 -0.00043533253 -1.713965e-10 0.00569791 0.027261788 -0.006611273 -0.030374782
-0.018186536 -4.0897216e-05 -0.08090491 -8.0522944e-10 0.12867458 0.17934881 -0.014213608 -0.011940703
-0.061666746 -0.011283593 -8.247954e-06 -5.348272e-12 -0.10134232 -0.02890643 0.019666925 0.020214787
-0.009458257 0.0023459743 -0.0049813436 -0.049406677 0.15384367 0.010535006 -0.0005142043 -0.12685819
0.07276771 -0.01751505 -0.026333425 -0.00010954361 -0.040094513 -0.051649537 -0.04065862 -0.0012444818
-0.054700956 0.023583313 -0.003784275 -0.031614684 0.018196847 -0.0061941873 -0.046081252 -0.0041630813
0.004208022 -0.00980779 0.0017005089 -5.390006e-12 -1.0343414e-17 -0.054335743 -0.08343131 0.059361238
-0.0010379629 0.023757953 -0.030029804 -0.006624266 -0.0316089 -0.1304459 -2.2689772e-35 -0.057375014
0.011451502 0.014621114 -0.002742254 -0.0033297222 0.059873786 -0.06216191 -0.040381532 0.052308314
-1.9546216e-23 -0.0029118264 -0.0063346303 -0.0020903465 -0.0135008 -0.037573684 -0.07964117 0.009750756
-0.025248094 -0.00020525398 0.06644696 0.023074219 -0.011040143 -0.034798693 -0.06749179 -0.014871162
-0.039659217 -0.00014553062 0.0047705853 -0.088254385 0.062001925 -0.058323756 0.047938824 -0.09555875
0.0075941766 -0.014835096 0.009547234 0.06511354 0.071702994 -0.019834204 -1.1651789e-25 0.019207478
0.054552473 -0.1295963 -8.741493e-09 -0.0047760005 -0.0028293235 -0.0029140308 -0.0526549 -0.019841569
0.011292125 -0.111720935 -0.007142195 0.016927099 -0.0019551862 0.011863297 -9.3645355e-07 0.0070793107
-0.14928786 0.024342643 -0.02469054 -0.012232039 -0.0024288883 -0.00056113815 -0.036672585 0.027388932
0.1204592 -2.660179e-23 -0.031066151 0.2526798 -0.0563797 -0.011691927 0.03560256 -0.021336345
0.09354996 -4.766613e-18 0.009952619 -0.006570841 0.009788871 -0.0075068166 0.0033875925 -0.09388754
-0.03847073 -0.019014904 -0.024050787 -0.018899849 -0.019896671 -6.816274e-22 0.00041643984 0.23793195
-0.0056863897 -0.014618144 -0.009116917 -0.12341381 -0.00020376644 -0.14055334 -0.27253255 -0.042453706
-4.0861737e-12 0.018988695 -9.752313e-08 -0.16184218 0.017466996 -0.05864215 -0.015047896 -0.09704719
-0.2122772 -0.0043038423 0.018307062 -0.0191493 -0.0009701349 -0.03225153 -1.748241e-11 0.0009639748
-0.09226304 0.006635949 -5.493957e-32 -0.032021496 -4.40147e-06 0.06476222 0.007751473 -0.0010257992
-0.0037589525 0.014733319 0.015120029 -0.012674654 -0.1325602 -0.115625836 -0.01961706 -0.087583415
00000000: 7990 3abe 67fd 1c3e 1220 cbbb 7d38 dfbc
00000010: 1be7 9e3d 1f45 19bd a22d 16bd fd51 833d
00000020: 891b fbbc f74e 14bc 583d e4b9 d373 3caf
00000030: 89b5 ba3b 1d54 df3c 61a3 d8bb 89d4 f8bc
00000040: eefb 94bc 0d89 2bb8 79b1 a5bd fc56 5db0
00000050: 45c3 033e 37a7 373e 31e0 68bc f0a2 43bc
00000060: 4596 7cbd d2de 38bc b160 0ab7 f42c bcac
00000070: 908c cfbd 2dcd ecbc 881c a13c 7b99 a53c
00000080: cef6 1abc ebbe 193b 8a3a a3bb a85e 4abd
00000090: 3289 1d3e 059b 2c3c abcb 06ba 1de7 01be
000000a0: 3d07 953d b97b 8fbc 32b9 d7bc c7ba e5b8
000000b0: 253a 24bd 778e 53bd a789 26bd e11d a3ba
000000c0: 1c0e 60bd cb31 c13c 9901 78bb 667e 01bd
000000d0: 8e11 953c 9cf8 cabb b2bf 3cbd 756a 88bb
000000e0: 72e3 893b dab0 20bc 9ce3 de3a dca4 bdac
000000f0: 64cd 3ea3 288f 5ebd 09de aabd c524 733d
00000100: 410c 88ba 0aa0 c23c 1001 f6bc 5f10 d9bb
00000110: 5578 01bd 9c93 05be 6f47 f185 1002 6bbd
00000120: 159f 3b3c 668d 6f3c 63b7 33bb 7837 5abb
00000130: 373e 753d 7d9d 7ebd 1b67 25bd 3e41 563d
00000140: 160a bd99 57d4 3ebb bb92 cfbb 32fe 08bb
00000150: 7632 5dbc dde6 19bd e91a a3bd a3c1 1f3c
00000160: 17d5 cebc 7239 57b9 5815 883d 2506 bd3c
00000170: b7e1 34bc 1389 0ebd 2339 8abd 2da6 73bc
00000180: b471 22bd 9499 18b9 9252 9c3b b7be b4bd
00000190: bbf5 7d3d e4e4 6ebd 805b 443d 4eb4 c3bd
000001a0: 92d8 f83b e70e 73bc 006c 1c3c 3f5a 853d
000001b0: 05d9 923d 577b a2bc fe3d 1096 0059 9d3c
000001c0: 6a72 5f3d e4b4 04be 7e2d 16b2 ff7f 9cbb
000001d0: 2c6c 39bb 53f9 3ebb aaac 57bd c98a a2bc
000001e0: 9b02 393c f2cd e4bd 1309 eabb b3aa 8a3c
000001f0: 9522 00bb 465e 423c 9960 7bb5 90f9 e73b
00000200: ebde 18be 396a c73c d143 cabc e468 48bc
00000210: fc2d 1fbb 5819 13ba fe35 16bd c15e e03c
00000220: 50b3 f63d 6ca3 009a 717e febc 3f5f 813e
00000230: 66ee 66bd 7f8f 3fbc fdd3 113d 8fc9 aebc
00000240: 1f97 bf3d 63db afa2 4f10 233c 3650 d7bb
00000250: 8061 203c befb f5bb 5f02 5e3b 1c48 c0bd
00000260: 7c93 1dbd 25c5 9bbc 2806 c5bc dbd3 9abc
00000270: 58fe a2bc 5e02 4e9c 9c55 da39 6fa4 733e
00000280: e554 babb f180 6fbc 1f5f 15bc 61c0 fcbd
00000290: 23aa 55b9 37ed 0fbe 6389 8bbe f0e3 2dbd
000002a0: fbc4 8fac 2e8e 9b3c e86d d1b3 f5b9 25be
000002b0: f216 8f3c c032 70bd 738b 76bc adc0 c6bd
000002c0: 325f 59be 3f07 8dbb b1f8 953c fede 9cbc
000002d0: a750 7eba 2e1a 04bd e3c6 99ad 41b3 7c3a
000002e0: 68f4 bcbd 6072 d93b 9ba1 8e8b f928 03bd
000002f0: 57b0 93b6 0ea2 843d 1200 fe3b 1c74 86ba
00000300: c258 76bb 0564 713c 00ba 773c 5aa9 4fbc
00000310: dcbd 07be 3dcd ecbd f5b3 a0bc ef5e b3bd

layer_2.weight f4 [100, 200]
-0.011207888 -0.2232464 -0.010382704 0.010857142 0.01075718 -0.00027937404 -0.0010279525 -0.08563042
-0.0029626454 8.320792e-05 -0.010440851 -2.7704685e-38 0.045611136 -0.02335762 0.008317816 0.00070362864
0.0074946876 9.184113e-18 -0.0070592146 7.601159e-39 -0.014309275 -0.03556794 0.004749466 -0.0031722027
-0.004902567 0.034630243 5.3330854e-07 -4.947343e-20 -0.04193101 -2.8238547e-09 -0.00853678 -0.03716949
0.0077173645 -8.618528e-08 0.00010693974 -0.020583194 0.019896256 0.005133227 0.00011803348 0.029215235
0.01855596 -0.015241008 -0.010327069 7.3484616e-06 0.0001858718 0.03460627 0.015893726 2.8733849e-08
-0.007171838 0.0046646246 -2.6185643e-09 0.0043786587 0.022633264 -6.7334846e-15 0.00071221485 -5.5117043e-06
0.01791358 -0.0049691484 1.0331541e-07 2.9477686e-38 -4.806053e-22 0.012527501 -0.06574916 -0.0037298265
-2.9810243e-31 0.0144537715 0.00029730765 0.02777585 0.0014715341 -0.0028057252 7.484865e-39 -0.03238518
-2.7443755e-07 0.0005897688 -7.714923e-19 -0.0027834747 0.023504663 0.0500912 -0.0012190763 0.018538555
2.382254e-39 0.034377515 -0.0019392662 -2.1084752e-23 -0.04177779 0.0063786167 0.020933183 0.012010373
0.003693745 -1.118548e-05 0.014261783 0.021658069 1.9873014e-05 -0.0011755079 0.004121099 -0.012726191
0.005127311 2.6176612e-20 0.007714094 -0.015424686 0.015252245 0.09585008 0.14445297 0.0358167
-0.0012790278 -0.0041486328 0.0032428158 0.009175259 -0.034968976 -0.0067216265 -4.795545e-39 0.010290312
0.001804551 0.025081262 1.7102977e-12 3.9464053e-06 -6.1383405e-05 -7.480903e-06 0.03468095 0.0063514644
0.011563067 0.0062246723 0.0005228557 0.029042143 0.0069809104 0.09162591 1.183778e-39 0.057317235
-0.0031246012 -0.0041088476 -4.7431886e-08 0.033006877 -1.03388e-05 -4.3865807e-08 -0.08137944 0.0046769865
-0.092819415 -3.820489e-39 -2.3534746e-12 -0.016809985 0.00558264 6.155728e-05 0.020837529 0.0253144
0.023970654 -3.79263e-39 -0.002868917 1.1740876e-07 0.02125678 -0.00011426971 -0.000309654 0.011720804
7.9038604e-05 0.020065911 -0.001345201 0.008884948 -0.0012659499 1.2079758e-22 0.036792696 -0.021327509
0.0016118045 0.030420326 0.015452393 -0.021015793 -4.6910838e-23 -0.0047905794 -0.017625218 0.029729638
-5.816696e-39 0.0129566835 -3.0587924e-38 0.05471824 0.0109911505 -0.0050358316 -6.906689e-07 0.088657975
0.0062090023 -0.0012308089 0.011086666 0.0001512132 1.995007e-09 0.14433089 -6.949304e-39 0.017852776
-0.0015008268 0.032341566 -2.1690637e-34 -0.00088826433 -1.5501359e-10 -0.013206806 0.009954751 6.1462245e-11
-0.013159682 0.010969677 -0.026826538 0.02318108 -0.008488724 -0.0029125502 0.022965288 0.016321253
-0.05260161 0.011718853 -0.030665135 0.03349288 0.040215638 -0.0026677973 -0.021652624 -0.17637712
0.031149551 -0.0015359783 -0.06812332 -2.469559e-38 0.12383128 0.015532599 0.012509309 -0.022289393
-0.0064860024 2.118516e-17 0.046896204 -4.374982e-29 0.07243751 -0.043634266 -0.05293016 -0.03999951
0.1534876 0.00855741 2.672483e-05 1.0758204e-16 0.040876914 9.106852e-05 0.05961982 -0.05113817
0.034007665 -7.57453e-06 -0.0073714075 -0.06534168 0.0067337393 -0.06225596 -6.956579e-05 0.07539703
-0.06713874 -0.022202572 -0.018996071 0.004793754 0.00068464235 0.026664564 0.05890154 -7.656054e-10
0.033563565 -0.04826168 -9.458218e-08 -0.06960829 -0.021963308 -6.558326e-27 -0.026646461 0.0028020341
00000000: 4aa1 37bc b49a 64be 381c 2abc 27e2 313c
00000010: e23e 303c f378 92b9 5dbc 86ba 005f afbd
00000020: f128 42bb e97f ae38 1a10 2bbc b2d6 1681
00000030: bed2 3a3d 7b58 bfbc 7347 083c b873 383a
00000040: ff95 f53b bf6a 2923 fc50 e7bb f0c4 5200
00000050: 7371 6abc b0af 11bd 69a1 9b3b bbe4 4fbb
00000060: b6a5 a0bb 71d8 0d3d af28 0f35 b5a1 699f
00000070: dabf 2bbd c70d 42b1 dadd 0bbc 093f 18bd
00000080: f2e1 fc3b dc14 b9b3 d644 e038 169e a8bc
00000090: 79fd a23c a134 a83b be88 f738 ca54 ef3c
000000a0: ab02 983c 6cb5 79bc de32 29bc ce92 f636
000000b0: 95e6 4239 4ebf 0d3d 8f33 823c 67d2 f632
000000c0: bd01 ebbb b5d9 983b 45f2 33b1 da7a 8f3b
000000d0: 6569 b93c 6f99 f2a7 eeb3 3a3a 2ef1 b8b6
000000e0: 80bf 923c 3dd4 a2bb 3fde dd33 e67d 2001
000000f0: 0941 119c 2640 4d3c 7fa7 86bd 1b70 74bb
00000100: c37a c18c 83cf 6c3c f5df 9b39 2e8a e33c
00000110: 7ee0 c03a 42e0 37bb c280 5100 53a6 04bd
00000120: 6956 93b4 b79a 1a3a 4fb4 63a1 f56a 36bb
00000130: da8c c03c 6e2c 4d3d 6ac9 9fba 2bde 973c
00000140: c1f0 1900 70cf 0c3d fa2e feba 51eb cb99
00000150: 301f 2bbd b703 d13b 117c ab3c 28c7 443c
00000160: c212 723b 45a9 3bb7 41aa 693c 436c b13c
00000170: f9b4 a637 8013 9aba 490a 873b 8481 50bc
00000180: 0103 a83b 2a3b f71e 83c6 fc3b d2b7 7cbc
00000190: 8de4 793c 0c4d c43d 7beb 133e 88b4 123d
000001a0: 0da5 a7ba 41f1 87bb 6c85 543b d353 163c
000001b0: a13b 0fbd 1741 dcbb 0738 3480 b298 283c
000001c0: af86 ec3a 3877 cd3c f8b3 f02b 5d6b 8436
000001d0: f7ba 80b8 7804 fbb6 9d0d 0e3d f21f d03b
000001e0: 0573 3d3c 56f8 cb3b 4110 093a cae9 ed3c
000001f0: 1fc0 e43b 5da6 bb3d e4e3 0c00 7ac5 6a3d
00000200: 1cc6 4cbb 83a3 86bb e9b7 4bb3 3832 073d
00000210: cf74 2db7 f766 3cb3 44aa a6bd 6841 993b
00000220: 1b18 bebd f899 2980 6e9c 25ac 18b5 89bc
00000230: 94ee b63b 5018 8138 77b3 aa3c 2560 cf3c
00000240: 1b5e c43c 4f4c 2980 7104 3cbb 2622 fc33
00000250: b322 ae3c 15a4 efb8 0e59 a2b9 9d08 403c
00000260: 87c1 a538 4461 a43c 7551 b0ba 2c92 113c
00000270: 3bee a5ba 0a09 121b f0b3 163d 07b7 aebc
00000280: 2f43 d33a 0c34 f93c 092c 7d3c 5029 acbc
00000290: ced8 629a 4bfa 9cbb c362 90bc 928b f33c
000002a0: 9556 3f80 4548 543c 5889 2681 3c20 603d
000002b0: 3a14 343c 9e03 a5bb 6866 39b5 5092 b53d
000002c0: e374 cb3b 1853 a1ba d9a4 353c fc8e 1e39
000002d0: 8918 0931 7acb 133e d5ab 4b80 fc3f 923c
000002e0: 64b7 c4ba 9778 043d b528 9087 69da 68ba
000002f0: 7270 2aaf 5c61 58bc 4019 233c 2b28 872e
00000300: b59b 57bc 29ba 333c 54c3 dbbc 40e6 bd3c
00000310: 4a14 0bbc 7ce0 3ebb b321 bc3c 26b4 853c
00000320: c974 57bd 6f00 403c 7335 fbbc d52f 093d
00000330: 27b9 243d 36d6 2ebb d860 b1bc 349c 34be
00000340: 582d ff3c e152 c9ba 3d84 8bbd a174 0681
00000350: 419b fd3d 717c 7e3c d8f3 4c3c 3f98 b6bc
00000360: 8888 d4bb 0b66 c323 3c16 403d 83d6 5d90
00000370: 1e5a 943d d8b9 32bd 4ccd 58bd 87d6 23bd
00000380: da2b 1d3e 6134 0c3c 232f e037 3a11 f824
00000390: 8d6e 273d 0afc be38 ea33 743d 4276 51bd
000003a0: 9f4b 0b3d b828 feb6 d98b f1bb dcd1 85bd
000003b0: b3a6 dc3b 1b00 7fbd d9e3 91b8 c269 9a3d
000003c0: 0980 89bd 2be2 b5bc a69d 9bbc ec14 9d3b
000003d0: 9279 333a a56f da3c be42 713d b172 52b0
000003e0: f379 093d 0aae 45bd 1a1d cbb3 cb8e 8ebd
000003f0: 65ec b3bc aae6 0194 ae49 dabc 55a2 373b

layer_2.bias f4 [100]
0.041170035 -0.041328866 0.015945137 0.022185301 0.03456495 -0.016197762 -0.058386788 0.03631512
0.014244726 -0.02825371 0.03775655 0.004808491 -0.05562642 0.011281783 -5.1591614e-05 -0.020688772
-0.015918823 -0.028862718 -0.036396503 0.007832987 0.06565949 -0.021577263 -0.026373537 -8.946488e-15
0.025788432 0.014077724 -1.4635165e-18 0.08837866 -0.0083274925 0.1044786 -0.031728983 -0.043188106
0.02277436 -0.14655179 -0.12802431 -0.035293307 -0.040701058 -0.2312071 -4.255046e-15 -0.010835182
-0.04037061 0.024906434 0.027306652 0.013541775 -0.008391254 -0.08735441 -0.01037054 -0.03824931
-0.028704427 -0.084507026 -0.0023055398 -0.087341316 -0.012840048 0.007104441 0.029164504 -0.031240966
-0.06029979 -0.020554978 -0.02557224 -3.7333192e-10 -0.015367369 -0.1321074 -0.03147289 -0.03460278
-0.051090483 0.044008303 -0.07834858 0.009387024 -0.042073943 -0.029322235 -6.1314093e-28 -0.008146434
-0.04333537 -1.4479107e-20 -0.038884852 0.051237084 0.071997255 -8.793805e-08 0.018368062 -0.037751373
0.03151786 -0.01793627 0.010466069 -0.09554683 -0.050980862 0.11818078 -2.134064e-21 -0.02358234
-0.054606672 -0.015298901 -0.056729417 0.047140695 -0.051073026 -0.02917862 -0.057804946 0.035883345
-0.0013480406 2.641584e-17 0.007613885 0.001952926
00000000: e9a1 283d 7548 29bd 609f 823c f3bd b53c
00000010: fa93 0d3d 2bb1 84bc fc26 6fbd 2abf 143d
00000020: b662 693c 5374 e7bc 9da6 1a3d 8c90 9d3b
00000030: 87d8 63bd 3ad7 383c 1364 58b8 807b a9bc
00000040: 3168 82bc 8271 ecbc 8014 15bd ee55 003c
00000050: 7c78 863d cdc2 b0bc 510d d8bc 652a 21a8
00000060: 4342 d33c 41a6 663c 17fa d7a1 dfff b43d
00000070: 0970 08bc e0f8 d53d 40f6 01bd 03e6 30bd
00000080: 4b91 ba3c ac11 16be ce18 03be b78f 10bd
00000090: 27b6 26bd 8ec1 6cbe df4d 99a7 0c86 31bc
000000a0: a75b 25bd 9408 cc3c 33b2 df3c 52de 5d3c
000000b0: 787b 09bc dee6 b2bd 33e9 29bc 4fab 1cbd
000000c0: 8c25 ebbc 0512 adbd 8a18 17bb 01e0 b2bd
000000d0: 115f 52bc 5fcc e83b 66ea ee3c 0eed ffbc
000000e0: eafc 76bd ea62 a8bc e07c d1bc cc3d cdaf
000000f0: 6bc7 7bbc 2a47 07be b8e9 00bd a5bb 0dbd
00000100: 4144 51bd 0d42 343d 3875 a0bd 08cc 193c
00000110: ba55 2cbd 2f35 f0bc e74f 4292 9f78 05bc
00000120: 6e80 31bd 55c0 889e b945 1fbd fadd 513d
00000130: 4c73 933d 74d8 bcb3 9e78 963c 2fa1 1abd
00000140: df18 013d 16ef 92bc e079 2b3c 0eae c3bd
00000150: 4fd1 50bd c408 f23d cd3e 219d c02f c1bc
00000160: 3fab 5fbd 3ea8 7abc 1b5d 68bd 9a16 413d
00000170: f331 51bd 0008 efbc e1c4 6cbd 6afa 123d
00000180: bdb0 b0ba a4a4 f323 e67d f93b 53f9 ff3a

layer_3.weight f4 [5, 100]
0.10817304 0.23060645 0.083892755 -0.3467454 -0.117036216 -0.00189175 0.0834907 0.2657185
-0.01994252 -0.059964776 -0.12024014 -0.07331353 0.07021783 -0.086797796 2.7828477e-11 -0.08126176
0.21565257 0.16869955 -0.028978184 -0.11185912 0.11925027 -0.043179743 -0.041463766 5.434181e-09
0.04284016 0.11997676 -1.5180446e-38 -0.026965702 -0.39095607 0.04505602 0.011011473 0.14698847
-0.33323377 -0.24471049 -0.34315464 0.063347325 -0.2033063 -0.82554054 -1.7732113e-05 -0.0029226872
-0.06784936 0.010181504 0.0642661 0.06411352 0.0015377693 -0.29474732 -0.0730472 0.0752518
0.25346595 0.01649255 -0.0037199063 0.042231206 0.07745043 -0.05148704 0.016778992 0.046484735
-0.19534408 0.15455668 -0.08124918 -1.3338478e-10 -0.010140576 -0.17980705 0.07845038 0.13162093
0.088961385 -0.10735329 -0.19680765 -0.043955524 -0.123665765 0.13119699 -1.0714287e-38 -0.0055577355
0.05794864 -4.0208004e-10 -0.029132353 0.12529966 0.19624321 1.8171985e-06 -0.0878717 -0.12822649
0.09205728 -0.21239279 -0.26218832 0.07204313 0.012095807 0.23052901 -4.1992452e-22 0.036237027
-0.07463564 0.0063283034 -0.035498075 0.18459137 0.10717683 0.17016238 0.04186064 -0.17097564
0.0006965757 -6.0722236e-16 -0.11150119 0.05036092 0.1582631 0.21195637 0.030779531 -0.2180972
-0.12312681 -0.03390471 0.17230639 0.1400513 -0.116294466 0.06329101 -0.18233213 -0.24028698
0.08206814 0.015875818 -6.2168724e-09 -0.047298264 0.16512449 0.20054115 0.07728266 -0.09517569
0.047711607 0.0001825373 -0.013347636 -5.556844e-35 0.11902637 0.12944521 -1.3032192e-38 -0.16774745
-0.3595459 -0.09604622 0.06920637 0.12654488 -0.17010441 -0.024580352 -0.02128251 -0.08117904
-0.159283 0.0051398403 -1.5325788e-10 0.08429685 -0.05992027 -0.03592113 0.099899314 0.055851456
0.004041403 -0.3456921 0.02711796 0.1790355 -0.006361378 0.25931728 0.0019780202 0.14916416
0.13131832 0.013495783 -0.13439715 0.16257164 -0.28089482 0.18411365 -0.13713126 -6.16528e-11
0.009111793 0.090930305 0.14960316 0.17851622 0.16657408 -0.14402664 -0.052267756 0.05740962
-0.12304389 0.14535727 -3.0992922e-29 0.0019703098 -0.19381848 5.436059e-08 0.017874433 0.09407651
0.048655868 3.6503718e-06 -0.18107733 -0.27223513 0.023404306 -0.13038892 -0.41792443 -0.021984337
-0.30230495 -0.027739426 -1.2491617e-22 0.08354249 0.10186577 0.049837362 0.1308027 0.13435446
0.013396682 0.1446743 0.17041521 -0.2144834 -0.003083441 -7.0732856e-17 0.008828347 -0.100567475
0.2089046 0.34962523 0.09355725 -0.30492273 -0.10925907 -0.0023199439 0.13762361 0.0899748
-0.0880699 0.062244706 -0.14983751 -0.23053995 0.17213103 -0.08702644 -6.885454e-08 0.22982796
0.07875023 0.108246416 -0.017122034 -0.14241387 0.14407578 -0.042238943 -0.010415827 -2.4040139e-26
-0.0018174355 0.18690345 -5.011311e-30 -0.024162548 -0.5322569 0.04587987 -0.046177313 0.009169798
-0.18506838 0.2743062 0.11246521 0.105720945 -0.0998334 0.08957325 -1.1416676e-06 0.05340895
-0.03668215 -0.08867939 0.07236439 0.06677747 0.0015167466 0.032234386 -0.09233168 0.057362247
-0.05048326 0.11782129 -0.0065099755 0.07557035 0.20770368 -0.115904815 0.05619839 -0.0005416845
00000000: d489 dd3d 1924 6c3e f7cf ab3d 9d88 b1be
00000010: afb0 efbd 99f4 f7ba 2cfd aa3d 410c 883e
00000020: 7f5e a3bc a09d 75bd 7640 f6bd 6725 96bd
00000030: 5ece 8f3d 0bc3 b1bd 29c8 f42d 916c a6bd
00000040: 07d4 5c3e 93bf 2c3e a863 edbc 6516 e5bd
00000050: 7c39 f43d 3edd 30bd e9d5 29bd 90b7 ba31
00000060: 2a79 2f3d 60b6 f53d e84c a580 2de7 dcbc
00000070: 652b c8be a98c 383d 7769 343c 2584 163e
00000080: 9e9d aabe 6395 7abe f7b1 afbe 3ebc 813d
00000090: 872f 50be a056 53bf 6cbf 94b7 8e8a 3fbb
000000a0: 9bf4 8abd 53d0 263c f29d 833d f34d 833d
000000b0: fa8e c93a 1fe9 96be c599 95bd 9e1d 9a3d
000000c0: 4ac6 813e 621b 873c acc9 73bb a1fa 2c3d
000000d0: 559e 9e3d 13e4 52bd 1974 893c c766 3e3d
000000e0: 4708 48be 1b44 1e3e f865 a6bd 7aa8 12af
000000f0: a924 26bc 571f 38be 98aa a03d a3c7 063e
00000100: 6331 b63d 0bdc dbbd f287 49be b50a 34bd
00000110: 7a44 fdbd 8158 063e 13ab 7480 aa1d b6bb
00000120: 8e5b 6d3d bc0b ddaf f9a6 eebc 8e4e 003e
00000130: fbf3 483e 77e6 f335 14f6 b3bd ce4d 03be
00000140: 8788 bc3d 7f7d 59be 8c3d 86be 598b 933d
00000150: 7e2d 463c cc0f 6c3e 2cd4 fd9b 476d 143d
00000160: 92da 98bd a85d cf3b 6e66 11bd 8505 3d3e
00000170: 877f db3d 0c3f 2e3e 1076 2b3d 3d14 2fbe
00000180: 679a 363a 1a05 2fa6 bc5a e4bd 4147 4e3d
00000190: b90f 223e 170b 593e 5b25 fc3c df54 5fbe
000001a0: e929 fcbd aadf 0abd 1671 303e 9c69 0f3e
000001b0: cb2b eebd b89e 813d 46b5 3abe ca0d 76be
000001c0: 5713 a83d 010e 823c 309c d5b1 d3bb 41bd
000001d0: 6516 293e a95a 4d3e 5f46 9e3d 79eb c2bd
000001e0: 3f6d 433d 7c67 3f39 0bb0 5abc ecb9 9386
000001f0: 19c4 f33d 498d 043e 73e8 8d80 fdc5 2bbe
00000200: 6616 b8be e1b3 c4bd 12bc 8d3d fb94 013e
00000210: da2f 2ebe bc5c c9bc a958 aebc 3241 a6bd
00000220: 151b 23be 1b6c a83b 4282 28af d4a3 ac3d
00000230: f56e 75bd 0922 13bd 0398 cc3d 7fc4 643d
00000240: bf6d 843b 8efe b0be 7c26 de3c 1555 373e
00000250: 1b73 d0bb 3cc5 843e aca1 013b 7dbe 183e
00000260: 4f78 063e 6b1d 5d3c 689f 09be 2e79 263e
00000270: 72d1 8fbe 4a88 3c3e 236c 0cbe 7193 87ae
00000280: a149 153c ab39 ba3d 9231 193e f5cc 363e
00000290: 6592 2a3e b87b 13be b716 56bd 5a26 6b3d
000002a0: 6ffe fbbd 89d8 143e 1d27 1d90 5020 013b
000002b0: 5a78 46be 1a7a 6933 676d 923c 2fab c03d
000002c0: 604b 473d e9f8 7436 566c 39be 6762 8bbe
000002d0: 63ba bf3c ac84 05be 31fa d5be 7f18 b4bc
000002e0: b7c7 9abe cb3d e3bc af03 179b 5318 ab3d
000002f0: 009f d03d 4322 4c3d 25f1 053e 3794 093e
00000300: c27d 5b3c 8025 143e 5381 2e3e 89a1 5bbe
00000310: 8e13 4abb 4f19 a3a4 c5a4 103c 52f6 cdbd
00000320: 16eb 553e 1402 b33e f29a bf3d d51e 9cbe
00000330: 38c3 dfbd 330a 18bb 34ed 0c3e b544 b83d
00000340: fe5d b4bd 4ef4 7e3d 016f 19be aa12 6cbe
00000350: 1e43 303e eb3a b2bd 2fdd 93b3 0558 6b3e
00000360: cd47 a13d 4cb0 dd3d 8243 8cbc f1d4 11be
00000370: 9a88 133e be02 2dbd 25a7 2abc fe14 ee94
00000380: 0437 eeba 9e63 3f3e 6e48 cb8e 89f0 c5bc
00000390: fd41 08bf 88ec 3b3d 6c24 3dbd ec3c 163c
000003a0: 9182 3dbe dd71 8c3e 2954 e63d 3984 d83d
000003b0: 7475 ccbd 2e72 b73d 663b 99b5 58c3 5a3d
000003c0: 0640 16bd 8a9d b5bd c833 943d a0c2 883d
000003d0: 92cd c63a 3408 043d 6418 bdbd adf4 6a3d
000003e0: 89c7 4ebd 4a4c f13d a251 d5bb a1c4 9a3d
000003f0: 46b0 543e 815f edbd 4830 663d d5ff 0dba

layer_3.bias f4 [5]
-0.005441979 0.07192911 0.10129642 0.02172621 0.08979643
00000000: a152 b2bb 924f 933d 7f74 cf3d 2afb b13c
00000010: 31e7 b73d
