models/all_td3/TD3_TradingEnv9_tts_42_2200_actor.pth (torch, 588319 bytes, 6 tensors)

layer_1.weight f4 [400, 60]
0	0x06a46113	6.183258e-35
1	0x00016ea2	1.31523e-40
2	0x0733c250	1.3523567e-34
3	0x070a2b46	1.0394683e-34
4	0x0004cb9d	4.40385e-40
5	0x000287db	2.32407e-40
6	0x8006e79c	-6.34099e-40
7	0x00037741	3.18287e-40
8	0xb114954a	-2.1621696e-09
9	0x000538b4	4.79519e-40
10	0x00048bc9	4.17487e-40
11	0x80017594	-1.34015e-40
12	0x0005c4c1	5.2976e-40
13	0x0004b95c	4.33836e-40
14	0x80005257	-2.9538e-41
15	0x80025719	-2.14916e-40
16	0x80015bef	-1.24815e-40
17	0x800058f4	-3.191e-41
18	0xb553b10f	-7.886128e-07
19	0x0001ca1c	1.64339e-40
20	0x96354dbc	-1.4645592e-25
21	0x00011336	9.8727e-41
22	0x97346642	-5.8290204e-25
23	0x9686e1d2	-2.179138e-25
24	0x00040dae	3.7225e-40
25	0x0000b9ac	6.6607e-41
26	0x00020f7d	1.89227e-40
27	0x800301a2	-2.76092e-40
28	0xad0220a8	-7.396896e-12
29	0x8001a5d2	-1.5132e-40
30	0x8db88016	-1.1370711e-30
31	0x8001dfa9	-1.7207e-40
32	0x8e980075	-3.7471333e-30
33	0x8dd35772	-1.3024931e-30
34	0x0002760c	2.26018e-40
35	0x80057dc8	-5.04299e-40
36	0x800026a5	-1.3863e-41
37	0x00018dd2	1.42711e-40
38	0xa8b24af7	-1.979448e-14
39	0x0002181f	1.92324e-40
40	0x8b6fe66c	-4.6203076e-32
41	0x00033231	2.93512e-40
42	0x8d0a87b4	-4.268788e-31
43	0x8bc81c8b	-7.7080144e-32
44	0x0001284a	1.06288e-40
45	0x000775da	6.85126e-40
46	0x000650a1	5.79937e-40
47	0x0005f9fd	5.48856e-40
48	0xae087910	-3.1030345e-11
49	0x00033b08	2.96683e-40
50	0x0005adf9	5.21587e-40
51	0x8917b322	-1.8260192e-33
52	0x9dacc6e3	-4.5733665e-21
53	0x897c7e36	-3.039274e-33
54	0xb44cea14	-1.9084138e-07
55	0x0003c4a5	3.46049e-40
56	0x8007846c	-6.90352e-40
57	0x34e19907	4.2020858e-07
58	0x8005a1b0	-5.1718e-40
59	0x80044b70	-3.94404e-40
60	0xbcb65608	-0.02225782
61	0x3a64d051	0.00087285513
62	0xbcc239f2	-0.023709271
63	0xbca672d4	-0.020318426
64	0xbbadc082	-0.0053024897
65	0xbbb207e4	-0.0054330695
66	0x3a38feb8	0.0007056999
67	0xbc9197e6	-0.017772626
68	0xbca633a1	-0.02028829
69	0x37a8fb70	2.0144245e-05
70	0xbca23f4d	-0.019805575
71	0x3a396a78	0.0007073055
72	0xbcaa173c	-0.020763032
73	0xbca327be	-0.019916411
74	0x3c8663f2	0.01640508
75	0xbbc9e0ec	-0.006160846
76	0x3c918b50	0.017766625
77	0xbd9847d0	-0.07435572
78	0xbdada443	-0.08478596
79	0xbb1ba6df	-0.0023750586
80	0xbab4e938	-0.0013802415
81	0xba437277	-0.0007455716
82	0x39a88466	0.00032142102
83	0xbaeff559	-0.0018307372
84	0xbd020d4a	-0.031750955
85	0xbc7c6d80	-0.015406966
86	0xbcbb49f3	-0.02286241
87	0x3a10f5dd	0.00055298005
88	0xbd492394	-0.049106196
89	0xbac95d02	-0.0015362801
90	0xbc6c0341	-0.014405073
91	0xbb08c065	-0.002086663
92	0xbc807365	-0.015680024
93	0xbc73942d	-0.014866871
94	0xbc20da47	-0.009817666
95	0xbbae8dad	-0.0053269477
96	0xbc1dcf33	-0.00963192
97	0x3bfcbdcb	0.007713055
98	0x3bb9aa89	0.0056660813
99	0xba9a5ef9	-0.0011777572
100	0xbc6c1360	-0.014408916
101	0x3af7afdd	0.0018897016
102	0xbc70a03a	-0.0146866385
103	0xbc6c48fa	-0.014421696
104	0xbbd047ed	-0.0063562305
105	0xba6da2aa	-0.00090650714
106	0x3b5efc1c	0.003402478
107	0x3c56b63f	0.013104974
108	0xbc7dbfa0	-0.0154875815
109	0xb76d835a	-1.41568835e-05
110	0xbcec5875	-0.028850773
111	0xbd2ee67d	-0.04270028
112	0xbcc984b6	-0.024599414
113	0x3d998b43	0.07497265
114	0xbccb5d9d	-0.024824912
115	0x80046652	-4.04048e-40
116	0x00057e5f	5.04511e-40
117	0x000757eb	6.74387e-40
118	0x80049c8c	-4.235e-40
119	0x0006157c	5.5872e-40
120	0xbcbc2adb	-0.022969654
121	0x3c61fada	0.013792718
122	0xbcae2ec2	-0.02126253
123	0xbcb982f1	-0.022645446
124	0xbcdb0d65	-0.026739785
125	0x3c25e073	0.010124314
126	0xbcd8b8d1	-0.026455315
127	0xbc6972bf	-0.014248549
128	0x3c94616c	0.01811286
129	0xbbf4cbce	-0.0074705845
130	0xbcc014a3	-0.02344734
131	0xbb035bdf	-0.0020043773
132	0xbccf9361	-0.02533883
133	0xbcc2809a	-0.023742963
134	0x3cf6ba10	0.030118018
135	0x3d06e3ad	0.032931972
136	0x3cd1e472	0.025621627
137	0x3be405be	0.0069586923
138	0xbbe67f90	-0.0070342496
139	0xbcb838be	-0.022487994
140	0xbb9e67e4	-0.004834162
141	0xba9b57b0	-0.0011851694
142	0xbb7f250c	-0.0038931994
143	0xbbaa0268	-0.005188275
144	0xbb8fd484	-0.0043893475
145	0x3d48551f	0.048909303
146	0x3d6260be	0.05526804
147	0x3cb3aa1e	0.021931704
148	0x3d110fbd	0.0354154
149	0xbd83a77b	-0.06428429
150	0xbc8a2401	-0.016862871
151	0xba6d05ed	-0.00090417155
152	0xbc95748d	-0.018244052
153	0xbc8c6628	-0.017138556
154	0x3c79cac4	0.015246097
155	0x3d2eb69f	0.04265463
156	0x3d2f5f79	0.04281566
157	0xbbd9d2fe	-0.0066474667
158	0xbd21e4c1	-0.039524797
159	0xbc86f1ca	-0.016472716
160	0xbca7c3a4	-0.02047903
161	0xbc2f1d68	-0.010688163
162	0xbca1411e	-0.01968437
163	0xbca43449	-0.020044463
164	0x3b911ed4	0.004428724
165	0x3befe961	0.007321522
166	0x3c923116	0.017845672
167	0xbaa8e40f	-0.001288535
168	0xbdb5279a	-0.08845444
169	0xbb85baf1	-0.004081123
170	0xbbe93af0	-0.0071176216
171	0xbca2da83	-0.019879585
172	0xbc8aa72c	-0.016925417
173	0x3c7cd215	0.015430947
174	0xbcc174eb	-0.023615321
175	0x8003d755	-3.52753e-40
176	0x80010dae	-9.6743e-41
177	0x0004bcb7	4.3504e-40
178	0x800494f5	-4.20778e-40
179	0x0006add9	6.13378e-40
180	0xb9f250d1	-0.0004621805
181	0xb7bdc7ef	-2.2623657e-05
182	0xb9fc7188	-0.00048149773
183	0xba000d91	-0.0004884834
184	0xb5baa91b	-1.3907296e-06
185	0x32692cb5	1.357255e-08
186	0x36309bd0	2.6316739e-06
187	0xb1deb7e8	-6.481958e-09
188	0xbc1b42fe	-0.009476421
189	0xb18307b6	-3.8134784e-09
190	0xb9b38b25	-0.0003424521
191	0xb7081947	-8.112117e-06
192	0xb9b30596	-0.00034145702
193	0xb9b59923	-0.00034637106
194	0xb85cf9b6	-5.268465e-05
195	0x3532aad9	6.6558783e-07
196	0xb6d79f78	-6.426064e-06
197	0xae9e94a9	-7.2114155e-11
198	0xbb7daae6	-0.00387066
199	0xb6606e12	-3.344267e-06
200	0xb9a01088	-0.00030529895
201	0xb7beb9a1	-2.2736205e-05
202	0xb9afe3d5	-0.0003354835
203	0xb9b8e34e	-0.0003526457
204	0xb8ab1df2	-8.159493e-05
205	0xb73348b4	-1.0686159e-05
206	0x373caec4	1.1246364e-05
207	0xae4881b1	-4.5589924e-11
208	0xbbb3113c	-0.005464701
209	0xb63d7606	-2.8231893e-06
210	0xba13ed7a	-0.0005642992
211	0xb6a4435a	-4.8954216e-06
212	0xba164819	-0.0005732789
213	0xba1be2f6	-0.00059466006
214	0xb760e19a	-1.3403967e-05
215	0x32488e04	1.1673823e-08
216	0x3783a93e	1.5695226e-05
217	0x8e29a416	-2.0909863e-30
218	0xbab5a2bc	-0.0013857703
219	0xb622be00	-2.4250476e-06
220	0xba0d3c55	-0.00053877133
221	0xb6aa2418	-5.0705967e-06
222	0xba151e3f	-0.0005688406
223	0xba162570	-0.00057276245
224	0xb49362db	-2.745281e-07
225	0xaf0bd2a9	-1.2716818e-10
226	0x363a583f	2.7767526e-06
227	0x9d779548	-3.2767354e-21
228	0xbb1b1742	-0.0023664986
229	0xb36809c9	-5.402561e-08
230	0xb1074e0c	-1.968945e-09
231	0xb815a107	-3.5674337e-05
232	0xbabd3af3	-0.0014437124
233	0x3a7c6b03	0.0009628983
234	0xbc271e9c	-0.010200169
235	0x000757b4	6.7431e-40
236	0x34df43b4	4.1586247e-07
237	0x8003a8e0	-3.36087e-40
238	0x8003d153	-3.50598e-40
239	0x0004e55b	4.49619e-40
240	0xbccd842b	-0.025087437
241	0xbd17a28e	-0.03702026
242	0xbcbe52f3	-0.023232913
243	0xbcc627e9	-0.024188953
244	0xbc2ce994	-0.010553736
245	0xbd431d6a	-0.047635473
246	0xbd628704	-0.055304542
247	0xbda22a2d	-0.07918201
248	0xbc83f5cc	-0.016108416
249	0xbd687c92	-0.056759425
250	0xbc94e3e9	-0.018175082
251	0xbce17a2a	-0.027524073
252	0xbc9d5610	-0.019206077
253	0xbc9202c3	-0.017823583
254	0x3d3317c3	0.043723833
255	0xbcf0c5ab	-0.02939113

layer_1.bias f4 [400]
0	0x9aaac25b	-7.062435e-23
1	0xbc127477	-0.0089389
2	0xbc61e266	-0.013786888
3	0xba30b02c	-0.0006740119
4	0xbce12c78	-0.027487025
5	0x800276ff	-2.26359e-40
6	0xbe2e5e64	-0.17028195
7	0xbb6501f8	-0.00349438
8	0xa83456e8	-1.0010852e-14
9	0xbc91c05d	-0.017791921
10	0xbc4df107	-0.012569672
11	0x99d10f8e	-2.1616376e-23
12	0x3dcffd66	0.10155754
13	0xb83fe571	-4.5751633e-05
14	0x3d219507	0.039448764
15	0x91d2c625	-3.3254274e-28
16	0xbcb7ff01	-0.022460463
17	0xb2ca24c2	-2.353261e-08
18	0xbbc686e1	-0.0060585593
19	0xb56c2072	-8.7964065e-07
20	0xbcd5c4fb	-0.026094904
21	0xbcce4e25	-0.025183747
22	0xaddc11e4	-2.501905e-11
23	0xbd032cda	-0.032025196
24	0xb075fabd	-8.94868e-10
25	0xbd489e2f	-0.04897898
26	0xaf421a1e	-1.7653476e-10
27	0xbd0724c5	-0.03299405
28	0xbd175f4e	-0.036956124
29	0xbd0b42ce	-0.033999257
30	0x043cfed8	2.2216312e-36
31	0xacddd851	-6.3052137e-12
32	0xbba80397	-0.005127381
33	0xb9130295	-0.00014019974
34	0xba8f7cf3	-0.0010947272
35	0xa9a2536a	-7.208715e-14
36	0xb8a29f53	-7.7544384e-05
37	0xa1dd5eda	-1.500065e-18
38	0xbb87b3dd	-0.0041413144
39	0xbae3cf37	-0.001738048
40	0xbbaa5ba1	-0.0051989113
41	0x3cb69eb6	0.022292476
42	0xb9a8bd3e	-0.00032184453
43	0xb3f9d683	-1.16339855e-07
44	0xbce3ff1b	-0.027831605
45	0x3e25f544	0.16206843
46	0x3c91da8a	0.017804403
47	0x3a32bdc0	0.0006818436
48	0xbdb245d3	-0.08704724
49	0xbc74d7ff	-0.014944076
50	0xb7db6735	-2.6154894e-05
51	0xbe19a28c	-0.15003413
52	0xbde575bf	-0.11204099
53	0xbd0f4b1b	-0.034983736
54	0x80020c8f	-1.88176e-40
55	0xbccf2369	-0.02528544
56	0xb397b7bd	-7.064907e-08
57	0xb7f968d0	-2.973192e-05
58	0xbc66d318	-0.014088415
59	0x9aa3e6e4	-6.7788244e-23
60	0xbbe75077	-0.0070591527
61	0xbb9fee92	-0.0048807347
62	0xbcdf2252	-0.027238045
63	0xbc307817	-0.010770819
64	0xba4c67c8	-0.0007797447
65	0xb8dec886	-0.00010623135
66	0xbc08adca	-0.008342216
67	0xbd00e6cb	-0.0314701
68	0xbb4295f0	-0.002969142
69	0x3dfa36b3	0.12217464
70	0xb9444595	-0.00018717938
71	0xad957301	-1.699041e-11
72	0x996c6127	-1.2220534e-23
73	0xbd6f3fb2	-0.058410354
74	0xbc12f153	-0.008968669
75	0xbaa204fb	-0.0012361103
76	0xaf0fd311	-1.308076e-10
77	0xbdfd566e	-0.12370001
78	0xbbd952f8	-0.006632205
79	0xbc063db7	-0.008193425
80	0xbd15c0f1	-0.036560956
81	0xbe180a40	-0.1484766
82	0xbd1779eb	-0.036981504
83	0xbc29a5d2	-0.010354476
84	0xb6424c1a	-2.895255e-06
85	0xbc729c1e	-0.014807729
86	0x3d933bbb	0.07189127
87	0xbc5a31ec	-0.013317566
88	0xbbd4a603	-0.0064895167
89	0xbbae0a28	-0.0053112693
90	0xb2399c5c	-1.0803969e-08
91	0xb8c5d508	-9.433372e-05
92	0x3e527ce3	0.20555453
93	0xbc119d80	-0.008887649
94	0xbc5a3a9a	-0.013319636
95	0xb34a0f63	-4.7045784e-08
96	0xb4851250	-2.4786505e-07
97	0xbe306651	-0.1722653
98	0xacd86957	-6.1507843e-12
99	0xb90451c9	-0.00012618968
100	0xb6111b1b	-2.1622461e-06
101	0xbb8463ed	-0.0040402324
102	0xbc618b4b	-0.01376612
103	0xb4bf51cf	-3.5636046e-07
104	0xaa592ea1	-1.928965e-13
105	0xaafc3590	-4.480136e-13
106	0xb1559857	-3.1082175e-09
107	0xbdde5208	-0.1085549
108	0xaa922214	-2.5958456e-13
109	0xbcc60d65	-0.024176309
110	0xbd291015	-0.041275103
111	0xaeb9409d	-8.4243036e-11
112	0x3bb4d23a	0.005518225
113	0xb6d27e5e	-6.273199e-06
114	0x800461c6	-4.02416e-40
115	0xbd784c23	-0.060619485
116	0xa1980d43	-1.0303431e-18
117	0xbca4474a	-0.020053525
118	0xbafae7d2	-0.0019142574
119	0xbd775cba	-0.060391165
120	0xbca8d677	-0.020610077
121	0xbc946c38	-0.018118009
122	0xbbdf32f7	-0.0068114954
123	0x3cb7d38a	0.022439737
124	0xbdcb2503	-0.09919169
125	0xbcbe8cb3	-0.02326045
126	0xba347c3c	-0.00068849674
127	0x925d9c4c	-6.9927955e-28
128	0x3e3ac93b	0.18240826
129	0xb9c109f7	-0.00036819253
130	0xbc7cb6ed	-0.015424472
131	0xbd08551a	-0.033284284
132	0xbd57ae6b	-0.052656572
133	0xbd7c2a98	-0.061564058
134	0xbd4fd3e8	-0.0507392
135	0x9c91b21b	-9.641334e-22
136	0xbe07ba09	-0.1325456
137	0xbd87be6a	-0.066281155
138	0xbb6e902b	-0.0036401849
139	0xbbcbb896	-0.0062170727
140	0xba4b0b46	-0.00077455153
141	0x3de5afca	0.1121517
142	0xbc63e03d	-0.013908443
143	0xbb35d5cd	-0.0027745843
144	0xbdcec41f	-0.10096001
145	0x2139f966	6.3010514e-19
146	0xbb90ff11	-0.0044249375
147	0x8e71250e	-2.9723385e-30
148	0xbcdc73cb	-0.026910683
149	0xb309d5ab	-3.2092128e-08
150	0x3d2da123	0.04239
151	0xafffb30f	-4.6511459e-10
152	0xb901fc96	-0.00012396494
153	0xbd62819d	-0.05529939
154	0xbd30ce9d	-0.04316579
155	0x3db2cf6f	0.08730971
156	0x3e138ba1	0.14408733
157	0xaca41b9a	-4.6642247e-12
158	0xb705e6b0	-7.981129e-06
159	0xbbc1b42c	-0.0059113707
160	0xb923bd09	-0.00015615312
161	0x9a842e34	-5.4668566e-23
162	0x3e1029d3	0.14078455
163	0xbc54a7fe	-0.012979506
164	0xbcfa69b1	-0.030567976
165	0xbc7d3acc	-0.015455913
166	0xbdbdbbd3	-0.0926434
167	0xbc02fdd0	-0.007995084
168	0xbca550bf	-0.020180104
169	0xbe627f87	-0.2211896
170	0xbdb7ec35	-0.089806
171	0x3e39e3a3	0.18153243
172	0xbc97bf79	-0.018523918
173	0xbbc13b46	-0.0058969585
174	0x9e52026a	-1.1117807e-20
175	0x3cc546f8	0.024081692
176	0xbc94a480	-0.018144846
177	0xb5d33f89	-1.5739216e-06
178	0xbb75ff60	-0.0037536249
179	0xbb111cb8	-0.0022142362
180	0xb5459372	-7.360278e-07
181	0xbce6f474	-0.028192736
182	0xbc0435c9	-0.008069464
183	0x02ac809f	2.5346953e-37
184	0xa4b9bd2f	-8.055145e-17
185	0xbc8ec740	-0.017428994
186	0xac475037	-2.832413e-12
187	0xbbd9a635	-0.006642128
188	0xbbcce64d	-0.00625304
189	0xbb8a4c7c	-0.0042205434
190	0x80d20110	-1.9285835e-38
191	0x3d1fab52	0.038981743
192	0xacb4278b	-5.120298e-12
193	0xb54c66e4	-7.614565e-07
194	0x3c4a478d	0.012346161
195	0xbca98dd8	-0.02069752
196	0x39dc1f5e	0.0004198504
197	0xb6d081e4	-6.2140043e-06
198	0xbc457d65	-0.012053822
199	0x3c142812	0.009042757
200	0xbd56de0c	-0.052457854
201	0xbce40e10	-0.027838737
202	0xbc38ea24	-0.011286292
203	0xbca08643	-0.019595271
204	0xbbf2f8b7	-0.007414903
205	0x3de18d23	0.11013248
206	0x9eb592b5	-1.9224797e-20
207	0xbc3c41b9	-0.011490279
208	0xbd40b907	-0.047051456
209	0xae06b7c6	-3.0631296e-11
210	0xbda3e983	-0.08003523
211	0x3d4d2208	0.050081283
212	0xbd7d0bd3	-0.061778855
213	0xbb447e17	-0.0029982382
214	0xbca30c21	-0.019903244
215	0xa18b0efa	-9.422971e-19
216	0xbc8785a1	-0.016543211
217	0xbc1c4b5e	-0.009539453
218	0xb2fe343c	-2.9593245e-08
219	0xbc87e9c4	-0.01659096
220	0xbd0513d8	-0.032489628
221	0x9cd6a562	-1.4204083e-21
222	0xbd0430b3	-0.032273006
223	0xbd3215ea	-0.04347793
224	0xbc0531fe	-0.008129595
225	0xb462a4ad	-2.1107799e-07
226	0xbcde9880	-0.027172327
227	0xbc5ad457	-0.01335629
228	0xa715cf3a	-2.0790242e-15
229	0x06dc85d9	8.2951474e-35
230	0xb29e4f9a	-1.842982e-08
231	0xbda1f159	-0.079073615
232	0xb84c3f5e	-4.8696405e-05
233	0xbc0fcd9f	-0.008777051
234	0x3d7fb135	0.062424857
235	0xbc0e2e7f	-0.008678078
236	0xbb26a1f3	-0.002542612
237	0xb7745cc6	-1.4565134e-05
238	0xb07e4777	-9.250622e-10
239	0xbcda2234	-0.026627637
240	0xbc76cdda	-0.015063727
241	0x3e0b685e	0.13614032
242	0xafc27f9f	-3.5379075e-10
243	0xbcbc99d1	-0.023022564
244	0xb6e6e302	-6.8809613e-06
245	0xbb5c086d	-0.0033574358
246	0xbdd95400	-0.10611725
247	0xb98522dc	-0.0002539371
248	0xbc9acf53	-0.018897688
249	0xae62c6dd	-5.1563077e-11
250	0xbc62b781	-0.013837696
251	0xaf29c7fc	-1.5441509e-10
252	0xbc0f84a5	-0.008759652
253	0xbbb110e8	-0.0054036267
254	0xacda5c2c	-6.206166e-12
255	0xbc548085	-0.012970095

layer_2.weight f4 [300, 400]
0	0x9f636b89	-4.815807e-20
1	0x3ba71f22	0.005100147
2	0xbbaeab69	-0.0053304923
3	0xbabad7ae	-0.0014254951
4	0x3cab1bb5	0.020887235
5	0x000214b5	1.91099e-40
6	0x3cf6f471	0.030145856
7	0xa8a54f91	-1.8353186e-14
8	0x9653983d	-1.7092482e-25
9	0x3b7e7bfc	0.0038831225
10	0x00043f2f	3.90008e-40
11	0x821f7ac6	-1.1716709e-37
12	0x3c0cddd5	0.008597811
13	0x0000c9e1	7.242e-41
14	0x3cc8c4a1	0.024507822
15	0x0062f6e0	9.08844e-39
16	0x3dc788e9	0.097429104
17	0x346e4d28	2.2193547e-07
18	0x3c022597	0.007943532
19	0xb117a5a3	-2.2067546e-09
20	0xb961d789	-0.00021537965
21	0x39047869	0.00012633357
22	0x0006ed67	6.36177e-40
23	0xbc1e5f73	-0.009666312
24	0xa346d356	-1.0778354e-17
25	0x00001f37	1.1198e-41
26	0xb12409e9	-2.3870774e-09
27	0x00019140	1.43941e-40
28	0x3cf5e78d	0.030017639
29	0x3d027394	0.031848505
30	0x8883fd17	-7.943777e-34
31	0x9739a689	-5.998692e-25
32	0x3cb9dc40	0.022688031
33	0x3806d739	3.214853e-05
34	0xb0059d91	-4.8609033e-10
35	0x2b8601d2	9.521778e-13
36	0xba4a27c2	-0.0007711613
37	0x8000e5e7	-8.2473e-41
38	0x35a8d674	1.257939e-06
39	0x358da23c	1.0552535e-06
40	0x3812cd49	3.50003e-05
41	0xbd1a8286	-0.037722133
42	0x36a0c18c	4.7909034e-06
43	0x00021d96	1.94284e-40
44	0x3d0f8785	0.03504135
45	0x3db3ec51	0.08785308
46	0xbcb562ed	-0.022141898
47	0xbe7b2c3e	-0.24528596
48	0xbd9bc5c6	-0.07606082
49	0x3ab952fe	0.0014139113
50	0xb9ce1798	-0.0003930896
51	0x3da1e478	0.07904905
52	0x3d0e124b	0.034685414
53	0xbcb1d06a	-0.021705825
54	0x00017cfc	1.36671e-40
55	0x3d1ae477	0.037815537
56	0x36e32e70	6.770533e-06
57	0xb4aee74d	-3.257832e-07
58	0xbd185ac2	-0.03719593
59	0x80013393	-1.10337e-40
60	0x3862af1a	5.4045675e-05
61	0x3b335116	0.0027361563
62	0xbc1d685f	-0.009607404
63	0x000306e6	2.77981e-40
64	0x1359ab12	2.7473595e-27
65	0xb8402122	-4.5807225e-05
66	0x80070228	-6.43622e-40
67	0x3cd1282e	0.025531854
68	0xbd05ac23	-0.032634865
69	0xbce11f59	-0.027480768
70	0x24d82acd	9.3747575e-17
71	0x80033f53	-2.98223e-40
72	0x8001cc69	-1.65164e-40
73	0xbc5f3223	-0.013622793
74	0xa435b3d0	-3.9400426e-17
75	0x3b6a2794	0.0035729157
76	0xb2518cdf	-1.21974315e-08
77	0x3e9bbb32	0.30416256
78	0x399753d1	0.00028863412
79	0xbb586f65	-0.003302538
80	0x3c6f63fa	0.014611239
81	0x3dc4a652	0.096020356
82	0x3cf875d5	0.030329624
83	0xbc6b9b9b	-0.014380361
84	0xaf31f922	-1.6186566e-10
85	0xbb287e67	-0.0025710107
86	0x3e3ac0ae	0.18237564
87	0xbd627d62	-0.055295356
88	0x38130063	3.504789e-05
89	0x3c81966d	0.015818799
90	0x9eeb4a75	-2.4912388e-20
91	0x3b4d75ba	0.0031350688
92	0x3e35bbde	0.17747447
93	0x3afbec7e	0.001922026
94	0x3b632d5c	0.0034664487
95	0xb1c66bdd	-5.774821e-09
96	0x24055861	2.8914638e-17
97	0xbe2652f2	-0.16242579
98	0x88670bfc	-6.952812e-34
99	0x8001fa2f	-1.81584e-40
100	0x0cc376e0	3.0116052e-31
101	0x3b9fdf19	0.0048788902
102	0xbbe3ca06	-0.0069515733
103	0xa7cd9e80	-5.7070776e-15
104	0x26002b80	4.4467874e-16
105	0xa5e159d0	-3.9092138e-16
106	0x8003a8d5	-3.36072e-40
107	0xbd99056e	-0.07471739
108	0x33eed54c	1.1121537e-07
109	0x3d8d5591	0.06901086
110	0x3d93adcc	0.072108835
111	0xb1462397	-2.8833023e-09
112	0x3cc2b3ea	0.02376743
113	0x0000e6c6	8.2786e-41
114	0x8001f4ef	-1.79701e-40
115	0x3d915897	0.07096975
116	0x8000c290	-6.9796e-41
117	0x3bc3e5bb	0.0059783137
118	0x32ade0a7	2.024201e-08
119	0x36acf5e7	5.1546263e-06
120	0x3c41cd5e	0.0118287485
121	0x3c228386	0.009919053
122	0x2841a4b4	1.07493665e-14
123	0xbb489cbd	-0.0030611001
124	0xbc69f96c	-0.014280658
125	0x00036144	3.10399e-40
126	0x33dc4b03	1.0258193e-07
127	0x00023a48	2.04578e-40
128	0x3d6cc031	0.057800476
129	0x36068ec8	2.0050666e-06
130	0x3c3612b0	0.011112854
131	0xbc35ad7f	-0.011088728
132	0x3da22405	0.079170264
133	0x3e1efb2d	0.15525503
134	0xbc912fd1	-0.017722996
135	0x80028ff0	-2.35306e-40
136	0x3d340e3b	0.043958884
137	0x3d5d1d9b	0.053983312
138	0x37bfef0b	2.2880287e-05
139	0xbad8a614	-0.0016528987
140	0xb07365bd	-8.8547464e-10
141	0x3d46b64c	0.048513696
142	0x3d835037	0.06411784
143	0x80000e6f	-5.178e-42
144	0x3cfc04a3	0.03076393
145	0x8005570d	-4.90405e-40
146	0xbcb058c0	-0.021526694
147	0x8001e3f2	-1.73607e-40
148	0x3d4a3cc6	0.049374364
149	0x80029923	-2.38606e-40
150	0xbd066f0e	-0.032820754
151	0x27f85a3f	6.8931673e-15
152	0x00016306	1.27358e-40
153	0xbc6bea7e	-0.014399169
154	0x3d9a5a51	0.07536758
155	0x3ce8310c	0.0283437
156	0x3e151fa8	0.14562857
157	0x00008b28	4.992e-41
158	0xb1c75440	-5.8012404e-09
159	0x3c945874	0.018108584
160	0xb7261219	-9.898585e-06
161	0x80025f6c	-2.17902e-40
162	0xbed130c4	-0.40857518
163	0xbc09d653	-0.008412915
164	0x8000d96c	-7.7996e-41
165	0x3a81c144	0.0009899517
166	0xbccaa271	-0.024735661
167	0x3cabde20	0.02097994
168	0xb7a874a9	-2.0081485e-05
169	0xbdcbf11b	-0.099580966
170	0xbc882932	-0.016621206
171	0x3dd9946b	0.106240116
172	0x3e12b23d	0.14325805
173	0x3c9330f8	0.017967686
174	0x8002694a	-2.21442e-40
175	0x3e1c62e0	0.15272093
176	0xba7cea28	-0.0009647929
177	0xa679c296	-8.665294e-16
178	0x3ca543fc	0.020174019
179	0x3b438a1a	0.0029836954
180	0x33a09aa5	7.47871e-08
181	0xbcd86543	-0.026415473
182	0x3a2b3f06	0.00065325235
183	0x800312a4	-2.82193e-40
184	0x0002d617	2.60472e-40
185	0xbc7be7e9	-0.015375116
186	0x850d0028	-6.629817e-36
187	0x3988407a	0.0002598798
188	0x3d02d739	0.031943534
189	0x3b47d731	0.0030493254
190	0x93b2bc39	-4.511912e-27
191	0xbd3efa97	-0.0466257
192	0x90a43b8a	-6.477833e-29
193	0x312a386d	2.477033e-09
194	0x3c7e155a	0.01550802
195	0x3dc4dfa1	0.09612966
196	0x3e474671	0.19460465
197	0xb335e3f8	-4.2349683e-08
198	0xbbe05dcb	-0.0068471185
199	0x3e135f62	0.14391854
200	0x3c9d0804	0.019168861
201	0x3dc04485	0.09388069
202	0x3c6ad787	0.014333612
203	0x3cd6ac91	0.026205333
204	0x000c899e	1.151394e-39
205	0x3e023f0f	0.12719367
206	0x8f09bb3c	-6.7906815e-30
207	0x80054cbc	-4.86705e-40
208	0x3e6d4780	0.23171806
209	0x8006c858	-6.22883e-40
210	0x3e3de060	0.18542624
211	0x3d03e05a	0.03219638
212	0x3e3bbec9	0.18334498
213	0x3238ef54	1.07646265e-08
214	0x3bfb24ab	0.0076642833
215	0x0000b579	6.51e-41
216	0x3bce0785	0.0062875175
217	0x3cc3efc8	0.023918048
218	0x00048086	4.13448e-40
219	0x3be402fd	0.006958364
220	0x3dcb02c1	0.09912635
221	0x04995af6	3.605366e-36
222	0x39f9241e	0.0004751989
223	0x3c206bf5	0.009791364
224	0x3d8c31c1	0.06845427
225	0xa9cbd60d	-9.052143e-14
226	0x9d3a59af	-2.466326e-21
227	0xba089f76	-0.000521175
228	0x80026bce	-2.22344e-40
229	0x8003cad9	-3.48275e-40
230	0x0000b090	6.3339e-41
231	0x3cfc13fd	0.03077125
232	0x3576895f	9.184204e-07
233	0x3b8095ed	0.0039241225
234	0xbb2a6de5	-0.0026005444
235	0xbb7a8d6d	-0.003823127
236	0xab5124a6	-7.4302576e-13
237	0x387f48e4	6.0864622e-05
238	0x00039627	3.29371e-40
239	0xbbc2b77f	-0.0059422846
240	0x3c83d380	0.016092062
241	0x3ce939cf	0.028469948
242	0x27f1dba1	6.712906e-15
243	0xb9ad42b3	-0.00033046826
244	0xaffdd01e	-4.6168308e-10
245	0xbe20d1e8	-0.15705073
246	0xbd69cd24	-0.057080403
247	0xbe7f5b1f	-0.24937104
248	0x3ccbfdeb	0.024901351
249	0x350fbb7f	5.3544494e-07
250	0x389397e8	7.037801e-05
251	0x24a6a32e	7.226746e-17
252	0xbda49a78	-0.08037275
253	0x3cab6065	0.020919988
254	0xaccc8106	-5.812353e-12
255	0xbb706ff9	-0.0036687835

layer_2.bias f4 [300]
0	0xbea33038	-0.31872725
1	0xbdaf62c4	-0.0856376
2	0xbd96e2fe	-0.07367514
3	0xbcc6900d	-0.02423861
4	0xbe8e2688	-0.27763772
5	0xbce63ee1	-0.028106155
6	0xbe6d61c6	-0.23181829
7	0xbe5789ae	-0.21048614
8	0xbe588f33	-0.21148376
9	0x3d32d62a	0.043661274
10	0x3d944350	0.07239401
11	0xbce551eb	-0.027993163
12	0xbda55b41	-0.08074046
13	0xb496364c	-2.7979183e-07
14	0xbe9262b6	-0.28590935
15	0xbdbef06c	-0.093232006
16	0xbd983f92	-0.07434
17	0xbae94583	-0.0017797205
18	0xbe859072	-0.26086766
19	0xb4bb4c9d	-3.4887208e-07
20	0xbcf1abcb	-0.029500863
21	0xbd3aadfa	-0.045576073
22	0x3cd3e4ac	0.025865875
23	0xbcde86ae	-0.02716383
24	0xbb5aa54f	-0.0033362692
25	0x3c3b0f1b	0.011417176
26	0xbdd84bcf	-0.10561334
27	0xbe28f4da	-0.16499653
28	0x3e82441f	0.25442597
29	0xbc8da0a9	-0.017288523
30	0xa3248983	-8.919577e-18
31	0xbece448a	-0.40286666
32	0xbe67612d	-0.22595663
33	0xbb786154	-0.003789981
34	0xbdbcbcfc	-0.092157334
35	0xbea321ee	-0.31861824
36	0xbe0fcf83	-0.14044003
37	0xbe839ec6	-0.25707072
38	0xbe478c50	-0.19487119
39	0xbe1a0b43	-0.15043359
40	0xbd8f68ed	-0.07002435
41	0xbe3c4e57	-0.1838926
42	0xbcde8efe	-0.027167793
43	0xbc5e5383	-0.013569715
44	0xbd6b20ac	-0.057404205
45	0xa86b84ff	-1.30739595e-14
46	0xbd1dacdc	-0.03849493
47	0xb1380b61	-2.6781992e-09
48	0xbda07530	-0.07834852
49	0xbe11ca6f	-0.14237379
50	0xbdd0f8bc	-0.10203692
51	0xbcab7996	-0.020932
52	0xbdb1432d	-0.08655391
53	0xbdd35fae	-0.10320984
54	0xbd9b4a05	-0.075824775
55	0xbcd5a987	-0.026081813
56	0xbc95e059	-0.018295454
57	0xbdaef4e9	-0.08542807
58	0x3d3be6ac	0.045874283
59	0xbb0a960d	-0.0021146566
60	0xbd436d84	-0.047711864
61	0x3cb7c643	0.022433406
62	0xbd9042a5	-0.070439614
63	0x3cf3b278	0.029748186
64	0x3c1b38d3	0.009473997
65	0xbe8413a7	-0.25796244
66	0xbc74a962	-0.014932962
67	0xbd35d8d0	-0.04439622
68	0x3db0ed07	0.086389594
69	0xbd9d6c8a	-0.07686718
70	0xbd4aff34	-0.049559787
71	0xbde1309d	-0.109956004
72	0xbad8795c	-0.001651566
73	0xbc9747ee	-0.018466916
74	0xbd508aa1	-0.050913457
75	0xbdccc64d	-0.0999876
76	0xbb98896a	-0.004655053
77	0x3bb58c55	0.0055404105
78	0xbc93a6af	-0.018023817
79	0xbc62d130	-0.0138438195
80	0x3c71f5d2	0.014768081
81	0xbe2b66a3	-0.16738372
82	0xb256e70e	-1.2508975e-08
83	0xba6c9589	-0.0009024968
84	0xbad2d694	-0.0016085678
85	0xbdc21d7a	-0.094782785
86	0xbc6dd687	-0.014516479
87	0xb61d93a1	-2.3480754e-06
88	0xbe72c3e9	-0.23707546
89	0xbbddb7ce	-0.006766296
90	0xbbcb89ea	-0.006211509
91	0xba294e04	-0.00064584636
92	0xbdad7efa	-0.084714845
93	0xbd3649ef	-0.044504102
94	0xbe004dc9	-0.12529673
95	0x3db2fe99	0.08739967
96	0xbd164d4b	-0.036694806
97	0xb529a3a5	-6.319554e-07
98	0xbcd54571	-0.026034089
99	0xbddedbee	-0.10881792
100	0xbd98ab01	-0.074544914
101	0xba417857	-0.0007380298
102	0xbcc0ec52	-0.023550186
103	0xb2261d25	-9.669098e-09
104	0xbd13077f	-0.03589582
105	0xb7ca0fbc	-2.4087603e-05
106	0xbd591486	-0.05299809
107	0xbc254582	-0.010087373
108	0xbdadd5aa	-0.08488019
109	0xbe9ee32f	-0.31032702
110	0xbe3bc167	-0.18335496
111	0xbddfb11c	-0.10922453
112	0xbdccbd40	-0.09997034
113	0x3ccb1c9e	0.02479392
114	0xbd84e92a	-0.06489785
115	0xbd52794e	-0.051385216
116	0xbb8b909f	-0.0042591835
117	0xbba7e8e2	-0.0051241973
118	0xbdda3a32	-0.10655631
119	0x3cd0ba24	0.025479384
120	0x3b580bbd	0.003296598
121	0xbe5787a4	-0.21047837
122	0xb24c3200	-1.18857315e-08
123	0xbe33a275	-0.17542441
124	0xbbda0291	-0.006653138
125	0xbe1af8cf	-0.15133975
126	0x3e41c844	0.18924052
127	0xbb2aec45	-0.002608077
128	0xbeaccb49	-0.33748844
129	0xbdb40403	-0.08789828
130	0xbc03c579	-0.008042687
131	0xb878f5d6	-5.935676e-05
132	0xbe18c999	-0.14920653
133	0xbde2502f	-0.1105045
134	0xbbac0fcb	-0.005250906
135	0xbd0158d6	-0.03157886
136	0xbdcb2df9	-0.09920878
137	0xb2baa244	-2.172704e-08
138	0x3dd1baf8	0.102407396
139	0xbc2df533	-0.010617542
140	0xbe690d28	-0.22758925
141	0xbdb4dc6e	-0.08831106
142	0xb5022053	-4.847581e-07
143	0xbe10c419	-0.14137305
144	0xbceaa36b	-0.028642377
145	0x3e38aec5	0.1803542
146	0xbcc0d518	-0.023539111
147	0xbb1271d6	-0.0022345684
148	0xbc7322e5	-0.0148398625
149	0xbd74456f	-0.05963653
150	0xbe08c1c2	-0.13355163
151	0xb90758dc	-0.00012907706
152	0xbda4d7a9	-0.080489464
153	0xbd93fbb4	-0.07225743
154	0x3db3805e	0.087647185
155	0xbd66200b	-0.056182902
156	0xbe89fd67	-0.26951143
157	0xbead7872	-0.33880955
158	0xbc820f52	-0.015876446
159	0xbd4bd91e	-0.049767606
160	0xb48a5e4f	-2.5773122e-07
161	0xbe4c75ef	-0.19966863
162	0xbdb91469	-0.09037096
163	0xbc4adc45	-0.012381618
164	0xbd943623	-0.07236888
165	0xb7a3aaa7	-1.951058e-05
166	0xbd87dc3f	-0.066338055
167	0xbd9ab206	-0.075534865
168	0xbd91a24e	-0.07111035
169	0xbe50c441	-0.20387365
170	0xbc6350fc	-0.013874289
171	0x3d22c681	0.03974009
172	0xb723ece0	-9.770709e-06
173	0xbd342652	-0.043981858
174	0x3d3579b0	0.044305503
175	0xbda07700	-0.078351974
176	0xbd77c9d8	-0.060495228
177	0x3d60d45e	0.05489003
178	0xbe1ba2bf	-0.15198801
179	0x3c9be0ee	0.019028153
180	0xbd88826a	-0.066654995
181	0xbe0a70af	-0.13519548
182	0xbdc62518	-0.09675044
183	0xba78f519	-0.00094969716
184	0xbe4c41f6	-0.19947037
185	0xbccbed06	-0.024893295
186	0xbca9bdfa	-0.02072047
187	0xbd6c0564	-0.05762233
188	0xbbcc5725	-0.0062359744
189	0xbcdbf93a	-0.026852239
190	0xbdff1bbd	-0.124564625
191	0xbd434062	-0.047668822
192	0xbe51c9bd	-0.20487113
193	0xb71a9596	-9.2139435e-06
194	0xbb869299	-0.0041068313
195	0xbd83a0ff	-0.06427192
196	0xbd9d4ebd	-0.07681034
197	0xbe8224be	-0.25418657
198	0xbe0df9de	-0.13864848
199	0x3c01175c	0.007879104
200	0xbcd584c2	-0.02606428
201	0xbe540fcf	-0.20709155
202	0xbad39818	-0.001614335
203	0xbe698a56	-0.22806677
204	0xbcbceea4	-0.023063011
205	0xbc654e98	-0.013995789
206	0xbe595c7d	-0.21226688
207	0xbc75a135	-0.014992048
208	0xb72a2b42	-1.0142861e-05
209	0x3c7de590	0.0154966265
210	0xbd9215c9	-0.071330614
211	0xbcb3fdbd	-0.021971578
212	0xbd65665d	-0.056005824
213	0xbc841886	-0.016124975
214	0xbb954775	-0.0045556375
215	0xbe7fff06	-0.24999627
216	0xbc560596	-0.013062855
217	0x3de5bae2	0.11217286
218	0x3d8b7f13	0.06811347
219	0xbd9db8f9	-0.07701296
220	0xbd78bc1e	-0.060726278
221	0xbd258095	-0.04040583
222	0xbde87435	-0.1135029
223	0xbcb5c6c6	-0.02218951
224	0xbd39b1de	-0.045335643
225	0x3d0ae256	0.033907257
226	0xbd217f0c	-0.039427802
227	0xbd5a0f26	-0.053237103
228	0xbcbbb99f	-0.02291566
229	0xbc06ea2f	-0.008234545
230	0xbe231f48	-0.15929902
231	0x3d864830	0.065567374
232	0x3e561177	0.209051
233	0xbba1dd53	-0.004939714
234	0xbea3ab97	-0.3196685
235	0xbdbb186d	-0.09135518
236	0xbdb24a83	-0.08705618
237	0xbdea4305	-0.11438564
238	0xbd1b165b	-0.037863117
239	0xbebfb928	-0.3744595
240	0xbd413f59	-0.047179554
241	0xbdb745fa	-0.08948894
242	0xb41095ad	-1.3465497e-07
243	0xbc0fdf91	-0.00878133
244	0xbe3c7738	-0.18404853
245	0xbc4fd6a0	-0.012685448
246	0x3db654a6	0.08902864
247	0xbaee40e9	-0.0018177304
248	0xbe96753f	-0.29386327
249	0xb821351c	-3.8434853e-05
250	0xbe7841a1	-0.24243785
251	0xbce58974	-0.028019644
252	0xbbcfddad	-0.0063435645
253	0xbe504561	-0.20338966
254	0xbe689a2d	-0.22715063
255	0xbd9895ab	-0.07450422

layer_3.weight f4 [6, 300]
0	0xbee826bf	-0.4534206
1	0xbc67ec6b	-0.0141554875
2	0x3baf8209	0.0053560776
3	0x3c969d68	0.018385604
4	0x3e3b59cc	0.18295974
5	0x3cb12acd	0.021626854
6	0xbe96b262	-0.2943297
7	0xbe69e9e3	-0.22843127
8	0xbecca1b8	-0.39967132
9	0x3c0e5210	0.008686557
10	0xbc74e6dc	-0.014947619
11	0xbee064d0	-0.43826914
12	0xbde390b8	-0.11111587
13	0xba5021b5	-0.0007939593
14	0x3e88ccfd	0.26718894
15	0x3cbdd931	0.023174854
16	0xbf00e312	-0.5034648
17	0x3d8ed95a	0.0697505
18	0x3bbf0007	0.0058288607
19	0x3c557671	0.013028727
20	0xbc5c8cde	-0.01346132
21	0xbdad9240	-0.084751606
22	0x3da56e00	0.080776215
23	0xbdac3b18	-0.08409709
24	0xbe1f99e5	-0.1558605
25	0x3dafe304	0.08588222
26	0xba9453c9	-0.0011316474
27	0xbeb31197	-0.34974357
28	0x3d10e416	0.03537377
29	0xbc9da418	-0.019243285
30	0xba8eb08e	-0.0010886358
31	0x3d540f5a	0.051772453
32	0xbe7aa674	-0.2447756
33	0x3bb8ed0c	0.0056434926
34	0x3db447c1	0.088027485
35	0xbeb34d02	-0.3501969
36	0xbccf7ea2	-0.025328938
37	0xbd9d2889	-0.07673747
38	0xbea7f890	-0.32806826
39	0x3e811700	0.2521286
40	0x3cd555f8	0.02604197
41	0xbe272ca0	-0.16325617
42	0xbcfb503b	-0.030677905
43	0xbd6fea9d	-0.058573354
44	0x3db84b7f	0.08998775
45	0x2865eda6	1.2763585e-14
46	0x3e0d1ffb	0.13781731
47	0xb6b99a3d	-5.5313853e-06
48	0x3c7521a4	0.014961634
49	0x39fe0c32	0.00048455741
50	0x3eb38bc4	0.3506757
51	0xbd26073a	-0.040534236
52	0xbdd73758	-0.10508603
53	0xbe7b1708	-0.24520504
54	0xbd5febcd	-0.054668237
55	0x3ca4d202	0.02011967
56	0xbdffceed	-0.1249064
57	0xbd331758	-0.043723434
58	0xbe4bb403	-0.19892888
59	0xbc79b4c6	-0.015240854
60	0x3da0a674	0.078442484
61	0xbd7a5962	-0.0611204
62	0xbf0956ac	-0.53647876
63	0xbd8db6b3	-0.06919613
64	0xbe298c87	-0.16557513
65	0x3c9aaf25	0.018882344
66	0x3c8d6e00	0.017264366
67	0xbd8100fb	-0.06299015
68	0x3de2fe47	0.11083656
69	0xbe962fe7	-0.29333422
70	0x3d42460a	0.047430076
71	0xbe8805bb	-0.26566872
72	0x3b351d2e	0.00276358
73	0xbd3d418c	-0.04620509
74	0x3cb5e9ad	0.022206152
75	0xbc162d24	-0.009166036
76	0x3c8e9052	0.017402802
77	0xbc8cfd18	-0.017210528
78	0xbe6bb072	-0.23016527
79	0xbc2ba3fa	-0.010476107
80	0xbe38234a	-0.17982212
81	0xbe89c0d0	-0.26904917
82	0xbc01acb8	-0.0079147145
83	0x39d13a58	0.00039907056
84	0x3d3a48be	0.04547953
85	0xbca8d880	-0.020611048
86	0xbdab047b	-0.08350464
87	0x3be77275	0.007063205
88	0x3e3bdee0	0.18346739
89	0x3c228890	0.009920254
90	0xbcda0c43	-0.026617175
91	0x3c8b2f0b	0.016990205
92	0x3f50ef83	0.81615466
93	0xbda160ee	-0.07879816
94	0x3bc7580b	0.0060834936
95	0xbee8a748	-0.45440125
96	0x3d298100	0.04138279
97	0x3b507f8d	0.0031814307
98	0xbe37a286	-0.17933092
99	0x3d4c2522	0.0498401
100	0xbe333a5f	-0.17502736
101	0xbd1d0701	-0.038336758
102	0x3caa6b62	0.020803157
103	0xb7a84867	-2.0060876e-05
104	0x3cb38d46	0.02191795
105	0xbc91e6ab	-0.017810186
106	0xbd561a6d	-0.052271295
107	0x3cbd4bba	0.023107398
108	0x3daf7248	0.08566719
109	0xbc84a62e	-0.016192522
110	0xbea729ec	-0.3264917
111	0x3ba9a166	0.005176711
112	0x3e92339c	0.28555
113	0x3c00b3d9	0.007855379
114	0xbbe14f4f	-0.0068759094
115	0x3e58975c	0.21151489
116	0xbbac3da5	-0.005256372
117	0xbc00cc70	-0.007861242
118	0x3e4b13ba	0.19831744
119	0x3e48ba17	0.19602238
120	0xbd7b91aa	-0.061418213
121	0x3d74242c	0.05960481
122	0xb923dc22	-0.00015626897
123	0xbee14b12	-0.44002587
124	0xbe0ecb03	-0.1394463
125	0xbd9ceb74	-0.076620966
126	0x3db3c6f2	0.0877818
127	0x3c61b3eb	0.013775806
128	0xbe133662	-0.14376214
129	0x3d59e337	0.053195205
130	0xbdf58bd2	-0.11989559
131	0x3b190517	0.002334898
132	0x3e7c5ff2	0.24645975
133	0xbd3ea740	-0.04654622
134	0x3e131786	0.14364442
135	0x3bd09def	0.0063664834
136	0x3c33414c	0.010940861
137	0xb9151b2c	-0.0001421987
138	0x3d13708d	0.03599601
139	0x3d2ce4ae	0.042210273
140	0xbd4b80f3	-0.049683522
141	0x3d04c986	0.03241875
142	0xb7001291	-7.633717e-06
143	0x3d32ac1f	0.04362118
144	0xbd153847	-0.036430623
145	0x3d2c1ad5	0.042017777
146	0xbca2365d	-0.019801313
147	0xbc5df815	-0.013547917
148	0x3d82c2e1	0.063848265
149	0x3d6c43c6	0.05768182
150	0xbf2898e4	-0.6585829
151	0xb2f510e2	-2.8529431e-08
152	0x398093e7	0.00024524258
153	0xbe6bc415	-0.23024018
154	0xbe005e91	-0.12536074
155	0xbd1ea70d	-0.03873353
156	0xbd2b5994	-0.041833475
157	0x3f37cb33	0.7179443
158	0x3d694521	0.056950692
159	0x3cfd7b44	0.030942567
160	0xbaff670c	-0.0019485666
161	0x3da69a0f	0.08134853
162	0x3cdfcb87	0.02731873
163	0xbcee1b88	-0.029065862
164	0xbdae80fd	-0.08520696
165	0xbb64ba03	-0.003490091
166	0xbd916245	-0.070988216
167	0xbf567e34	-0.8378632
168	0x3cad23c7	0.021135224
169	0xbc057a29	-0.008146801
170	0xbc404b0c	-0.011736643
171	0x3d991ef5	0.07476608
172	0x3c2382f3	0.009979951
173	0xbe4f1257	-0.2022184
174	0xbd740bc2	-0.059581526
175	0x3dac983a	0.084274724
176	0xbd7e131d	-0.062029947
177	0xbeeee97b	-0.46662506
178	0x3f0689e3	0.5255415
179	0x3d39a0f8	0.045319527
180	0xbd30de1a	-0.043180563
181	0xbc72e8ac	-0.014825981
182	0x3df2f8d8	0.118638694
183	0xbbdebc29	-0.006797333
184	0x3e41aacb	0.18912809
185	0xbd0fc55d	-0.03510033
186	0xbcd3388d	-0.025783801
187	0x3e9d5bda	0.3073414
188	0x3d17ebef	0.03709024
189	0x3bf505b0	0.0074774846
190	0xbd099e41	-0.03359819
191	0x3e29a23a	0.16565791
192	0xbe8ad4d1	-0.2711549
193	0xba162bff	-0.0005728602
194	0xba120194	-0.0005569693
195	0x3ddfa506	0.109201476
196	0xbe3239da	-0.17404881
197	0xbef3ac4d	-0.47592393
198	0x3eaaed45	0.33384147
199	0x3e0adfc5	0.13561924
200	0x3c346a5f	0.011011689
201	0x3d13bda5	0.03606953
202	0x3afb84e5	0.0019189386
203	0xbc0d5ad4	-0.008627612
204	0x3caf21a4	0.021378346
205	0xbc0f0b93	-0.008730787
206	0x3f7c455e	0.98543346
207	0x3b718748	0.0036854316
208	0x3c3cf6f3	0.011533487
209	0xbdd6a40e	-0.1048051
210	0x3e455010	0.19268823
211	0xbda2ad94	-0.07943264
212	0x3df41d29	0.11919624
213	0xbdd3c85d	-0.10340951
214	0x3c785bde	0.015158622
215	0x3de7aaf6	0.11311905
216	0xbd0675cf	-0.032827195
217	0xbd779041	-0.060440306
218	0xbe660976	-0.22464547
219	0xbdf0e3b1	-0.11762179
220	0xbc8b4055	-0.01699845
221	0xbcaf4630	-0.021395773
222	0xbf07eb94	-0.5309384
223	0xbbf4b228	-0.007467527
224	0x3e589264	0.21149594
225	0xbdfe6a75	-0.12422649
226	0xbe056a18	-0.13028753
227	0xbdb22f14	-0.08700386
228	0x3c2a2e69	0.010387042
229	0x3ca7b736	0.020473104
230	0xbe79d65f	-0.24398182
231	0xbc795ddd	-0.015220133
232	0xbd9b6ff9	-0.075897165
233	0xbd8e46d8	-0.06947106
234	0x3eaffb61	0.34371474
235	0xbe56798a	-0.20944801
236	0xbc1fbfff	-0.009750365
237	0xbf07b58d	-0.530114
238	0xbdcfd26b	-0.10147556
239	0xbe01af01	-0.12664415
240	0x3dc8690e	0.097856626
241	0x3dc829ce	0.097735986
242	0xba88b61b	-0.0010430248
243	0x3c5fadfb	0.01365232
244	0xbf3d6832	-0.73987114
245	0x3c92b8a9	0.017910318
246	0xbd49828c	-0.049196765
247	0xbd74ee01	-0.05979729
248	0xbe614a2b	-0.22000949
249	0xbac23d63	-0.001481932
250	0x3d0c4c7e	0.034252636
251	0xbd9da7f8	-0.07698053
252	0x3d879b7f	0.066214554
253	0x3ea149e5	0.3150169
254	0xbd8c3c01	-0.06847382
255	0x3d5896ac	0.052878067

layer_3.bias f4 [6]
0	0xbd04246b	-0.032261293
1	0xbb395665	-0.0028280255
2	0xbd94ced5	-0.072660126
3	0xbc058732	-0.008149909
4	0x3ceff8ed	0.029293502
5	0x3f3fb472	0.7488471
