models/all_td3/TD3_TradingEnv9_pred_robust_42_100_actor.pth (torch, 588319 bytes, 6 tensors)

layer_1.weight f4 [400, 60]
000000 b7 9a 20 3d 35 b1 49 bc 6a d2 1b 3d 89 a6 22 3d
       0.039210048 -0.012310316 0.038042463 0.0397096
000010 aa 49 08 3e 2e 03 ce bd 0c 20 13 3e 50 1c 4f be
       0.1330935 -0.100592 0.14367694 -0.20225644
000020 57 e3 59 3c db 30 13 bd a4 6a 80 3c a1 c3 56 3d
       0.013298831 -0.035935264 0.01567585 0.05243266
000030 2a 4a c7 3c 53 e6 82 3c b7 89 93 bd 92 5c 14 3d
       0.024327356 0.015978968 -0.072040014 0.036221094
000040 de bd 12 bd dd 23 e9 3d 04 f8 15 bc 02 5f 5f 3d
       -0.035825603 0.113837935 -0.00915337 0.054533966
000050 01 67 05 bd 58 68 b3 3d f1 c0 fd bc af a5 04 bd
       -0.032568935 0.08760136 -0.03097579 -0.03238457
000060 18 40 f5 3d af c3 2c bb 87 3a 0f 3d 05 51 0e 3e
       0.119751155 -0.0026361754 0.034967925 0.13898094
000070 f6 e4 82 bb f8 6d fe 3c 33 22 a5 3c 83 a1 ee bc
       -0.0039945794 0.031058297 0.020157909 -0.02912975
000080 5c 6f 9c 3c f0 58 9b 3c bf 1e d0 3d 95 4a dc 3d
       0.019096069 0.018963307 0.10162114 0.10756413
000090 cd 3d bf 3d fc 86 0d bd 5a bf 90 bc 8c a8 77 3d
       0.093379594 -0.03455256 -0.017669369 0.060463473
0000a0 ca b0 0a 3d b2 81 37 bc 84 3a 36 3d 9f 8f 0e 3d
       0.033860005 -0.011200355 0.0444894 0.034804936
0000b0 60 ed 07 be 3c b2 0d 3c d5 05 c2 bd 8e 3b e1 3c
       -0.13274145 0.008648451 -0.094737686 0.027494218
0000c0 d0 b5 50 bc 88 21 34 3d 14 3d 78 bb 17 95 ed ba
       -0.01273866 0.04397729 -0.0037878202 -0.0018126097
0000d0 90 c1 76 3c 88 f0 46 3d f1 ea a0 3c 02 aa 19 80
       0.015060797 0.048569232 0.019643279 -2.356875e-39
0000e0 8e 50 1b 00 06 c9 a3 80 07 e4 5e 00 43 54 3b 80
       2.508456e-39 -1.50413e-38 8.714337e-39 -5.448522e-39
0000f0 1e a7 ab 3d a2 5d 32 bc 6e 63 06 3e ab 35 8e 3d
       0.083814844 -0.010886582 0.13123867 0.0694383
000100 3d db 08 bd 44 c9 c3 3c 5d 31 0f be eb 51 2d 3c
       -0.033412207 0.023899682 -0.13983674 0.010578613
000110 c4 fa 77 bd eb 6f a7 bc 96 7c 53 3e 2d 94 44 3d
       -0.060541883 -0.020439109 0.20652995 0.047992874
000120 b5 12 55 3e 02 bd 0c 3e c9 63 94 3d 0a e5 e0 3d
       0.20807917 0.13743976 0.07245595 0.10981186
000130 5a 23 a6 3d 5d 2f 8f 3d 0e c4 46 bd 6b 2f 98 3c
       0.081122115 0.06991456 -0.048526816 0.018577298
000140 7c a4 a6 3d ed 90 92 3d 3b 82 18 3e b5 96 b5 3d
       0.08136842 0.07156549 0.14893429 0.08866636
000150 1c 75 58 3d d9 85 65 bc a1 91 11 be 0b 0d 7f 3d
       0.05284606 -0.014008963 -0.1421571 0.062268298
000160 9b 25 b3 3c f0 4d b4 bd fb 0a aa 3d 5b 87 10 3d
       0.021868518 -0.08803928 0.083028756 0.035285335
000170 2a 76 ba 3d 6c 72 cc 3d 9b 83 97 3e e7 3c d6 3d
       0.09104569 0.09982762 0.29592595 0.10460835
000180 7a 39 06 3f 91 91 01 bd 9c 8f f9 3a 82 3a 65 bc
       0.5243145 -0.031632964 0.0019039991 -0.013991
000190 5d ea 0f 3c 09 df 86 3c 25 3a 1f 3d 95 2e 4e ba
       0.008783904 0.016463773 0.03887381 -0.00078652176
0001a0 29 53 a7 3e 6e b3 20 3b f0 4e 03 3d 21 ca 23 3b
       0.32680634 0.002452101 0.032057703 0.0024992304
0001b0 31 7a 12 3d f8 a2 40 3d 3d 73 c9 3e e3 38 57 3d
       0.035761062 0.04703042 0.39345732 0.052544486
0001c0 a6 16 f4 3c 99 17 88 be eb 74 dc bc 17 ed 5a 80
       0.029795956 -0.26580504 -0.02691122 -8.350246e-39
0001d0 62 86 10 81 2b 4b 6c 80 c9 07 56 00 86 b9 49 00
       -2.6545038e-38 -9.945199e-39 7.900645e-39 6.770544e-39
0001e0 6d 43 96 bd 5c 8e 73 3f ab 12 10 bd d2 08 10 be
       -0.07337079 0.951391 -0.035174053 -0.14065865
0001f0 41 cf 51 3e 1b 0b 69 3d 38 1b ae bf 57 7f 15 bf
       0.20489217 0.056895357 -1.3602057 -0.5839743
000200 7b 7d 2f 3d dd a5 19 bf d5 cd b4 3e bc 0b 2a 3f
       0.042844277 -0.6001871 0.35313287 0.66424155
000210 ca 97 2e 3e b7 6f b0 3e 79 48 0c 3f 61 ff 85 be
       0.1705009 0.34460232 0.54798084 -0.261714
000220 82 20 b1 bf c3 1b 9e be 56 56 08 bd 5a dd 02 bf
       -1.3838046 -0.30880556 -0.03328546 -0.51119006
000230 75 29 ad 3d 5b df 70 3d 9e cf 51 3e 99 76 56 bd
       0.08455173 0.05880676 0.20489356 -0.052359197
000240 69 25 4b 3f 4d e1 b4 bc 8a ef 40 bf fa 77 5e 3d
       0.7935396 -0.022080088 -0.7536551 0.054313637
000250 e3 4c 10 bc c5 79 6d be b6 2a 6d 3e 1e 0a e6 3e
       -0.008807394 -0.23190983 0.23160824 0.44929594
000260 d7 2c 4d 3e 04 26 e9 3d 61 81 fb 3e ed 39 73 3d
       0.20036636 0.11384204 0.49122146 0.059381414
000270 9a 98 93 bf 77 2d b9 3e 7f 97 fa bb 08 48 22 bf
       -1.1530945 0.361675 -0.0076474543 -0.6339116
000280 51 59 24 3e 2e 3f da 3d 17 c3 b6 3d 6b 74 78 bd
       0.16049697 0.10656582 0.08923929 -0.0606579
000290 ec 61 7c 3e 65 9e 10 3f 6e ed 94 bf 9f 6d 6f be
       0.24646729 0.5649169 -1.1634958 -0.23381661
0002a0 ce c7 05 bd 40 28 29 bf 9a 3f b5 be ea bc 8e be
       -0.03266125 -0.6607704 -0.35400087 -0.27878505
0002b0 4c 0e f9 bc 7d e0 58 3e a7 4e e5 bd c1 df 8e 80
       -0.030402325 0.21179385 -0.11196642 -1.3120908e-38
0002c0 f1 bf 56 80 b2 bc ec 00 c9 8d 51 00 36 00 7f 80
       -7.966708e-39 2.1740868e-38 7.489538e-39 -1.1663184e-38
0002d0 d6 1d 44 bc 8a 8a 23 bd eb 77 26 bc c2 18 50 bc
       -0.011970004 -0.039927043 -0.010160427 -0.012701215
0002e0 0e a2 0b bd 17 31 30 3d 4d 49 73 bc cb f1 f9 bb
       -0.034090094 0.043015566 -0.014849019 -0.007627701
0002f0 f7 76 6a bb 46 b1 1b be f2 ca 82 bc 07 3c b4 3d
       -0.0035776475 -0.15204343 -0.015965912 0.08800512
000300 56 72 bc bc d9 ec 9d bc 2c 59 0c 3e eb ad 03 3e
       -0.023003738 -0.019277977 0.13705891 0.12859313
000310 c3 2a df 3d ca 32 a6 3c c0 1e 04 3b 05 66 b3 bd
       0.10896828 0.02028789 0.002015993 -0.08759693
000320 c0 16 2a 3d f5 e0 07 3e 78 67 36 3d d5 e3 31 3d
       0.041525602 0.13269408 0.04453227 0.04343017
000330 af 99 65 3e b4 65 fd bd a8 65 e0 bd 1e 1d 56 3d
       0.22421907 -0.12372914 -0.109568894 0.052273862
000340 11 3e c8 bb 24 df be bd 34 65 17 3c 15 bb e8 3c
       -0.0061109145 -0.093199044 0.009240437 0.02840952
000350 89 7a 42 3c f3 19 f0 3b 90 6a 1a be db ae b2 3d
       0.011870035 0.007327312 -0.15079713 0.08724757
000360 f0 bc 0c 3e 40 45 b8 bd 7c 9e 83 3c 35 ed 53 be
       0.13743949 -0.089975834 0.016066782 -0.20695956
000370 88 a6 7b bc 14 f4 5c 3d b6 59 38 bc a2 35 6b bc
       -0.015359528 0.05394371 -0.0112518575 -0.014356049
000380 9d 5d 51 be 25 23 01 bd 93 2b d4 bd ad 48 21 3d
       -0.20445867 -0.031527657 -0.103598736 0.03937595
000390 0e 6b 58 bb 39 c0 08 be 9c 33 62 bc 3e 40 91 bb
       -0.0033022794 -0.13354577 -0.01380625 -0.004432707
0003a0 39 69 30 3b c3 39 a8 3c 0a 98 f9 3b 09 8a ea 00
       0.0026918186 0.020535355 0.0076170014 2.1539024e-38
0003b0 9e a4 34 01 44 8d 49 80 c2 ee 71 80 47 48 7f 80
       3.3178886e-38 -6.754668e-39 -1.0463061e-38 -1.1689036e-38
0003c0 ae 0c c4 3c c3 6a aa 3e 20 30 2f bc 3e 71 94 bd
       0.023931827 0.33284578 -0.010692626 -0.07248162
0003d0 f6 66 90 3e 8a fb 83 3e b0 bd 83 bf bf 0d 78 be
       0.28203553 0.25777847 -1.0292263 -0.24223994
0003e0 45 a9 5f be 0e 7a 43 be 74 80 1f be 7d a9 c7 bb
       -0.21841915 -0.19089529 -0.15576345 -0.0060932026
0003f0 e3 09 12 be 1a fb 2a be ca a4 07 be 72 50 25 bf
       -0.14261584 -0.1669735 -0.13246456 -0.64575875

layer_1.bias f4 [400]
000000 57 21 65 3c 59 c4 2d be f2 3a 91 bd 72 51 dd 3b
       0.013985 -0.16969432 -0.07091321 0.006754094
000010 81 55 a1 bd ad 37 bd b1 a9 09 30 3c 04 53 fc bd
       -0.07877637 -5.5069536e-09 0.010744491 -0.123205215
000020 5c e2 3d 3c bd be bc 3b b4 0c 88 3d 52 d2 76 bb
       0.011589613 0.0057600425 0.06643048 -0.0037661982
000030 9d 27 87 bb 90 b8 ef 3a 40 a6 03 3c e7 d8 2b 3d
       -0.0041245953 0.0018289257 0.008035243 0.0419549
000040 4a c0 80 bd c6 e4 08 81 fa 3b 00 3d 4b d9 63 3d
       -0.06286676 -2.5143392e-38 0.031307198 0.05562715
000050 70 83 7e bd 38 99 53 3d 7e 56 0b 3d db ba 1f af
       -0.062137067 0.051659793 0.034018032 -1.452735e-10
000060 2e 23 05 3e 2f 8c 12 8e 1b 9e 36 3b 2d c8 24 3d
       0.13001701 -1.8063385e-30 0.0027865234 0.040229965
000070 81 87 4e 3e ae 3a 16 3d 7a b2 a4 b9 b2 f0 5e 3b
       0.20168878 0.036677055 -0.00031413493 0.0034017977
000080 d6 a0 c5 bd 91 58 45 3d 5f df 66 3c e1 b7 4b bb
       -0.09649818 0.048180167 0.014091342 -0.0031084942
000090 73 47 b5 3b 7e 71 e3 3c d7 03 e0 bd a0 c8 4c bb
       0.005532199 0.027764078 -0.109382324 -0.0031247512
0000a0 50 49 bd b4 25 83 9e ba 0a 28 04 3a 96 e7 48 3c
       -3.5257335e-07 -0.0012093527 0.00050413667 0.012262246
0000b0 7f 61 08 3d d4 19 13 3d 0e b5 da 27 d1 a9 59 bc
       0.033296105 0.035913303 6.0703455e-15 -0.013285116
0000c0 a6 1e 95 b4 84 b0 09 3c 39 c2 b3 bc a5 d8 41 b7
       -2.7775712e-07 0.008403901 -0.021943199 -1.1554138e-05
0000d0 22 d7 28 bb f0 13 c4 3c d7 d7 84 aa b2 6e ee 3d
       -0.0025762995 0.023935288 -2.359768e-13 0.11642207
0000e0 5b 82 84 3c 51 17 8b 3c f6 ad 4d 3d d8 f0 39 3e
       0.01617544 0.016978892 0.05021473 0.18158281
0000f0 47 16 c9 3c c8 84 02 3d 59 fa 1b 3d 27 c1 ea ba
       0.024546755 0.03186491 0.038080547 -0.0017910347
000100 b9 2f ec 3c 9c a0 16 be 65 96 37 3d c0 be 9b 3c
       0.02883135 -0.14709705 0.04482116 0.019011855
000110 09 35 02 bc e9 89 40 bb 55 4e 65 3d 94 67 3e 3d
       -0.007947215 -0.0029379076 0.055982906 0.0464855
000120 93 c5 c9 3e bd 81 fd b9 a2 e4 05 3d b2 73 5e 3d
       0.3940855 -0.00048352583 0.032688744 0.054309554
000130 70 8b fd 90 e0 22 bf 3c 37 61 59 bb 60 38 ea bd
       -1.0000574e-28 0.02333206 -0.0033169517 -0.11436534
000140 23 77 d8 be 9b 2a 02 3e 4c 1b 49 3d ba 35 23 bb
       -0.42278394 0.12711565 0.049098298 -0.002490385
000150 a7 8f 4e be 2b 63 af 3d 39 77 5a 8f 6f ed 05 3c
       -0.20171987 0.08563837 -1.0771191e-29 0.008174284
000160 e4 0c 60 3d 58 5d 23 be 9f d7 07 bd a2 f4 c8 3c
       0.054699793 -0.15953577 -0.033164617 0.024530713
000170 85 e7 96 be e8 17 8f 3b 9b c4 88 bb fd 38 74 3d
       -0.2947351 0.0043668635 -0.004173828 0.05962466
000180 9f 4e 66 3c ad 91 04 ba 1b d4 88 bc 7e 95 82 bb
       0.014056831 -0.0005057108 -0.016702702 -0.003985106
000190 74 b2 11 3e c8 d0 e3 3c 0b 45 18 3e c6 38 72 3c
       0.1422823 0.027809516 0.14870088 0.014784044
0001a0 00 e7 ae bb a5 de df 3b fd b0 64 3e cb 45 52 3a
       -0.005337596 0.006831961 0.2233314 0.0008021264
0001b0 a9 22 36 3d 37 74 1c 3d 0a 87 22 3c 53 2e 81 3c
       0.04446665 0.03819677 0.009919891 0.01576916
0001c0 a9 43 86 3d 1f 53 10 3d 88 71 c5 3e 43 39 9a bd
       0.06555874 0.03523552 0.3856318 -0.07530453
0001d0 2f cf 81 bb 11 33 1e be 97 50 47 bd 09 27 8f ba
       -0.003961466 -0.15449168 -0.04866084 -0.0010921668
0001e0 15 3e a0 3c 60 16 19 3d b4 e9 b2 be 17 e3 30 be
       0.019560853 0.037374854 -0.34943926 -0.17274128
0001f0 fd e0 3c be 00 f0 c4 bb f9 b8 4e 3c 06 c7 68 3c
       -0.18445201 -0.0060100555 0.012617343 0.014207607
000200 17 36 81 3d 7f 7c 16 3d 6c d8 35 3d 8d 64 4e 3d
       0.06309145 0.036739822 0.04439585 0.05038886
000210 8b 10 3f 3d 48 31 8a 3e 58 11 f5 3c 1b cc 73 3e
       0.046646636 0.26990724 0.029915497 0.23808329
000220 e1 6a 93 3c 58 02 0c be 71 f4 91 b6 87 06 43 b9
       0.0179953 -0.13672769 -4.3497935e-06 -0.00018599081
000230 94 51 63 b8 6a d2 69 3d 60 b8 32 3d 96 42 88 3b
       -5.4196993e-05 0.057085432 0.043632865 0.0041583283
000240 3f 63 2c 3b 7c e1 ae bd 2d 84 27 be 4a a3 b9 3d
       0.0026304272 -0.085391015 -0.16359015 0.09064348
000250 38 e1 78 3d 9c 2e 0c bc 62 07 6e be ed 39 30 3d
       0.06076166 -0.008556034 -0.23245004 0.043023992
000260 b2 a2 b5 bb 92 9f 9d be 12 b3 e7 3a 4d 5f e1 3b
       -0.0055430764 -0.30785805 0.0017677268 0.006877816
000270 61 6d 21 be 9d 58 b0 bb 5f ce f1 3d d8 09 90 3b
       -0.15764381 -0.0053816573 0.1180694 0.0043957047
000280 02 8d 6a be c0 0d 90 b0 51 66 06 3d 40 0a d3 3d
       -0.22905353 -1.0481287e-09 0.03281242 0.103046894
000290 e5 9f 3c be f8 ac 0c 3c f1 ab ff ba bd 5e 26 3e
       -0.1842037 0.008586161 -0.0019506199 0.16247077
0002a0 0a dc a6 bd 8d 1e 74 3d 53 0f e5 3c 52 19 dc 3a
       -0.08147438 0.059599448 0.027961409 0.0016792214
0002b0 7c c0 99 bd 2f 51 d0 3e 21 3d b4 3e 2f 1c 2e 3d
       -0.075074166 0.40686938 0.35202888 0.042507347
0002c0 be c6 af 3c 24 6f 2f be 67 25 29 bb 61 dd b8 3c
       0.021457072 -0.1713224 -0.0025809647 0.0225665
0002d0 c3 3b 0d 3e 37 ea d7 3c bb e9 6c be 7e 41 1d 3b
       0.13792329 0.0263568 -0.23136036 0.0023995335
0002e0 5e 9f d4 bd 30 bf 09 3d a3 56 16 3d 4a c2 08 3c
       -0.103819594 0.033629596 0.036703717 0.008347103
0002f0 ec 6d 45 3c 5e 10 de 3d fd c5 d3 3c ec 95 01 be
       0.012050133 0.108429655 0.025851244 -0.12654847
000300 8f 86 56 3d 0c 06 f7 bc b1 a5 4c 3d 4f c3 fd 3b
       0.05237442 -0.03015425 0.049962703 0.00774423
000310 f2 b2 97 b4 05 cd 8d 3d 1e dd b0 bd d3 7a 4d 3e
       -2.8256142e-07 0.0692387 -0.08635925 0.20066385
000320 e2 04 0e b7 9c a0 90 be 3a ab 89 3c bd ea b6 3b
       -8.464996e-06 -0.28247535 0.01680528 0.005582182
000330 2e 50 87 3e 98 3d f5 3e a7 48 01 bb df d3 f8 3d
       0.2642836 0.47898555 -0.0019727142 0.12149786
000340 f7 6b 53 3e 26 9f ef bc be d3 e7 af 72 e6 36 3d
       0.20646654 -0.029250693 -4.2169107e-10 0.044653364
000350 4c 59 84 3b 04 3e e5 3d 32 68 87 3c 98 44 ad be
       0.0040389653 0.11193469 0.016529176 -0.33841395
000360 41 6d 77 bc 36 71 2c 3d bf 1e 5f b9 b1 ef 89 96
       -0.015101732 0.042100154 -0.00021278391 -2.228481e-25
000370 24 10 37 b5 05 39 31 3c 13 cb 44 be b3 5f 06 3d
       -6.81963e-07 0.010816817 -0.19218092 0.03280611
000380 6f 87 b4 bc 43 c7 c8 ba 8d f9 8f 3d a7 bb a6 b7
       -0.022037236 -0.0015318174 0.0703002 -1.9876124e-05
000390 23 98 40 3c e7 b4 39 3d ab 92 8a ac 78 e9 df 3b
       0.011755022 0.045338538 -3.9384793e-12 0.0068332516
0003a0 2e 42 54 3b 5e 0b b6 be ea 07 1f be 51 0b e2 a9
       0.003238808 -0.35555547 -0.15530363 -1.0038379e-13
0003b0 78 28 2b 3d aa 79 22 bd 4b 5a d5 3d 29 80 07 98
       0.04178664 -0.03966681 0.10417613 -1.7513045e-24
0003c0 0b 50 82 bd ef 27 92 bd c4 fd 25 bc 5a 56 f4 3c
       -0.06362923 -0.07136523 -0.010131303 0.029826332
0003d0 84 6e e6 3c 0d fe 22 b9 b0 8d 0d 3d 89 5a c5 b5
       0.02812887 -0.00015544165 0.03455895 -1.4703993e-06
0003e0 55 ca 1b 3c 4a b6 11 3d 84 fe b1 ba 38 bd 57 3e
       0.009508689 0.035574235 -0.001357988 0.21068275
0003f0 ea 3f 1c 3d 00 f6 e5 bc 91 d6 e2 ba 1d 7f fb 3c
       0.03814689 -0.028071404 -0.0017306377 0.03070026

layer_2.weight f4 [300, 400]
000000 e0 c9 0c bc 2c af 9f bb 64 43 13 3d 72 66 2c bc
       -0.008593053 -0.004873177 0.03595294 -0.010522472
000010 e1 d2 7e 3c 98 19 e3 a4 fa 5b c3 bb cd 8a f5 bb
       0.015553207 -9.8488915e-17 -0.005961892 -0.007493353
000020 19 60 93 3b 84 f8 bc bb 3c b8 8e 3c 14 77 20 bb
       0.0044975397 -0.00576693 0.017421834 -0.0024485039
000030 a2 57 30 bd 7b da 15 bc d6 59 dd 37 f5 ab e0 bb
       -0.043052323 -0.009146328 2.6387086e-05 -0.0068564364
000040 70 38 36 3d c7 0c 59 80 d8 79 05 bd 4b 5e 2b bc
       0.044487417 -8.177943e-39 -0.032586902 -0.010459493
000050 f8 83 c5 bc e0 a8 27 bc 4c 5a c0 bb 90 f6 e3 a6
       -0.02411078 -0.010233134 -0.005870139 -1.581812e-15
000060 f4 32 2a bd 7e 77 68 80 5c ca 43 bc 13 6d 66 3d
       -0.0415525 -9.593757e-39 -0.011950102 0.056256365
000070 15 63 b0 3c 21 5e 84 3b da 92 1e 01 37 ce 9e 3a
       0.021531621 0.0040395414 2.9125378e-38 0.00121159
000080 b8 4c 02 bd c7 a4 20 bc 5c 3b 16 bb 05 cd 6e 37
       -0.031811446 -0.009804911 -0.0022923565 1.423364e-05
000090 37 8e 40 bc a5 9e 7d ba 06 f7 66 3c 45 f0 63 bb
       -0.011752657 -0.0009674824 0.014096981 -0.0034780663
0000a0 a0 59 41 80 51 e2 08 ba 35 ee 90 bc 8b 4f 48 3c
       -6.001459e-39 -0.0005221712 -0.017691711 0.012225996
0000b0 76 30 25 bc c7 de 7a bc fe 1a 80 00 57 48 a2 bc
       -0.010082355 -0.015311903 1.1764626e-38 -0.019809885
0000c0 42 c1 00 01 fc ea 7a 3b c4 17 85 bc 30 a2 38 80
       2.3648543e-38 0.0038287034 -0.016246684 -5.20097e-39
0000d0 9b 85 9f ae a3 ef 32 bc e0 af 38 18 77 70 43 bc
       -7.254216e-11 -0.010921392 2.3870237e-24 -0.011928669
0000e0 78 c4 ac 3c 3b a3 8b bc b8 c6 10 bc 96 e7 ab bb
       0.021089777 -0.017045608 -0.008836441 -0.005246113
0000f0 d3 03 92 3b b6 66 93 bc 29 37 0c bc 30 2e 0c b8
       0.0044560223 -0.017993312 -0.008558073 -3.3421617e-05
000100 d1 f7 5f bc 4a 67 17 bc 1d 14 24 3b 25 5b 2a bb
       -0.013669924 -0.009240935 0.0025036403 -0.0025994268
000110 a8 00 89 ba 39 3a 82 ba 69 dd 4a bb 32 e0 69 bc
       -0.0010452466 -0.0009935565 -0.0030954725 -0.014274644
000120 f1 0a 2c bd 4b f2 c5 80 c0 3a d9 3c 00 b8 b6 3c
       -0.042002622 -1.8178511e-38 0.026517272 0.022304535
000130 2d 91 51 80 f0 f3 88 bc f9 8d e4 bb 08 14 fb ba
       -7.490754e-39 -0.016717881 -0.0069749323 -0.001915575
000140 72 02 54 be 41 5f 8f bb cc 47 42 bc 26 0c 84 b8
       -0.20704058 -0.004375369 -0.011857938 -6.296513e-05
000150 bf da e6 3b 66 d2 93 3b 30 df 57 00 b1 75 bc bb
       0.0070451195 0.0045111654 8.069753e-39 -0.0057513346
000160 a0 00 23 3b 5e a5 d8 bb 91 3f d2 bb 47 fb 4c bc
       0.0024872199 -0.00661151 -0.006416269 -0.012511081
000170 03 b3 c1 3c 41 a4 5c b9 24 63 0e 3a f6 ff 4b bc
       0.02364493 -0.00021042024 0.0005431643 -0.012451163
000180 99 b4 4c bb ed 7a 28 80 4c d4 21 81 43 fb 91 3b
       -0.0031235574 -3.717517e-39 -2.9723345e-38 0.0044550016
000190 c4 2f 17 3d 35 95 60 3c 2a 6e aa bd 56 5d bd bb
       0.036910787 0.013707449 -0.083217934 -0.005778949
0001a0 b9 03 9a 80 fa 99 35 ba 00 f9 89 3e 55 9c 1d 3a
       -1.4144002e-38 -0.00069275463 0.26947784 0.000601237
0001b0 7e c0 3b 3c 6b 2f 02 bb f9 f1 44 b9 94 b6 d5 3b
       0.011459468 -0.001986469 -0.00018782158 0.006522009
0001c0 79 31 05 bc 12 7e 28 bc f1 f3 02 bd d9 69 db bb
       -0.008129471 -0.010283964 -0.031970922 -0.0066959676
0001d0 72 f0 02 be 97 e9 18 3d c6 33 34 3c 0e 61 50 3a
       -0.12787035 0.037332144 0.010998672 0.00079490326
0001e0 dd bc 10 00 77 ae c1 3b db 2b 2f bd 7b e4 54 00
       1.53712e-39 0.0059106904 -0.042766433 7.796145e-39
0001f0 0b b4 61 80 37 9b 0e 3b 01 b3 20 3b ab 03 41 bb
       -8.97263e-39 0.0021759996 0.0024520757 -0.002945165
000200 23 1c 0a bb 40 0a 29 bc 43 70 2f 3c b2 bb 07 3c
       -0.00210739 -0.010317385 0.010707918 0.008284496
000210 78 43 02 bc d1 21 11 3d a7 7c a5 bb 3e ca d8 3a
       -0.007950656 0.03543264 -0.00505026 0.0016539765
000220 bc 56 b4 bc bf 50 24 bd a1 53 aa 14 b8 76 23 b9
       -0.022014014 -0.040116068 1.7198599e-26 -0.00015589118
000230 1d 1b 65 00 91 ac 46 bc b5 e4 2a bc 0a bf a5 bb
       9.285112e-39 -0.012126104 -0.010430505 -0.005058174
000240 2c 3a a7 bb 50 e1 3d 3d 94 0c 41 3c 44 33 7b 3b
       -0.00510337 0.046357453 0.011782784 0.0038330117
000250 a1 4a ee bb a9 22 af 3b 53 63 9d 35 d6 b0 83 3c
       -0.00727208 0.005344708 1.1726319e-06 0.016075533
000260 53 69 98 bc 9f 26 33 bd cd cd 1f bc 93 3e ad bb
       -0.01860491 -0.043738004 -0.009753657 -0.0052870004
000270 64 80 b0 3c 1c aa 12 3b 18 fa e9 3c cf 37 7b bc
       0.021545596 0.0022379225 0.028561637 -0.01533313
000280 a2 c3 7f 3b 4d cd 84 80 8b 31 c4 ba b4 da 7f 3d
       0.0039026518 -1.2195934e-38 -0.0014968378 0.06246443
000290 67 ab e0 80 b9 89 52 bb c5 1d 33 34 df 38 a9 3b
       -2.0632639e-38 -0.0032125546 1.6681504e-07 0.0051642503
0002a0 65 8e 88 bc e1 8f b5 bb 92 f3 a9 3c 53 fa 24 3a
       -0.016669462 -0.0055408333 0.020746026 0.0006293405
0002b0 e2 db 0a 30 ea 8a 06 3d 60 8b 1b 3d b5 fb 5b bc
       5.051658e-10 0.032847323 0.037974715 -0.013426711
0002c0 44 aa 0b bc 34 7c 21 bb aa 21 fe a6 3e c6 ed 3a
       -0.008524481 -0.0024640681 -1.7633915e-15 0.0018140746
0002d0 bf 91 5e 3c e2 3a 4d 3b 84 b0 8b be d7 4d 92 bb
       0.013584553 0.0031315614 -0.27283108 -0.0044648456
0002e0 c7 47 dc 3b 84 7d 09 bc 1d 5a e8 bb 38 ec 47 bc
       0.0067224237 -0.008391742 -0.0070908205 -0.012202315
0002f0 72 be 9e bb 8b b4 44 3c 75 80 06 bc bf 4a 1e bd
       -0.00484448 0.012005935 -0.0082093375 -0.038645502
000300 43 44 12 bc 50 d8 8d bc b4 eb 1b 3c 26 bb af 3a
       -0.008927408 -0.01731506 0.009516645 0.0013407215
000310 75 01 4b 00 43 ff 0e 3d 6d 78 96 3b 7a c2 e3 bc
       6.888185e-39 0.034911405 0.0045919926 -0.027802695
000320 04 68 0f 81 4c b3 75 3d 98 99 09 bd 93 bd 10 3b
       -2.633958e-38 0.059985444 -0.033593744 0.0022085651
000330 47 cb a1 3c 12 49 51 3d a3 77 55 39 e3 6b 0f 3b
       0.01975025 0.051095076 0.00020357831 0.0021884374
000340 ce bd 9d bd 6a 65 5a 3d ba 0f 53 00 d3 44 03 3b
       -0.07702218 0.053319372 7.627988e-39 0.0020030036
000350 3f a8 1e 3b 62 80 36 bc cf 03 84 3b cd 55 2d 3d
       0.002420917 -0.011139007 0.0040287743 0.042318154
000360 43 db 8a bc 7d 1e 9c bc 62 78 14 1e 15 fb 55 00
       -0.016950255 -0.019057507 7.859949e-21 7.896088e-39
000370 30 82 4e 80 d3 46 05 bc 68 7c 2a bc 62 e7 71 ba
       -7.209871e-39 -0.008134562 -0.010405637 -0.0009227899
000380 4f 61 62 bc 84 23 93 ba 8d ae 19 bc 0e a2 2a 00
       -0.0138171455 -0.0011225794 -0.009379995 3.915225e-39
000390 bb 36 b6 b9 56 76 d5 b9 45 9e 47 00 8e 0b 01 bd
       -0.00034754522 -0.00040714693 6.577097e-39 -0.03150516
0003a0 0f 27 8a bb 72 09 66 bc c5 e2 0c 00 ab 6f 3f 80
       -0.004216082 -0.014040338 1.183376e-39 -5.825695e-39
0003b0 42 20 18 bc 5a c5 ac 3b 04 21 53 bb e1 ce 83 80
       -0.009285035 0.0052725496 -0.0032215724 -1.2104664e-38
0003c0 ec 4e ae 3b 99 5d 2b 3c a5 dd 12 bc bc b4 e7 bc
       0.005319467 0.010459327 -0.008963977 -0.028284423
0003d0 d7 d3 18 bc 7a 08 ce 38 88 b8 ff bb 92 a5 03 9f
       -0.00932785 9.824424e-05 -0.0078039803 -2.7877286e-20
0003e0 39 69 0c bc eb a6 35 bd e4 75 0a bc 19 4c 6c bd
       -0.008570009 -0.04434864 -0.008450959 -0.05768976
0003f0 2f 45 af bc f5 06 36 3d d3 59 7c 00 be c6 a7 3b
       -0.021395294 0.04444023 1.1419824e-38 0.0051201275

layer_2.bias f4 [300]
000000 03 c3 9e bb 44 93 74 bc 50 3c 89 3c cd 64 6a 00
       -0.0048450246 -0.014927689 0.016752392 9.770723e-39
000010 1a 1a 6a 00 58 a3 70 3d 69 e2 4d be 80 c4 1f a7
       9.743926e-39 0.058749527 -0.201059 -2.2172205e-15
000020 62 0c 2e 3d 3d b6 08 3d 95 37 e3 be 66 9e 2d bb
       0.042492278 0.03337692 -0.44378343 -0.0026492118
000030 2c a3 15 b8 99 01 8d 3c 24 0b 35 3e 93 63 51 3d
       -3.5676334e-05 0.017212676 0.17680031 0.051120352
000040 df 7f 91 bb cc 85 26 be 01 0e bb ba a0 bd 00 be
       -0.0044402923 -0.16261977 -0.0014271141 -0.12572336
000050 5f 2e 3f bd 4b 72 c9 b8 54 21 6d b8 64 24 c0 3b
       -0.046675082 -9.6057156e-05 -5.6536242e-05 0.005863713
000060 8d 49 96 80 f6 b4 b5 9f 01 e9 85 3c 11 3d 05 3d
       -1.380171e-38 -7.6955856e-20 0.016346456 0.03252894
000070 59 f1 c1 be e8 66 8a 88 23 e5 35 be 56 7e bc 3b
       -0.37879446 -8.329766e-34 -0.1776319 0.005752365
000080 fb 68 2d 3b 5b 3f d4 3d 37 40 ba b3 68 06 f9 ba
       0.0026460278 0.103636466 -8.6729806e-08 -0.0018999102
000090 dd 9b de bc 9b 76 4d 3d 11 da 8e be ee 0c a2 aa
       -0.02717393 0.05016194 -0.27900746 -2.8785953e-13
0000a0 76 20 5d be a4 8c 2f be 1d ea f0 ba 27 26 d4 3c
       -0.21594414 -0.17143494 -0.0018380318 0.025897099
0000b0 35 6e 34 3b db 93 2e 3d b9 72 17 be c1 79 eb bc
       0.0027531509 0.042621475 -0.14789857 -0.02874458
0000c0 56 ed c5 b9 27 1b 2f bb 49 e3 b6 3b a8 b8 2b ba
       -0.00037751597 -0.0026719065 0.0055812937 -0.0006550648
0000d0 60 04 59 00 64 8c 9c ba 7f 07 fd bb e9 cc bf 3c
       8.174929e-39 -0.0011943695 -0.007721841 0.023413138
0000e0 1d 1d 6f be 2d 88 7a 3c 7c e1 14 3d 28 8a 4f 3d
       -0.2335095 0.015291256 0.03634785 0.050668865
0000f0 56 03 31 3d f8 a6 17 3b ab 3e 9d b6 e8 ae 61 00
       0.043216072 0.0023140293 -4.68626e-06 8.970788e-39
000100 5b 8d f0 00 eb 21 59 3e c4 83 87 b9 1d cb 0d be
       2.2091228e-38 0.21204345 -0.0002584738 -0.13847013
000110 b1 2d 2d bc 5e b9 f3 3c d4 4b 17 b5 97 0c 80 3b
       -0.010569976 0.029751476 -5.636223e-07 0.003907751
000120 46 a6 7f 3c 70 eb 8b 3e 5f 27 a5 3d 6f 5c 5c bb
       0.0156036075 0.27328062 0.0806415 -0.003362443
000130 21 92 2c bd af 65 33 3c 40 ed 38 a6 34 17 50 bc
       -0.042131547 0.010949536 -6.415936e-16 -0.012700845
000140 d6 6b 62 b1 b3 ac 02 bf 2b 82 a7 b8 84 4c bc bc
       -3.2948626e-09 -0.5104477 -7.987426e-05 -0.022985704
000150 b2 af 87 93 03 3b f5 bd b7 29 11 3b ee e0 aa 3c
       -3.425204e-27 -0.11974146 0.0022150108 0.020859208
000160 e1 82 9b b7 de 2b 8c 3d 0e b6 8b bc dc 9b bd b3
       -1.8538385e-05 0.068443045 -0.017054584 -8.829349e-08
000170 f0 9e 91 3d f8 c9 57 ba 5b 39 ae ba 16 9b aa bd
       0.07110393 -0.0008231695 -0.001329224 -0.083303615
000180 df 52 a6 b8 a9 77 dc 3c 3b f8 4b bc 2d e1 f0 3c
       -7.930933e-05 0.026912527 -0.0124493195 0.029404247
000190 1b d9 50 be c4 b7 8f ba b3 17 46 00 81 ae 68 ba
       -0.20395319 -0.0010964801 6.436986e-39 -0.0008876101
0001a0 b3 53 85 bd 7c 7c 85 3d 97 06 a1 be 37 dc ea be
       -0.06510105 0.06517884 -0.3145034 -0.45871136
0001b0 5b c0 5c aa f2 0b 20 bc 07 4a 5f ac a4 6e 1e 3c
       -1.9606662e-13 -0.009768473 -3.17313e-12 0.0096699335
0001c0 09 d9 83 bd 1f 10 29 bd 59 e4 18 bc 55 c3 8d 90
       -0.064378805 -0.04127514 -0.009331786 -5.591565e-29
0001d0 17 dd 70 be 03 52 00 3c 98 ea 6e b9 27 06 9f 94
       -0.23521839 0.007832053 -0.00022784842 -1.6057324e-26
0001e0 95 76 05 bc 5b e9 90 b9 ca 03 b3 bb d9 3b 0f ba
       -0.008145948 -0.00027639684 -0.005463098 -0.0005463935
0001f0 67 ea a2 3c 09 8f ed 99 8d ad be ba 62 70 10 3c
       0.019887162 -2.4562997e-23 -0.0014547572 0.008815857
000200 c0 f6 3e ba 88 11 e4 3c a1 32 1f 3c c3 be 1b ba
       -0.00072846934 0.02784039 0.009716661 -0.00059412065
000210 32 e3 64 3c 70 91 0c 3d 2a b6 22 bc 51 7a 03 bf
       0.013970183 0.034318388 -0.009931127 -0.51358515
000220 7e 8c 1f 3c e5 14 d1 3c d0 3b bd 3c 4c 49 2f 3d
       0.009738086 0.025522659 0.02309981 0.04279451
000230 3f a9 4c bc 80 c2 c7 ba 11 21 8a bc de 8c 1c be
       -0.012491523 -0.0015240461 -0.01686147 -0.15288112
000240 89 ee f8 bd 53 22 94 3c 4d 80 6c 00 94 86 1d 3a
       -0.12154872 0.018082773 9.964259e-39 0.00060091284
000250 64 0f 41 be 77 55 2c b8 a5 26 53 ba b8 70 2e 3d
       -0.18853527 -4.108759e-05 -0.000805477 0.042587966
000260 7e 7e ef bd 25 2a 55 be 56 f6 9d 3c fa 1a 9d bb
       -0.11694048 -0.20816858 0.019282501 -0.0047944756
000270 2a 58 2f 3c 62 7c 3e 3d af 50 39 b3 e9 be 5c b6
       0.010702172 0.04650534 -4.314705e-08 -3.289368e-06
000280 c7 d6 5e 00 00 3e 1e bd 77 38 eb be 03 13 86 be
       8.709584e-39 -0.038633347 -0.45941517 -0.2618638
000290 e6 33 e3 b8 57 39 ba bb 5b 43 98 b2 ef 44 c0 3c
       -0.0001083387 -0.005683105 -1.7725759e-08 0.02347037
0002a0 0c e1 44 bf 48 e5 23 3d 71 fb e8 3b c2 40 54 be
       -0.76905894 0.04001358 0.0071100523 -0.20727828
0002b0 cc 4a 89 be a0 30 9a bd a0 78 20 81 2d a1 80 3e
       -0.26814878 -0.07528806 -2.9473903e-38 0.25122967
0002c0 90 33 06 01 56 4b a1 b5 23 b3 85 3c 01 58 94 bd
       2.4648907e-38 -1.201736e-06 0.01632077 -0.07243348
0002d0 56 62 4c ba 36 20 ce bd e0 d9 ca a7 40 ef 53 3d
       -0.00077966356 -0.100647375 -5.6302483e-15 0.05174184
0002e0 7c 5f 64 3c 82 47 5c 3c 7c 59 5a bd 12 2f 27 3a
       0.013938781 0.013444783 -0.053307995 0.00063775585
0002f0 ff d6 89 be b8 9e 63 00 a4 93 ad 3c 01 45 5b bd
       -0.26921842 9.148652e-39 0.021188565 -0.053532604
000300 44 b8 1e 3c 16 e0 d8 be c4 65 04 3d b1 7b 0c be
       0.009687487 -0.42358464 0.032323614 -0.1371906
000310 10 ab 93 98 cb 14 53 b8 ce 68 75 b8 3f da a4 b9
       -3.817134e-24 -5.0325685e-05 -5.851016e-05 -0.00031443124
000320 ae 9d bd bc 8a b2 de bd 7f dd 26 bf c4 ac 30 bc
       -0.023146477 -0.108738974 -0.65181726 -0.010783378
000330 b0 be 0d 3d d6 c5 cf 3d a2 12 f4 bb ae 02 1b 3c
       0.034605682 0.10145156 -0.0074485103 0.009461088
000340 e4 5a 7a 3c 1f 46 3a 3c 1e d7 3b 3d 12 5e 07 bf
       0.015280459 0.011369257 0.04585945 -0.52877915
000350 56 c0 83 be 1e b5 12 bb c1 59 9d bc 06 ed a6 94
       -0.25732678 -0.0022385786 -0.019207837 -1.6855206e-26
000360 79 90 51 b8 ec 90 54 3c 6d 20 ee be 84 63 67 b5
       -4.9964034e-05 0.012974005 -0.46509114 -8.619902e-07
000370 95 dd be be a6 43 c6 be 1f e1 9d be f2 8e 87 b5
       -0.3727843 -0.38723487 -0.30835816 -1.0099886e-06
000380 e4 c0 f5 bd ff 34 a9 3b 02 dc a9 a9 96 cb f6 be
       -0.119996816 0.0051637883 -7.543273e-14 -0.482022
000390 a9 b3 0f b8 8e 45 ba bd 5f 6f e0 3d d1 11 08 be
       -3.426118e-05 -0.09095298 0.10958742 -0.13288046
0003a0 59 b3 90 b9 a7 77 29 3d 23 ea b4 3b d3 52 3f b8
       -0.00027599445 0.041373875 0.0055210753 -4.5615085e-05
0003b0 c3 04 ab bd 32 06 2a bc f0 0b a2 3e 3d 17 57 be
       -0.083505176 -0.010377454 0.31649733 -0.21004958
0003c0 f3 b1 f6 be ab ac ea be 0e f6 55 bb fc 9d 22 3c
       -0.4818264 -0.4583486 -0.003264788 0.009925362
0003d0 f7 f1 70 ba 22 6e 02 80 34 44 67 3c a1 39 74 00
       -0.0009191329 -2.23179e-40 0.014115382 1.0673591e-38
0003e0 74 b5 23 be 4a b8 33 3c f7 91 c6 bc 73 d4 54 be
       -0.15987188 0.010969231 -0.024239523 -0.20784168
0003f0 43 16 ac bd 70 a0 26 3c b1 37 81 be 7c 02 28 be
       -0.084026836 0.010170087 -0.25237802 -0.16407198

layer_3.weight f4 [6, 300]
000000 89 d7 2f be bf 60 f0 3b 93 3b 0e 3d 5e 80 cf 39
       -0.17172064 0.007335752 0.034724783 0.00039577758
000010 87 d0 d9 38 95 b1 b6 bd ea 66 0e be 94 ce 2d 80
       0.000103862076 -0.0892059 -0.13906446 -4.206704e-39
000020 92 b7 2e 3e 21 0c 9a 3d c7 5f 6e 3b b3 49 d9 bb
       0.17062214 0.07521845 0.0036373006 -0.0066311
000030 db da 72 3b 9e 07 c0 bd c3 52 49 be 5b 0a 77 3e
       0.0037056718 -0.09376453 -0.19660477 0.24125044
000040 c5 a5 94 bc 82 80 51 bf 77 6b d6 bb 45 0c c7 be
       -0.018145451 -0.8183671 -0.0065435725 -0.38876548
000050 18 9a dd 3e 89 21 ff b9 1b 1b 13 bd 37 3d 9f 3d
       0.43281627 -0.00048662376 -0.03591452 0.07775348
000060 e8 f2 dd 34 61 fa b7 ba b9 cb 5b bd 52 7b 07 bd
       4.1341195e-07 -0.0014036411 -0.053661082 -0.03307659
000070 26 e8 fe be 19 b7 cd b4 a9 4d a4 be 97 bb f7 3b
       -0.4978649 -3.8317447e-07 -0.320905 0.0075602042
000080 00 6d 53 3d 0e 66 a0 be 59 be c7 00 85 69 0f 3d
       0.051617622 -0.31327862 1.8343548e-38 0.03501274
000090 85 bf 94 bd b4 a5 96 bd f7 47 24 3f 42 3d 93 ba
       -0.07263092 -0.07355824 0.6417231 -0.0011233466
0000a0 b3 9e 3a 3d af c8 fe be 40 3d 75 bb 8b 86 0c 39
       0.045561504 -0.49762484 -0.003742054 0.00013401562
0000b0 80 24 ff 3c 84 d2 b2 bc 54 88 9e 3e 84 a9 93 bd
       0.031145334 -0.021828897 0.30963385 -0.07210067
0000c0 3c b8 02 3b 22 d1 75 3b 4c 78 d7 bc e6 49 f8 b9
       0.0019946238 0.0037508686 -0.02630248 -0.00047357305
0000d0 24 ef 1e 3a a4 20 90 bb 6f ed 86 bd 71 1e 83 3e
       0.00060628564 -0.0043984223 -0.065882556 0.25609162
0000e0 82 4e 33 bd 87 e1 14 3c 15 0c 1d 3c 23 87 02 3e
       -0.043776043 0.009086973 0.0095854 0.12746863
0000f0 04 f1 ba 3c 54 64 cc bd ad 1f 89 b9 a7 2f aa 3a
       0.022820003 -0.099800736 -0.00026154277 0.0012984172
000100 d5 e9 5b 2e 00 bf 69 3c 64 a8 cd 3b 16 98 f7 3d
       5.000252e-11 0.014266729 0.0062761772 0.12089555
000110 16 49 8c bc e7 3d 7f 3c a0 8b 70 3b 8b 90 8e 3c
       -0.017124694 0.0155787235 0.0036704317 0.017402908
000120 7b b2 f1 bd cb fb 3a be ba ee 75 3e 43 73 3d 3c
       -0.118016206 -0.18260114 0.24016848 0.011563125
000130 d7 5c 20 be 3b 58 a0 be 72 03 30 ba f1 ad bf be
       -0.15660416 -0.31317315 -0.00067143806 -0.37437394
000140 0f e1 87 3a 73 77 c1 3e 94 ab a0 3a 16 17 0c bd
       0.0010366755 0.37786445 0.0012258166 -0.034201704
000150 57 55 a5 39 b3 bb 83 bd 0e 0c ae 3e b7 e1 14 bd
       0.00031534836 -0.06432285 0.33993572 -0.03634807
000160 aa 07 1a b5 d7 c5 ef bd 57 e3 f8 3d 2e 86 d0 ba
       -5.7380623e-07 -0.11707657 0.12152737 -0.0015909129
000170 7f 8b 8b 3e 5e 49 2b 3a 08 b8 a8 80 45 c1 53 be
       0.27254865 0.0006534065 -1.5494381e-38 -0.20679195
000180 79 2a 30 3a cc 10 4a 3c 17 40 c6 3c d3 53 5a be
       0.0006720196 0.012333106 0.024200482 -0.21321039
000190 8e 7f cf be fb 79 27 3d a4 1f 8f bb 4f 11 fe 3a
       -0.40527004 0.040887814 -0.0043677855 0.001938382
0001a0 d5 9b 35 bc 15 d0 89 3c 43 4c 5e bf fa 44 7c 3e
       -0.0110845165 0.016822854 -0.86835116 0.24635687
0001b0 b2 1a c0 b8 20 ac b3 be 87 92 d5 ba 73 91 ed be
       -9.160246e-05 -0.35092258 -0.0016294279 -0.4640003
0001c0 37 3c 0c 3e 60 0b 0d bd 6a b6 c3 bc 7d 94 21 3b
       0.13694845 -0.034434676 -0.023890693 0.0024655156
0001d0 96 b8 3d bd 10 5f 37 3c a8 a2 48 bb 59 b4 04 38
       -0.046318613 0.011192098 -0.0030614529 3.1639214e-05
0001e0 27 32 03 3e 0e d5 48 bb 69 33 aa bc b7 3b 52 3b
       0.128121 -0.0030644569 -0.020776467 0.003207905
0001f0 82 42 0d 3c 60 7f 51 80 61 71 5c bb fe db b7 bd
       0.008621814 -7.484369e-39 -0.0033636915 -0.08977507
000200 58 06 d4 ba d2 57 3c 3c 46 86 85 3c 18 95 71 3a
       -0.0016176207 0.011495547 0.016299378 0.0009215637
000210 4d 4c 59 3c d3 05 90 3d 85 e1 71 bd 9a 89 94 3d
       0.01326282 0.07032361 -0.059052963 0.07252808
000220 b3 d6 fd bb 86 2c 45 b9 a9 2c 88 3c 33 2b 01 3d
       -0.0077465414 -0.0001880397 0.016622858 0.03153534
000230 ae 79 57 bd 53 77 c7 ba f2 65 4f be 83 08 7b 3e
       -0.052606277 -0.0015218057 -0.20253733 0.24514966
000240 de 55 94 be aa 20 1a 3b 4b de bf b9 39 3d 0e 3d
       -0.2897176 0.0023518004 -0.0003659598 0.034726355
000250 4c e9 ff b8 8c 32 4d 3b ba e0 74 3b ea fb 14 3d
       -0.000122028025 0.0031310646 0.0037365393 0.036373056
000260 22 e0 94 3e e3 91 5b bd 97 4d 15 bd 33 1b b5 ba
       0.2907725 -0.053605925 -0.03645095 -0.001381731
000270 95 d5 10 bd c7 cf cd 3c 49 f6 a5 3a a7 e2 21 3a
       -0.035359938 0.02512349 0.00126619 0.00061754364
000280 c1 75 34 80 94 69 c9 be 11 b5 81 3c 22 18 84 bd
       -4.817688e-39 -0.39338362 0.01583341 -0.064499155
000290 6c 51 81 00 d1 3f a2 bd e7 e1 6c b9 b2 3d f1 b9
       1.1875988e-38 -0.07922328 -0.00022590869 -0.0004601307
0002a0 f4 cf ee 3e 87 b9 fb bd b0 fa a9 ba 03 9f 0d 3f
       0.4664303 -0.12291246 -0.0012968387 0.5532076
0002b0 44 56 aa 3c 24 59 94 be cc db c6 2a 06 2e 40 3e
       0.020793088 -0.2897426 3.532438e-13 0.18767557
0002c0 46 83 09 2d 1c bb de ba b8 c0 45 3e 0f 1c 35 bd
       7.816697e-12 -0.0016993019 0.19311798 -0.044216212
0002d0 80 4e a3 3b 33 46 09 3e 41 eb d9 ba 43 fd ef bc
       0.004983723 0.13405685 -0.0016625897 -0.02929557
0002e0 96 b7 cd bc b4 51 28 3c 58 aa 15 3d 3c 7a cf bb
       -0.025111955 0.010273386 0.036539406 -0.00633171
0002f0 28 9f a0 3e 73 48 ed 3a e4 5a cf 3d 5f d7 14 3f
       0.31371427 0.0018103257 0.10124758 0.5814113
000300 21 f7 61 3d dc 6c cc 3d 72 be 1c 3d 66 8f 75 3d
       0.05516732 0.09981701 0.03826756 0.05995121
000310 2d 25 9a b9 d5 3d 46 bb f4 36 04 ba 4c 35 8e ba
       -0.00029400867 -0.0030249257 -0.0005043589 -0.0010849624
000320 7f 9c 49 3e 88 c6 8f 3e 37 5b aa bd fb 24 85 bd
       0.19688605 0.28081155 -0.08318179 -0.06501194
000330 a1 12 22 3d 1e 05 d2 3c 58 d9 57 3d 78 74 fb bc
       0.039568547 0.025637206 0.05269751 -0.030695185
000340 0c dc 41 3d 5f 35 96 3c 7e b1 f9 bc 2d 9f 34 3e
       0.047328994 0.018335996 -0.030480143 0.17638846
000350 cd 0c eb be 43 66 9e bc 26 09 d8 3c ed d9 fc 3a
       -0.45908204 -0.019335872 0.02637155 0.0019291021
000360 1d 53 23 3a dc 7f 95 3b 4b ab c2 3e 03 91 20 3b
       0.00062303414 0.004562361 0.3802131 0.0024500496
000370 4a bb 0c 3e cf 68 33 3f b2 f8 02 3e a2 51 c0 ba
       0.1374332 0.700818 0.12790182 -0.0014672766
000380 b0 78 08 3d 0f 26 55 3c ad df 90 b5 87 d2 11 3e
       0.03331822 0.013009562 -1.0793934e-06 0.14240466
000390 e3 a8 80 3a 48 af 6a 3e b8 38 15 be 7b 00 b4 3d
       0.0009815957 0.22918427 -0.14572418 0.08789154
0003a0 c6 96 0d 3c 17 8d 48 3d 8b 8f a8 3b a5 d3 8a ba
       0.008641904 0.04896268 0.005144065 -0.001059164
0003b0 37 24 1b bd 6b 4e a6 bc a2 df 32 be 49 8a 5e bf
       -0.037876334 -0.020301064 -0.17468122 -0.86929756
0003c0 b3 87 27 3e 39 11 ad 3d 51 46 95 bc 3f 6d 13 3f
       0.16360359 0.084505506 -0.018222006 0.5758857
0003d0 4d bf 0b bb 38 1e 5d 80 eb d5 9c bc 34 cf ff 38
       -0.002132374 -8.551542e-39 -0.019144973 0.00012197942
0003e0 d7 3d f8 bd eb c7 69 3a 69 21 33 3d f8 b5 78 3d
       -0.1212117 0.0008918035 0.043733034 0.060720414
0003f0 3d 7a 00 3f aa 5a 60 3b d9 c8 a9 3e 6d 9b f7 bd
       0.5018652 0.0034233727 0.33161047 -0.12090192

layer_3.bias f4 [6]
000000 13 f6 a0 3d 38 05 20 3e 33 bb df bd 8b 46 ec bd
       0.07859435 0.15626991 -0.10924377 -0.115368925
000010 27 01 73 bd 3e 72 b3 3d
       -0.05932727 0.08762024
