models/all_td3/TD3_TradingEnv4_42_150_critic_1.pth (torch, 572639 bytes, 5 tensors)

layer_1.weight f4 [400, 54]
000000 86 f7 d9 bb e0 98 c5 3d 31 3c ed 3c e5 81 11 bb
       -0.0066518215 0.09648299 0.028959366 -0.0022202667
000010 eb d6 cb be a9 a7 80 be d3 78 c3 be e5 13 6d be
       -0.39812407 -0.25127915 -0.3817812 -0.2315212
000020 d3 6d 70 be 0d c4 2d be ad f7 84 be 42 03 c0 be
       -0.23479395 -0.16969319 -0.25970212 -0.37502486
000030 76 70 cd be 1d 65 3c 3d 3e b8 9e be af f2 76 3e
       -0.40124863 0.045994867 -0.3099994 0.24116014
000040 04 fc 57 be f9 0c 17 3e 96 ba 0a be 47 9d 4a be
       -0.2109223 0.14751042 -0.1354774 -0.19786559
000050 8e 16 4f 3e 80 89 11 3d f9 2c bd 3e d7 be e0 3e
       0.20223448 0.03553152 0.36948374 0.438956
000060 8a 72 35 bc 4f a9 8d be 08 c2 94 3e 22 98 ce 3d
       -0.0110746715 -0.27668235 0.29054284 0.10087611
000070 df 35 1c 3e 0d ed 44 bd 7b 90 0c 3f 67 4c ae be
       0.15254925 -0.04807763 0.5490796 -0.34042665
000080 32 48 d8 bd 70 4f c4 3e 6b 38 bc bd 59 a7 17 be
       -0.10560645 0.38341856 -0.091904484 -0.14809932
000090 c7 8a b5 be 4b aa b8 bc 6b 26 48 3e 59 63 c1 be
       -0.3545744 -0.02254214 0.19545905 -0.3777111
0000a0 5e f0 78 3f b8 9a 82 3f b5 5a 6f 3e 38 ab e6 3c
       0.9724177 1.0203466 0.23374446 0.028157815
0000b0 80 b4 54 bd d4 1e fd 3d 00 00 60 b8 60 3c ea 3d
       -0.05192995 0.123593956 -5.340576e-05 0.11437297
0000c0 09 79 77 bb 8d 9f 52 bc 29 a0 99 3d 85 1a 05 bd
       -0.0037761352 -0.012855423 0.07501251 -0.032495994
0000d0 68 7a d0 bc e7 22 e7 bb 2f a6 84 be cc 7f 04 be
       -0.025448993 -0.007053721 -0.25908038 -0.12939376
0000e0 69 b6 29 be 0b 9a 5b bd 53 36 2a be 23 e6 42 bf
       -0.1657349 -0.053613704 -0.16622286 -0.7613241
0000f0 6a 9f 1f be 3c 98 1c be b6 ec 88 bd 18 eb 05 3d
       -0.15588155 -0.15292448 -0.06685774 0.032694906
000100 b4 d0 26 bd 13 71 e4 bd 29 26 25 3e 2a 37 09 3e
       -0.04072638 -0.1115438 0.16127838 0.1339995
000110 91 b9 19 be 46 a1 3a bf 06 f2 c1 be da 1c 08 3e
       -0.15012194 -0.72902334 -0.37879962 0.13292256
000120 b6 10 d5 be 7c e5 c9 be 06 f2 b5 be 3a 80 9c bd
       -0.41614312 -0.39432895 -0.35536212 -0.07641645
000130 a6 8b 2b 3e 34 cd 8b 3e ed 4d c2 3d 79 8b ac 3d
       0.1675249 0.27304995 0.094875194 0.0842504
000140 6a 48 9b 3d 53 a0 fc 3c bc 8b ef 3d 0d 4d b1 be
       0.07582171 0.030838167 0.11696574 -0.34629098
000150 ce 50 d2 3d 42 20 d3 3d 89 d6 2a bd ec e0 dd 3e
       0.102693185 0.10308887 -0.041708503 0.43335664
000160 db 8d 3c 3e 7e d7 b7 3d b6 c4 a0 bd 97 ba 82 3d
       0.18413489 0.08976649 -0.0785002 0.063832454
000170 bf 5c 37 bd 56 94 cc be 4f ea 00 40 a8 eb 08 40
       -0.044766184 -0.3995692 2.014301 2.1393833
000180 36 94 01 3e e2 e6 fc bd 7c f3 04 3e 7c c8 86 3d
       0.12654194 -0.12348725 0.12983507 0.06581208
000190 b8 d1 77 bc 28 12 ff 3c ad 7f d2 3d 1f 62 9c bc
       -0.015125684 0.031136587 0.102782585 -0.019089757
0001a0 cc e3 ac 3c 5c ac 96 bd aa 4e f2 3c 0a da e3 bc
       0.021104716 -0.07357094 0.029578526 -0.02781393
0001b0 05 53 8a be da d1 a5 bd ba bc 2f be ca 83 83 be
       -0.27016464 -0.08096667 -0.17161837 -0.25686485
0001c0 62 0f f6 bd c4 e1 31 bc 58 a1 7c 3e c7 0e 92 bf
       -0.12014653 -0.010857049 0.24670923 -1.141076
0001d0 31 d0 0d be d6 19 44 be 33 aa 80 bd 20 e5 04 be
       -0.1384895 -0.1915048 -0.06282463 -0.12978029
0001e0 d6 62 6c 3d 55 5b 41 3d 98 02 40 bc b4 09 22 bf
       0.057711445 0.04720624 -0.011719368 -0.63296056
0001f0 6e 88 17 be 5e b0 40 be 3a bc 5d bd 65 a4 50 be
       -0.14798138 -0.18817279 -0.054134585 -0.20375212
000200 3c f1 15 bd 91 de 1d 3d ef 11 98 bd 94 4f 81 be
       -0.036607012 0.038542334 -0.074252956 -0.25256026
000210 41 11 5b bd 2b b4 a1 bd 08 f8 1c bb 66 37 16 be
       -0.05348325 -0.078956924 -0.002395155 -0.1466957
000220 77 07 52 be 1a 78 fe bd 66 df 52 3e 97 c1 da be
       -0.2051066 -0.12425251 0.20593032 -0.42725822
000230 48 46 aa bd ab 14 a7 bd 7c 1d 6a 3d ef e3 4a be
       -0.08314186 -0.08158239 0.057157025 -0.19813512
000240 b8 0f 03 be 50 65 7c 3e 57 93 a5 bd 1e 28 63 bf
       -0.12798965 0.24648023 -0.080847435 -0.8873309
000250 be 90 96 3e 46 90 c5 3e 77 84 5a 3f c8 7a d9 3d
       0.29407305 0.38586634 0.85358375 0.10619122
000260 18 29 17 bd df 82 ec bd ec a8 67 3d 2a 31 a6 3d
       -0.036904424 -0.11548399 0.05655758 0.08114846
000270 8c d1 e1 be 1e d9 34 bf 06 4f a8 be 47 44 da be
       -0.44105184 -0.70643795 -0.3287279 -0.42630216
000280 ba e9 d4 bd 5f 97 9e 3e 14 99 4c be 31 ee 98 be
       -0.10396142 0.30974862 -0.1998027 -0.29869226
000290 45 da 90 be 2a 36 53 be 55 65 bf be 96 e8 91 be
       -0.28291526 -0.2062613 -0.37381998 -0.2849776
0002a0 66 86 ae 3e fa ae 45 be c0 ce 9c be a7 a7 9b bd
       0.34086913 -0.1930503 -0.30626488 -0.076003365
0002b0 9a 24 24 be ac b4 a4 bd 98 29 a2 3e c9 c6 b4 bd
       -0.16029587 -0.08042273 0.3167236 -0.08826978
0002c0 7b 39 33 3e 39 8a 8c 3f c8 75 78 be 22 c2 08 3d
       0.17502396 1.0979682 -0.2426368 0.033388264
0002d0 d4 00 2b be 49 f8 16 be 58 b7 0a bf 34 13 a3 bd
       -0.16699535 -0.14743151 -0.5418601 -0.07962647
0002e0 c3 91 1b be be 44 fb 3e bc ee b1 bd be 07 56 3e
       -0.15192322 0.49075884 -0.08688113 0.20901391
0002f0 5c 44 5b be 5b 75 62 be 05 98 82 be 74 de 26 be
       -0.21412796 -0.2211508 -0.25506607 -0.16295797
000300 fa e4 de bd cc 4d 76 3f 89 3a 5a be 2f 8a 73 3e
       -0.108835176 0.9621246 -0.21311392 0.23783182
000310 52 d3 79 bc 3c 1e 48 3b d9 12 b5 be 27 29 10 3d
       -0.015248137 0.00305356 -0.35365942 0.035195496
000320 cd be c8 3d 2a 62 15 3f 62 0b 27 40 a6 ed 1d 40
       0.09802017 0.5835291 2.6100698 2.46763
000330 7a e7 3d bf 04 4b fe 3d bc 97 c2 3d f4 75 ea 3d
       -0.7418133 0.12416652 0.09501597 0.11448279
000340 c6 30 b9 3d d0 e2 f5 3d 5c f5 98 3c b3 25 52 bd
       0.09042506 0.12006152 0.018671684 -0.051305484
000350 22 9c e9 bd 61 6f 5f bc 27 9e 33 3e 29 90 98 3a
       -0.11406733 -0.013637395 0.17540799 0.0011639643
000360 21 22 dc bc 56 14 6e be b9 6b 96 bc 25 1b 19 be
       -0.026871743 -0.23249945 -0.018361913 -0.14951761
000370 7e 36 97 be f3 67 75 3e 69 9a 9e 3e 63 59 a1 bd
       -0.29533762 0.23965435 0.3097718 -0.07878377
000380 20 47 6f be 33 23 ba bd ba c6 2d be 34 d7 b5 bd
       -0.23366976 -0.09088745 -0.1697034 -0.08878937
000390 f8 17 ce 3d a0 c4 89 ba c1 a0 f0 3c 4c 10 59 3f
       0.100631654 -0.0010510869 0.029373528 0.8479049
0003a0 a5 c4 6d 3c a0 5a 8f be e8 91 26 be 9c f6 5e be
       0.014512216 -0.2799883 -0.16266596 -0.21773762
0003b0 49 55 ac 3c 1b 58 76 bc de b0 00 be 80 16 c1 be
       0.02103676 -0.015035654 -0.1256747 -0.3771248
0003c0 7c c9 8f bc e0 11 8c be 00 cf 7d be 46 f9 29 be
       -0.01755213 -0.27357388 -0.24785995 -0.16598997
0003d0 fd 41 2c be 54 d3 d9 3b 0c 85 4b bd 80 68 3a bf
       -0.16822048 0.0066475067 -0.04968743 -0.72815704
0003e0 0a 58 86 be 3f 6b 2c be 75 cf 56 be 7b 98 0d be
       -0.26239043 -0.16837786 -0.20977576 -0.13827698
0003f0 62 2f 79 be 48 35 59 3d 54 c1 2f be da ef cf bc
       -0.24334481 0.05302933 -0.17163593 -0.025382925

layer_1.bias f4 [400]
000000 89 32 00 3e d0 e3 a1 3d 98 81 81 bc 70 51 f9 bd
       0.12519278 0.0790478 -0.015808865 -0.12173736
000010 1f bc 6f bd 96 92 00 be b1 b4 21 be 27 f5 57 3c
       -0.058529016 -0.12555918 -0.15791585 0.0131810075
000020 34 fd 8d 3e e6 8b a8 bd b8 c2 00 3e 22 9c 86 be
       0.2773224 -0.082298085 0.1257428 -0.26290995
000030 43 96 13 3e 41 86 96 bd 04 7b 13 be 2f dd b6 bc
       0.14412789 -0.07349826 -0.14402395 -0.022322265
000040 66 d4 0c 3e 6f 77 ac 3d 3d 18 d9 bd 4f fb 9c be
       0.13752899 0.08421218 -0.10600326 -0.30660483
000050 e4 7e 2f be 67 9c 82 3d 9c 4a cb bd 3e a4 7d bd
       -0.17138249 0.06377488 -0.0992634 -0.06192421
000060 7b bc 27 be dd 06 ac 3d 47 59 ba bd 79 60 8f ba
       -0.16380493 0.083997466 -0.090990596 -0.0010938785
000070 2c 02 42 3e 67 79 31 be 69 ef 01 be 98 e0 0b 3e
       0.18946141 -0.17331468 -0.12688984 0.13659894
000080 38 df a5 bd e2 24 2f 3e dc 93 cc be 26 d3 2e be
       -0.08099216 0.17103913 -0.39956558 -0.17072734
000090 02 9b 71 bd be 41 31 3e 11 13 81 bb d6 06 e4 bd
       -0.058985718 0.17310235 -0.0039390405 -0.11134116
0000a0 95 68 57 3e 6e a4 4c be 5a 52 97 3d fb fe 8e bd
       0.21035989 -0.199846 0.07388754 -0.069822274
0000b0 08 64 3d 3b 76 ae 3c 3e 75 d7 1f bd 83 cc 22 be
       0.0028898735 0.18425927 -0.039023835 -0.15898328
0000c0 e5 63 d0 3d d9 95 5a be 58 33 48 be 02 1b 3c bd
       0.10175303 -0.21346225 -0.19550836 -0.045924194
0000d0 02 0b 94 bd 02 43 a1 bd 8f 90 25 bd d9 ae f8 3c
       -0.07228662 -0.07874109 -0.040421065 0.030356811
0000e0 9b 76 91 be 9f db c8 3d e3 48 7f be 0e 2e 76 bd
       -0.284108 0.098075144 -0.24930148 -0.060102515
0000f0 27 60 9c be b6 73 77 bc 41 11 2b be e8 30 e8 bb
       -0.30542108 -0.015103271 -0.167058 -0.007085908
000100 23 b5 86 bd 6b 48 cc bd 18 8f 91 be 1c 60 b5 3d
       -0.06577518 -0.0997475 -0.28429484 0.08856222
000110 36 43 36 3e b7 db 02 3d 2a c0 09 3d 94 f2 e4 bd
       0.17799076 0.031947818 0.033630528 -0.111790806
000120 45 95 08 3e 37 f6 82 3e 1e 90 b7 be dc 93 d4 bd
       0.13338192 0.25578472 -0.3585214 -0.103797644
000130 8c a1 23 be 5f 7d d0 bd 89 38 21 3e e1 7b 4c be
       -0.15979594 -0.10180163 0.15744223 -0.19969131
000140 b4 49 85 3d ee 4c 1e be 37 9b 3a 3f a5 13 43 be
       0.065081984 -0.15459034 0.7289309 -0.19050463
000150 c6 f1 e7 3d d6 07 d2 3c f7 80 a5 bc 6f 92 61 be
       0.113254115 0.025638502 -0.020203097 -0.22028516
000160 43 4c d1 bd b4 24 13 3e 50 66 11 bd 6a 7b 50 3e
       -0.10219624 0.1436947 -0.035497963 0.20359579
000170 bd a9 88 bd e4 f2 b9 bd 0d 96 0e 3d c2 83 82 bd
       -0.06673 -0.09079531 0.03481107 -0.06372787
000180 3c a0 c2 bd 05 9c 3e be 8c 30 19 ba b2 e9 03 bd
       -0.095032185 -0.18614204 -0.0005843721 -0.03220529
000190 7c 1f 58 3d 13 47 81 be 47 17 97 bd 92 20 9b bd
       0.0527644 -0.25249538 -0.07377487 -0.07574572
0001a0 72 c9 26 bf 3d b4 45 bd ca e4 63 be 8e 73 04 3d
       -0.6515113 -0.04826759 -0.22255245 0.032336764
0001b0 aa da a0 bd bd 2c 1e 3d 0a f8 ea 3c 0f ca b0 bd
       -0.07854207 0.038616884 0.028682727 -0.086322896
0001c0 2f a1 98 3c 12 4a d7 bd 56 23 bb be 1e 26 2b 3d
       0.018631546 -0.10512175 -0.36550397 0.0417844
0001d0 f7 c2 7a 3e 48 a2 4c 3c fb 65 af 3d 11 61 96 be
       0.24488436 0.012489863 0.08564373 -0.2937093
0001e0 b9 48 20 3e 2c f0 eb 3e 4f db 28 be af f0 9e bd
       0.15652741 0.46081674 -0.1648991 -0.077607505
0001f0 9d d2 97 3c 35 69 e9 bc 98 16 db be d9 4a 0f be
       0.018533045 -0.02849255 -0.42790675 -0.13993396
000200 0f 78 44 3e ef bf 41 be 9f b9 14 3e de 2e 09 be
       0.19186424 -0.18920873 0.14523934 -0.13396785
000210 26 60 4c bd 7f 01 5c bd 08 3f 77 bd 58 9a a8 bb
       -0.04989638 -0.053712364 -0.060362846 -0.0051453523
000220 f1 37 2b be d0 88 04 be c9 5b f1 bd 84 a0 69 3d
       -0.16720559 -0.12942815 -0.11785085 0.057037845
000230 27 e6 ea bc 21 67 c8 bd 9b 36 88 bd d0 fd e5 bd
       -0.028674198 -0.09785295 -0.0665104 -0.112300515
000240 0a 58 00 be 26 cd 84 be b7 86 83 3c d1 d1 31 be
       -0.12533584 -0.25937766 0.016055448 -0.17365195
000250 cf 17 4d 3d fb 3d 88 bd 04 63 25 3e d7 27 8e bd
       0.050071534 -0.06652447 0.16151053 -0.069411926
000260 c0 e5 f9 bc a2 46 00 3e 31 4d 8c 3d 1c 8f 17 3e
       -0.030505061 0.12526944 0.068506606 0.14800686
000270 29 1e 11 bd da 96 a8 be 87 d6 e4 3d f7 78 b6 bd
       -0.035429154 -0.3292759 0.1117373 -0.08909791
000280 95 a6 83 be 89 8b ff 3d 0d e1 45 be 1c 0c 6e 3e
       -0.2571303 0.12477786 -0.19324131 0.23246807
000290 47 0e 04 be 57 fc d2 be b3 16 81 3c 06 6f 69 3e
       -0.12896071 -0.41208145 0.015757894 0.22796258
0002a0 41 2c a9 be a9 5d 74 be 8f f0 4f be b8 29 57 3d
       -0.33041576 -0.23863854 -0.2030661 0.05253002
0002b0 c1 50 c7 bc de 8a fa 3d be 8f ad 3d a8 46 6d be
       -0.024330499 0.12233518 0.08474682 -0.23171484
0002c0 3d 21 cb 3d c1 0d b5 bd 01 94 27 be 91 5e a9 3e
       0.09918449 -0.08840514 -0.16365053 0.3307996
0002d0 65 1a 9a bd ed 13 92 be 01 6f fc bd 71 3b 9f 3c
       -0.075245656 -0.28530827 -0.1232586 0.019437524
0002e0 7d b0 04 3e 63 92 c7 3d 29 e5 71 bd 7e 0c e4 bd
       0.1295795 0.09744718 -0.059056435 -0.11135195
0002f0 90 1f 62 be 90 97 89 3d da 86 24 be 33 aa 1a be
       -0.22082353 0.067183614 -0.16067067 -0.15103988
000300 55 da 15 be 36 91 88 bc 50 47 04 be b4 71 a5 bb
       -0.14634068 -0.016670804 -0.12917829 -0.005048955
000310 56 70 fd bd 6c 25 36 be 2e 18 3a 3d 15 3c 3d be
       -0.12374942 -0.17787713 0.045433216 -0.1847995
000320 aa 97 4b bd d7 5a 84 3d e4 eb 3b 3e 8d 24 ce bc
       -0.049705185 0.06462639 0.18351704 -0.025163913
000330 a3 38 30 be dc f0 1a 3d 90 bc 2d be e4 45 3b be
       -0.17209105 0.037827358 -0.16966462 -0.1828838
000340 fc a6 be bd 56 09 76 bd 3a 52 8c bd 9c 21 4e bb
       -0.093091935 -0.060067497 -0.06851621 -0.0031453138
000350 b3 1d 06 be 8f 73 13 3b cb 44 2a 3e 6f 04 08 be
       -0.13097267 0.0022499298 0.16627805 -0.13282941
000360 b7 d4 98 3d 85 ab ce bd cf de 0d 3e 7a 39 e1 bd
       0.07462447 -0.100913085 0.13854526 -0.10997291
000370 31 eb 0a be 10 f9 01 be 77 b0 9f 3c 70 98 85 3d
       -0.13566281 -0.12692666 0.019493325 0.06523216
000380 50 c6 cd bd ad 6e 1e be ac 37 20 3e 5a 1f eb 3c
       -0.10047591 -0.15471907 0.15646237 0.028701473
000390 94 1e a6 bd 3f b5 2e 3e 26 b5 03 bc 09 87 f1 bd
       -0.08111301 0.17061327 -0.008038795 -0.11793334
0003a0 90 1f 42 bb 12 a9 91 bd 47 4b d9 bd 48 61 42 3e
       -0.0029620863 -0.07112326 -0.10610061 0.18982422
0003b0 6b a7 57 3d 74 28 f5 bd bf 8b 43 3e 88 7b 31 be
       0.052649897 -0.119706064 0.19096278 -0.1733228
0003c0 23 d9 80 bd 98 1b b7 be 6a aa ff 3d f6 36 0f be
       -0.062914155 -0.3576324 0.12483676 -0.1398581
0003d0 e7 78 0c 3e 54 db b5 3d 2c e3 85 bd b6 c5 a4 bc
       0.13717996 0.08879724 -0.0653747 -0.020113807
0003e0 29 43 83 bc a5 fc 02 3e e8 93 f6 be 00 22 fd 3e
       -0.016023235 0.12791689 -0.4815972 0.49440002
0003f0 20 05 33 3f b5 24 1d 3a e8 2b 9b be 5a 46 d8 3c
       0.69929695 0.00059945445 -0.30306935 0.026400734

layer_2.weight f4 [300, 400]
000000 46 4c 05 be 54 37 89 be a0 05 d7 bc e7 92 9a be
       -0.13017377 -0.26800025 -0.0262478 -0.30190203
000010 48 82 70 bd af 12 6e 3e ef d1 e1 3e 89 ba f5 3d
       -0.058717996 0.23249315 0.4410548 0.119984694
000020 2d cd d2 bd 18 5f e3 bd 12 73 35 be 88 19 f7 bd
       -0.102930404 -0.11102122 -0.17719677 -0.120654166
000030 f5 cf 2c 3e 60 9d 0c bf 5f 8e a2 be 54 44 38 bd
       0.16876204 -0.54927635 -0.31749246 -0.044987038
000040 94 8c 19 be e7 74 e1 3c f0 a8 91 3c e5 ab 3d 3d
       -0.14995033 0.027521564 0.017780751 0.04630651
000050 00 5c 99 3d b9 65 32 bd 65 ca c9 3d f1 18 e4 bb
       0.07488251 -0.04355404 0.09853057 -0.006960981
000060 71 9d ab 3d 59 ea 9e be 00 ea 1c 3e 2d 8a 47 bf
       0.08379639 -0.31038168 0.15323639 -0.77945215
000070 ca 7b 80 3c 74 c4 73 be db 48 a2 bc 83 03 14 be
       0.015684027 -0.2380541 -0.01981013 -0.14454465
000080 42 84 5f be 56 66 4d bc 3c 4d cc bf a7 ec 9f be
       -0.21827796 -0.012536606 -1.596107 -0.3123524
000090 4a 96 1f bc 7f 52 15 be 32 b9 ee 3c 2c e2 eb be
       -0.009740422 -0.14582251 0.029141042 -0.46070993
0000a0 b2 90 d4 3d e0 a6 2e 3e c3 1f 4d bd e1 98 e8 3d
       0.10379161 0.17055845 -0.05007912 0.11357284
0000b0 3d be aa be 46 06 e7 3a 9d e3 23 3e a8 52 23 bd
       -0.33348265 0.0017625771 0.16004796 -0.03987375
0000c0 33 83 6e bd 4d 6d 34 bd 04 dd c4 3d 83 bf b5 bd
       -0.05823059 -0.04404955 0.09612468 -0.088744186
0000d0 e1 9f 94 be c0 83 9c 3e 0f 33 19 be a2 22 6b bd
       -0.29028228 0.30569267 -0.14960884 -0.057406075
0000e0 72 35 6e be c7 e8 e6 be f1 1a ba 3e e6 56 82 be
       -0.23262575 -0.4509947 0.3634868 -0.25456923
0000f0 57 42 70 be 89 6e 1a bf 01 66 09 be be 20 91 be
       -0.23462807 -0.60324913 -0.13417818 -0.28345293
000100 5c 88 88 be 2d 52 12 bf f0 8e 44 bf d0 79 b4 bd
       -0.26666534 -0.5715664 -0.76780605 -0.088122964
000110 e1 ad 46 3d b5 eb 33 be ef e8 e5 bd 9b 64 89 3d
       0.048505668 -0.17570384 -0.11226069 0.06708642
000120 a9 a9 55 3d 31 1e d2 3d da 66 05 bf e1 be f6 3b
       0.052163754 0.10259665 -0.52110064 0.0075300788
000130 a4 d7 21 3d b0 90 5e bd 26 74 cd 3c 07 99 a8 bd
       0.03951229 -0.054337204 0.025079798 -0.08232313
000140 bb 5e 51 3e c0 8c 60 3c b4 1b 1c bf 50 f2 b2 be
       0.20446293 0.013705432 -0.6097977 -0.34950495
000150 0b 35 49 bc 29 7c f4 bd 16 a1 ea 3d cd ef 99 bd
       -0.012280713 -0.11937744 0.11456506 -0.075164415
000160 d8 48 76 be 0f 69 38 bf 9b 11 35 3e 18 29 e1 bd
       -0.24051225 -0.72035307 0.17682497 -0.10994166
000170 80 59 9b be c9 48 91 be 93 22 c2 bc 67 08 a6 bc
       -0.3034172 -0.28375843 -0.023698127 -0.020267678
000180 84 a1 86 bd 23 04 7b bc 31 90 71 ba 60 1a 99 ba
       -0.065737754 -0.0153208105 -0.00092149066 -0.0011680834
000190 18 14 16 bd 16 fc d7 3d 50 8b 40 bd 58 b5 7c be
       -0.036640257 0.105461285 -0.04700786 -0.24678552
0001a0 86 11 d8 3d 90 f9 e0 be b6 54 71 3c 09 f2 75 3e
       0.10550217 -0.439404 0.014729669 0.2401811
0001b0 3f 86 80 be a4 4b 83 3c 04 b8 72 3e 5b 29 c7 3d
       -0.25102422 0.01602728 0.23703009 0.09724685
0001c0 b3 07 c3 3c 55 82 8c bd 58 87 ac 3c db 02 f3 bb
       0.023807382 -0.06860796 0.02106063 -0.007416112
0001d0 bf 46 13 bf 22 5d 13 bf 78 6c ca be 4c 90 60 be
       -0.57529825 -0.57563984 -0.3953588 -0.21930045
0001e0 a3 0a ba bd 29 b7 c7 bb 09 46 8d 3e ca db 54 3e
       -0.0908406 -0.0060948324 0.27592495 0.20786968
0001f0 d4 ed ac be 56 2d c1 be 63 36 94 3e 78 26 5e be
       -0.33775198 -0.377299 0.28947744 -0.21694362
000200 8f 46 27 be 56 f7 bd bd 84 81 62 bc e9 9f bd bc
       -0.1633551 -0.09275691 -0.013824824 -0.02314754
000210 df db 10 3f 08 bf 1f 3e 29 ec a8 3d 99 5b 99 be
       0.56585497 0.15600216 0.08248169 -0.29952696
000220 41 58 8c be b7 be 07 be 1b f6 3d bc 0c 37 ca bd
       -0.27411082 -0.13256346 -0.011594321 -0.098737806
000230 b7 87 b1 be 3a cd 05 3e 9f a1 f9 3d 44 cc 25 bf
       -0.34673855 0.13066569 0.1218903 -0.6476481
000240 9f 1d e1 bd c9 54 81 be 6f df 22 3f 45 64 df 3c
       -0.10991978 -0.25259998 0.6362218 0.027269492
000250 4a ba 17 bd 25 5c 37 3e d4 ea 4e 3d 5b 29 97 3d
       -0.037042893 0.17906244 0.05051692 0.07380935
000260 f8 f4 dc bd ba e6 54 be 16 73 d2 3c 80 87 3e bd
       -0.107889116 -0.2079114 0.025689643 -0.04651594
000270 68 a9 92 be 9c b1 8f bc 71 de 9f bd 87 fd 62 be
       -0.28644872 -0.017540745 -0.07806099 -0.22167026
000280 17 b1 e1 3d e4 c4 c9 be 0a 78 82 bf 4a be 1e bf
       0.11020105 -0.39408028 -1.0192883 -0.6200911
000290 dc 5d 05 bc 2d 9e 94 bb c6 1d e5 3c 48 31 c5 bd
       -0.008140054 -0.0045354576 0.027968299 -0.0962854
0002a0 1e 51 b9 be 3c 12 04 be 8e 51 05 bf a8 c1 5c 3d
       -0.361947 -0.12897581 -0.5207757 0.053895622
0002b0 d7 59 be 3c 68 fb 25 be 7e 03 2b bd db ce ef bd
       0.023236198 -0.16209185 -0.041751377 -0.117093764
0002c0 74 97 c4 bc d6 23 60 be ea 76 d4 be 81 9b 1a bf
       -0.023998 -0.2188867 -0.41496974 -0.6039353
0002d0 49 85 97 3e 4e a3 7a bc 19 f8 a8 bd 18 ca e7 3d
       0.29593876 -0.015297724 -0.08250446 0.11317843
0002e0 d9 33 25 bf 42 ac 9b be 40 b9 cd be 50 09 87 be
       -0.6453224 -0.3040486 -0.40180397 -0.26374292
0002f0 60 18 cf be c6 88 e3 bd 4c 9d 1b bd 39 fe 41 be
       -0.40448284 -0.11110072 -0.037991807 -0.18944634
000300 d3 1b 98 ba 1f 04 84 be fb cb 03 be 2c 90 da 3c
       -0.0011604972 -0.25784394 -0.12870781 0.026680075
000310 46 c6 88 3e 4e 88 df 3d c1 d8 0a bf 82 93 a2 be
       0.2671377 0.1091467 -0.5423699 -0.31753165
000320 b3 01 6e 3e a5 1d 82 be 5f 5c 0b be c2 bc ba bc
       0.23242836 -0.25413242 -0.13609456 -0.022795085
000330 69 5c 87 be e1 96 bb be d9 45 40 3e 5b 7d d4 3d
       -0.2643769 -0.3663855 0.18776645 0.10375472
000340 a0 62 71 be 4c 03 a3 3e 39 15 73 be 35 13 83 3b
       -0.23572779 0.31838453 -0.23738565 0.0040000924
000350 08 99 9a bc 7e 68 ca bd 67 81 7d be 09 9e c7 be
       -0.0188718 -0.098832116 -0.24756394 -0.3898776
000360 3e 44 6a 3d e8 93 0a bf 37 d3 3b bc 59 71 12 bd
       0.057193987 -0.5413194 -0.011463932 -0.035752628
000370 af f9 58 bc 76 e2 67 bd d5 1a 50 3d 23 fc c1 be
       -0.013243123 -0.056612454 0.05080684 -0.37887678
000380 77 a5 b3 bd 9a ef 0e bd af 62 0a bf 5a 04 07 3e
       -0.08771794 -0.03489647 -0.5405683 0.13185254
000390 e1 a7 fc be bc b0 09 3d a9 2d 50 bf f1 54 ad be
       -0.4934683 0.033615813 -0.8131967 -0.33853868
0003a0 d1 16 2d 3e 4a 40 eb be 28 32 02 3e ec 6e cd bd
       0.16903235 -0.45947486 0.12714446 -0.10030922
0003b0 75 50 91 be dd 62 52 bd 6f e8 52 be 89 fc b4 bf
       -0.28381696 -0.051363815 -0.20596479 -1.4139568
0003c0 3b 41 08 bc 0c 52 c0 3b 72 ae d5 3d aa be dd bb
       -0.008316333 0.0058691557 0.104336634 -0.0067671137
0003d0 99 ee 47 3e 02 f7 a6 bd a5 f5 40 3e 4e 81 e8 bc
       0.19524612 -0.08152582 0.18843706 -0.02838197
0003e0 79 74 bf bc 53 da 89 bd 61 3e c8 be 46 93 14 be
       -0.023370968 -0.06731095 -0.3911009 -0.14509305
0003f0 b8 bf e7 3e e4 31 fc be c5 4c 3d be 22 7e 24 be
       0.45263457 -0.49256814 -0.18486317 -0.16063741

layer_2.bias f4 [300]
000000 b7 32 21 3e 33 e3 a8 bd 09 3c 54 3e cf 2d 53 bd
       0.15742002 -0.0824646 0.20726027 -0.05155736
000010 31 b6 cf bd 47 fe 1f 3e 9a e7 9c bd 59 a4 52 bd
       -0.10142172 0.15624343 -0.07661362 -0.051426265
000020 f4 c4 91 3e 01 4d ca bd 75 59 02 be 39 9a 2a bd
       0.28470576 -0.098779686 -0.12729438 -0.041650984
000030 1e a5 ef bc 01 23 a0 bd f3 d4 81 bd 69 94 c3 bd
       -0.029253539 -0.078191765 -0.06339445 -0.09549791
000040 63 8f 52 3c 4d 79 a0 bd 76 df 6b bc 9b 45 3a bd
       0.012851569 -0.07835636 -0.014396539 -0.045476537
000050 c5 c8 9e bd 06 3e 14 bd e9 67 ac 3e 30 db 79 bd
       -0.077531375 -0.036191963 0.33673027 -0.06100005
000060 b7 26 27 bd 06 4d ce bc 43 03 80 bd de 76 c9 bd
       -0.040808406 -0.025183212 -0.06250622 -0.09837125
000070 94 ab 29 bd 63 bb 97 bd c5 0a 1f bd e5 5f 73 be
       -0.041423395 -0.07408788 -0.03882863 -0.2376705
000080 2c aa 98 bd 3a 85 b7 bd f4 26 a0 3c 18 e4 45 bd
       -0.07454333 -0.08960958 0.019549824 -0.04831323
000090 da a2 04 3b 56 a2 7e 3c 66 c5 0d bd 5a 00 42 bd
       0.0020238669 0.015541634 -0.034612082 -0.047363617
0000a0 96 6a 12 3d 43 aa 3c bd f5 64 b0 bd 79 e4 98 bd
       0.03574618 -0.04606081 -0.08613006 -0.07465453
0000b0 88 d7 cb bc f1 63 66 bd 9e 6c 35 bd a1 40 80 bd
       -0.024883047 -0.056247655 -0.04429304 -0.06262327
0000c0 59 62 78 bd 96 80 a2 bd 82 1c 1f 3d 91 ff 7c bd
       -0.060640667 -0.07934682 0.038845547 -0.061767165
0000d0 4d 70 c4 bd 38 ef 7d 3e 67 3e 8e bd 5e 96 1e bc
       -0.09591732 0.24798286 -0.06945496 -0.009679405
0000e0 3c 45 79 3d b4 ca 94 bd e9 ea e2 bd 9d c7 b2 3d
       0.060857043 -0.07265225 -0.11079962 0.087294795
0000f0 7e ed f2 3d 33 4b 9c bd 10 2a ab bd 74 43 01 bd
       0.11861704 -0.076315306 -0.08357632 -0.03155847
000100 89 58 b6 bd 50 52 83 bd 05 28 b1 bd 3d a3 ea 3d
       -0.089036055 -0.06412184 -0.08650211 0.114569165
000110 d3 47 51 be d4 58 d1 bd 04 f5 8d bb d0 fd ac 3e
       -0.20437555 -0.10222021 -0.0043321867 0.33787394
000120 f9 91 c8 be 9e 7f 2a be 19 6e 90 3e 71 37 0b bd
       -0.39173868 -0.16650245 0.28208998 -0.03398842
000130 42 6e 99 bd 1b 2a 80 bd 5b 09 e7 bc 88 7b 99 bd
       -0.07491733 -0.06258031 -0.028202703 -0.07494265
000140 6a 18 8b bd a1 a4 08 bd 9a 20 98 bd e3 95 62 bd
       -0.06791766 -0.033360127 -0.07428093 -0.055318724
000150 20 45 ab bd 6e f9 8c bd bb 3d 8c bd 87 4b 55 3e
       -0.08362794 -0.068835124 -0.06847712 0.20829593
000160 74 c8 18 bd 3a 8c 27 bd 1d 0a 59 bd 91 54 b1 bd
       -0.037300542 -0.040905215 -0.05298816 -0.08658708
000170 b2 52 9e bc c1 8f 36 bd 51 e8 bb 3c bd 9c 1c 3d
       -0.019326542 -0.04457069 0.022937926 0.038235415
000180 95 33 4d bd 10 c4 88 3d 28 7c 98 bd f1 37 0a be
       -0.05009802 0.06678021 -0.07445556 -0.13497902
000190 85 66 7a 3e 11 8f 57 bb fb e1 a1 bc ce 66 e2 bd
       0.2445317 -0.003289167 -0.019761076 -0.11054765
0001a0 5d 4b d1 bc f3 a2 21 bd d4 99 81 3b 21 3c 60 bd
       -0.025548631 -0.03946204 0.0039551053 -0.054744843
0001b0 10 4a d7 bc f5 ef b2 bd 15 ee 50 bd cc 75 d5 bd
       -0.026280433 -0.087371744 -0.051008303 -0.104228586
0001c0 b6 55 93 3d 5c ee 4b bd 22 ac 92 bd a1 ea bd bc
       0.071940824 -0.049787864 -0.07161738 -0.023183169
0001d0 9f d1 5f bb 99 43 40 be ad 63 eb bd 18 f5 08 bd
       -0.0034152044 -0.18775786 -0.11493621 -0.033436865
0001e0 12 c9 2d bd 55 55 6e 3d d6 e6 ab bd 1c 11 57 bd
       -0.042428084 0.058186848 -0.08393638 -0.05250655
0001f0 68 57 7f bd 24 9f df 3e 2d 8d e2 bc 88 1a e8 bc
       -0.062339216 0.43676102 -0.027655208 -0.028332964
000200 c7 af cd bd 97 17 a7 bd cb 1a 22 be 13 1c a8 3e
       -0.100432925 -0.08158796 -0.15830533 0.3283392
000210 25 c8 96 bd 6c c4 5f bc a4 b5 dc be 5a c5 c1 bc
       -0.07362393 -0.0136576705 -0.4310733 -0.023653675
000220 7a 77 97 bd 99 45 fa 3d b8 58 c7 bd d5 4a b2 3c
       -0.07395835 0.12220306 -0.09733719 0.021764198
000230 f2 28 b2 bb 70 b5 0a 3e fd b4 ec bd dc 67 bf 3d
       -0.00543701 0.13545775 -0.11557958 0.093459815
000240 9e c2 91 bd fe c7 d3 bc 1f d0 8a 3c b9 74 50 bd
       -0.071171984 -0.0258522 0.016944943 -0.050892565
000250 f3 28 cb bc d1 87 98 bd d0 dc 06 3e 8a ec c7 bd
       -0.0247998 -0.0744778 0.13170171 -0.09761913
000260 8d 7e 13 3f 77 9e 17 bd 48 30 9f 3d d5 4d 27 3b
       0.57614976 -0.03701636 0.07772881 0.002552857
000270 52 bf 02 bd 10 5d 7a bd 9f b0 71 3d 4f 5a ca bd
       -0.03192074 -0.061123908 0.05900633 -0.09880506
000280 5a 18 82 bd b9 ab 0c 3d 96 34 66 bd 74 a1 32 bc
       -0.06352301 0.034343455 -0.056202494 -0.010902751
000290 7c db 0a be c7 23 64 bc d3 29 a6 bd e4 49 89 3e
       -0.13560289 -0.013924546 -0.08113446 0.26814187
0002a0 2f 0d 94 bd 32 89 b6 3d 94 6a 2e bd 94 a9 1a be
       -0.07229077 0.08912887 -0.04258211 -0.15103751
0002b0 89 d1 ff 3d ab 72 0e 3e 77 35 c3 bd 7b 4f 8f 3d
       0.124911375 0.1391093 -0.09531682 0.069975816
0002c0 70 56 99 3c 23 62 80 bd fd 92 c5 3c 25 c7 8d bd
       0.018717974 -0.06268718 0.024117941 -0.069227494
0002d0 21 ad d5 bd b5 85 00 be de 76 59 bd 88 95 84 bd
       -0.10433412 -0.12551005 -0.053091876 -0.06473833
0002e0 9f 23 58 3e f8 cd 80 bb 89 ce 42 3e 7d 54 f8 3d
       0.21107338 -0.0039308034 0.190241 0.1212549
0002f0 e3 d1 21 3f 18 c2 5e bd 5c 29 9e bd b2 40 41 be
       0.63210887 -0.05438432 -0.077227324 -0.18872336
000300 b2 3a 01 be 8f 4a 84 bd 79 f9 7c bd 91 b5 9f bd
       -0.12620047 -0.064595334 -0.061761353 -0.07798303
000310 07 6d 0d 3e 0f 98 93 bc 41 59 15 bc ff b5 86 bd
       0.13811122 -0.018016843 -0.009115518 -0.06577682
000320 85 9b 4b bd 77 c7 f7 3b 9e 15 b4 3d ca 47 18 bd
       -0.04970886 0.00756162 0.08793186 -0.03717784
000330 b5 8f a2 bd 79 8b eb 3d 13 72 ef 3e e9 a7 e4 3d
       -0.07937566 0.11501212 0.4676672 0.11164839
000340 82 b8 7f bd 47 1a cb 3d 96 37 5b 3b ec e3 b4 3a
       -0.06243182 0.099171214 0.003344988 0.0013800836
000350 4d 71 8f bd 2f e1 9e bd ac f2 bd 3e 4a b7 55 3d
       -0.07004032 -0.07757794 0.37099206 0.05217675
000360 96 7f 8b bd 2e 84 ae ba 7b d5 86 bd bd dd 2d 3e
       -0.068114445 -0.0013314539 -0.06583687 0.16979118
000370 ca f0 a6 bc ea 6f 03 be d7 31 f3 bb 00 cc ae bd
       -0.020378489 -0.1283566 -0.007421713 -0.08535004
000380 19 58 41 bc 7e b9 c5 3e ca 2d b9 bd 6f 4e a5 3c
       -0.011800789 0.38618082 -0.09041937 0.020179002
000390 eb c1 15 3e ac c1 96 bd 1c fd 54 bd 72 df 14 bd
       0.14624755 -0.07361159 -0.051999196 -0.036345907
0003a0 ca 17 62 bd dc f8 ca bd 86 8e 76 bd e7 70 9c bd
       -0.05519847 -0.099107474 -0.060194515 -0.07638722
0003b0 57 b8 ae bc 1d 99 8e 3d 4d ce d8 bd f5 ac c3 3b
       -0.021328134 0.06962798 -0.10586224 0.005971546
0003c0 2e 7b 7c 3e 7c ca 7a bd 22 43 db 3d 2b 38 ba 3d
       0.24656364 -0.06122826 0.10706164 0.090927444
0003d0 5f 5f 21 be 34 35 12 3f 39 e7 8d 3e c2 dd e4 bd
       -0.15759037 0.5711243 0.2771547 -0.111751094
0003e0 5c 5d 91 bd df 7d 13 bd a1 93 89 3d 6e 77 c2 3e
       -0.07097885 -0.036008712 0.06717611 0.37981743
0003f0 09 82 69 bd 07 c6 92 bd 8a f8 c3 bc e7 a8 96 bd
       -0.057008777 -0.07166677 -0.023922224 -0.07356434

layer_3.weight f4 [1, 300]
000000 0d 64 0d bd ed 9f 13 3c ea bd f2 bc c0 86 a4 3c
       -0.034519244 0.009010297 -0.029631574 0.020083785
000010 7a ee f3 3b b9 77 88 bc 12 68 81 3c f3 fc 90 3c
       0.0074442 -0.01665865 0.015796695 0.01769874
000020 a8 48 ca bc 48 33 0a bc 19 40 74 bc 4e 65 17 3c
       -0.024692848 -0.008435078 -0.01490786 0.0092404615
000030 cd 42 9a bc 1d f3 46 3c 86 8d d5 3c e6 cf 45 3b
       -0.018830681 0.012142924 0.02606846 0.0030183732
000040 d5 ba 0f 3d dd be b8 bc 2a 93 86 3c 15 1f a3 bc
       0.035090286 -0.022551948 0.016427595 -0.019912282
000050 dd b0 3f bc 4c 29 de bc fb 10 24 bd 72 a9 0f bc
       -0.011699882 -0.027119301 -0.040055256 -0.008768426
000060 39 b7 72 bc 58 1c 83 3b 7c 61 57 3c d5 27 d0 bb
       -0.0148141915 0.0040011816 0.013145801 -0.0063524046
000070 fc 44 bb 3c a8 c9 34 3c a7 e8 df 3c 75 d8 8d 3c
       0.022860043 0.011034407 0.027332617 0.017315129
000080 1c 80 c2 ba 92 82 88 bc a4 f3 92 bc 7e 35 13 3c
       -0.0014839205 -0.016663823 -0.017938443 0.0089849215
000090 d4 e3 e3 bb b3 98 d1 bc a8 ed e8 bc cb 6f 04 3c
       -0.0069546495 -0.025585508 -0.028433636 0.008083294
0000a0 27 cf ca bc 90 fd aa 3c 45 27 ea 3b 7e 23 c1 3b
       -0.024756981 0.020872861 0.0071457946 0.0058941236
0000b0 23 9b 5f 3c 1a 40 a2 bc fe ca 68 3c b9 50 a4 3c
       0.013647827 -0.019805957 0.014208553 0.020058023
0000c0 13 8d ca 3c 9d 46 6a bd 6d 88 1b bd 25 66 42 3c
       0.024725473 -0.05719625 -0.037971903 0.0118651735
0000d0 75 b9 0c bc c4 cb 80 bc 72 79 4c 3c b8 f3 a1 3b
       -0.008589138 -0.015722163 0.012480127 0.0049423836
0000e0 be 8c dd bc 8a f7 90 3c 7b 19 e1 bc 12 49 19 bd
       -0.02704465 0.01769616 -0.02747797 -0.0374232
0000f0 04 31 02 bd 50 a1 5c bc ff d4 fb bc c5 9e 22 3d
       -0.031785026 -0.013466194 -0.030741213 0.039702196
000100 e1 9e 88 3c 8e 41 70 3c 7a ab 88 bc 9b 24 b9 bc
       0.016677322 0.014664067 -0.016683329 -0.022600463
000110 df 6f 09 bd 0c ae c7 3c 0d 55 8f 3c f9 eb 09 3d
       -0.033553954 0.024374984 0.01749661 0.033672307
000120 aa d3 0d 3d b5 27 b2 3c 02 53 33 3d 50 ff bc 3b
       0.034625687 0.02174745 0.043780334 0.0057677403
000130 12 fb 10 bb 2f 57 b6 bb 5c 05 2f 3c 97 57 f5 bc
       -0.0022122306 -0.0055645923 0.01068243 -0.029948993
000140 f6 11 ef bb 66 7f 8e 3c ba 9a 46 3c 73 69 b6 3a
       -0.0072958423 0.017394733 0.012121851 0.0013916924
000150 bc 2d 75 bc b1 cb 82 3c ed f1 3c 3b 93 a0 a8 bc
       -0.014964517 0.015966268 0.0028830722 -0.02058438
000160 e1 a9 7b bc e4 ea c5 3c 55 10 04 3c ae 5d ca 3a
       -0.0153603265 0.024159856 0.0080605345 0.0015439296
000170 34 05 e0 bc b6 68 2d 3c d0 bd 26 bc c7 af fc bc
       -0.027346231 0.010584047 -0.010177091 -0.030845536
000180 f6 90 eb bc 28 3f 4a bd f7 c6 80 bc 90 e7 37 3d
       -0.028755646 -0.049376637 -0.015719874 0.04489857
000190 ae 37 be bc 38 df 13 3c 10 ff de 3c 7a ae 8d bb
       -0.02321991 0.0090253875 0.027221233 -0.0043237777
0001a0 a9 6e d0 bc 55 8d 3e bb 57 a9 f7 bc 42 ac 72 3c
       -0.025443392 -0.002907594 -0.030232115 0.014811577
0001b0 3f 86 38 3d 14 cf 15 3c 1e a9 eb 3c f2 c1 94 bc
       0.045049902 0.00914361 0.028767165 -0.018158887
0001c0 7e 5c 9c bc d0 d8 eb 3b d6 e2 d5 bc 7e c7 95 bb
       -0.019087072 0.007197477 -0.02610914 -0.0045709005
0001d0 ea 3d b0 bc d4 2c 9c 3d aa 75 26 3b ed d9 80 3c
       -0.021513898 0.07625738 0.0025399723 0.015728915
0001e0 ed e8 6e bb 70 b2 29 bd 7c b1 81 bb 6d 3b 3a bc
       -0.0036454753 -0.041429937 -0.0039579254 -0.011366707
0001f0 95 04 7f 3b 16 3b 12 3d ca b9 fb bc ac 8b 3c 3b
       0.0038912643 0.03570088 -0.03072824 0.0028769774
000200 6d 45 d9 bb 92 9f 2f bb 49 5b cc bc 09 8b 6f bc
       -0.0066305907 -0.0026797992 -0.024945872 -0.014620551
000210 e6 48 49 bc 00 7f 24 3a 42 13 08 3d 6a 7c ca 3c
       -0.012285447 0.0006275028 0.03322149 0.024717528
000220 4d c7 3e bc 1b 3b a6 bc 7b 4a da bb d8 d4 bf bc
       -0.011644197 -0.020291856 -0.006661711 -0.023416921
000230 a5 60 0e bc 33 23 a3 bc fc 86 bc bc 09 e4 bf bd
       -0.008690034 -0.019914245 -0.023013584 -0.09369666
000240 8f a1 1b 3c 0c 32 33 bc 73 6c f5 bc f5 b5 b1 bc
       0.009498968 -0.010937225 -0.02995894 -0.02169321
000250 aa c4 c6 3a 79 c8 00 3d cb 45 8e bc 00 25 99 3b
       0.0015164812 0.031441186 -0.017367264 0.0046736
000260 43 e0 d2 3c 8e 2f 04 bd 5a 50 db bc 16 fb bf bc
       0.025741702 -0.032271914 -0.026771713 -0.023435157
000270 94 58 91 3b 06 60 73 bc 15 df c6 ba 00 d1 d6 bb
       0.004435608 -0.014854437 -0.0015172685 -0.0065556765
000280 a7 4b 29 bb 53 46 b3 3c d5 ab d0 bc 83 c2 b0 3c
       -0.0025832446 0.02188412 -0.02547256 0.021577125
000290 77 94 2c bb 6d e9 c2 bc 07 83 ac bc 1b f4 29 bc
       -0.002633361 -0.023792947 -0.021058572 -0.010373141
0002a0 ae 0a b6 3c 50 39 32 bd 80 98 41 bc 31 59 3a 3c
       0.02222189 -0.04351169 -0.011816144 0.011373804
0002b0 98 de be bc 46 ce 37 bd f8 73 92 3b e1 75 f0 bc
       -0.0232995 -0.044874452 0.004469391 -0.029353084
0002c0 bb 64 93 bb 31 55 ad 3c 6e ce 3b bd c1 43 d7 bc
       -0.004498092 0.021158786 -0.045851164 -0.026277425
0002d0 2c 49 75 3c 3b 9f 78 3c c6 e2 e2 3b 03 b0 9c 3c
       0.014971059 0.015174682 0.006924006 0.019126898
0002e0 2b 64 b8 bc 99 09 44 bb 94 6e 49 bc 5f 82 a7 bc
       -0.022508701 -0.0029912947 -0.01229443 -0.020447908
0002f0 4d 61 e4 3c 44 07 30 bd 33 33 c8 3b d0 a7 9c bd
       0.027878428 -0.04297568 0.006109619 -0.07649195
000300 71 31 8e bb 89 f9 d8 bc 01 ad f4 bc b6 00 05 bc
       -0.00433939 -0.026486175 -0.029867651 -0.008117845
000310 9e 29 b3 bc 4c b1 9e bc 3a 11 ea 3b a2 62 07 bd
       -0.02187043 -0.019371651 0.007143167 -0.033053048
000320 6b 4e 74 3c 7d e7 77 3c a4 bc aa bc 6e d9 44 bb
       0.014911274 0.015130875 -0.020841904 -0.0030036825
000330 03 18 c1 3c f8 8a b9 3c 4a 19 09 bd 69 bc e2 bc
       0.02357102 0.022649273 -0.033471383 -0.027677732
000340 b6 48 3b 3c 09 24 15 3d d7 cf e7 ba 53 35 ed bc
       0.01143091 0.03641132 -0.0017685842 -0.028956091
000350 d9 b8 dc bb db a8 9e bc 62 4e 1f 3d 1a ac fb 3c
       -0.0067359027 -0.019367626 0.03889311 0.030721713
000360 6d ba 71 bc 90 73 8b 3b 14 f5 05 3c 9f dd 5f 3d
       -0.01475392 0.0042557195 0.008176107 0.054654714
000370 c9 a3 b0 bc 71 50 fd 3b 0f 31 2d bc ee 75 d1 bb
       -0.021562474 0.0077305366 -0.0105707785 -0.006392232
000380 85 9f 40 3d 5a c3 03 bd 80 bf 86 3c 35 9a ef bc
       0.04702713 -0.032168724 0.016448736 -0.029248336
000390 68 7e 4e 3d 9c 3b 9e bb 51 dc 5e 3c 67 c8 f3 bc
       0.05041352 -0.0048288833 0.013602332 -0.029758645
0003a0 57 75 04 3c 5e e7 11 3c bd 85 88 bc 57 c5 d2 bb
       0.008084617 0.00890526 -0.016665334 -0.006432216
0003b0 65 d5 40 3b f5 90 02 bd af 47 d5 3b 1d 01 94 3d
       0.0029424068 -0.031876523 0.0065087895 0.07226775
0003c0 db da c8 3d a9 b9 31 3b 40 f3 fa bc 9c 27 5a bc
       0.09807368 0.0027118719 -0.030633569 -0.013315108
0003d0 40 0a be 3c 30 06 0f 3d 2b 2b be bc 91 2d 3f bd
       0.023198247 0.03491801 -0.023213943 -0.046674315
0003e0 f6 25 2c 3b bc 5e 27 bd 21 89 2b bd c6 bd e9 bc
       0.0026267744 -0.04086183 -0.041878823 -0.028532874
0003f0 af 43 de bc d5 3c 76 3c d1 25 94 bc 5a 5b 8e bc
       -0.027131883 0.015029152 -0.018084439 -0.017377544
