models/all_td3/TD3_TradingEnv9_pred_42_650_critic_2.pth (torch, 591839 bytes, 5 tensors)

layer_1.weight f4 [400, 66]
000000 52 fd cf be 05 34 69 be 73 96 f7 be 77 21 c5 be
       -0.40622956 -0.2277375 -0.4835697 -0.38502094
000010 c5 8f d9 3f 85 f1 82 be 8a 1e 10 40 aa ca 13 be
       1.6997 -0.2557489 2.251864 -0.14432779
000020 00 d0 34 3d 1a 88 62 3d 7e ea f8 be 10 49 fa 3f
       0.044143677 0.055305578 -0.48616403 1.9553547
000030 a9 86 06 bf aa 25 89 be a8 c1 ac 40 fb 1b 4e bf
       -0.52549225 -0.26786548 5.3986397 -0.80511445
000040 26 9a 46 bf df 2f 4c 3e c1 30 e1 bc 5c bd a5 be
       -0.7757896 0.19940136 -0.027489068 -0.32371032
000050 73 b0 6b bf ad a7 53 3f 18 35 9f bf ec 46 5c bf
       -0.92066115 0.8267773 -1.2438078 -0.8604572
000060 d4 fc 5e 40 5c 33 87 bf b5 09 1f 40 32 91 0a 3f
       3.4841814 -1.0562549 2.4849675 0.541278
000070 ef 2f a2 bc 52 3e 9b 3e 86 65 a6 bc 48 7c ac 3e
       -0.019798247 0.30320984 -0.020312082 0.3368857
000080 21 cc 01 bd a6 55 18 be ce 29 f4 3f 44 cf 37 be
       -0.031688813 -0.14876422 1.9075258 -0.1795016
000090 9a 8d 00 c0 44 36 4b 3f 8d e6 2c bc 94 dc 0b bd
       -2.0086427 0.7937968 -0.010553014 -0.034145907
0000a0 08 69 80 3e b1 75 3d 3f 63 27 65 3e 85 92 b9 3e
       0.25080132 0.7400771 0.22378306 0.36244598
0000b0 50 c5 ed bf 33 ca be 3f 3d e3 b6 3e 0a 7e ab 3e
       -1.857584 1.4905456 0.35720244 0.33494598
0000c0 85 dc 9d 3c 13 fb c5 bd 69 c3 2f bf 05 e4 8b 3e
       0.019270191 -0.09667029 -0.6865755 0.27322403
0000d0 6c 4a bd 3e 12 0f e9 3e 70 56 4e bd 20 57 e1 3c
       0.36970842 0.4551931 -0.050375402 0.027507365
0000e0 80 e8 25 ba 04 6c 55 3d 5c a0 9e 3d 48 cd 79 3d
       -0.00063288957 0.052104965 0.0774543 0.060986787
0000f0 d5 8c 31 be 88 e7 f8 bc 93 94 21 3c ca 6c 39 3e
       -0.1733888 -0.03038384 0.009862083 0.18107906
000100 6d 49 90 bd 87 ee 0f bd 4d 6a 79 3f fe 3a a1 be
       -0.07045255 -0.035139587 0.9742783 -0.3149032
000110 d8 06 a1 3f 10 97 67 3f bf be 74 3d d9 87 72 3e
       1.2580214 0.9046488 0.059752222 0.23684634
000120 8d 7f 4b bf d8 53 14 bf 11 16 02 bc 39 f5 ae 3e
       -0.794915 -0.57940435 -0.007939831 0.34171465
000130 82 8e 18 3f dc 03 81 bf c3 58 4c 3f 46 ae 2c 3f
       0.5959245 -1.0079303 0.7982294 0.6745342
000140 83 05 fd be dc 79 32 be b5 24 32 40 23 36 8d be
       -0.49418268 -0.17429298 2.7834904 -0.27580366
000150 52 9b 78 bc 89 0a 44 3e d4 79 4a 3f c8 4d 48 3c
       -0.01517375 0.19144644 0.79092145 0.012225576
000160 96 7c 66 3f 2c 90 61 3f c2 71 19 bf 59 5f 95 bf
       0.90033853 0.88110614 -0.59939206 -1.1669723
000170 1b 91 e8 3f 40 88 1d 3f 6c 94 5b 3c 04 5d 53 bd
       1.8169283 0.61536026 0.013402086 -0.05160238
000180 77 65 54 be d6 6d 71 3d 71 b4 2d be 9a 4b ee bd
       -0.20741831 0.05894264 -0.16963364 -0.116355136
000190 78 55 32 bf c1 64 a7 bf 81 e5 94 bf 3a de 49 bd
       -0.69661665 -1.3077623 -1.1632539 -0.049284197
0001a0 fd e4 35 bd 43 e8 64 be d5 de bf bd 3b 4b 5d bc
       -0.044407833 -0.22354226 -0.09368674 -0.013506706
0001b0 8b aa a5 bd 6e 5e 2c 3a 95 d2 aa 3f 0b 01 78 bf
       -0.08089169 0.00065753504 1.3345515 -0.9687659
0001c0 2a 59 92 3f a5 e2 f6 be 03 03 34 bd ee 92 c6 3e
       1.1433461 -0.4821979 -0.043948185 0.38783973
0001d0 65 91 6f 3f fa b2 2c bf 25 11 78 bf e7 b1 a4 bf
       0.9358123 -0.67460597 -0.9690116 -1.2866791
0001e0 b3 e1 9b bd 26 1f f9 3d be a5 a3 bd 88 ea 08 3d
       -0.07611408 0.12164144 -0.07990597 0.03342679
0001f0 3f 6c cb bd dc a6 63 3d 6e 1f 51 be c6 0c 0a be
       -0.09932756 0.05557905 -0.20422146 -0.13481435
000200 01 46 5c 3d d8 09 75 3d dc e2 05 be 55 a4 ba 3d
       0.0537777 0.05982384 -0.13074821 0.09113375
000210 67 cb bf 3f d5 81 10 c0 9b 8a e5 3f 11 96 d3 3f
       1.4983948 -2.2579243 1.7932924 1.6530172
000220 a8 2b a1 3e d0 32 02 3e 96 63 8e 3f 95 93 93 bf
       0.3147862 0.12714696 1.1124141 -1.1529413
000230 f9 dc e8 3b 9f 35 9f bd b2 07 d1 3e e8 bc de be
       0.00710642 -0.07773899 0.40826184 -0.435035
000240 7a 11 14 3f d6 f2 e3 3e c1 4a c3 3f af 5b f2 3d
       0.5783917 0.44521207 1.5257188 0.118338935
000250 9d 1c 25 40 34 70 43 be 2e f3 5a bb a8 7f 93 be
       2.5798714 -0.19085771 -0.0033409107 -0.2880833
000260 d8 1d 43 3f 18 21 2b bf d7 d7 4c 3f 2f d1 24 3f
       0.7621741 -0.6684737 0.80016845 0.6438169
000270 ab 78 2e 3f d2 a7 e6 3e 4e 60 f6 3f a8 fc c2 3d
       0.68152875 0.45049912 1.924814 0.095208466
000280 2d 34 16 3c c9 03 b6 be 61 c9 ef be 43 da ce bf
       0.009167713 -0.35549763 -0.46833327 -1.6160358
000290 96 69 0d bf 32 08 da be 2b b2 d8 3e b6 8e 58 bf
       -0.55239236 -0.42584378 0.4232343 -0.8459276
0002a0 03 59 1d 3f 63 d0 87 bf f6 41 22 bd ae 34 cf 3d
       0.61463946 -1.061047 -0.039613687 0.1011747
0002b0 f1 21 e2 3c be 7b b3 bf b4 2d e7 3e 05 c1 d1 3d
       0.027604075 -1.4022138 0.45152056 0.10241894
0002c0 c1 88 c8 c0 09 8d 8c bf 8c 82 e2 3c d6 a6 56 be
       -6.2666936 -1.098054 0.02765014 -0.2096208
0002d0 12 93 54 3b a0 e6 10 3e f2 ed be 3f 6a f6 47 bf
       0.0032436294 0.14150476 1.4916365 -0.78110373
0002e0 f2 2b 5f bf 68 53 73 bf 32 cc 7b 3d 27 98 da bd
       -0.8717643 -0.9504914 0.061474033 -0.10673552
0002f0 5c 61 a9 3d 42 be a5 3d a6 06 d0 3d 40 11 5e bb
       0.08270523 0.080929294 0.10157518 -0.0033884794
000300 39 3b 81 bc b1 a5 0f bd 1b 70 b5 bb d0 26 ac bc
       -0.01577531 -0.035070125 -0.0055370457 -0.021014601
000310 fa 67 10 3e 6d b2 81 3d 6f af 69 be 36 f2 84 3e
       0.14102164 0.0633286 -0.22820829 0.25966042
000320 b8 00 ef be e5 73 84 be 75 27 de 3e bd 7f 04 bd
       -0.46680236 -0.2586967 0.43389478 -0.032348383
000330 19 be 04 3e ec b7 58 be 5f b1 72 bb 27 b0 20 be
       0.12963142 -0.2116391 -0.003703199 -0.15692197
000340 b5 b1 f8 be 2c 0b 1e bf 75 fe 13 bf 3e da f7 be
       -0.4857308 -0.61735797 -0.57810146 -0.48408693
000350 46 f9 2d bf cf 55 a4 be bc c9 0b 3f e4 77 f8 3d
       -0.67958486 -0.32096717 0.546047 0.12132242
000360 30 f4 fc bd bc 8f 49 3c 07 81 df 3c 52 ed 10 bd
       -0.123512626 0.012302335 0.027283205 -0.035382576
000370 d3 bd c3 be 3f 9f 03 be 25 80 47 bd 14 13 aa 3e
       -0.38230762 -0.12853716 -0.048706193 0.3321768
000380 47 be 33 bf dd 60 50 3f bf e9 87 3d 78 44 6d 3d
       -0.70212215 0.813978 0.066363804 0.057926625
000390 fe 34 16 bf 56 e1 a4 3d 69 ce 0a bf 14 aa 01 bf
       -0.5867461 0.08050792 -0.54221207 -0.50650144
0003a0 f2 d5 94 bf b5 00 30 3e ec 6e ab be 7b ec 85 3e
       -1.1627791 0.1718777 -0.33483064 0.26156983
0003b0 09 68 0f be ed a3 01 be 07 9f 85 3c d0 d0 3f 3d
       -0.1400453 -0.12660189 0.016311182 0.04683
0003c0 fb 4c 81 bd 48 ca c0 bd a3 f3 9f 3e 24 dd 73 bf
       -0.06313511 -0.09413582 0.31240568 -0.9525931
0003d0 f6 59 90 3e 81 a5 89 bd 4c b3 00 be a5 46 de 3d
       0.28193635 -0.067210205 -0.12568396 0.10853318
0003e0 e2 e4 57 bf 94 82 3c 3e b5 46 8d 3e f7 b9 19 3f
       -0.8433362 0.18409187 0.27593008 0.60049385
0003f0 9f 36 68 bd 66 7d b2 3d d4 8f 49 bd 2d f8 df bd
       -0.056692716 0.08715324 -0.04920943 -0.10936008

layer_1.bias f4 [400]
000000 04 fc 3b 3f e1 42 92 bf 7f 68 8f bf fd 7e dd 3e
       0.7343142 -1.142666 -1.1203765 0.43260947
000010 c4 c0 9a 3e 86 a1 66 3e 11 45 aa 3e 23 a8 67 bf
       0.30225194 0.22522554 0.33255818 -0.9049093
000020 74 a8 80 be 77 89 01 bf 2f b9 1f 3f b6 f2 0f bf
       -0.2512852 -0.5060038 0.6239194 -0.5622972
000030 64 c3 92 bd 1d 00 e3 be 25 e7 a5 3e e5 fa 11 be
       -0.07166174 -0.44336024 0.32402912 -0.14255865
000040 5f a2 9c bf 1c 78 35 bf 6d 8f ab 3e 7d f2 b9 bf
       -1.2237052 -0.708864 0.33507863 -1.4527127
000050 6c 80 47 bf a1 8f 3a 3e fd c4 0c 3f 01 db 34 bf
       -0.7793033 0.18218853 0.5498808 -0.70646673
000060 c4 df f9 be dd 46 1a 3f 50 b8 a1 bb 6e 80 44 3f
       -0.48803532 0.6026438 -0.004935302 0.7675847
000070 c9 0b a7 3f 75 da cc 3e fc 29 32 be fc f4 be 3e
       1.3050472 0.4001042 -0.17398828 0.37296283
000080 8a 9f e6 3e 53 f9 ab 3e 2b c1 2a 3e 27 33 cf 3e
       0.45043594 0.33588657 0.1667525 0.40468714
000090 2b dc 4f 3f d7 01 92 3f 80 85 03 3f 1d b0 a6 3f
       0.81195325 1.1406811 0.5137558 1.3022496
0000a0 77 c1 81 be 57 d2 5e bf 9f fc 65 be cc f1 a7 3e
       -0.25342914 -0.87039703 -0.22459649 0.32801664
0000b0 be 6c ca 3e f6 2d a1 3f fa 37 43 3f ed a4 14 3f
       0.3953609 1.2592151 0.7625729 0.58064157
0000c0 0f 24 1b 3f 98 1e 91 bf c6 b4 1f bf bc 8a 18 bc
       0.60601896 -1.1337461 -0.62385213 -0.009310421
0000d0 e6 d4 a3 3e cb 11 a6 3e 27 aa 39 3f 2b 8b bf 3e
       0.31998366 0.3243545 0.72525257 0.37410864
0000e0 ad 78 9c be 6a dd b9 be b5 02 89 3d 8f 19 a8 3d
       -0.30560818 -0.36301738 0.066899695 0.08208
0000f0 28 9c cb be 4e 9d 14 bf c6 c1 8a bf 8e ae 38 3e
       -0.39767575 -0.5805253 -1.0840385 0.18035337
000100 3c a3 f1 3e 27 62 5f 3f 06 2f ce bd 9e 85 86 bb
       0.4719485 0.87259144 -0.10067563 -0.004105284
000110 20 73 99 bf 06 9f 42 3f 5e 89 24 be 66 eb 56 bd
       -1.1988258 0.760239 -0.16068026 -0.052470587
000120 2a ae 82 bf b3 78 b1 3c 69 d8 1e 3e 7f 95 45 3e
       -1.0209401 0.021664 0.15512241 0.1929531
000130 84 43 47 bf 50 60 cf 3e ae 7c 80 bf 66 d7 d4 be
       -0.77837396 0.40503168 -1.0038049 -0.41570586
000140 db 56 f5 bd 8e bd ee 3e b0 5b 34 3f 2a f1 0b 3f
       -0.11979457 0.46628994 0.70452404 0.5466486
000150 31 3e c8 be b4 87 19 3f e1 6d e6 be 6a 70 01 3f
       -0.39109948 0.5997269 -0.45005706 0.50562155
000160 b2 45 02 3f ae 2f 05 3f 11 44 03 be 2b 80 77 3f
       0.50887597 0.5202588 -0.12818934 0.96679944
000170 e3 ca 99 3f 77 4a 64 3c 87 f7 1d be e4 6b 99 be
       1.2015041 0.013933769 -0.15426455 -0.29965127
000180 0f 59 72 3f 48 54 ea 3e f8 45 18 3f 98 3d 28 bd
       0.9466714 0.45767426 0.59481764 -0.041074365
000190 0b c8 25 bf e8 a0 f6 be 23 b8 11 3f 12 7f 23 bf
       -0.64758366 -0.48169637 0.56921595 -0.6386577
0001a0 c3 e9 64 bf da 6f bf be 8d 6b 6d 3f 40 09 11 be
       -0.8941919 -0.37390023 0.92742234 -0.14163685
0001b0 12 c9 e8 3e 97 e8 74 bf 0e 41 0e be 2f 98 73 3f
       0.45465904 -0.95667404 -0.13892004 0.9515409
0001c0 a8 76 26 3c 31 60 8f be 11 a5 84 3f c8 a5 21 3f
       0.010160126 -0.28003076 1.0362874 0.6314359
0001d0 0c 62 53 bf 7f 30 87 bf 18 3b 08 be a3 98 fb bd
       -0.8257148 -1.0561675 -0.13303792 -0.122849725
0001e0 d9 4c 98 bf d9 f0 a8 3e 8f 2e 6b bf 2a 51 61 3f
       -1.1898452 0.32996252 -0.9186792 0.8801447
0001f0 bb 5c fb 3e 26 43 70 bf 34 7f 76 bf e5 88 8a be
       0.49094185 -0.9385246 -0.96287847 -0.27057567
000200 48 ae ee 3e 9a 75 12 3d 6c 30 d8 3b e2 27 8e be
       0.4661734 0.035756685 0.006597569 -0.27764803
000210 d1 cb 4a 3f e9 f7 ac bd 43 14 de 3e 76 ec 54 3f
       0.7921725 -0.084457226 0.43374833 0.8317331
000220 d1 ba ff bd e3 1d a4 3e 2a 35 b4 3e b0 a4 38 3f
       -0.12486804 0.32054052 0.3519681 0.72126293
000230 f0 b0 cf 3e 6c f1 e5 3e 50 51 4f 3f 7e 05 07 3f
       0.4056468 0.44910753 0.8098345 0.52742755
000240 6d 6c 92 bf fc 5f df be be c0 24 3f c7 20 c0 3e
       -1.1439339 -0.43627918 0.643566 0.37525007
000250 24 c1 b6 3e cc 27 b1 3f ae 7d e2 3e d6 f1 03 3f
       0.3569423 1.384027 0.4423651 0.5154089
000260 5e a2 47 3f ee 0d f2 3e c0 12 26 3f eb 95 e0 3e
       0.7798213 0.47276253 0.6487236 0.43864378
000270 39 6e 58 bf dd 06 5f bf 4a 8f 9c 3e 29 ac 95 bf
       -0.84543186 -0.8711985 0.3057807 -1.1693164
000280 ee 13 ae bd 93 20 60 bf 7b 69 46 bf f6 5d 09 be
       -0.08499895 -0.87549704 -0.775047 -0.1341475
000290 bf 2f c3 3e 85 44 8d bf c9 c1 74 3e 76 1b 43 bf
       0.38122365 -1.1036536 0.23902048 -0.7621378
0002a0 d9 f6 fe be f6 12 ac 3e e0 8a 7e 3f 23 2c f7 be
       -0.49797705 0.33608216 0.99430656 -0.4827586
0002b0 25 9f cd 3e d6 8c cf 3e 77 58 84 3f e9 37 af bf
       0.4016048 0.40537137 1.0339497 -1.3688937
0002c0 48 0f 80 bf c4 09 8e 3f dc b8 08 3f fb a9 2c bf
       -1.0004663 1.109673 0.53407073 -0.6744687
0002d0 37 e2 bb 3e 3e b8 89 3e 60 5e 01 3f 88 62 bb 3e
       0.36696026 0.26898378 0.5053463 0.3659861
0002e0 3d 10 79 3c a7 fe 6c bf 59 99 1c 3f 24 00 82 bf
       0.015201625 -0.9257607 0.6117149 -1.0156293
0002f0 16 98 7f 3f 19 11 10 3f 6a 7a 14 bd be de 9c 3e
       0.9984144 0.5627609 -0.036249556 0.3063869
000300 b9 7a 73 3f 5e 13 af bf 0a 01 ac 3f 53 f7 10 3f
       0.95109135 -1.3677785 1.3437817 0.56627387
000310 ec db 2b bf c0 94 35 bf 43 fb 12 bf e4 59 3d 3f
       -0.6713245 -0.709301 -0.57414645 0.7396529
000320 3a ec 15 3f cb 9d 4a bf aa 87 8a bf 49 55 11 be
       0.5856358 -0.7914702 -1.0822651 -0.1419269
000330 e0 a5 b1 3e 07 ae 52 be 8e 62 36 3f 26 7e 7c bf
       0.34696865 -0.20574199 0.7124413 -0.9862999
000340 4b 7a 34 3f 39 b7 49 3f fb e2 6c be 29 2c d7 bf
       0.70499104 0.787952 -0.23133461 -1.6810352
000350 8f 5a 9d bf d8 d3 1b bf 8f f9 bc 3e 00 45 28 3f
       -1.2293261 -0.6087012 0.36909148 0.65730286
000360 70 71 34 3f 1f 34 2f 3f ab e2 23 3f cc 6e 4d 3f
       0.7048559 0.68438905 0.6401774 0.8024719
000370 2e 88 01 3f b5 97 02 bf 9a 49 0e 3f 0e 09 ce 3e
       0.5059842 -0.51012737 0.5558106 0.40241283
000380 bc 0a 88 bd e3 64 ff bd b7 40 7a bf ba 04 36 3e
       -0.066426724 -0.124704145 -0.97754997 0.1777524
000390 30 6e 01 3f d2 bb 3e 3f 8c dc 90 3e 95 aa 24 bf
       0.5055876 0.7450534 0.28293264 -0.6432279
0003a0 56 e5 0c 3f b4 fc 85 bf fb be eb 3e f9 6a 1b 3e
       0.5503744 -1.0467744 0.46044144 0.15177526
0003b0 d7 e9 da 3e f4 65 04 3e 59 ea 89 bf 61 98 0c 3f
       0.4275653 0.12929517 -1.0774642 0.5492001
0003c0 63 87 d9 3e 2e 8f 1f bc 3a da d9 be 49 24 aa 3f
       0.42486104 -0.009738727 -0.42549306 1.3292323
0003d0 f3 d6 11 be 1d a8 64 bf 1a eb f8 bd eb d7 7a 3e
       -0.14242153 -0.8931902 -0.12154217 0.24496429
0003e0 22 71 ff 3e 74 53 ce 3e 62 fb 7b be 7c 1e 71 3c
       0.49891 0.40298045 -0.24607614 0.014716741
0003f0 d9 97 bb 3e f1 79 2e bf 60 5f 1e 3f 22 db 20 3f
       0.36639288 -0.6815482 0.6186428 0.6283437

layer_2.weight f4 [300, 400]
000000 95 b9 60 bd 0c 84 91 bf 4e 55 05 3f a8 a5 81 be
       -0.054864485 -1.1368423 0.5208329 -0.25321698
000010 43 bf 92 3e 93 ce b2 3e 2e 16 02 3f d3 e8 3e 3f
       0.28661546 0.3492323 0.50815094 0.7457401
000020 57 7b c6 bd b3 86 1c be 02 07 b1 3d 37 cf 09 3f
       -0.09691494 -0.15285759 0.08643915 0.5383181
000030 74 0c 0b bc ba 91 d0 be e0 b7 58 3f 0d 6a 10 c0
       -0.008486856 -0.4073618 0.8465557 -2.2564728
000040 f6 ec 34 be f4 1a 89 3e b8 9f 61 3f c1 8e 32 bf
       -0.17668518 0.26778376 0.88134336 -0.69749075
000050 72 ba 8d be 34 fc 48 3f ad ff b7 3e 7a f1 49 be
       -0.2768131 0.7850983 0.35937253 -0.19721022
000060 ab f8 f6 3e 86 f5 79 3e 94 74 3e 3f 9e cc 46 be
       0.48236594 0.24410066 0.74396634 -0.19413993
000070 35 16 e9 bd 2c 3b ba 3e 77 b2 28 3e 9f 7b 8b be
       -0.11381189 0.3637327 0.16474329 -0.27242753
000080 ab 97 49 3f 60 46 cf 3f 85 7e 65 3e 0a cb 8e bf
       0.7874705 1.6193352 0.22411545 -1.1155713
000090 6a 83 dc 3e 0a 6b 11 bf 69 69 b1 be 6d bc ed bf
       0.4306901 -0.56803954 -0.34650734 -1.8573128
0000a0 85 92 69 3e 16 87 b6 3e 95 7d 84 3f ac 6a 1a bf
       0.22809799 0.35649937 1.0350825 -0.6031902
0000b0 3d ed 3b 3e fc 92 42 bf 19 89 04 bf b1 16 b0 be
       0.18352218 -0.7600553 -0.51771694 -0.34392312
0000c0 f9 0d 91 bf 16 cc 5c 3f f9 77 0b 3f 89 2f 36 3f
       -1.1332389 0.8624891 0.5447994 0.7116628
0000d0 83 31 0f be 54 f3 a0 3e 20 67 8d 3e af d2 96 be
       -0.13983731 0.31435645 0.2761774 -0.29457614
0000e0 e6 ff 56 bf 89 42 32 3f 73 a0 8d 3d 27 eb a8 3f
       -0.8398422 0.69632775 0.06915369 1.3196763
0000f0 a5 d0 26 bf d1 81 0b 3f c5 53 0c 3e 7a 82 0e 3f
       -0.65162116 0.5449496 0.1370383 0.5566784
000100 a6 b0 25 3f c5 e1 35 3f e6 0b f2 3d 40 37 8e bb
       0.6472267 0.7104762 0.11818676 -0.0043400824
000110 70 33 05 be b7 8a f1 be 2d 2f 04 bf bb a8 ee bf
       -0.13007903 -0.47176144 -0.51634485 -1.8645242
000120 07 5c 5b 3f 86 96 53 3d 7d 20 16 bc 89 fb 0a bd
       0.856873 0.051657222 -0.009163019 -0.03393129
000130 de b0 a8 3c d5 5e 50 be cb 84 69 3c ce 92 fb 3e
       0.02059215 -0.20348676 0.014252852 0.4913544
000140 ed e5 fb 3c 89 08 35 be bb 94 2c bd 9a 49 45 be
       0.030749286 -0.17679037 -0.042134028 -0.19266358
000150 6a e3 ce ba db a5 ae 3e ac 9f 3c bf 87 89 8b 3d
       -0.0015784327 0.34110913 -0.7368114 0.06813341
000160 5f 54 53 3f 9e 8f 1b 3e a7 52 0d bd 55 08 bb bf
       0.82550615 0.15191504 -0.03450265 -1.4611918
000170 06 c2 2b 3e 69 d8 b8 3e 5e 77 3d 3f 7b 74 03 be
       0.16773233 0.36102608 0.74010265 -0.12837403
000180 02 b4 fd 3e 08 e6 9c 3c 63 d2 e0 be ca 4c 9e 3b
       0.49551398 0.019152656 -0.43910512 0.0048309313
000190 b9 b1 33 c0 70 49 43 3f 8d 45 35 bf 7d d8 48 3f
       -2.8077223 0.7628393 -0.7080925 0.78455335
0001a0 e6 57 3f be f0 78 3e 3f 49 5b 65 3f 42 64 32 bd
       -0.18685874 0.74403286 0.89592415 -0.043552645
0001b0 cb 99 6c be 45 b7 a7 3e 0f 13 7b 3f cf a7 a4 bf
       -0.23105542 0.3275701 0.98075956 -1.2863711
0001c0 3d 94 21 c0 dc 8e 4e 3f 46 39 2d bf 0b 05 df be
       -2.5246727 0.80686736 -0.6766552 -0.43558535
0001d0 5b d0 c8 bf b2 73 03 3d ed 38 f8 39 31 4f 7e bd
       -1.5688585 0.032092758 0.0004734466 -0.06208724
0001e0 95 c0 36 3f 9a 30 e5 be de b8 9b 3c f7 18 81 be
       0.71387607 -0.44763643 0.01900905 -0.2521436
0001f0 7a 2f 82 3e 53 2a 8b 3e 4e 28 ed 3e 17 82 04 3e
       0.25426847 0.27180728 0.46319813 0.1294025
000200 2e e3 20 bd 7a ea ae bf ac b0 c6 bc 48 35 84 bb
       -0.039279155 -1.3665307 -0.024254166 -0.004034672
000210 c1 31 5d 3e 41 c9 40 3c a7 33 b5 be 3a 86 7b 3e
       0.21601011 0.011766733 -0.3539097 0.24562922
000220 ab e3 b5 3f 40 9a 6a bf 23 cb cc 3f 81 85 e4 3e
       1.4210104 -0.91641617 1.5999492 0.44633105
000230 cc 37 89 bd c0 58 3b bf 71 1d f4 bd 81 d4 db be
       -0.067000955 -0.73182297 -0.11919678 -0.42935565
000240 26 d6 d0 3f 31 87 ab be 3e b2 d0 be 1b b9 cc bd
       1.6315353 -0.3350158 -0.40760988 -0.099962436
000250 8e f9 91 bd db c7 af be 31 31 8b 3e 7a 57 94 3f
       -0.07127677 -0.34332165 0.27185968 1.1589196
000260 8e 9f 91 bf 67 42 4c be a9 16 c8 bf 4d 64 0c 3f
       -1.1376817 -0.19947205 -1.5631915 0.54840547
000270 1c ee d1 bd 8c dc 64 3f 81 6f c4 bf 79 e7 40 be
       -0.10250494 0.8939903 -1.5346528 -0.188383
000280 93 e9 03 bb e8 9b f0 bf 0d 29 53 be 9c 16 ed 3e
       -0.0020128235 -1.8797579 -0.20621128 0.46306312
000290 ed 23 1d bd 62 cf 17 3e 8a 88 c4 bd 7e e4 57 bd
       -0.03836434 0.14825204 -0.09596355 -0.05270814
0002a0 29 7f 09 3d 18 a8 bf 3e d1 f8 2e c0 1b 51 04 be
       0.033568535 0.37432933 -2.7339365 -0.12921564
0002b0 b6 7f 37 bf c4 d5 e2 bd 90 fd 90 3e 5c 16 2e 3e
       -0.71679246 -0.11075929 0.28318453 0.17000717
0002c0 b9 65 a9 bf 19 31 7b 3f b4 28 3c c0 49 bf 6d 3e
       -1.3234168 0.9812179 -2.9399843 0.23217501
0002d0 6a 59 65 bd d7 3e 21 bf 8d 54 a5 bd 5d 00 62 3c
       -0.055993475 -0.6298651 -0.080727674 0.013794032
0002e0 ee df e1 bb b4 c7 cd be 8c d1 20 3e 9e e9 0c 3f
       -0.0068931496 -0.40191424 0.15704936 0.5504397
0002f0 40 1e 04 c0 51 67 2d c0 77 dc 8b be 06 43 87 bf
       -2.0643463 -2.709431 -0.2731664 -1.0567329
000300 4f 7c 06 be a2 96 89 bd 75 d8 3c c0 d3 e8 22 3f
       -0.13133357 -0.06718184 -2.9507115 0.6363651
000310 4e ea 92 3e a2 3c 49 bf 99 9f b5 3e 37 d6 d0 bf
       0.28694385 -0.78608143 0.35473326 -1.6315373
000320 46 e0 c1 3d 7c 83 38 bb 59 20 07 3f 06 a9 b7 bd
       0.09466605 -0.0028154543 0.52783734 -0.089677855
000330 91 1f 2d 40 16 ab 4b bf 39 5e c9 bf fd 6d b3 3d
       2.7050517 -0.7955793 -1.573188 0.08761213
000340 aa 77 d0 be a2 b0 fd bc 7d c7 ef bf a3 23 5b bc
       -0.40716296 -0.030968014 -1.8732754 -0.013375196
000350 0b 66 2d bf 70 bf c0 bf b5 c4 00 3f 77 d3 25 bf
       -0.6773383 -1.5058422 0.5030015 -0.64775795
000360 d8 ac 2d 3f 30 ed 66 bf 61 f3 31 3e ce 13 9d 3e
       0.67841864 -0.9020567 0.17377998 0.30679172
000370 be 3d d4 bf 77 cf 12 3f 45 ef c0 3e dd f9 2a 3e
       -1.6581342 0.57347816 0.37682548 0.16696878
000380 9a 09 5e bc 2e 70 ee bc 01 89 f7 be d2 b1 4e 3e
       -0.013552094 -0.029106226 -0.48346713 0.2018502
000390 31 47 39 be ad 55 96 3d a8 5e 7c 3f 59 bf 89 3f
       -0.18093564 0.0734056 0.98581934 1.076152
0003a0 75 b3 2b 3c 88 7a c1 bd 71 9b f7 3d 96 fa de be
       0.010479798 -0.09447199 0.12090195 -0.43550557
0003b0 ad d8 1d be a7 19 d5 3d 89 f6 3e bf fa cc 10 3d
       -0.15414687 0.104052834 -0.7459493 0.03535173
0003c0 7f 7a c5 3c d3 a6 13 3f 4d 8d ba 3f af d3 85 3f
       0.024106262 0.5767643 1.4574372 1.0455226
0003d0 85 a5 81 bd 72 c6 77 bf 31 94 81 bc 8c 1d 5c 40
       -0.063303985 -0.9678718 -0.015817733 3.4393034
0003e0 78 9d 72 3f 4f 7f 82 bd 39 27 a6 bf 0d 82 9c bb
       0.9477153 -0.063719384 -1.298072 -0.0047762454
0003f0 b7 a5 11 be 53 6b b5 bd 1a 60 53 be 30 9d d8 3d
       -0.14223371 -0.08858361 -0.20642129 0.10576856

layer_2.bias f4 [300]
000000 fc 84 05 3e 19 23 4a 3d 5c c7 00 3f e3 8f 95 bc
       0.13039011 0.049349878 0.503042 -0.018257087
000010 b9 27 57 3f 8c f4 21 3d 68 04 27 3b c8 1a 0e bd
       0.84044987 0.03953986 0.0025484804 -0.03469351
000020 b4 cb a8 3d 1a 6a 01 3c d3 3d 3f 3a 85 61 b3 bd
       0.08241978 0.007898832 0.00072952843 -0.08758835
000030 1e bb bd 3e 44 62 f7 bc 17 de 83 bc b0 5e 85 bd
       0.37056822 -0.030198224 -0.016097112 -0.06512201
000040 d9 f4 3f bd c3 ea 82 bd fa 83 83 bd ce 76 87 bd
       -0.046864364 -0.063924335 -0.06421657 -0.06614457
000050 42 bb b9 3c 24 3c 05 3e f0 c6 0b bd 1b bc a5 3d
       0.0226723 0.13011223 -0.03412527 0.08092519
000060 0c ec 26 3c 47 cc 57 bc dd e5 76 ba a2 58 f0 bd
       0.010188114 -0.013171262 -0.00094184076 -0.11735655
000070 df da 72 3b d1 77 35 bd d3 ee 9a bd 3a df fb be
       0.0037056727 -0.04430372 -0.07565083 -0.49193746
000080 4b 59 26 bd 53 ad 92 bd 82 8c ff 3c 6c 91 56 3e
       -0.0406125 -0.07161965 0.031194929 0.20953912
000090 29 ae 5c bd ce 2e 1f bd 51 4f c2 3e ac 07 6f bd
       -0.05387703 -0.038862996 0.3795114 -0.058356926
0000a0 5b 2a b8 bd df 3a dc 3e 90 7f 91 bd c0 f5 d1 3e
       -0.08992454 0.43013665 -0.07104409 0.41007805
0000b0 06 da 81 3f 1d 64 65 3f 5c 86 d8 be ea 97 c6 bc
       1.014466 0.89605886 -0.42290008 -0.02424236
0000c0 57 87 16 bd f0 7f ad 3e 3c ce c6 bb 35 d4 81 3e
       -0.036750164 0.3388667 -0.0060670655 0.25357214
0000d0 54 c2 68 bf 40 92 a7 bd a9 58 87 bd c2 c6 e6 38
       -0.9092152 -0.08182192 -0.066087075 0.00011004276
0000e0 19 b5 42 bd ee 01 09 3f 19 91 c7 bd f8 85 96 bd
       -0.04753599 0.5351857 -0.09744472 -0.07349771
0000f0 3f 09 f5 3e b9 41 df 3e 8d 0b 99 bd cf fb 44 bd
       0.47858617 0.4360483 -0.07472906 -0.048091706
000100 bd 15 8e bd f2 80 09 bd f9 d9 ba bc 39 7d 71 3f
       -0.0693774 -0.033570237 -0.022809016 0.943317
000110 62 b4 df 3e d7 78 75 3f 32 ba 07 3f f6 a7 85 3d
       0.4369231 0.9588751 0.53018486 0.06526177
000120 d2 c5 74 bc 8c aa 6c 3f a5 bb 82 bd 60 73 83 3c
       -0.014939742 0.92447734 -0.063834466 0.016046226
000130 5f 91 d2 3e 9e bb 82 bc 5a c7 aa bd 50 ca 7f 3f
       0.41126534 -0.015958603 -0.083388045 0.9991808
000140 5c 78 f2 3e 06 5a 24 3f 57 2a 47 bd 22 8b 09 bf
       0.47357452 0.64199865 -0.048624363 -0.53727925
000150 94 77 7d 3f c0 c5 8b bc 48 99 1b 3f 5e c7 82 bd
       0.99010587 -0.017062068 0.60780764 -0.063856825
000160 df 01 db 3d 2b 91 a9 3e 52 98 cc 3b 0b d2 ab 3b
       0.10693716 0.33118567 0.006243744 0.005243545
000170 6f b3 80 3f 6f f3 67 bd 83 28 8a 3f 98 c9 ba 3c
       1.0054759 -0.05662864 1.0793613 0.022801206
000180 5c f0 81 3f bf 9d a2 3d f6 38 41 3f 23 f7 2e bd
       1.0151477 0.07940244 0.7547754 -0.042716157
000190 ad e0 80 3f 5c df b3 bd d4 eb 8a bd b6 e4 a9 3c
       1.0068566 -0.08782837 -0.06783262 0.02073894
0001a0 b2 51 da bd 09 9a 1a 3e 7e 7f 55 3e 1d 7a 3f 3f
       -0.106601134 0.15097822 0.20849416 0.74795705
0001b0 0a aa 5a 3e 1e 4a d9 bc cf 05 5a bd 46 51 38 bd
       0.21353927 -0.0265246 -0.053228196 -0.044999383
0001c0 19 90 d0 bc d5 c1 8e bb db d6 18 3d fc 4b d1 3d
       -0.025459336 -0.0043566027 0.037314277 0.10219571
0001d0 9c f4 83 bc ae 42 3b bd 31 05 f3 bd 08 e6 91 3e
       -0.01610785 -0.045717888 -0.118662246 0.28495812
0001e0 b8 63 fc 3a 51 af 6a bd 32 5d 94 3e 10 ba cf 3e
       0.0019255793 -0.0572961 0.28977352 0.40571642
0001f0 91 bd 2b be e5 44 24 bc d2 1e 8c 3d 5f b7 c0 bc
       -0.16771533 -0.010026191 0.06841816 -0.023524938
000200 78 98 ed bc 04 1a 4c bd 03 cb d3 bc fa 58 19 bf
       -0.029003367 -0.049829498 -0.02585364 -0.5990139
000210 ab 0c 8a bd c8 c1 c7 3e 3b 26 0e bf db 3f 0f 3c
       -0.067406975 0.3901503 -0.55527085 0.008743252
000220 d7 b8 4e bd cf ff d4 be ec e1 d2 3c ae 90 6b 3f
       -0.050469246 -0.41601416 0.025742494 0.9201764
000230 75 39 bd bd 5f af c7 3d 18 c0 a4 bd 3a 9e c1 be
       -0.09239475 0.09750246 -0.080444515 -0.3781603
000240 31 c4 48 bf e8 8c 21 3d c0 52 2d 3f 1a ca 74 bd
       -0.78424364 0.03944102 0.6770439 -0.05976305
000250 4d b5 4f 3c 39 d9 83 3f 05 f2 a8 3c 37 5d 88 be
       0.012677503 1.0300666 0.020623216 -0.26633617
000260 84 a2 1f bd b1 69 cd bc d3 59 fb 3d 21 f6 5f 3e
       -0.038973346 -0.025074812 0.12272992 0.21871234
000270 83 38 02 3e 5b 0e 33 3f 8e 73 84 3d d3 14 14 3f
       0.1271687 0.6994378 0.06467353 0.57844275
000280 18 c3 86 bd ac 71 56 bd 11 e9 a0 3d c4 04 4b bc
       -0.0658018 -0.0523545 0.07856954 -0.012391273
000290 a4 e4 07 be 9a 29 0a be 68 9e eb bf 04 34 a1 bc
       -0.13270813 -0.13492432 -1.8407717 -0.019678123
0002a0 7a 8c 77 3f fa b6 38 3e ef 4e 71 3c 84 75 4c 3b
       0.96698725 0.1803855 0.014728292 0.0031197974
0002b0 16 bf 1b bd 39 52 f5 3e 46 58 f2 bd 95 82 df 3b
       -0.03802403 0.47914293 -0.11833243 0.0068209865
0002c0 b2 43 67 bd 58 93 77 bd 23 23 09 3c ab 3c 23 3d
       -0.056461044 -0.060443252 0.008370194 0.03985278
0002d0 37 ed 49 bd 2a 04 95 bd c7 e8 81 3f 1f 95 42 bc
       -0.04929849 -0.07276185 1.0149163 -0.011876374
0002e0 6e 58 d5 b9 9b 23 34 3f 0b 02 46 bd d8 7c 81 3f
       -0.0004069241 0.7036683 -0.048341792 1.0116224
0002f0 0a c8 a1 bd c0 5e 86 bc 79 be 4e 3f b4 6a 68 3f
       -0.078994825 -0.016402602 0.8075939 0.90787816
000300 b5 c1 94 3f e5 9c 4b bd 5e 08 7c bc 22 b0 a7 be
       1.1621615 -0.049710173 -0.015382854 -0.32751566
000310 2e f5 a0 bc 19 dc 2b 3f be 5f c6 3e 9d 99 d3 3e
       -0.01964816 0.6713272 0.3874492 0.41328135
000320 16 0d 82 3f e0 60 bf 3c 56 77 68 bd 4b 3d 76 3f
       1.0160244 0.023361623 -0.056754433 0.96187276
000330 b2 e6 ab 3e 64 17 8e be 71 b8 5c 3d 20 9f 7f bd
       0.33574444 -0.2775222 0.053886835 -0.062407613
000340 4c 39 00 3f 18 4a 49 bc c0 ff 86 3f 89 d6 3b 3b
       0.5008743 -0.012285732 1.0546799 0.0028661808
000350 12 1a 09 3f df 62 71 3f 1e 89 57 3f 87 b2 dc 3d
       0.53555405 0.9429149 0.841936 0.10776239
000360 84 5a 20 bf 89 f2 41 3c 3a 12 ef 3e 83 4b ed 3d
       -0.62638116 0.01183761 0.46693593 0.11586668
000370 bc b2 9d 3d 08 07 0f 3f 29 72 4c 3e ac 27 3c bd
       0.077001065 0.55870104 0.19965424 -0.04593627
000380 bc 89 97 bd 6b a5 b2 3f e6 de e0 bd c2 6c 22 be
       -0.073993176 1.3956732 -0.109800145 -0.158618
000390 92 c1 01 bd d1 a5 0a bd ea 95 5e 3d 84 22 27 3f
       -0.031678744 -0.03384954 0.054342188 0.6528704
0003a0 9d 5f 09 3f 5a c5 a6 bc e3 d8 42 bc 4f b7 0b bc
       0.5366152 -0.020357776 -0.01189253 -0.008527591
0003b0 6c bb 22 bd 83 14 9a bb 03 8e 3b 3c e2 99 01 3f
       -0.03972952 -0.004702152 0.011447432 0.5062543
0003c0 31 f7 d3 3e 6f 30 0a bf 81 64 8e bc ea 5b ac bd
       0.4139953 -0.53980154 -0.017381908 -0.08415969
0003d0 08 54 e0 bc 8a e7 6d 3f 02 d6 5c 3f c0 bf 90 bd
       -0.02738382 0.92931426 0.8626405 -0.070678234
0003e0 c0 05 46 bf 83 69 f3 bb 2b 06 24 bc 5b bd 26 3c
       -0.77352524 -0.0074283495 -0.010011236 0.010176982
0003f0 49 2b 50 bd eb f3 24 3c ac 68 5a bf 6d 59 16 3b
       -0.05082253 0.01006792 -0.85315967 0.0022941486

layer_3.weight f4 [1, 300]
000000 b5 58 55 3f 62 93 c1 bf ab 40 b9 3f 93 52 c6 bc
       0.8333848 -1.5123103 1.447286 -0.024209296
000010 3c ed 88 3f c2 d8 30 bd 59 dd d6 3a 06 ad b0 bf
       1.0697398 -0.043175466 0.0016392871 -1.3802803
000020 6a 23 43 3f 3b 61 07 bc 57 0b 2d 3c df 66 87 3c
       0.7622591 -0.008262928 0.010561786 0.016528545
000030 48 c5 95 bf ad fb 4c bc ac 59 03 bb 3b 0b 11 3d
       -1.170083 -0.012511176 -0.0020042462 0.0354111
000040 cf 11 00 3d 5d 40 90 bc b0 9b de 39 97 4e 54 bf
       0.031266984 -0.017608816 0.00042459136 -0.8293242
000050 82 7c bc 3f 74 4c f0 3f 17 22 21 c0 0a d2 d8 3f
       1.4725497 1.8773332 -2.5177057 1.6939099
000060 b9 44 93 3c a9 9a 6a bc 47 33 fc bc 16 40 fe bf
       0.017977105 -0.0143191 -0.03078617 -1.9863307
000070 b1 d3 10 bf f4 33 f1 bf 96 d0 43 3c b0 df cd c0
       -0.56573015 -1.884398 0.011951586 -6.4335556
000080 0b f8 9f bc 84 67 df 3c 54 12 c1 3f 47 e4 06 40
       -0.019527456 0.02727104 1.5083718 2.107683
000090 52 9b dc bb fe bb 01 bd 48 37 0a 40 33 fb 2c bc
       -0.006732383 -0.031673424 2.159624 -0.010557937
0000a0 80 06 cc 3c c5 b4 d0 3f 31 79 ce 3c be 72 c3 3f
       0.024905443 1.6305166 0.025204273 1.5269392
0000b0 7f df b1 3f 50 12 c1 3e 30 99 f9 bf 31 a8 4a 3b
       1.389633 0.37709284 -1.9499874 0.0030923004
0000c0 ab b5 1d bc 5a 98 e3 3f c4 1f 98 bc 28 1a 5a c0
       -0.009625833 1.7780869 -0.018569835 -3.4078465
0000d0 56 b7 81 bf ed e9 fe 3c 82 72 2e bc 8f c8 f9 bc
       -1.0134075 0.031117404 -0.010647418 -0.030491142
0000e0 91 f7 23 3b cd d0 14 40 ac 4c 28 bd d2 89 ca bc
       0.0025019387 2.3252442 -0.041088745 -0.024723921
0000f0 c9 02 1c c0 87 5c f1 3f 98 43 3a 3c d3 9a b5 bc
       -2.43767 1.8856362 0.011368655 -0.022168553
000100 a4 d6 8b 3c 93 fe 69 3c 73 e8 d7 bc 28 a1 8f 3f
       0.017070122 0.014281887 -0.026355958 1.1221056
000110 67 c6 e6 bf 5c ef 2d 3f 37 30 03 40 15 cd c0 3f
       -1.8029298 0.6794336 2.0498178 1.5062586
000120 0a b2 45 3c d9 72 0f 3e f1 de 9d bc 58 8c 10 bd
       0.012066374 0.14008655 -0.019271346 -0.035290092
000130 9e b0 da 3f 07 17 d8 39 44 b2 12 bc 9e 49 cb 3e
       1.7085149 0.00041215887 -0.008953635 0.39704603
000140 0a b9 ca 3f c3 cd 27 40 2c d1 95 bc 4a a9 88 c0
       1.583772 2.6219337 -0.018288217 -4.270665
000150 3d 27 01 3f dd e9 d9 bb 22 8b 8f 3f c7 6b 2a 3b
       0.504505 -0.006650193 1.1214335 0.0026004182
000160 32 63 cf 3f f9 9b 0a 40 77 5a cc 3c 3a 41 a1 bb
       1.6202147 2.1657698 0.02494548 -0.0049211057
000170 8a d7 99 3f d2 b7 83 bc 79 25 22 40 db de 2b c0
       1.2018902 -0.016078863 2.5335371 -2.685477
000180 eb bd d4 3f 86 96 c6 bf 6c 70 07 3f c3 5c b1 bc
       1.6620458 -1.5514686 0.5290592 -0.021650678
000190 63 ee 91 3f 54 9b 16 3c 56 64 39 3c 99 ac c7 bf
       1.1400875 0.009192307 0.011315426 -1.5599548
0001a0 09 77 de bc d4 53 40 c0 10 0b 8b bd 9b 07 c5 3e
       -0.02715637 -3.0051165 -0.067892194 0.38482365
0001b0 21 21 70 bf 81 19 69 3c 09 71 05 3c 9a 62 29 bc
       -0.9380055 0.014227272 0.008144625 -0.01033845
0001c0 2c 5e c8 ba 89 98 05 bd 5d bf 0a bd 63 87 c0 3f
       -0.0015286854 -0.032616172 -0.033873904 1.5041317
0001d0 c5 81 1e 3d 6a 68 0b 3c 24 50 92 bb 59 4c f5 3f
       0.038697977 0.008508781 -0.00446512 1.9163924
0001e0 84 03 e2 be 98 00 c4 3c cc 75 5b c0 f7 23 2c c0
       -0.44143307 0.023926064 -3.4290648 -2.6896951
0001f0 86 a6 5d 3f 22 d3 47 bb 36 41 7f c0 0b 4f bf 3c
       0.8658222 -0.0030490835 -3.9883552 0.02335312
000200 a6 32 1c bd 4c e6 db bc 02 19 98 bc 0f 80 b1 bf
       -0.03813424 -0.026843213 -0.018566612 -1.3867205
000210 69 3d 00 3b 62 49 9b 3f db 12 09 c0 cb 96 69 bc
       0.0019567853 1.213177 -2.1417758 -0.014257143
000220 14 07 39 bc 5d 7a 7b bf 3a a5 49 ba 0d 40 87 3f
       -0.011293191 -0.98233587 -0.0007692162 1.0566422
000230 00 62 5b ba ac 18 08 c0 40 d7 b0 bc c7 b0 10 c0
       -0.000836879 -2.1265059 -0.021587014 -2.2607896
000240 e1 f4 d1 bf 60 ed 8c 3c f5 9c 1e 3f 0a 52 b9 ba
       -1.6402856 0.017203033 0.6195825 -0.001413883
000250 e6 0f 5a bc d5 e6 08 40 eb c5 29 c0 97 e6 9b bf
       -0.013309455 2.1390889 -2.652705 -1.2179745
000260 57 5e 8b c0 97 6f 38 3d ca ab ee 3f dc 72 52 c0
       -4.355266 0.045028295 1.8646176 -3.2882605
000270 37 e5 bb 3f 52 ee b7 3f a2 ce c3 3f b1 2f d9 3f
       1.4679326 1.4369605 1.5297434 1.6967679
000280 2b 9d 8c bb bc 15 f7 bb 11 c9 2c c0 40 0d bf 3b
       -0.004291197 -0.0075404327 -2.6997721 0.005830437
000290 bb fa 5a bc 7e 54 ff bf bd 8d a3 bf 0d ed b4 c0
       -0.013365443 -1.994766 -1.277763 -5.653937
0002a0 25 1a 52 3f a4 76 77 ba 62 09 b7 3a 49 9c 5f ba
       0.82071143 -0.0009439981 0.0013964588 -0.0008530063
0002b0 e8 fc 69 bf 1e bd 44 c0 df d4 02 40 c9 dc a6 bc
       -0.9140153 -3.0740428 2.0442426 -0.02036895
0002c0 50 7c b5 b9 f9 36 5a bb 07 53 93 bb 23 9b 67 3c
       -0.0003461563 -0.0033296926 -0.0044959816 0.014136109
0002d0 29 12 97 bb b5 cd de bc ee e4 4d 3f 9c ac 39 c0
       -0.004610319 -0.027197698 0.80427444 -2.9011602
0002e0 4e 72 f4 3c af 0c ce 3e 9a 28 ab 3c 8e 47 08 40
       0.029839661 0.40244052 0.020893384 2.1293674
0002f0 1c b4 32 3b b4 94 95 3c 13 ec 1c 3f eb 7f 47 3e
       0.0027267998 0.018259384 0.6129772 0.1948239
000300 8d d3 11 3f 1d e7 77 bc ba 57 73 3c bd b2 df c0
       0.56963426 -0.015130785 0.014852459 -6.9905686
000310 5a 33 e0 3c 19 9c ff 3e 9c f1 0c 40 84 19 be 3f
       0.027368236 0.4992378 2.2022467 1.4851537
000320 3c f6 08 40 0b 4f 09 bd 7f 5e b6 bb 49 c1 9a 3f
       2.140029 -0.033522647 -0.005565464 1.2090236
000330 15 af c2 3d 93 e8 b9 bf cf 96 9e bf 7a aa 31 3b
       0.095060505 -1.4524101 -1.2389773 0.0027109669
000340 15 a2 82 bf a1 02 83 bc dd 42 db 3e cd bd bb 3c
       -1.0205714 -0.015992464 0.4282445 0.022917653
000350 0a 33 01 40 16 28 24 3f 18 46 0d 40 d7 b1 c6 3f
       2.0187402 0.64123666 2.2074032 1.5523022
000360 80 b6 7b bf 87 57 80 bb cb 90 40 c0 5d c5 29 bf
       -0.9832535 -0.003916684 -3.0088375 -0.6631678
000370 48 69 cc 3f ef c5 8a bf 5c 15 0e c0 b8 b7 ea bc
       1.5969629 -1.0841655 -2.2200537 -0.028652057
000380 78 9d db ba 5e 65 2f 3f 62 08 40 bc f3 bf c0 3c
       -0.0016755303 0.6851405 -0.011720749 0.023529029
000390 5a b4 bb bc 78 16 b7 3c 63 0e c2 3f c4 08 7e 3e
       -0.022913147 0.022349581 1.516064 0.24808031
0003a0 cc 18 20 3f 82 0b 84 3a 37 2b f3 3c 5c 18 c2 3c
       0.6253784 0.001007423 0.029683692 0.023693256
0003b0 b3 8b bf 3c e3 1e 01 bc 11 77 b0 3b 15 5c d2 3f
       0.023382043 -0.007880899 0.0053852876 1.6434351
0003c0 20 b9 e3 3f 24 83 5d bf 04 04 2b bc 3d 4e fd bf
       1.7790871 -0.8652823 -0.010437969 -1.9789501
0003d0 8b 81 f2 bc 98 9a 5f 3e 48 43 51 3e 79 37 e5 bc
       -0.029602787 0.21836317 0.20435822 -0.027980553
0003e0 78 53 6a bf 09 9c 37 bc 4d e9 8f bc 29 ba af bc
       -0.91533613 -0.011206635 -0.017567301 -0.021451073
0003f0 92 c7 e1 bc 50 a1 17 bc 56 28 67 bf 7a 83 47 3c
       -0.027560983 -0.0092547685 -0.9029592 0.012177343
