models/all_td3/TD3_TradingEnvNorm_tts_42_600_predictor.pth (torch, 113503 bytes, 6 tensors)

layer_1.weight f4 [200, 35]
-0.2010054 -0.22292505 0.043062866 -0.14513253 0.0038199606 -0.26673898 0.573752 -0.05473647
-0.5151217 0.25087517 0.11970636 -0.24425116 0.05856666 0.2818403 -0.16241193 -0.09474911
-0.42744812 -0.48784623 0.39465958 0.08844703 -0.09193905 0.32641202 0.41908798 -0.044903412
0.027190639 -0.06616946 0.8113643 -0.19190092 -0.006306911 -0.79816365 0.034654934 0.14189208
0.03843168 -1.0187203 0.36391163 -0.32000434 -0.84913176 -0.235782 -0.124346875 -0.21810123
-0.43222424 -0.19808891 -0.066417076 0.52141917 -0.30908662 0.022900121 -0.040566787 -0.17246117
-0.47679693 0.15518738 -0.2085441 -0.050160967 0.09945485 -0.5353736 0.55008775 0.43860412
0.14638382 0.24718918 -0.07040207 0.18627247 -0.16053198 -0.65000856 0.16335656 0.091050915
0.020277867 -0.03712476 0.027994359 0.2901039 0.3804476 0.4424502 -0.08997146 -0.8876735
0.10907417 -0.14375222 -0.1882346 -0.69816405 0.31698743 -0.1703394 -0.6552477 -0.18829206
-0.24004379 -0.23395799 0.47149742 -0.66151625 0.2924876 -0.21569766 -0.23816839 0.21091507
-0.058946196 -0.33729327 0.4623984 -0.11472013 0.082804814 0.1772665 -0.24657132 0.05080692
0.28316557 -0.050449602 0.33645475 -0.28365445 0.21683991 0.21713741 0.27897784 -0.00057101506
0.21884985 -0.14328364 0.07654139 -0.100795165 -0.13284187 -0.4080064 0.2384403 0.52968675
-0.18191068 -0.25805354 0.13006003 -0.08862073 0.1433013 -0.33293226 -0.39419284 0.00028829736
0.032618064 0.019714285 0.09996679 0.18489984 0.2809223 0.40976965 0.012392708 -0.1326191
0.1797294 0.18919715 -0.00071492145 -0.22589403 0.15740691 -0.048131507 0.070398554 0.19518767
0.18560058 0.43865252 0.3093829 -0.59111124 -0.2587971 -0.3838685 -0.21506132 -0.11028345
0.11075376 -0.458031 -0.43069983 0.16146077 -0.5992675 0.2525283 0.021194816 -0.782609
-0.13833752 -0.55477774 0.094857514 -0.32564196 -0.04482421 0.119931854 0.32447293 -0.19349556
0.5937073 0.02792338 0.13560134 0.072720975 0.009418686 0.14202034 -0.2418801 0.045328364
0.07139345 0.1550394 -0.036274046 0.035721876 -0.21667644 0.36121714 0.15607208 -0.12268278
-0.060758784 -0.26617265 -0.20965369 -0.24293657 0.19649407 -0.42946464 0.12374429 0.42118156
0.26088768 0.14504987 -0.34696612 0.14310928 -0.59070283 -0.003557629 -0.6200534 0.10248644
0.16535184 0.0136906225 0.020651791 0.4497012 -0.17087135 -0.1103475 -0.34818408 -0.026557604
0.2481429 -0.06480381 0.5989279 0.17192228 0.07767289 -0.02825302 0.02910636 -0.27993974
0.22163303 -0.23368171 0.02268114 -0.32880476 -0.12351314 -0.10121659 0.36652878 0.4996515
0.25724036 0.08068008 -0.7422853 -0.07905204 -0.17327802 0.14379571 -0.464946 -0.56896085
-0.14823502 0.12720236 -0.17581119 -0.0152892005 -0.025180355 -0.4664873 0.14763469 0.16945747
-0.016623124 -0.16204262 0.065572694 -0.014023889 0.16490074 -0.37457845 0.0596434 -0.48135924
0.02341536 -0.045497507 -0.20430511 0.29990485 0.12264578 -0.11213509 -0.62255746 -0.03221615
0.17085591 -0.6960007 -0.25111216 0.23990269 -0.14726104 0.15822099 0.01681675 -0.021336135
00000000: 5cd4 4dbe 7746 64be b062 303d 9f9d 14be
00000010: 4e58 7a3b 0392 88be 69e1 123f 5933 60bd
00000020: 04df 03bf b672 803e 9c28 f53d fa1c 7abe
00000030: 98e3 6f3d 5f4d 903e 504f 26be d20b c2bd
00000040: 7bda dabe fbc6 f9be d210 ca3e b723 b53d
00000050: 8a4a bcbd 7a1f a73e b392 d63e a4ec 37bd
00000060: e7be de3c db83 87bd 92b5 4f3f ad81 44be
00000070: 34aa cebb 7454 4cbf 55f2 0d3d 284c 113e
00000080: 8a6a 1d3d 6d65 82bf a052 ba3e 9cd7 a3be
00000090: b360 59bf d670 71be 93a9 febd ee55 5fbe
000000a0: 7f4c ddbe d2d7 4abe ad05 88bd ba7b 053f
000000b0: 9a40 9ebe 0999 bb3c 5c29 26bd a999 30be
000000c0: ba1e f4be 71e9 1e3e 968c 55be 9675 4dbd
000000d0: fcae cb3d 3f0e 09bf 8dd2 0c3f b890 e03e
000000e0: a4e5 153e 291f 7d3e f62e 90bd 36be 3e3e
000000f0: 7f62 24be f666 26bf f146 273e e778 ba3d
00000100: c51d a63c 2210 18bd 6d54 e53c 8088 943e
00000110: 07ca c23e d588 e23e f542 b8bd 923e 63bf
00000120: 4762 df3d c833 13be 92c0 40be e1ba 32bf
00000130: 2d4c a23e 746d 2ebe 50be 27bf a2cf 40be
00000140: 0ace 75be af92 6fbe 1c68 f13e 2159 29bf
00000150: efc0 953e d9df 5cbe 6ae2 73be 1ffa 573e
00000160: 9171 71bd b4b1 acbe 7cbf ec3e 63f2 eabd
00000170: 9295 a93d 5985 353e 317d 7cbe eb1a 503d
00000180: 14fb 903e 3ea4 4ebd cc43 ac3e 283b 91be
00000190: 480b 5e3e 4559 5e3e 2fd6 8e3e 2cb0 15ba
000001a0: 2d1a 603e f2b8 12be bbc1 9c3d b26d cebd
000001b0: b307 08be 37e6 d0be b229 743e 8d99 073f
000001c0: cb46 3abe 981f 84be 752e 053e c97e b5bd
000001d0: 93bd 123e 1976 aabe a5d3 c9be 9e26 9739
000001e0: 859a 053d da7f a13c 63bb cc3d 6256 3d3e
000001f0: 0cd5 8f3e 54cd d13e c90a 4b3c 4dcd 07be
00000200: fc0a 383e e6bc 413e 9169 3bba c450 67be
00000210: 472f 213e 8b25 45bd 1e2d 903d 47df 473e
00000220: 140e 3e3e 1097 e03e 6f67 9e3e 1153 17bf
00000230: 0e81 84be 698a c4be 0939 5cbe 4adc e1bd
00000240: ded2 e23d 0a83 eabe b084 dcbe f955 253e
00000250: 9869 19bf 644b 813e c0a0 ad3c 1059 48bf
00000260: 5aa8 0dbe ea05 0ebf a844 c23d 8bba a6be
00000270: 9799 37bd d59e f53d 5121 a63e b323 46be
00000280: 34fd 173f 92bf e43c 14db 0a3e bcee 943d
00000290: d550 1a3c c86d 113e 6baf 77be 3caa 393d
000002a0: bb36 923d a6c2 1e3e 1894 14bd 1a51 123d
000002b0: 6ee0 5dbe 74f1 b83e 5cd1 1f3e 1c41 fbbd
000002c0: 34de 78bd c847 88be 75af 56be 5dc4 78be
000002d0: be35 493e cae2 dbbe a56d fd3d 1ca5 d73e
000002e0: 1293 853e f487 143e 8ba5 b1be 3d8b 123e
000002f0: 4d38 17bf 1c27 69bb d2bb 1ebf 69e4 d13d
00000300: fe51 293e a24e 603c f22d a93c 3c3f e63e
00000310: e6f8 2ebe dffd e1bd 2f45 b2be 558f d9bc
00000320: 2c19 7e3e dcb7 84bd 5753 193f 650c 303e
00000330: f712 9f3d e172 e7bc 7670 ee3c 4354 8fbe
00000340: c5f3 623e 424a 6fbe cccd b93c 1959 a8be
00000350: 75f4 fcbd a54a cfbd a9a9 bb3e 52d2 ff3e
00000360: 02b5 833e 993b a53d 6906 3ebf 09e6 a1bd
00000370: cb6f 31be 2f3f 133e 670d eebe 6ba7 11bf
00000380: ecca 17be 5641 023e d907 34be 8e7f 7abc
00000390: 0847 cebc 6cd7 eebe 8c2d 173e 4286 2d3e
000003a0: 382d 88bc 80ee 25be fa4a 863d 74c4 65bc
000003b0: bddb 283e bfc8 bfbe a34c 743d b874 f6be
000003c0: 92d1 bf3c 985b 3abd 5c35 51be 218d 993e
000003d0: b62d fb3d 15a7 e5bd ed5f 1fbf 15f5 03bd
000003e0: daf4 2e3e 1a2d 32bf c691 80be 0da9 753e
000003f0: 99cb 16be af04 223e 48c3 893c 1ec9 aebc

layer_1.bias f4 [200]
0.0764149 0.21034133 -0.2545934 -0.3971757 -0.27018473 -0.41553944 -0.36427706 -0.18023804
0.016072497 -0.15263534 0.12349256 -0.15472783 -0.22798204 -0.08449076 -0.078640305 -0.18884546
-0.51148134 0.10697843 -0.109386064 0.1323172 -0.15236482 0.2724158 0.02573666 -0.2359406
0.024420332 0.118872546 0.20298827 -0.22843821 -0.14218105 -0.035651453 0.03112159 0.17437418
-0.08074557 0.069969475 -0.17014226 -0.16724196 -0.21525657 -0.28832182 -0.26255596 -0.3325659
-0.2533699 -0.55927753 -0.27707726 -0.3260596 0.08813848 -0.2716399 -0.11750588 -0.044629905
-0.23939203 0.10510664 0.069254845 -0.124153614 -0.112684004 0.27852076 0.18940315 -0.0032447905
0.21672636 -0.44753686 -0.31580704 -0.069016255 -0.07478838 -0.18501061 0.37805945 -0.20958419
0.19790891 -0.07354157 -0.11057969 0.0085325055 -0.33466148 -0.12919487 -0.44786412 -0.3699633
-0.13553938 -0.026223175 -0.13275139 -0.054379355 -0.3518096 0.03144623 -0.26989287 -0.23388425
0.037531823 0.08719363 -0.14431797 0.06331411 -0.43883044 -0.099090345 0.1666067 -0.39664826
-0.5183749 -0.15347332 0.10055198 0.088639975 -0.087626226 -0.478842 0.0589672 -0.2683209
-0.2848843 -0.112440296 -0.029207798 -0.034179762 -0.36666185 -0.05892826 0.15763259 0.26561043
-0.1365874 -0.40723073 -0.19676912 0.008225889 0.004030716 -0.27024424 -0.16032602 0.039880387
-0.11390115 -0.20777267 -0.6642717 -0.15457278 0.3643301 -0.17588846 -0.12488448 -0.31616485
-0.3901495 0.1291891 -0.1771725 0.28156388 -0.17755303 -0.10552461 0.01637374 -0.16276751
-0.09887241 -0.014179465 -0.1383538 -0.3373472 -0.21813801 -0.36024055 -0.0372289 -0.0014632151
-0.1884294 -0.34778038 -0.36492178 -0.13416411 -0.27187335 0.08221887 0.23873383 -0.043277483
-0.16275682 -0.1417247 -0.041117493 -0.4772284 -0.23386331 -0.12683475 0.08388451 0.12624477
-0.15796208 -0.35178852 -0.036540624 -0.020586208 0.04726704 -0.012804526 -0.07537851 -0.16953027
-0.00077901385 -0.17331149 0.0032086377 0.03758521 -0.22351392 -0.22632349 0.07587746 -0.124919534
0.31878164 0.08408032 0.32922208 -0.24401164 0.20335543 -0.039482575 -0.21017425 0.20423995
-0.5383275 0.1295099 0.0012175342 -0.30838963 -0.13493592 0.09733613 -0.0673595 0.1257301
-0.27927735 -0.18215406 -0.27459157 -0.100506194 -0.04608297 0.12648264 -0.21997318 -0.25859725
0.31735137 0.008092958 -0.2448699 -0.13041964 -0.02203198 0.01998706 -0.51981395 0.1087854
00000000: 6a7f 9c3d b863 573e 115a 82be 9d5a cbbe
00000010: a755 8abe 96c1 d4be 8682 babe 5290 38be
00000020: 78aa 833c 704c 1cbe abe9 fc3d f970 1ebe
00000030: 2074 69be 7e09 adbd 2b0e a1bd b460 41be
00000040: 71f0 02bf 8217 db3d cd05 e0bd 297e 073e
00000050: 8605 1cbe 157a 8b3e b0d5 d23c 6a9a 71be
00000060: 260d c83c 7373 f33d 28dc 4f3e b5eb 69be
00000070: e997 11be 4207 12bd b4f2 fe3c 258f 323e
00000080: ef5d a5bd 284c 8f3d c639 2ebe 7a41 2bbe
00000090: 386c 5cbe eb9e 93be bc6d 86be 1446 aabe
000000a0: b3b9 81be d02c 0fbf 12dd 8dbe 49f1 a6be
000000b0: f381 b43d 6314 8bbe eca6 f0bd d9cd 36bd
000000c0: 2f23 75be 2642 d73d 7cd5 8d3d 4044 febd
000000d0: dfc6 e6bd 469a 8e3e e6f2 413e 8da6 54bb
000000e0: 84ed 5d3e 8d23 e5be 76b1 a1be 6558 8dbd
000000f0: a62a 99bd 6c73 3dbe 0291 c13e 3d9d 56be
00000100: a2a8 4a3e f69c 96bd 9b77 e2bd eccb 0b3c
00000110: c058 abbe a94b 04be 724e e5be d46b bdbe
00000120: d6ca 0abe fcd1 d6bc fbef 07be e3bc 5ebd
00000130: 6320 b4be c3cd 003d 662f 8abe 5a7f 6fbe
00000140: f8ba 193d 9392 b23d 17c8 13be d4aa 813d
00000150: 62ae e0be e1ef cabd f29a 2a3e 7b15 cbbe
00000160: 38b4 04bf 1c28 1dbe 32ee cd3d e088 b53d
00000170: 6175 b3bd c72a f5be 9787 713d 5b61 89be
00000180: 5bdc 91be 1947 e6bd 3145 efbc 1400 0cbd
00000190: 1abb bbbe c25e 71bd 706a 213e 17fe 873e
000001a0: 91dd 0bbe 8c80 d0be d87d 49be e1c5 063c
000001b0: 1914 843b 745d 8abe 812c 24be 9e59 233d
000001c0: 0245 e9bd 5cc2 54be b60d 2abf 5448 1ebe
000001d0: 7a89 ba3e 1b1c 34be 6fc3 ffbd 5ce0 a1be
000001e0: adc1 c7be 264a 043e b56c 35be 2429 903e
000001f0: 76d0 35be 491d d8bd 3922 863c 87ac 26be
00000200: 9e7d cabd fd50 68bc 9eac 0dbe c6b8 acbe
00000210: 925f 5fbe 7371 b8be 557d 18bd 5ac9 bfba
00000220: a3f3 40be 4510 b2be 07d7 babe 5162 09be
00000230: fc32 8bbe 5e62 a83d a476 743e bb43 31bd
00000240: b9a9 26be 4820 11be d16a 28bd 4857 f4be
00000250: dd79 6fbe f8e0 01be a4cb ab3d 4f46 013e
00000260: d0c0 21be a01d b4be 9fab 15bd 68a4 a8bc
00000270: 159b 413d 13ca 51bc 0c60 9abd 5899 2dbe
00000280: bc36 4cba 9178 31be 0248 523b f3f2 193d
00000290: d5e0 64be 58c1 67be a465 9b3d d0d5 ffbd
000002a0: 5937 a33e 4e32 ac3d cc8f a83e 30de 79be
000002b0: 683c 503e 7bb8 21bd eb37 57be 4724 513e
000002c0: d5cf 09bf 3e9e 043e ab95 9f3a 3fe5 9dbe
000002d0: a42c 0abe 2a58 c73d c7f3 89bd 64bf 003e
000002e0: 71fd 8ebe 9886 3abe 4497 8cbe 31d6 cdbd
000002f0: 7fc1 3cbd aa84 013e a640 61be dc66 84be
00000300: e17b a23e 5398 043c 2dbf 7abe ba8c 05be
00000310: 697c b4bc e7bb a33c 8712 05bf e1ca de3d

layer_2.weight f4 [100, 200]
-0.013798214 0.1396236 0.09349103 0.0097262785 0.09785733 0.15115903 0.33867845 0.2495226
0.017991114 -0.31762186 0.108946875 -0.028174283 -0.21958849 -0.022679623 -0.014931895 0.067436874
0.016133966 0.11637371 -2.2950284 -0.03443432 0.050211996 0.013779067 -0.27727896 0.06153671
0.11028029 -0.07116531 0.17257586 0.05624037 0.1412606 0.12748118 0.23421794 0.14427595
-0.1291314 0.20835076 -0.1082422 -0.8521475 -0.010808658 0.041852023 -0.7367407 -0.3143372
0.021526413 0.2500708 -0.35782 -0.03256429 0.27268705 0.021200506 0.35292757 -0.96306497
-0.033839416 0.14365327 -0.02967409 -0.39383414 -0.90231335 -0.091367565 -0.06740015 0.099723905
-0.20236008 0.25608966 0.04080006 -0.32039732 -0.6273928 -0.17815223 0.53520185 -0.020243503
-0.012367641 0.21782865 -0.5924122 -0.039884005 -0.019169027 0.011316914 0.22754408 -0.29898232
0.11992682 -0.06460292 -0.21176068 0.116519 0.07509987 -0.10348342 -0.34836492 0.016181234
0.029021835 -0.061633736 0.9320345 0.4615207 -0.1626569 0.0116232345 0.5352129 -0.018951474
-0.09841664 0.3010041 0.080265 -0.06009905 0.35580814 0.05499427 -0.11488852 -0.07776633
-0.85450524 0.095839605 -0.018387113 -0.48978135 0.24592394 0.005463451 0.6798452 0.19068904
0.19078468 0.07571551 0.0022165114 0.056696594 0.12772143 -0.03274315 0.06909577 -0.0671563
0.18672775 0.12919897 -0.71400857 -0.10577974 -0.75414294 0.2205767 0.4518954 -0.40294215
-0.19369802 -0.06215022 -0.13412598 0.16876586 -0.41566914 -1.0738539 -0.19476059 0.11692219
0.17246392 -0.14217734 0.021964269 0.17757295 0.04925458 0.0060165618 0.10550741 0.12357237
-0.035881877 0.025381818 0.17916897 -0.8572587 -0.061425053 0.15635641 0.08573824 -0.016984088
-0.40283063 0.21418421 0.022260414 0.22362335 -0.20834698 -0.15469243 0.08658435 -0.08916684
0.04351107 0.18739454 0.02770058 -0.22651789 -1.5247473 0.40421903 -0.7278273 0.2202734
0.15550688 0.058285736 -0.1203029 0.5205824 0.004788372 0.2806804 0.0746309 0.06694385
0.07292898 -0.2435465 -0.09570425 -0.03323136 -0.21416748 0.101798356 0.3168077 0.7461435
-0.20171593 0.080994956 0.14179389 -0.17282236 0.039190818 0.17691866 0.0898824 -0.16628382
0.012168354 -0.087897055 0.17065486 -1.1680154 0.2983757 -0.0059075276 -0.07340967 0.10163948
-0.078946084 -0.032763947 -0.10676229 0.06598497 0.37040696 -0.0070747007 0.051890884 0.18986149
-0.25183338 -1.3517749 -0.41630548 -0.0040834625 -0.010981886 0.17306547 0.06950587 -0.9931765
-1.0636611 -0.12935466 -0.19659683 0.051228236 -0.11291541 0.051633038 -0.06271436 -1.2847868
0.011484068 0.022417184 -0.03191037 0.0041939 -0.0016923994 -0.32129636 0.08950784 0.20296586
-0.5070099 -0.56200653 -0.008902849 0.032901503 0.108678915 0.026919298 -0.6534653 -0.3616709
-0.61601484 -0.022805154 0.070158154 -0.8131805 -0.005798422 -0.22471331 -0.9399162 0.1797788
-0.1766053 -1.0148203 -1.0590676 -0.4444381 -2.1868892 0.05532804 -0.8519678 -0.10144895
-1.605397 -0.09603364 -0.6752685 -0.2315212 -0.41718933 0.04319439 -1.0588773 0.094864026
00000000: e711 62bc 7df9 0e3e 3a78 bf3d f85a 1f3c
00000010: 6d69 c83d 6fc9 1a3e 4367 ad3e da82 7f3e
00000020: 1a62 933c 559f a2be 8a1f df3d c1cd e6bc
00000030: cedb 60be 9eca b9bc e8a4 74bc 581c 8a3d
00000040: 612b 843c 5755 ee3d bfe1 12c0 000b 0dbd
00000050: 18ab 4d3d 99c1 613c 82f7 8dbe eb0d 7c3d
00000060: a2da e13d 1ebf 91bd bab7 303e 4d5c 663d
00000070: 9ea6 103e 6d8a 023e d4d6 6f3e 13bd 133e
00000080: 063b 04be e759 553e 16ae ddbd 5726 5abf
00000090: cc16 31bc 076d 2b3d 0a9b 3cbf cef0 a0be
000000a0: 2958 b03c 4809 803e 2f34 b7be 2262 05bd
000000b0: a39d 8b3e afac ad3c ecb2 b43e 6d8b 76bf
000000c0: 339b 0abd d819 133e 1417 f3bc a1a4 c9be
000000d0: 02fe 66bf eb1e bbbd 1709 8abd 0c3c cc3d
000000e0: 7b37 4fbe 2f1e 833e f71d 273d 1e0b a4be
000000f0: d19c 20bf 8a6d 36be fd02 093f b4d5 a5bc
00000100: a5a1 4abc 790e 5f3e 53a8 17bf 695d 23bd
00000110: 5d08 9dbc 946a 393c 5101 693e 3614 99be
00000120: 319c f53d 894e 84bd cbd7 58be 83a1 ee3d
00000130: f6cd 993d 1eef d3bd e35c b2be 828e 843c
00000140: 33bf ed3c a873 7cbd d099 6e3f 714c ec3e
00000150: 888f 26be 616f 3e3c b603 093f 1f40 9bbc
00000160: aa8e c9bd 361d 9a3e fa61 a43d 6c2a 76bd
00000170: 7c2c b63e ac41 613d ac4a ebbd f443 9fbd
00000180: dbc0 5abf 8e47 c43d 92a0 96bc 9fc4 fabe
00000190: 7cd3 7b3e c006 b33b 560a 2e3f fd43 433e
000001a0: 0f5d 433e bc10 9b3d e442 113b b03a 683d
000001b0: 68c9 023e ae1d 06bd 1582 8d3d 3e89 89bd
000001c0: 8f35 3f3e bc4c 043e 44c9 36bf 0ca3 d8bd
000001d0: 830f 41bf dcde 613e d55e e73e 6f4e cebe
000001e0: c658 46be 3b91 7ebd 5258 09be f5d0 2c3e
000001f0: 96d2 d4be 0b74 89bf 526f 47be e774 ef3d
00000200: 629a 303e f096 11be 69ee b33c afd5 353e
00000210: 2cbf 493d 9426 c53b 4514 d83d 8313 fd3d
00000220: e0f8 12bd 88ed cf3c 1278 373e 4e75 5bbf
00000230: d698 7bbd e51b 203e 8897 af3d 3722 8bbc
00000240: d13f cebe 1b53 5b3e 795b b63c 85fd 643e
00000250: e958 55be b167 1ebe 2353 b13d 1b9d b6bd
00000260: aa38 323d 5be4 3f3e 54ec e23c 4ef4 67be
00000270: eb2a c3bf ccf5 ce3e e452 3abf 5a8f 613e
00000280: 323d 1f3e 06bd 6e3d 5e61 f6bd e344 053f
00000290: c7e7 9c3b 57b5 8f3e 16d8 983d db19 893d
000002a0: ca5b 953d 4164 79be 9700 c4bd 9b1d 08bd
000002b0: b84e 5bbe a87b d03d 9e34 a23e 4303 3f3f
000002c0: 9f8e 4ebe afe0 a53d 6b32 113e 58f8 30be
000002d0: 8d86 203d 2a2a 353e 4414 b83d 4e46 2abe
000002e0: c75d 473c 5f03 b4bd 26c0 2e3e 8781 95bf
000002f0: b3c4 983e ef93 c1bb cf57 96bd 5c28 d03d
00000300: 7cae a1bd 7d33 06bd 30a6 dabd 2123 873d
00000310: fba5 bd3e e4d2 e7bb 898b 543d 0d6b 423e
00000320: 4ef0 80be f606 adbf fe25 d5be 91ce 85bb
00000330: 5eed 33bc 1338 313e 1859 8e3d d140 7ebf
00000340: 0c26 88bf 8c75 04be ae50 49be b3d4 513d
00000350: 3240 e7bd 2a7d 533d 6370 80bd e573 a4bf
00000360: ac27 3c3c 3ea4 b73c 73b4 02bd fc6c 893b
00000370: 80d3 ddba f580 a4be e34f b73d 48d6 4f3e
00000380: 67cb 01bf a9df 0fbf 41dd 11bc bac3 063d
00000390: 0d93 de3d dc85 dc3c 8049 27bf ee2c b9be
000003a0: 26b3 1dbf e0d1 babc 14af 8f3d 992c 50bf
000003b0: b000 bebb 3f1b 66be 599e 70bf ef17 383e
000003c0: 05d8 34be a2e5 81bf 878f 87bf 648d e3be
000003d0: fef5 0bc0 a89f 623d 901a 5abf 78c4 cfbd
000003e0: a67d cdbf 49ad c4bd 65de 2cbf e513 6dbe
000003f0: d799 d5be 9aec 303d 4b89 87bf 1248 c23d

layer_2.bias f4 [100]
-0.025702292 0.6039698 0.3765812 0.54591703 0.53752464 0.398608 0.24522299 0.52902097
0.4265858 0.18882355 0.62028575 0.67206347 0.3950268 0.7244281 0.25695732 0.43553078
0.50771415 0.3887147 0.62103176 0.4561334 0.14085321 0.35205233 0.47414398 0.6699687
0.19811285 0.4040608 -0.12066558 0.43038946 0.6435858 0.4843802 0.49462265 0.5799056
0.5071423 0.5201746 0.49656472 0.4773866 0.6387374 0.22839987 0.51672554 0.4729364
0.5181291 0.24819756 0.36385533 0.41295785 0.50498563 0.46568924 0.7029146 0.5495242
0.4122017 0.31007886 0.6554438 0.28599033 0.4328217 0.69290036 0.3826602 0.4920313
0.65942156 0.5057298 0.51524305 0.53293616 0.6764265 0.5188307 0.39056394 0.06578637
0.6189487 0.48624906 0.38426772 0.4662514 0.48260874 0.4168951 0.30289483 0.42613485
0.44886032 0.505258 0.6061627 0.3487354 0.30234936 0.4830986 0.50035155 0.44405136
0.47777912 0.54482377 0.29496565 0.561662 0.5673131 0.51294005 0.33549482 0.20874979
0.40207455 0.3675916 0.50963384 0.58394516 0.49499622 0.25047413 0.3910272 0.3650716
0.47742558 0.5860975 0.5210899 0.38398877
00000000: 9d8d d2bc c49d 1a3f 40cf c03e 38c1 0b3f
00000010: 379b 093f 5916 cc3e bc1b 7b3e eb6d 073f
00000020: 7469 da3e f65a 413e 0ccb 1e3f 5a0c 2c3f
00000030: f440 ca3e 1f74 393f e98f 833e e4fd de3e
00000040: 8ef9 013f 9d05 c73e f0fb 1e3f 518a e93e
00000050: d33b 103e 3440 b43e 00c3 f23e 1283 2b3f
00000060: 18de 4a3e 0fe1 ce3e 841f f7bd 025c dc3e
00000070: 0ac2 243f ae00 f83e 2e3f fd3e b274 143f
00000080: 14d4 013f 2a2a 053f bb3d fe3e 046c f43e
00000090: 4b84 233f a8e1 693e 2048 043f b824 f23e
000000a0: 1ca4 043f 8027 7e3e 3f4b ba3e 366f d33e
000000b0: bd46 013f d26e ee3e 36f2 333f 9ead 0c3f
000000c0: 1a0c d33e a8c2 9e3e 2acb 273f 536d 923e
000000d0: ce9a dd3e eb61 313f 0aec c33e 87eb fb3e
000000e0: dacf 283f 8277 013f f8e6 033f 816e 083f
000000f0: 492a 2d3f 17d2 043f fff7 c73e 01bb 863d
00000100: 6c73 1e3f a3f5 f83e bdbe c43e 81b8 ee3e
00000110: 7e18 f73e 4673 d53e 0815 9b3e 592e da3e
00000120: 05d1 e53e 9758 013f 7b2d 1b3f 728d b23e
00000130: 89cd 9a3e b358 f73e 0a17 003f b35a e33e
00000140: 779f f43e 9279 0b3f bd05 973e 15c9 0f3f
00000150: 6e3b 113f 0a50 033f fac5 ab3e 81c2 553e
00000160: b7dc cd3e f734 bc3e 5d77 023f 6e7d 153f
00000170: 2570 fd3e 253e 803e b834 c83e aaea ba3e
00000180: 2071 f43e 7c0a 163f 2666 053f 2d9a c43e

layer_3.weight f4 [5, 100]
-0.016870653 -0.13877189 0.024079006 0.13182065 -0.06532167 0.10342884 -0.0041948385 -0.25590125
-0.23658854 -0.005109398 -0.22528689 -0.36837468 0.15882663 0.13961722 0.059176497 -0.0894416
0.101519376 -0.029977534 -0.36079934 0.15166745 0.10090059 0.012094121 -0.21655785 0.44236654
0.021264339 0.09000973 0.030761315 -0.0994077 0.2813131 0.11557037 0.10112574 0.237217
-0.1522026 0.014511884 -0.109099716 -0.14402919 -0.28547898 0.15745007 -0.116961345 -0.22142391
-0.21725693 -0.11535021 -0.35646808 0.11673647 -0.2681258 0.10940582 0.36324343 -0.016744133
0.18857446 -0.12730613 0.023234887 0.045806304 0.062127233 -0.39335775 -0.037721775 -0.05834421
0.089650445 0.3827399 -0.030091444 -0.093615174 0.14158618 0.23457386 -0.22252892 -0.10821924
0.10712558 0.073938385 -0.103003636 -0.14608185 0.090193264 0.15097159 0.037031665 0.073604934
-0.17801325 0.13054062 -0.15796435 -0.013003914 -0.045531966 -0.29738462 0.0999787 0.1740847
0.05046309 -0.14936864 0.17355743 -0.04272345 -0.077706665 0.12239896 0.11121197 -0.025000151
0.1634305 0.11077288 -0.03395136 0.3123109 -0.013396047 0.056346092 0.24154657 -0.19427277
0.27507263 -0.30085963 -0.045499764 0.023412976 0.06638535 0.3130029 -0.0510145 -0.28156754
0.229648 0.042251654 0.010504846 -0.24383669 -0.1851824 -0.16177535 -0.19554454 -0.4044234
-0.07560959 -0.19761264 0.098628074 0.2475112 0.118610285 -0.017849166 -0.08812993 0.2357684
0.09844745 0.109091744 0.059109822 0.08918513 -0.045016043 0.10108977 -0.023581482 -0.112345174
0.17248511 0.12184074 0.12587965 0.12333504 -0.12201657 -0.081871 -0.13749763 -0.15740286
-0.15450823 -0.09234117 -0.07757291 -0.20264293 0.0654083 0.06556737 0.17952278 0.16667159
-0.31517646 0.1402238 0.13680464 0.050799362 0.12771472 -0.16230683 -0.22759284 0.20902659
0.032725103 -0.28113753 -0.24435838 0.01582915 -0.24620707 0.19176239 -0.112921804 -0.105937295
0.35355315 0.13169576 -0.09003538 -0.083220564 0.17791006 0.25398463 0.18333387 0.048588082
0.16789922 0.36112282 0.07679643 0.2206244 -0.07302755 -0.044578027 -0.11321584 -0.08918195
0.12305837 -0.20653227 0.07505948 -0.06124223 0.049926538 -0.22503941 -0.06897587 0.17390262
-0.20770696 0.049976796 -0.037052713 0.0036513912 -0.15700912 0.11346134 -0.09089532 -0.034301437
0.24318863 -0.17885609 -0.1067901 -0.12190357 0.21182388 -0.17988442 0.025476633 0.06408406
-0.14970054 0.15918162 -0.28527555 0.011717844 0.054921187 0.08209112 -0.06069243 0.13644077
0.0862209 -0.029372873 -0.15004762 -0.5339458 0.1563088 0.08657552 -0.21803501 -0.2062523
0.11837542 -0.103067435 -0.14827244 -0.010655478 -0.21954197 0.06761053 0.24186508 -0.06159524
-0.18806766 -0.04857384 -0.1067679 -0.08886009 0.14146233 0.047933377 0.12029506 0.15130453
-0.3003504 -0.08684593 -0.02488685 -0.18237692 -0.23089369 -0.070573084 -0.13687043 -0.18779343
0.52826685 -0.031379495 -0.04887596 -0.027779052 -0.033814333 -0.0324163 -0.019526575 0.5931462
0.023482796 -0.06988655 0.20999463 0.015606177 0.2213018 -0.20444538 -0.043762922 0.18378654
00000000: 5334 8abc 381a 0ebe 5641 c53c fefb 063e
00000010: 5ec7 85bd 80d2 d33d db74 89bb 7d05 83be
00000020: 4444 72be bd6c a7bb 9bb1 66be 9b9b bcbe
00000030: 73a3 223e d1f7 0e3e 0e63 723d 282d b7bd
00000040: 64e9 cf3d 7293 f5bc b1ba b8be b64e 1b3e
00000050: f8a4 ce3d 6c26 463c 57c1 5dbe de7d e23e
00000060: 8d32 ae3c 0557 b83d 27ff fb3c 4496 cbbd
00000070: 4508 903e 28b0 ec3d 031b cf3d 03e9 723e
00000080: 00db 1bbe 41c3 6d3c ac6f dfbd 637c 13be
00000090: 4d2a 92be 973a 213e 6e89 efbd f3bc 62be
000000a0: 9a78 5ebe bb3c ecbd fc82 b6be 8813 ef3d
000000b0: c947 89be 2910 e03d 0bfb b93e fe2a 89bc
000000c0: aa19 413e 8a5c 02be 1757 be3c 649f 3b3d
000000d0: 2079 7e3d 3066 c9be 2682 1abd 57fa 6ebd
000000e0: a79a b73d 7cf6 c33e 5582 f6bc 50b9 bfbd
000000f0: f8fb 103e 2134 703e 9fde 63be 0da2 ddbd
00000100: a864 db3d 026d 973d 92f3 d2bd 7b96 15be
00000110: 3fb7 b83d 4c98 1a3e 84ae 173d 2fbe 963d
00000120: 1b49 36be 71ac 053e 68c1 21be 5e0e 55bc
00000130: ba7f 3abd cc42 98be a2c1 cc3d 4243 323e
00000140: 63b2 4e3d 18f4 18be 0ab9 313e c9fe 2ebd
00000150: ac24 9fbd 4eac fa3d 1ac3 e33d 1ecd ccbc
00000160: 535a 273e e4dc e23d 9510 0bbd 37e7 9f3e
00000170: 187b 5bbc 29cb 663d fc57 773e 71ef 46be
00000180: 52d6 8c3e 460a 9abe f65d 3abd 92cc bf3c
00000190: 0bf5 873d eb41 a03e 95f4 50bd 9f29 90be
000001a0: d828 6b3e 1210 2d3d 851c 2c3c 53b0 79be
000001b0: 74a0 3dbe 70a8 25be d43c 48be 9510 cfbe
000001c0: 33d9 9abd f85a 4abe 84fd c93d 9373 7d3e
000001d0: f3e9 f23d 6a38 92bc 777d b4bd 456d 713e
000001e0: d19e c93d 7e6b df3d 241d 723d b2a6 b63d
000001f0: be62 38bd 2708 cf3d f42d c1bc 3a15 e6bd
00000200: f09f 303e a387 f93d 98e6 003e 1597 fc3d
00000210: d3e3 f9bd fcab a7bd 2ecc 0cbe 372e 21be
00000220: 6837 1ebe 5e1d bdbd 8cde 9ebd a181 4fbe
00000230: c9f4 853d 2f48 863d d2d4 373e f5ab 2a3e
00000240: cf5e a1be d496 0f3e 8416 0c3e fe12 503d
00000250: a6c7 023e c333 26be 190e 69be 110b 563e
00000260: c20a 063d 42f1 8fbe 1539 7abe 22ac 813c
00000270: b51d 7cbe 5c5d 443e 8c43 e7bd a7f5 d8bd
00000280: eb04 b53e 41db 063e 7864 b8bd 8b6f aabd
00000290: 0e2e 363e 460a 823e e0bb 3b3e 4c04 473d
000002a0: c6ed 2b3e 17e5 b83e 7247 9d3d 5deb 613e
000002b0: 788f 95bd 7397 36bd b5dd e7bd 07a5 b6bd
000002c0: 0706 fc3d 327d 53be c9b8 993d 22d9 7abd
000002d0: c57f 4c3d bb70 66be 3943 8dbd 8713 323e
000002e0: 22b1 54be 78b4 4c3d 96c4 17bd 2e4c 6f3b
000002f0: 00c7 20be 6b5e e83d 5327 babd aa7f 0cbd
00000300: 7106 793e 0d26 37be c5b4 dabd 94a8 f9bd
00000310: 5ce8 583e 9f33 38be 5fb4 d03c 813e 833d
00000320: 194b 19be 8200 233e a30f 92be 33fc 3f3c
00000330: 0af5 603d 641f a83d a098 78bd 21b7 0b3e
00000340: 9594 b03d 619f f0bc 15a6 19be acb0 08bf
00000350: 6a0f 203e 824e b13d 9244 5fbe ce33 53be
00000360: d06e f23d 0515 d3bd bbd4 17be 5094 2ebc
00000370: 9ccf 60be 6477 8a3d 7bab 773e 4a4b 7cbd
00000380: cf94 40be 5df5 46bd 21a9 dabd 47fc b5bd
00000390: 80db 103e ca55 443d 425d f63d 93ef 1a3e
000003a0: 87c7 99be 47dc b1bd 82df cbbc 04c1 3abe
000003b0: 656f 6cbe 9f88 90bd c327 0cbe ec4c 40be
000003c0: 7f3c 073f c987 00bd 2932 48bd e590 e3bc
000003d0: e680 0abd f4c6 04bd 32f6 9fbc 6ed8 173f
000003e0: fe5e c03c ae20 8fbd d508 573e 0db1 7f3c
000003f0: f09c 623e 215a 51be c040 33bd 8a32 3c3e

layer_3.bias f4 [5]
0.5456307 0.3442026 -0.97590756 -0.14361961 0.21144703
00000000: 74ae 0b3f 533b b03e 14d5 79bf 0511 13be
00000010: 9285 583e
