models/all_td3/TD3_TradingEnv9_tts_42_200_actor.pth (torch, 588319 bytes, 6 tensors)

layer_1.weight f4 [400, 60]
0	0xbce9d41b	-0.028543523
1	0x3c995635	0.018717865
2	0xbd077df5	-0.033079106
3	0xbcfcf37e	-0.030877825
4	0x3d3a7e60	0.045530677
5	0x3dd82e3d	0.10555694
6	0x3e2cc476	0.16871819
7	0xbd235afe	-0.0398817
8	0xbd4fe2b3	-0.050753307
9	0xbcfd2f84	-0.030906446
10	0xbd235db3	-0.03988428
11	0x3c33f384	0.010983352
12	0xbd22bd78	-0.039731473
13	0xbd2292fa	-0.03969095
14	0x3c7598b8	0.014990024
15	0xbbb05e45	-0.0053823316
16	0x3c997553	0.018732702
17	0x3d140c66	0.036144637
18	0x3ccf6e16	0.025321048
19	0xbd8cc4c5	-0.06873468
20	0xbb5fe94e	-0.003416616
21	0x3c946a73	0.018117165
22	0xbb91a8d6	-0.0044451756
23	0xbba2383b	-0.004950551
24	0x3bd6d03d	0.0065555857
25	0x3e36a519	0.17836417
26	0x3dcf32a4	0.10117081
27	0xbc85e748	-0.016345635
28	0x3d2b5e8a	0.041838206
29	0xbd5a703b	-0.053329688
30	0xbcc40745	-0.023929248
31	0x3bbfacce	0.0058494573
32	0xbccd7e84	-0.025084741
33	0xbcd21f02	-0.025649551
34	0x3ab08999	0.0013468742
35	0x3df3f105	0.11911205
36	0x3de4269e	0.11140178
37	0xbdd2079b	-0.10255357
38	0xbd9f1ac8	-0.0776878
39	0xbcc08c8a	-0.023504514
40	0xbcd97c13	-0.026548421
41	0x3ca13636	0.01967917
42	0xbcf1eec3	-0.029532796
43	0xbce69309	-0.028146284
44	0x3cab6426	0.020921778
45	0x3d9b5f83	0.07586577
46	0x3ddae369	0.10687906
47	0xbd7c3dcf	-0.061582383
48	0xbd4993c0	-0.04921317
49	0xbc7497ae	-0.014928741
50	0xbc9a8c72	-0.018865798
51	0xbd5efd96	-0.054441057
52	0xbc78b888	-0.015180714
53	0x3dd627c4	0.104568034
54	0xbd1b291a	-0.037880994
55	0x0003c4a5	3.46049e-40
56	0x8007846c	-6.90352e-40
57	0xb6c46082	-5.85249e-06
58	0x8005a1b0	-5.1718e-40
59	0x80044b70	-3.94404e-40
60	0xbcaa2b99	-0.020772742
61	0xbb6cd714	-0.0036138939
62	0xbcaa5e4f	-0.020796923
63	0xbcabb687	-0.02096106
64	0xbb13e868	-0.0022568945
65	0x2e56f5ab	4.8876164e-11
66	0xbb29de5c	-0.002591989
67	0xb86bf6ad	-5.62581e-05
68	0x3b3f496b	0.0029188048
69	0x3ac73ce0	0.0015200637
70	0xbc7dfb7a	-0.015501851
71	0xb95a296d	-0.00020805532
72	0xbc6bc867	-0.014391041
73	0xbc803018	-0.015647933
74	0xbc377f73	-0.01119982
75	0x30adc667	1.2643796e-09
76	0xb75d97e6	-1.3207993e-05
77	0xbbcab6bb	-0.006186334
78	0xbd3b14ab	-0.045674007
79	0x3bbe9224	0.005815761
80	0xbcf8f5ca	-0.030390639
81	0xbc8219be	-0.015881415
82	0xbcee9b7d	-0.029126877
83	0xbcf81343	-0.030282622
84	0xbcd4ded8	-0.025985166
85	0x3a085624	0.0005200824
86	0xbc6abfe4	-0.014327977
87	0xbb6a4132	-0.0035744426
88	0xbca0398d	-0.019558692
89	0x3ca20195	0.019776145
90	0xbcc7b733	-0.024379348
91	0xbb1458ba	-0.0022635893
92	0xbccee29e	-0.025254544
93	0xbcc886ec	-0.024478398
94	0xb580dfc1	-9.601864e-07
95	0x1a14e0ec	3.0787373e-23
96	0xb9303f99	-0.0001680836
97	0xbb2c7a9e	-0.0026318203
98	0x3b9a644b	0.004711663
99	0x3ae6aa5e	0.0017598381
100	0xbcb68019	-0.022277879
101	0xb9b314e0	-0.00034157094
102	0xbcb97361	-0.022638025
103	0xbcb8adae	-0.022543754
104	0xb92f81dd	-0.00016737678
105	0xb5af4584	-1.3058748e-06
106	0x3453e5c2	1.9734492e-07
107	0x315327f9	3.0727263e-09
108	0x3cbdc8a7	0.023166968
109	0x39af15da	0.00033394882
110	0xbaee85f0	-0.0018197875
111	0xbc49fa32	-0.012327718
112	0xbcfa83bd	-0.030580396
113	0xbcb96bd4	-0.022634424
114	0xbca69954	-0.020336784
115	0x80046652	-4.04048e-40
116	0x00057e5f	5.04511e-40
117	0x000757eb	6.74387e-40
118	0x80049c8c	-4.235e-40
119	0x0006157c	5.5872e-40
120	0xb52663c0	-6.1984974e-07
121	0xafc80b7b	-3.6387945e-10
122	0xb5060585	-4.992692e-07
123	0xb4f16989	-4.4966535e-07
124	0xa71869a3	-2.1151503e-15
125	0xa9026483	-2.895298e-14
126	0x1b82a44c	2.161287e-22
127	0xb1c09013	-5.604315e-09
128	0xbab4f060	-0.0013804547
129	0x8875dbe8	-7.3985504e-34
130	0xb41f7d0f	-1.4853525e-07
131	0x1b900741	2.382749e-22
132	0xb3b71bbc	-8.5266464e-08
133	0xb4171f9a	-1.4074467e-07
134	0x1bf4a2bd	4.047158e-22
135	0xa7f4a176	-6.789866e-15
136	0xb01b5e8f	-5.652305e-10
137	0xa590c6c4	-2.5114707e-16
138	0xbc298501	-0.010346652
139	0x23ab39d8	1.8564355e-17
140	0xb3c16cea	-9.007074e-08
141	0xad00da73	-7.324463e-12
142	0xb48a4a40	-2.5758527e-07
143	0xb42df03e	-1.619928e-07
144	0xaf9940f3	-2.7876687e-10
145	0x309b7715	1.131158e-09
146	0x328e52be	1.6568602e-08
147	0x1079795e	4.920009e-29
148	0xb836b71a	-4.3562708e-05
149	0x1400f250	6.510136e-27
150	0xb51e0010	-5.885968e-07
151	0xaa1bc786	-1.3835989e-13
152	0xb587bcfa	-1.0113283e-06
153	0xb52ff4ae	-6.5548636e-07
154	0xaf157627	-1.3593447e-10
155	0xafad5026	-3.1525466e-10
156	0x341f73d2	1.4850164e-07
157	0x2b752f1b	8.7106857e-13
158	0x3b0b63bc	0.0021269163
159	0x01c12e00	7.096301e-38
160	0xb52b48cf	-6.3808415e-07
161	0xa2feaf10	-6.9032193e-18
162	0xb599ccc8	-1.1458988e-06
163	0xb552dfdd	-7.855686e-07
164	0xa2727d51	-3.2863458e-18
165	0x9e1f80c9	-8.444022e-21
166	0x2a0777f1	1.2032022e-13
167	0x83167cb4	-4.422419e-37
168	0xbb96889f	-0.004593923
169	0x0714cc2e	1.1194286e-34
170	0x0958e59d	2.6108018e-33
171	0xb7b42ba8	-2.1478001e-05
172	0xb6e90dc9	-6.945546e-06
173	0x881e1062	-4.7565653e-34
174	0xbbc44cea	-0.005990614
175	0x8003d755	-3.52753e-40
176	0x80010dae	-9.6743e-41
177	0x0004bcb7	4.3504e-40
178	0x800494f5	-4.20778e-40
179	0x0006add9	6.13378e-40
180	0x3c59aec9	0.013286301
181	0x3bde70e0	0.006788358
182	0x3c41ff78	0.011840694
183	0x3c1cd685	0.00957263
184	0xbca27c37	-0.01983462
185	0x3e0da23b	0.13831417
186	0x3dd720a2	0.10504271
187	0x3ca61718	0.020274684
188	0xbe22778e	-0.15865919
189	0xbd03978a	-0.03212694
190	0xbc351f1e	-0.011054782
191	0xbd96c113	-0.07361045
192	0xbc92cb0e	-0.01791909
193	0xbc1fd6b7	-0.009755782
194	0xbd16ca65	-0.036814112
195	0xbd4f0d84	-0.05055
196	0xbb4d85f9	-0.0031360372
197	0x3d5c4db4	0.05378504
198	0x3dc240b3	0.09484997
199	0xbc88e708	-0.016711727
200	0x3cf302d0	0.029664427
201	0x3b4b8ed1	0.0031060467
202	0x3d011902	0.03151799
203	0x3d004b9b	0.031322103
204	0x3d371b58	0.04470381
205	0x3cd77ec8	0.026305571
206	0x3cc0d91c	0.023541026
207	0xbdac53d5	-0.08414427
208	0xbe87513c	-0.26429164
209	0xbce44714	-0.027865924
210	0x3c64bbe2	0.01396081
211	0xbd69abf5	-0.057048757
212	0x3ca9af6c	0.02071353
213	0x3c6849ef	0.014177783
214	0xbc312239	-0.010811382
215	0x3dd06a07	0.10176473
216	0xbb800af1	-0.0039075543
217	0xbcf89ba0	-0.030347645
218	0xbe13c558	-0.1443075
219	0xbd5ae36f	-0.053439554
220	0x3c3f121b	0.0116620315
221	0xbd2154aa	-0.039387383
222	0x3c95aea1	0.018271746
223	0x3c68b859	0.014204108
224	0x3d1e8dad	0.03870933
225	0xbc94d896	-0.018169682
226	0xbd91701e	-0.07101463
227	0xbd089c25	-0.033352036
228	0xbd99324e	-0.07480298
229	0xbd46701c	-0.04844676
230	0x3d04d565	0.03243007
231	0xbb777625	-0.0037759629
232	0x3d78778d	0.060660888
233	0xbd0f610e	-0.035004668
234	0x3d2543fa	0.04034803
235	0x000757b4	6.7431e-40
236	0xb710a2ac	-8.620944e-06
237	0x8003a8e0	-3.36087e-40
238	0x8003d153	-3.50598e-40
239	0x0004e55b	4.49619e-40
240	0x80b3f266	-1.652551e-38
241	0x00049c29	4.23362e-40
242	0x8170365c	-4.412004e-38
243	0x811f27ac	-2.923215e-38
244	0x000117ed	1.00418e-40
245	0x8000c445	-7.0408e-41
246	0x80026193	-2.18674e-40
247	0x00038e9f	3.26669e-40
248	0xb5cf5f04	-1.5450355e-06
249	0x8001ce6f	-1.6589e-40
250	0x00000013	2.7e-44
251	0x0000ad62	6.2198e-41
252	0x8000080a	-2.884e-42
253	0x80005b50	-3.2757e-41
254	0x0001b6c1	1.57395e-40
255	0x00035c86	3.08698e-40

layer_1.bias f4 [400]
0	0xbc5d296b	-0.013498644
1	0xbcf4e801	-0.029895784
2	0xb5003a8f	-4.776893e-07
3	0x3d2a79ce	0.04162007
4	0x9c0e83b8	-4.71541e-22
5	0xb141536d	-2.8132618e-09
6	0xba8cee94	-0.0010752254
7	0xb8d0cd3b	-9.95644e-05
8	0x3a0582d9	0.0005093045
9	0xbc8dae22	-0.017294947
10	0xbca3f2d3	-0.020013249
11	0xb685ba83	-3.9854217e-06
12	0xbc802e33	-0.01564703
13	0xbc9df652	-0.019282494
14	0xbc7d97ef	-0.015478118
15	0xba091376	-0.0005229035
16	0xbadbdb48	-0.0016773725
17	0xb5a789f0	-1.2482615e-06
18	0xbce468a1	-0.027881922
19	0xa798d816	-4.2422756e-15
20	0xbca848e1	-0.020542564
21	0xbd11b936	-0.03557702
22	0xbc161d24	-0.009162221
23	0xb50046e4	-4.7786875e-07
24	0xbb2de13e	-0.002653196
25	0xbc51dd2a	-0.012809077
26	0xbce7abe6	-0.02828021
27	0xba345bf8	-0.00068801595
28	0xbb7ba4dd	-0.0038397827
29	0x9498142a	-1.5356031e-26
30	0xb77ed76a	-1.5189735e-05
31	0xbbe37b33	-0.0069421767
32	0xbceb3bc5	-0.028715024
33	0xbd093f8a	-0.03350786
34	0x3b76f107	0.0037680285
35	0xbbe99ecb	-0.0071295253
36	0xbbb77396	-0.0055984957
37	0xbaadcbe6	-0.0013259619
38	0xbcf2217f	-0.029556988
39	0xbce6b12f	-0.02816066
40	0xbcf991b1	-0.030464979
41	0xbade6a9f	-0.0016969031
42	0xbc1d8779	-0.009614819
43	0xb594d7bc	-1.1089646e-06
44	0xbd14cf7c	-0.036330685
45	0xbd24b2c5	-0.04020955
46	0xbc17faa7	-0.009276069
47	0xb2eb8cd8	-2.7421649e-08
48	0xae91e3e2	-6.634317e-11
49	0xbac0084f	-0.0014650914
50	0xa8337612	-9.9620985e-15
51	0x3e13d75d	0.14437623
52	0xbc2b04b3	-0.010438132
53	0xba83fbd6	-0.001006956
54	0xbd4aef49	-0.049544606
55	0xb86ca243	-5.6417903e-05
56	0xbc159145	-0.009128873
57	0xbccee2f9	-0.025254713
58	0xbb60d39a	-0.0034305812
59	0xbcbb2f79	-0.022849785
60	0x3989a140	0.00026250817
61	0xbbf13bbe	-0.007361858
62	0xbc911da1	-0.017714323
63	0x3bd8f546	0.0066210357
64	0xba386f36	-0.00070356147
65	0xbc324441	-0.010880531
66	0xbc1db2ae	-0.00962512
67	0xbc2bd9eb	-0.010488967
68	0x3c5bb42a	0.013409654
69	0xbcec0173	-0.028809285
70	0xbc792e2d	-0.015208763
71	0xb80ae328	-3.311332e-05
72	0xb78ebdd6	-1.7016118e-05
73	0xbabf776e	-0.0014607736
74	0xbd364d56	-0.044507347
75	0x3a425c14	0.00074142334
76	0x3bad69af	0.0052921395
77	0xbd296b2e	-0.04136198
78	0xb959ff31	-0.00020789799
79	0xbbdf45a6	-0.0068137227
80	0xbc5e712f	-0.01357679
81	0xb8e7bc9f	-0.00011050072
82	0xbc7e0a75	-0.015505423
83	0xbc6da03d	-0.014503536
84	0xb7616051	-1.34334705e-05
85	0xb9383cb1	-0.00017570217
86	0xbcf2e93b	-0.029652229
87	0xba67c667	-0.0008841515
88	0xb8bf2f87	-9.1164424e-05
89	0xbc8ec8ed	-0.017429793
90	0xbb4f48ea	-0.0031629154
91	0xb6793964	-3.7137297e-06
92	0x3a548f81	0.0008108542
93	0x3c2e2984	0.010630015
94	0xb7000828	-7.631294e-06
95	0xbc4d553c	-0.0125325285
96	0xbbf5d212	-0.007501849
97	0xbd013559	-0.031545017
98	0x9d2fb7da	-2.3256106e-21
99	0x8aa8154c	-1.6185823e-32
100	0xbc263090	-0.010143414
101	0xb65eac3a	-3.3180827e-06
102	0xbadc4029	-0.0016803789
103	0xb833996a	-4.2819804e-05
104	0xbb0cd64f	-0.0021490043
105	0xbca8683c	-0.020557515
106	0xbbbac791	-0.0057000597
107	0x3caaa79e	0.02083188
108	0xbafa7d3d	-0.001911081
109	0xaa00c4c0	-1.1436945e-13
110	0xbbed2772	-0.0072373683
111	0xbb1dbd69	-0.0024069196
112	0x3d057bdc	0.032588825
113	0xbb705c4c	-0.0036676107
114	0xa98a1f89	-6.1339016e-14
115	0x3be653b9	0.0070290235
116	0xbd352e1b	-0.044233423
117	0x3db9e64f	0.09077131
118	0xbd03dda3	-0.03219379
119	0xbb0a9e5c	-0.0021151518
120	0xb73cce1c	-1.1253662e-05
121	0xb69e4b57	-4.7175376e-06
122	0xadcf134b	-2.3541743e-11
123	0xbd0491d3	-0.03236563
124	0xbc4ec3cd	-0.012619925
125	0x80012dc7	-1.08257e-40
126	0xb7a6cba1	-1.9883564e-05
127	0x3c67e4f0	0.014153704
128	0xbc0c5300	-0.008564711
129	0xa48fb8eb	-6.232963e-17
130	0xbc2cacfe	-0.010539291
131	0xbb07f5e0	-0.0020745918
132	0xb9d29b63	-0.00040170093
133	0xbca481ac	-0.020081364
134	0xbaa08d0c	-0.0012249066
135	0xbce99efb	-0.02851819
136	0xbca03bab	-0.019559702
137	0xbc1041ba	-0.008804733
138	0xbd12bc23	-0.035823952
139	0xb2b69910	-2.1257193e-08
140	0xbb629542	-0.0034573828
141	0xbc937709	-0.018001096
142	0xb71eb07b	-9.458624e-06
143	0x94cafd93	-2.0496805e-26
144	0xbd43ecb1	-0.04783315
145	0xbb832b30	-0.004002951
146	0xbce8ed4b	-0.028433463
147	0xbc9d633f	-0.019212363
148	0x3aeed3b5	0.0018221053
149	0x3bc228b8	0.005925264
150	0xa59ea15a	-2.7517967e-16
151	0xb9f37f43	-0.0004644339
152	0xbc016fcb	-0.007900189
153	0xbaa27b77	-0.0012396415
154	0xbd2088a1	-0.0391928
155	0x3cac9816	0.021068614
156	0x2c1e1a44	2.246773e-12
157	0x3a86955d	0.0010267902
158	0xbba4fa86	-0.0050347475
159	0xbc8eefa5	-0.017448256
160	0xbcc16942	-0.023609761
161	0xbc5cb8d4	-0.013471801
162	0x3b17d6f3	0.0023168891
163	0xa4a94efe	-7.3425885e-17
164	0xbafb9bb0	-0.0019196179
165	0xbcf7a6aa	-0.030230839
166	0x96624350	-1.8277375e-25
167	0x3aabc5f8	0.0013105264
168	0xbc294035	-0.01033025
169	0xb7fb013f	-2.9922112e-05
170	0xb009059e	-4.984829e-10
171	0x3cad3407	0.021142973
172	0xae363c1d	-4.14354e-11
173	0x9735f172	-5.8789e-25
174	0xbb74fb47	-0.0037381218
175	0x3d919fbb	0.07110544
176	0xba13e3e8	-0.00056415657
177	0xbd126f39	-0.0357506
178	0xb692b5a8	-4.3722866e-06
179	0xb71b5747	-9.259041e-06
180	0xba05a862	-0.00050986384
181	0xbc079b1d	-0.008276728
182	0xbce823c6	-0.02833737
183	0xbcc7e62e	-0.02440175
184	0xbc34c9c3	-0.011034432
185	0xbc85b97e	-0.016323801
186	0xbc9512fa	-0.018197525
187	0xb033f4c8	-6.5467676e-10
188	0x9d26f94f	-2.2098807e-21
189	0xb63c7169	-2.8080196e-06
190	0xbd110816	-0.035408102
191	0xbce09134	-0.027412988
192	0xbacedf88	-0.001578317
193	0xba8cf689	-0.0010754626
194	0xb9861a12	-0.00025577896
195	0xbbeef34b	-0.0072921864
196	0xa3d0630e	-2.2593356e-17
197	0xbcf165fd	-0.029467577
198	0xba72931a	-0.0009253487
199	0xbb90c603	-0.004418136
200	0xbac7eb9e	-0.0015252715
201	0xbcddf962	-0.027096454
202	0xb3f6b6c8	-1.14885154e-07
203	0xbb914071	-0.004432731
204	0xbaf1a472	-0.0018435849
205	0xa99e9805	-7.042981e-14
206	0xa10643c0	-4.549063e-19
207	0xb3751de8	-5.7070707e-08
208	0xbc2bb42a	-0.010479966
209	0xb96000cb	-0.000213626
210	0x94b7f37d	-1.8574317e-26
211	0x3d2a0ba6	0.041515015
212	0xbb434835	-0.0029797677
213	0xbb3cd1ef	-0.0028811654
214	0xbcbd4989	-0.023106353
215	0xac0e57d2	-2.0228164e-12
216	0xbd0ae1fd	-0.033906925
217	0xbbf0db76	-0.0073503805
218	0x3c465383	0.012104872
219	0x058fc9ec	1.352183e-35
220	0xbcd59dbf	-0.026076196
221	0x94540de1	-1.0706002e-26
222	0xb9214e5b	-0.00015383346
223	0xba6707af	-0.00088130956
224	0xbc9ed60e	-0.019389179
225	0xba3049fb	-0.0006724891
226	0x9ea06d4d	-1.6985865e-20
227	0xb7c2a06c	-2.3201304e-05
228	0xbcc21fc9	-0.023696797
229	0x9dd1ba26	-5.5514312e-21
230	0xbce9146a	-0.028452117
231	0xbca818c5	-0.020519624
232	0xbd3bb84c	-0.045830056
233	0xbc8555fd	-0.016276354
234	0xbb27cc41	-0.0025603923
235	0xaf7df386	-2.3096733e-10
236	0xbd00a6f0	-0.031409204
237	0xbd352999	-0.044229124
238	0xbab5e180	-0.0013876408
239	0xb503eda7	-4.914713e-07
240	0xbba1e41e	-0.0049405238
241	0x9f8059a9	-5.435844e-20
242	0xb4ba25ff	-3.4672846e-07
243	0x3cfa8464	0.030580707
244	0xbc53025e	-0.012878982
245	0xbd5c01a0	-0.053712487
246	0xbd33b557	-0.04387411
247	0xb8f1754a	-0.00011513622
248	0xada78ef0	-1.9049179e-11
249	0xbb688a95	-0.0035482992
250	0xbab2662a	-0.001361077
251	0xbd3c18fb	-0.04592226
252	0x3c7b0290	0.015320435
253	0xbcbe4069	-0.023224073
254	0xbcaa21f0	-0.020768136
255	0xbc117618	-0.008878253

layer_2.weight f4 [300, 400]
0	0x3d4df150	0.05027896
1	0xb64212ef	-2.8919274e-06
2	0x223d07b4	2.5618354e-18
3	0x3d6400ce	0.05566483
4	0x00031044	2.81341e-40
5	0x326657c2	1.3407716e-08
6	0xbd0e95ab	-0.034810703
7	0xbbd91fa8	-0.006626088
8	0xbd775387	-0.060382392
9	0xb9e58432	-0.00043776777
10	0xbc4fe641	-0.012689174
11	0x251a500f	1.3384496e-16
12	0xbd8f76b9	-0.070050664
13	0xb55321c0	-7.865274e-07
14	0x3b27878c	0.002556297
15	0x39b72f80	0.0003493987
16	0xb9a08879	-0.00030619258
17	0x2b1b8f88	5.526625e-13
18	0xbb75d2f8	-0.003750978
19	0xa7471250	-2.7626725e-15
20	0xbb4ba0d3	-0.00310712
21	0xbd425209	-0.047441516
22	0xb761ab1d	-1.34508855e-05
23	0x800184bf	-1.39456e-40
24	0x3b23a29a	0.0024968744
25	0xbcce67a9	-0.025195913
26	0xba094d22	-0.0005237629
27	0x3adc6c60	0.0016816966
28	0x3a9c1cd5	0.0011910448
29	0x020a6e9b	1.0170381e-37
30	0xb7cddc3a	-2.4540455e-05
31	0xbd2e39b6	-0.042535506
32	0xbcb07dcf	-0.021544365
33	0xb9e268cc	-0.0004318416
34	0xbce12ab2	-0.027486179
35	0x3aef7c65	0.0018271325
36	0xbb96ca59	-0.0046017584
37	0x3b0dfbf8	0.0021665078
38	0x2c148b0e	2.1109256e-12
39	0x3d7ee257	0.062227573
40	0xb51a0806	-5.7381146e-07
41	0x3b2f57df	0.0026755256
42	0xbc15edf5	-0.009150972
43	0x29bab7ff	8.2919775e-14
44	0xbdb2bd28	-0.08727485
45	0x3cba02a3	0.022706335
46	0x3cc37354	0.023858704
47	0x0001aab6	1.53075e-40
48	0x00047ea1	4.12768e-40
49	0x323e898c	1.109073e-08
50	0x8002e179	-2.64555e-40
51	0x3d6a894c	0.057259843
52	0x3dce3018	0.10067767
53	0x39058e3c	0.00012736855
54	0xbd63c06a	-0.055603422
55	0xb9d909c2	-0.00041396735
56	0xb4d8b778	-4.0366626e-07
57	0xb611f728	-2.1750548e-06
58	0xbb80ac0b	-0.003926759
59	0xbc6e7964	-0.014555309
60	0x38f2dd4a	0.000115806775
61	0xb5a78b6f	-1.248305e-06
62	0xba63ae5d	-0.0008685345
63	0xba944e79	-0.001131489
64	0x39ea3c85	0.0004467705
65	0xbe10d06b	-0.14142005
66	0x3cffd3ca	0.031228919
67	0xbcbaeb18	-0.02281718
68	0xb9448c95	-0.00018744387
69	0xb97a9d32	-0.00023900418
70	0xbd3cefad	-0.04612701
71	0x386f684b	5.707917e-05
72	0xb5066970	-5.007232e-07
73	0xbd12a495	-0.03580149
74	0x3cedd87a	0.029033888
75	0x38dafd95	0.000104422834
76	0xbd0a9635	-0.033834655
77	0x3bd2904a	0.006425892
78	0xb5f2114e	-1.8035441e-06
79	0xbc5ffa6c	-0.013670545
80	0x3d102e8b	0.035200637
81	0xb3564610	-4.988948e-08
82	0xa6a82f58	-1.1670174e-15
83	0x3d1d8764	0.038459197
84	0xb699d87c	-4.5849574e-06
85	0xb81e87eb	-3.779672e-05
86	0x3c53218d	0.012886417
87	0x12645844	7.205291e-28
88	0xb6e6f81a	-6.883417e-06
89	0xbcb6c3cd	-0.022310162
90	0x3b2b0011	0.002609257
91	0xb6d926ce	-6.4716214e-06
92	0xbd8bcb33	-0.068258666
93	0x3e3a6b92	0.18205097
94	0x1df4a343	6.475507e-21
95	0xbd0a2ffc	-0.033737168
96	0xbaa111b8	-0.0012288606
97	0xbd1a64ae	-0.037693672
98	0x800070c4	-4.0453e-41
99	0x20553467	1.805914e-19
100	0x3c188e9e	0.009311346
101	0xac2c74a0	-2.450741e-12
102	0x39bb9411	0.00035777738
103	0x8000b313	-6.424e-41
104	0xba668ee6	-0.0008795097
105	0x2400c403	2.7921604e-17
106	0xbca1b993	-0.019741809
107	0x3df27785	0.11839203
108	0x366abd6f	3.4978982e-06
109	0x2b0315e1	4.657091e-13
110	0xb94fa931	-0.00019804087
111	0x80000974	-3.391e-42
112	0x3cd99d64	0.026564308
113	0x3a959125	0.0011411054
114	0x0001b5f2	1.57105e-40
115	0x3d541168	0.051774412
116	0xbc3eac01	-0.011637689
117	0x3cafccca	0.021459956
118	0xbcc00d0a	-0.023443718
119	0xa2420cd5	-2.6298696e-18
120	0xb634e2e3	-2.6954156e-06
121	0x0003b86c	3.41665e-40
122	0x0001f99c	1.81378e-40
123	0x36b1bb1c	5.2967935e-06
124	0x3ab3265c	0.0013668048
125	0x0006148e	5.58387e-40
126	0xb66e23b8	-3.5485555e-06
127	0x39c11c4c	0.0003683291
128	0x3d8a5b8c	0.067557424
129	0x000200d1	1.83964e-40
130	0x3d0e8461	0.034794215
131	0xb78d364d	-1.6833796e-05
132	0xb7aafb18	-2.0382504e-05
133	0x3c1fc476	0.00975143
134	0x3a963ec2	0.0011462795
135	0xbc5c3f03	-0.013442758
136	0xbd3b4cf4	-0.045727685
137	0x3c44dcde	0.0120155495
138	0x3c88bfdb	0.016693046
139	0x88cbfc1a	-1.2276887e-33
140	0x397f258a	0.0002433268
141	0xbc8994f3	-0.016794657
142	0xb83cdc5b	-4.5027915e-05
143	0x2613007d	5.100153e-16
144	0x3c27cf07	0.01024223
145	0x3ae0644e	0.0017119737
146	0xbce29355	-0.027658144
147	0x2405de39	2.9028008e-17
148	0xbd5fa4ac	-0.054600403
149	0xbacbbfa1	-0.0015544781
150	0x2590c67f	2.5114524e-16
151	0xb7896197	-1.6377116e-05
152	0x3a00360e	0.0004890867
153	0xb6d60449	-6.378196e-06
154	0x3d35d930	0.04439658
155	0x3e08a3e5	0.13343771
156	0x1f6d230c	5.0215692e-20
157	0x3aa72030	0.0012750681
158	0xbc730181	-0.0148319015
159	0x31d92734	6.319988e-09
160	0xb943b9be	-0.00018665844
161	0xbbfc4eae	-0.007699809
162	0xbb5811ea	-0.0032969662
163	0x89f26c89	-5.8361447e-33
164	0x3a2697e9	0.0006355034
165	0xbd4f3c96	-0.05059489
166	0x80076fdf	-6.8298e-40
167	0x3b2b5686	0.0026144101
168	0xa414ca7c	-3.2263895e-17
169	0x000466eb	4.04262e-40
170	0x2e9d1cdc	7.14466e-11
171	0x3d066f30	0.03282088
172	0xa4f53586	-1.06342485e-16
173	0x0000159c	7.752e-42
174	0x3ae680c7	0.0017585986
175	0x3da90e41	0.08254672
176	0x3aac4fe1	0.0013146364
177	0xbdaf7e85	-0.085690536
178	0xb73afb73	-1.1145009e-05
179	0xb7947cae	-1.7701033e-05
180	0x3a002ab5	0.00048891763
181	0x3a8ef01e	0.0010905301
182	0x3d7f614a	0.06234864
183	0xbd84280a	-0.06452949
184	0xb9ef430b	-0.00045635583
185	0xb80b1660	-3.316102e-05
186	0xb494de84	-2.772905e-07
187	0x80014663	-1.17085e-40
188	0x80070f9b	-6.48447e-40
189	0x32bb852c	2.1830225e-08
190	0x3bcac0d4	0.0061875377
191	0xb85d5fb0	-5.2779622e-05
192	0x3adc76f5	0.001682012
193	0x3aac3b0a	0.0013140154
194	0x3b158b6d	0.00228187
195	0xbaeee2c7	-0.0018225544
196	0x80000701	-2.513e-42
197	0xb9581ff9	-0.00020611276
198	0x38bb0a29	8.918747e-05
199	0xbcc8474e	-0.024448063
200	0x377850bb	1.4800748e-05
201	0xb9b5baa2	-0.00034662063
202	0xb1ff1cec	-7.424765e-09
203	0xb97a2099	-0.00023854001
204	0xb7610c80	-1.34139555e-05
205	0x0eab333c	4.220409e-30
206	0x800437a0	-3.87296e-40
207	0x22aae3a3	4.6319612e-18
208	0xbd85e887	-0.06538492
209	0x38c27cf9	9.273919e-05
210	0x0000a044	5.7492e-41
211	0x3d8b60b5	0.06805555
212	0x3abd20ec	0.0014429367
213	0xb59eb1ae	-1.1823629e-06
214	0x3d56cf7b	0.052443963
215	0x80053429	-4.77889e-40
216	0xbd9abe74	-0.07555857
217	0xbb32d1aa	-0.0027285614
218	0x3d9fb7eb	0.077987514
219	0x0d4ada35	6.2508713e-31
220	0xb9ca5f1d	-0.00038599307
221	0x0004f5a5	4.55463e-40
222	0x2feef1d6	4.3463783e-10
223	0x39378881	0.00017503092
224	0xbb504130	-0.0031777136
225	0x23b17208	1.9238673e-17
226	0x8000a45b	-5.896e-41
227	0xb69af7d1	-4.6184073e-06
228	0xb61cfa8d	-2.3391651e-06
229	0x00f9c7da	2.2938732e-38
230	0xb276798e	-1.4346723e-08
231	0xb523e76b	-6.105899e-07
232	0xbcfcc67b	-0.030856362
233	0xb97f5502	-0.00024350363
234	0xbc5ab019	-0.013347649
235	0x8e943486	-3.6535395e-30
236	0xb97ad16d	-0.00023919875
237	0x3d27df9e	0.040984742
238	0xbc413542	-0.011792483
239	0x179b2d0d	1.0028013e-24
240	0x3aa6799f	0.0012701041
241	0xb4123d56	-1.3619623e-07
242	0x89a07d40	-3.8636383e-33
243	0xbcb8a8fa	-0.022541512
244	0x3d016b8e	0.031596713
245	0xbc859e76	-0.016310912
246	0x3ce1afda	0.027549673
247	0x343b6475	1.7452278e-07
248	0x80fafdde	-2.3049944e-38
249	0xbdd36aac	-0.103230804
250	0xa6313fcf	-6.149569e-16
251	0x3d13b6fd	0.036063183
252	0xbd018713	-0.031622957
253	0xb61ca63f	-2.334258e-06
254	0xb90931b9	-0.00013083861
255	0xbcb2ac47	-0.021810664

layer_2.bias f4 [300]
0	0xbd8c8d0f	-0.06862842
1	0xbd9d7041	-0.07687426
2	0xbcf3eec1	-0.029776933
3	0xbbe47b26	-0.0069726883
4	0x3d8e1b69	0.06938822
5	0xbbb9feb5	-0.0056761154
6	0x3d005328	0.031329304
7	0xb928f499	-0.00016112848
8	0xbc2938bf	-0.010328471
9	0xbbce8b41	-0.0063032215
10	0xbc45b621	-0.012067349
11	0x3d3128e3	0.043251883
12	0xb8572ba7	-5.130065e-05
13	0xb95e45d3	-0.00021197581
14	0xbdcc4de7	-0.09975796
15	0x3beb1c66	0.007175016
16	0xbcf6189c	-0.030041032
17	0x3d2084f3	0.03918929
18	0x3daffc22	0.085930124
19	0xbd82a9f7	-0.063800745
20	0xbcc61f86	-0.024184953
21	0xbb815da6	-0.0039479313
22	0xbcb71695	-0.022349635
23	0xbd35e7cd	-0.044410516
24	0xbca00edb	-0.019538334
25	0xbd226556	-0.039647423
26	0xbd449901	-0.04799748
27	0x3d1927a4	0.03739132
28	0xbb7d8e82	-0.0038689678
29	0x3ca9c5dc	0.02072423
30	0xbce933e9	-0.028467136
31	0xbdb48683	-0.088147186
32	0xbb5480b6	-0.003242535
33	0xbb5baea3	-0.003352084
34	0x3cf535a7	0.02993281
35	0xbc0a3851	-0.008436278
36	0xbb87db9e	-0.0041460535
37	0xbc4ac3d0	-0.012375787
38	0xbcd264aa	-0.025682766
39	0xbd7da702	-0.06192685
40	0x3bf71f6b	0.007541587
41	0xbb215d66	-0.002462232
42	0xb9a0428b	-0.00030567157
43	0xbcb9fd11	-0.02270368
44	0xbd14dfda	-0.036346294
45	0x3b6f1ba6	0.0036484986
46	0xbc04dac5	-0.008108799
47	0xbcfb8433	-0.030702686
48	0xbc056d21	-0.008143694
49	0x3e017bae	0.12644836
50	0xbb48559c	-0.0030568605
51	0xb2214248	-9.386504e-09
52	0xba8424ec	-0.0010081804
53	0xb9706f7a	-0.00022929712
54	0xbd7eec37	-0.06223699
55	0xbcbf01b5	-0.023316244
56	0xbc8c52fe	-0.017129418
57	0xbc014ed7	-0.007892332
58	0xbbccb162	-0.0062467316
59	0x3c968898	0.01837568
60	0x3c324394	0.01088037
61	0x3d68b474	0.05681272
62	0x3bb28f33	0.0054491996
63	0x3d198331	0.03747863
64	0x3d6eb5e9	0.05827895
65	0x3d8489c7	0.064715914
66	0xbc1dae74	-0.009624112
67	0xbccc0190	-0.024903089
68	0xb8a3d40d	-7.811943e-05
69	0x3c83e976	0.016102534
70	0xb5f0ba24	-1.7935567e-06
71	0xb8a99b76	-8.087505e-05
72	0x3da9b590	0.082865834
73	0xbd81e2d1	-0.0634209
74	0xa62fbc01	-6.0970114e-16
75	0x3d0477b2	0.032340713
76	0x3cc69eef	0.024245707
77	0x3d10f483	0.035389435
78	0x3d7c8c85	0.061657447
79	0xb9666fce	-0.0002197616
80	0x3d8adca4	0.06780365
81	0xbcdc9b28	-0.026929453
82	0xbd198b8d	-0.0374866
83	0x3b6045ff	0.0034221408
84	0x3c481161	0.012211175
85	0xbc4999d6	-0.012304744
86	0xbacaa301	-0.0015459956
87	0xbd83b711	-0.064314015
88	0xbc5cc6db	-0.013475145
89	0xbc144861	-0.00905046
90	0x3d0c1f23	0.03420938
91	0xbcf95bfe	-0.030439373
92	0xb9eab353	-0.00044765565
93	0xb9e32b2e	-0.00043328985
94	0xbbbb79b7	-0.0057212966
95	0x3cfbaca9	0.03072198
96	0xb482b740	-2.434772e-07
97	0xbc3e9c84	-0.011633996
98	0xbd39a0b6	-0.04531928
99	0x3c0acbbe	0.0084714275
100	0xbd082888	-0.03324178
101	0xbc255728	-0.01009158
102	0xbc4a8c3d	-0.012362537
103	0xbd9718c9	-0.07377774
104	0xbc6300d7	-0.013855181
105	0xbc31055b	-0.0108044995
106	0xbc8d83fe	-0.017274853
107	0x3cdc2d8f	0.026877193
108	0x3c4695df	0.012120693
109	0xbd60dc89	-0.05489782
110	0x3cc64138	0.02420102
111	0xbc401a10	-0.011724964
112	0xbbaac824	-0.005211847
113	0xb50981e6	-5.1225504e-07
114	0xbd63e160	-0.055634856
115	0xbcf06a62	-0.029347602
116	0xbd7e1733	-0.062033843
117	0x3d5d3c66	0.05401268
118	0xbd0b0f4d	-0.03395014
119	0xbd38fb1a	-0.045161344
120	0xbc845b8c	-0.016156934
121	0xbd0adf64	-0.03390445
122	0xbd6a2361	-0.057162646
123	0x3cfe3f54	0.031036057
124	0xb9a5a788	-0.00031596073
125	0x3ce045a0	0.02737695
126	0xbcf07558	-0.029352829
127	0x3b5558bd	0.0032554113
128	0xb9435be9	-0.00018630888
129	0xbc7b4683	-0.0153366355
130	0xbb50264b	-0.0031761106
131	0xbc9119f5	-0.017712573
132	0xaf3576ed	-1.6504105e-10
133	0x3d69d089	0.05708364
134	0x3dc3839b	0.09546586
135	0x3d3e561d	0.046468843
136	0x3d070025	0.032959122
137	0xb01a00cb	-5.6026e-10
138	0xbd01b97f	-0.031671043
139	0xbb07ed34	-0.002074075
140	0xbbe4d1e3	-0.0069830283
141	0xbd5b800f	-0.053588923
142	0xba703c60	-0.000916427
143	0xbc9bb5b3	-0.01900754
144	0xbaa2eacf	-0.0012429598
145	0xbc637d42	-0.013884844
146	0xbd4bc451	-0.04974777
147	0xbc7fddcc	-0.015616845
148	0x3cdc9857	0.02692811
149	0xbcc3ef9f	-0.023917971
150	0xb9a8f70a	-0.00032227515
151	0xba23b1e1	-0.00062444626
152	0xbb659e50	-0.0035036989
153	0xb86d3e07	-5.656297e-05
154	0xbb0daddb	-0.0021618519
155	0xbb6239ca	-0.0034519308
156	0xbb4f8a6c	-0.00316682
157	0xbd6b074e	-0.057380013
158	0xb9377f44	-0.0001749965
159	0xbdbcb179	-0.09213538
160	0xbc737a45	-0.014860694
161	0xbc9ec485	-0.019380817
162	0xbbe00f35	-0.0068377503
163	0xbd05cee4	-0.03266801
164	0x3d4bb14b	0.049729627
165	0xbc4194ff	-0.011815309
166	0xae70253e	-5.460276e-11
167	0xba47353f	-0.0007599182
168	0xbd8cbd25	-0.06872014
169	0xbaf13067	-0.0018401266
170	0xbd121b07	-0.035670307
171	0xba10e010	-0.0005526552
172	0xbcd49063	-0.025947755
173	0xbd068e3b	-0.032850485
174	0x3d14009f	0.036133405
175	0xbcc13583	-0.023585087
176	0xbd12b947	-0.035821225
177	0x3d8b0990	0.06788933
178	0xbc67c6b7	-0.014146498
179	0xbba07cb6	-0.004897679
180	0xbaae0e03	-0.0013279322
181	0x3d14e5ee	0.03635209
182	0xbd9beb08	-0.07613188
183	0xbc8e4cb2	-0.017370556
184	0xbd7f94c6	-0.06239774
185	0xbb7c1c23	-0.003846892
186	0xbb59ba2b	-0.0033222537
187	0xba83694f	-0.0010025891
188	0xb9857c20	-0.00025460217
189	0x3dbc08e9	0.09181387
190	0x3c1f4e31	0.009723232
191	0x3a7caab5	0.00096384744
192	0xbab4215e	-0.0013742854
193	0xbcd61267	-0.026131822
194	0xbd8d6e43	-0.069057964
195	0x3c91a490	0.017778665
196	0xbc5e8add	-0.013582912
197	0xbc63e967	-0.013910628
198	0xbdae78c5	-0.08519129
199	0xbd138908	-0.036019355
200	0xbd2c3bc8	-0.0420492
201	0xbb05ab1d	-0.002039618
202	0x3d0b9a31	0.034082595
203	0xbc53dc67	-0.012930966
204	0x3cd79b0a	0.026319046
205	0x3ba20b08	0.0049451627
206	0xbc9daedc	-0.019248419
207	0xbc82a958	-0.01594989
208	0x3caa9c10	0.02082637
209	0x3cab38bc	0.020901076
210	0x3b9e56bb	0.0048321164
211	0xbd229f99	-0.039702985
212	0xbb56734e	-0.0032722536
213	0xbd39f1ea	-0.045396723
214	0xbc263bcc	-0.010146093
215	0xbc8d4ddf	-0.017249046
216	0x3b760834	0.003754151
217	0x3d13b003	0.03605653
218	0x3cf93102	0.030418877
219	0xb91046ad	-0.00013759239
220	0xbd25cb54	-0.040477112
221	0x3b8b3001	0.004247666
222	0x3df12174	0.11773959
223	0xba6b8705	-0.0008984658
224	0x3d435c81	0.04769564
225	0x3d58e2c7	0.052950647
226	0x3ca49447	0.020090235
227	0xbc620e16	-0.013797304
228	0xb9271548	-0.00015934289
229	0x3bc01394	0.005861709
230	0xba28fb0b	-0.00064461
231	0xbb6da49f	-0.0036261452
232	0x3b0ffa85	0.002196939
233	0xbbca4664	-0.006172942
234	0xbc5e3a27	-0.013563669
235	0xbdab64c6	-0.083688304
236	0xbcf59409	-0.029977815
237	0xbbd861c5	-0.006603452
238	0xbc14e4d8	-0.009087764
239	0x3c97b620	0.018519461
240	0xbd027bea	-0.031856455
241	0xbcdea94b	-0.027180335
242	0x3d90ae51	0.07064498
243	0xbc3f2a76	-0.011667838
244	0xbdb18b2a	-0.086691216
245	0xbca5d59a	-0.020243455
246	0xbc726e4d	-0.014796806
247	0x3daba29a	0.08380623
248	0xbd077e2e	-0.03307932
249	0xbd22e972	-0.039773412
250	0xbab855d4	-0.0014063665
251	0x3cb86c81	0.022512676
252	0x3d0b2f54	0.033980682
253	0xbb1dd35a	-0.0024082274
254	0xbac04d6b	-0.001467151
255	0xbb9ac590	-0.0047232583

layer_3.weight f4 [6, 300]
0	0x3d390548	0.045171052
1	0x3b548ce3	0.0032432608
2	0x3d97f221	0.07419229
3	0x3cb2364f	0.021754412
4	0xbe25593c	-0.16147321
5	0xbd33cf52	-0.043898888
6	0x3d0ca8dc	0.034340724
7	0x3ab1d27b	0.0013566756
8	0x3d299bb4	0.041408256
9	0x3dce9603	0.10087206
10	0x3bd2663e	0.0064208796
11	0xbe7b6cbe	-0.245532
12	0x3cc99eb3	0.024611806
13	0x3bd5970d	0.006518251
14	0x3d9f7fd0	0.0778805
15	0x3ce3d586	0.027811777
16	0x3d13cee7	0.03608599
17	0x3b83e3e5	0.00402497
18	0xbbfcf99e	-0.0077201864
19	0xbd386cdb	-0.045025688
20	0x3d19963b	0.037496787
21	0x3cf2efbe	0.029655334
22	0xbe8469f8	-0.25862098
23	0xbd92a6ad	-0.07160697
24	0xbdced34a	-0.10098894
25	0xbda71e91	-0.08160127
26	0xbd9898a4	-0.07450989
27	0xbe818346	-0.25295466
28	0x3a7543cd	0.00093561114
29	0x3d1bdbc5	0.038051385
30	0x3c9ef709	0.019404905
31	0xbd037233	-0.03209133
32	0x3b6b6f89	0.0035924634
33	0xbc36b302	-0.011151077
34	0xbd66c49e	-0.056339853
35	0x3d871225	0.06595258
36	0xb9c1499b	-0.0003686667
37	0x3c342586	0.010995274
38	0x3d081beb	0.03322975
39	0xbcb934d4	-0.022608198
40	0xbbf8348b	-0.007574623
41	0xbc40bdab	-0.01176397
42	0xbd4fb168	-0.050706297
43	0xbc931c57	-0.01795785
44	0x3c5dca85	0.013537054
45	0xbc14f86f	-0.009092434
46	0x3d06e698	0.032934755
47	0x3d497aad	0.04918926
48	0x3cc7c75e	0.024387058
49	0xb9985d7c	-0.0002906135
50	0x3b08065a	0.002075574
51	0x3acba1a5	0.0015535845
52	0x32d07558	2.4267749e-08
53	0xbc847519	-0.016169118
54	0xbc9e3ae1	-0.019315185
55	0x3d9992b2	0.07498683
56	0xbd24aa2b	-0.040201347
57	0xb318ef56	-3.5607933e-08
58	0xbd05b553	-0.032643627
59	0xbe2127f8	-0.15737903
60	0x3e05e917	0.13077198
61	0xbe566d37	-0.209401
62	0xbddcb648	-0.10776955
63	0xbe1ea136	-0.15491185
64	0xbe54a6ff	-0.20766829
65	0xbd855d86	-0.06511979
66	0x3cf1c758	0.029514
67	0x3c4b9bd0	0.012427285
68	0xbce63c4c	-0.028104924
69	0xbd1d416e	-0.038392477
70	0xbcd4a0f5	-0.025955657
71	0x3c1c4156	0.009537062
72	0xbb285f42	-0.0025691544
73	0xbdc0542a	-0.09391053
74	0x387e4038	6.0618127e-05
75	0xbc9a3b70	-0.01882717
76	0xbcd73fb0	-0.026275486
77	0xbdefc320	-0.11707139
78	0x3c72bd5d	0.014815656
79	0xbd38c8fa	-0.04511354
80	0xbd876cb7	-0.066125326
81	0x3d3a4e10	0.045484602
82	0x3d2ba19b	0.041902166
83	0x3d71c26c	0.059023306
84	0x3bfecb3b	0.007775692
85	0x370dd997	8.4549165e-06
86	0xbce1fba1	-0.027585806
87	0x3c3d67e3	0.011560413
88	0xbd9630ff	-0.07333564
89	0x3d8c7e71	0.06860054
90	0xbde99b8c	-0.11406621
91	0x3da09d0e	0.07842456
92	0x3c86d36e	0.01645824
93	0xba867de2	-0.0010260905
94	0x3ab36464	0.0013686535
95	0xbcc5a566	-0.02412672
96	0x2d1f6561	9.060614e-12
97	0x391033aa	0.00013752157
98	0x3c158962	0.009126993
99	0x3d83ec96	0.064416096
100	0xbdaaacd8	-0.083337486
101	0x3d86e1bb	0.065860234
102	0x3b8ef165	0.0043622726
103	0x3cc665b6	0.024218421
104	0xbd554f53	-0.052077603
105	0xbd530d8c	-0.05152659
106	0xbdf20a58	-0.11818379
107	0xbc5b7599	-0.013394737
108	0xbe2c8cf5	-0.16850646
109	0x3d86d536	0.065836355
110	0x3ce3b0d6	0.027794283
111	0xbdeb5f82	-0.11492826
112	0x3c9c2a36	0.019063096
113	0x3aa004dc	0.001220848
114	0xbdab463f	-0.08363008
115	0x3d722e62	0.059126265
116	0x3b2f6aae	0.0026766467
117	0xbdbe4615	-0.09290711
118	0x3ce20c16	0.027593654
119	0x3ca3072e	0.019900884
120	0x3d814253	0.063114785
121	0xbdc89e53	-0.09795823
122	0x3c844c1b	0.016149571
123	0xbd7d9524	-0.06190981
124	0x3c1f7c62	0.009734245
125	0x3d0a638c	0.03378634
126	0x3d28d396	0.04121741
127	0x3d4733b7	0.048633303
128	0x3d1d44ed	0.03839581
129	0x3bc774de	0.0060869297
130	0x3d22729a	0.039660074
131	0xbdc3a039	-0.095520444
132	0x3b7a99bf	0.0038238612
133	0x3ba23e03	0.00495124
134	0xbe17c34c	-0.14820594
135	0xbde27f2f	-0.110594146
136	0x3db65f3f	0.089048855
137	0xa98f014c	-6.350701e-14
138	0x3d2b09f8	0.041757554
139	0x39f61d93	0.0004694281
140	0xbc8c03ef	-0.01709172
141	0x3d28b11f	0.04118454
142	0xbb6feedb	-0.0036610875
143	0x3e21f354	0.15815479
144	0x3c75c2fc	0.015000101
145	0xbbf5226a	-0.007480909
146	0xbd7dc415	-0.061954577
147	0x3d6a737d	0.057239044
148	0x3df9a98e	0.12190543
149	0x3bc0a832	0.0058794254
150	0x3b88ab48	0.004170809
151	0x3cbd3de6	0.023100805
152	0x3c3737c6	0.011182731
153	0x38e1a40c	0.00010759392
154	0xbdc6e183	-0.09710982
155	0x3c0aa114	0.008461256
156	0xbd5910a0	-0.05299437
157	0x3cb9b406	0.02266885
158	0x3aff0c3e	0.0019458605
159	0x3da0f1c8	0.07858616
160	0xbcb0c148	-0.021576539
161	0xbcb9ef42	-0.022697095
162	0x3d875911	0.06608785
163	0x3c2be40c	0.010491382
164	0xbc42e824	-0.011896167
165	0x3db98cef	0.09060084
166	0x0fa5ac47	1.6336615e-29
167	0x3df0e91a	0.117632106
168	0xbc9fb8d7	-0.019497318
169	0x3932f7d9	0.00017067733
170	0xbd9a6036	-0.07537882
171	0x3b95cc64	0.0045714844
172	0x3c7071ef	0.014675601
173	0x3d9d8847	0.076920085
174	0x3d0b8bee	0.034068994
175	0xba368812	-0.0006963025
176	0xbce5243a	-0.027971376
177	0xbd0f6c2e	-0.035015278
178	0xbd68ad74	-0.056806043
179	0x3b116906	0.0022187843
180	0xbc287e05	-0.010283952
181	0xbdfd91c7	-0.123813204
182	0xbc537430	-0.012906119
183	0xbd3a5c42	-0.04549814
184	0x3cb6eee4	0.022330709
185	0x3df9f825	0.12205533
186	0x3c9f1f59	0.019424127
187	0x3a49f599	0.00077041384
188	0x3b861a94	0.004092524
189	0xbe5b8f55	-0.21441396
190	0xbdd8a310	-0.10577977
191	0xbe8969f8	-0.2683866
192	0x3cc3de7f	0.023909805
193	0x3d08ad6e	0.03336852
194	0xbda0f120	-0.07858491
195	0xbce745e8	-0.028231576
196	0x3ce99e30	0.028517812
197	0x3d848dc3	0.064723514
198	0xbd1ceb28	-0.0383102
199	0x3d8f91ad	0.07010207
200	0x3d1f2aba	0.038859107
201	0xbbf52905	-0.0074816965
202	0xbd0637b3	-0.032767963
203	0x3bd08d8f	0.0063645313
204	0xbe1a5543	-0.15071587
205	0x3d18916f	0.03724807
206	0x3b1d8d23	0.0024040423
207	0x3bbb5a07	0.005717519
208	0xbe069ab2	-0.13144949
209	0x3b90713a	0.004408029
210	0xbd6afcfc	-0.05737017
211	0x3ad545c1	0.0016271399
212	0xbd44fb8e	-0.048091464
213	0x3e256399	0.16151275
214	0xb9398393	-0.0001769199
215	0x3e0ebec9	0.13939966
216	0x3d18f755	0.03734525
217	0x3dcbe8cc	0.09956512
218	0xbc758407	-0.014985091
219	0xbc988ab9	-0.018620836
220	0x3d910597	0.07081144
221	0xbd1d3f13	-0.03839023
222	0x3e8c5ff4	0.27416956
223	0xbcab612c	-0.020920359
224	0x3e34f3fc	0.17671198
225	0xbd1d979f	-0.038474675
226	0xbc83eda3	-0.016104525
227	0xbb9b8910	-0.0047465637
228	0x3b38d404	0.0028202543
229	0xbc84212e	-0.016129103
230	0x3c28aea0	0.01029554
231	0x3d7a1f4c	0.061065003
232	0x3e0d527a	0.13800994
233	0x3c5634ba	0.013074094
234	0xbd2b1d5c	-0.041776046
235	0x3c851d57	0.016249342
236	0xbd5927e8	-0.053016573
237	0xbc2b5055	-0.010456164
238	0xbc2347e7	-0.009965873
239	0x3d90c4a6	0.07068758
240	0xbd915702	-0.070966735
241	0x3d697524	0.05699648
242	0x3d858b03	0.06520655
243	0xbb04b47c	-0.0020249179
244	0x3b0353e0	0.0020039007
245	0x3c623210	0.013805881
246	0x3ccfabbd	0.025350446
247	0x3dc2c42b	0.09510072
248	0xbc7671fc	-0.015041824
249	0xbd2d6105	-0.042328853
250	0x3b4a456c	0.0030864133
251	0x3c832ead	0.016013468
252	0xbe106a47	-0.14103042
253	0x3d98b480	0.07456303
254	0x3cb8ffa4	0.022582836
255	0x3bda1ea4	0.0066564847

layer_3.bias f4 [6]
0	0x3d4ef7ec	0.050529405
1	0x3dd1d7c8	0.10246235
2	0xbe365d19	-0.17808951
3	0x3d0f10bc	0.03492807
4	0x3da881f7	0.08227914
5	0x3ccd7692	0.025080953
