models/all_td3/TD3_TradingEnv9_pred_robust_42_250_predictor.pth (torch, 113439 bytes, 6 tensors)

layer_1.weight f4 [200, 35]
00000000: 3570 f03c affb e6bc e2c3 58bd d6b9 55bb
00000010: 50a4 343e b02d fc3d 4bdd 8bbd d617 c03c
00000020: 0d7a 123e 82c9 8ebc 28fb 2b3d caff 61bc
00000030: cbce 90be f6e5 12bb f859 98bc 6280 073b
00000040: e781 0f3d 17f3 0cbe e975 b33d 4d99 2a3d
00000050: 2fdd 393d ab1f ca3d 1acf a43c d081 b93c
00000060: dce4 47bd 8900 3ebe d261 82be 2c28 b83e
00000070: abca a5bd 9ea3 49bc 00a7 eabc 4c25 483d
00000080: 509f 18be 45c3 623d 4fb4 5d3e d5ad 953e
00000090: 2247 63bd 7d1d 5c3e 1021 953e c1d3 e3bd
000000a0: 22a8 fc3d 853c 1e3e f269 b4bd 153c ac3d
000000b0: a4f9 9cbe 47e7 47be 398b 3e3c 7bd9 0e3d
000000c0: b13a febd 373e c23d 98ef 9d3d f706 98bc
000000d0: 8c17 8c3c fe26 663d a374 b8bc 852d bb3d
000000e0: 9860 06bd 8a9e 893d b87b 91bd d367 c03b
000000f0: 3b8d 54bd 5bb8 213d 322f 96bd 24e9 083e
00000100: ea91 b03c 011b 03bd 8c43 f13d 55c6 513c
00000110: 0906 b63d c10f 75bd 4815 693c 2210 733d
00000120: 082a cf3c ecd4 9b3c 4097 9e3c 3da5 78bc
00000130: cfd5 1fbd cd0f 923c b7df 04bb 438b 9d3c
00000140: 5d6e a83c 3042 303c 8cac 4bbd 931c abbb
00000150: 9933 fbba 8678 4e3c f397 02bb e022 97bb
00000160: 2265 cdbc c576 e0bb 36ed 6b3c 3858 a639
00000170: 7159 8cbc 9d81 23bb 2a43 2b3a 5ab7 e43b
00000180: 9d0d 7abc ba45 8b3c 6ce8 193c 308f 103c
00000190: 487d 6d3c 4bc5 473c 0a7c 3abb 2fee 92bc
000001a0: f7fa 0b3d 3bcc 943a 35f4 19bc 5464 63bc
000001b0: 2c39 07bd bd61 9a3c 6ae0 3dbb c837 02be
000001c0: 7473 60bc 5727 67bc 722f ff3b d392 f3bc
000001d0: d8b5 24bb 4668 8e3c 3ae9 713c 56f7 19bc
000001e0: 435c 6bbc ed71 d4bb 6dbb 4ebc f03f e63b
000001f0: e1fb 693c 65b5 78bc 51c1 fcbc 16ba 40bc
00000200: a121 123b 6ae1 6039 d925 9e3c fde8 a2ba
00000210: 9844 5bbd ddc9 a7bc 86e6 b9bb b736 fbbc
00000220: 3a1a 7abc 4c64 143c 91e8 80bc a079 48bd
00000230: b976 6cbb 5c0d 143d 4424 8abc 9580 6e3d
00000240: d649 63be 3825 b33b f38f 2c3e 237e 063d
00000250: 8b87 153e 2a33 b8bb 9e7b 9fbc d43b 4ebe
00000260: b26e 3bbd de00 453d 4849 af3d 3504 e73c
00000270: 64c6 f0bc b24f 12bd eeb0 ddbc c9c8 643d
00000280: 5104 8c3c 7ea3 adbc b520 353d f901 93bd
00000290: 85e8 323d be4a 4a3d 274a 35bd e99d 18bd
000002a0: af20 4cbd e42a 963d 49d3 25bd 4841 513c
000002b0: 13b8 9b3d cf1f ae3c e1f8 00bd 306d 803d
000002c0: 6a08 023c fa0f ff3c 5ee8 b73c 63bc e33b
000002d0: 66b9 083b 1686 1dbd 7a79 1b3d ca83 5c3d
000002e0: 4bd2 243d 68d2 f63c 2401 863d 347f 453a
000002f0: d6eb aabc d045 22bd 81c9 8fba fa96 d9bb
00000300: 3af3 b7bc 3373 52bc 7557 5c3c 56c2 00bd
00000310: c437 c4bc 08bd 833b bb39 a23c 02e1 eebb
00000320: f1cc 65bd c3a4 c23d b236 2bbc 0487 afbb
00000330: aa3c 96bc 7482 fcbc ac23 9bbb 2e99 10bd
00000340: e922 153c 489f 33bd aa61 fc90 6891 7e00
00000350: 952c 4196 ccf2 2093 026d 2980 493d af00
00000360: 0bf4 0400 752f 7d87 a73e 3080 04db f60e
00000370: 3fbd 370a 8b9a 2280 725f 3e00 6351 b49d
00000380: e8c6 ee85 e4e8 0901 53fb b78d 021c cf89
00000390: ce42 2380 84d5 3c80 e0c9 4800 2167 1688
000003a0: a204 5d00 a2b8 0f8d c1a0 838a 3057 9300
000003b0: 16ad 3480 ff1b 5d00 d7e2 0395 e7a7 9800
000003c0: 897c b397 efde e695 3374 0980 371e 9200
000003d0: d36f 6480 7f10 5c3e f738 b83d 45d6 093e
000003e0: f8e1 ad3d 5e9f 603c 20c8 f4bd 625e 963d
000003f0: 3588 91bc 9367 71be b12c b13c 3104 8d3d
0.02935038 -0.028196184 -0.052921183 -0.0032611988 0.17640805 0.12313402 -0.06829318 0.023448866
0.14304371 -0.01743007 0.04198757 -0.013793895 -0.2828277 -0.00224149 -0.018597588 0.0020675887
0.035035994 -0.13764606 0.08762724 0.041650105 0.045376953 0.098693214 0.020118285 0.022644907
-0.04880224 -0.18554892 -0.25465256 0.3596815 -0.080952965 -0.012307076 -0.028644085 0.048863694
-0.14904523 0.055362005 0.21650814 0.29234186 -0.05548776 0.21495624 0.29126787 -0.11124373
0.12336756 0.15452774 -0.0880927 0.08409897 -0.3065921 -0.19521819 0.011629873 0.034875374
-0.12413538 0.09484523 0.077117145 -0.018558009 0.017101072 0.05618953 -0.022516554 0.091395415
-0.032806963 0.06719692 -0.071036756 0.005871752 -0.0518925 0.039482456 -0.073332205 0.13370186
0.021553952 -0.032008175 0.11780462 0.012803634 0.0888787 -0.059829477 0.014226265 0.059341557
0.025288597 0.019022427 0.019359231 -0.015176115 -0.039022263 0.0178298 -0.0020274946 0.019231444
0.020560438 0.010757968 -0.0497251 -0.005221912 -0.0019165158 0.012601977 -0.0019926995 -0.0046123117
-0.025072638 -0.006850096 0.014399817 0.00031727715 -0.017132493 -0.0024949082 0.00065331405 0.006979865
-0.015262035 0.017001022 0.009393793 0.008823201 0.014495201 0.012193034 -0.002845528 -0.01793584
0.034174886 0.0011352369 -0.009396602 -0.013878901 -0.033013508 0.018845433 -0.0028972873 -0.12716591
-0.013699401 -0.0141085 0.0077876383 -0.029733097 -0.0025132801 0.017383706 0.014765078 -0.009397348
-0.014365259 -0.0064833076 -0.012617928 0.007026665 0.014281244 -0.015179967 -0.0308539 -0.011763116
0.0022297876 0.00021446278 0.019305157 -0.0012429055 -0.053532213 -0.020481998 -0.0056732325 -0.030665739
-0.015265042 0.009057116 -0.015735896 -0.048944116 -0.0036081506 0.036145553 -0.016862996 0.058228094
-0.22196135 0.0054670833 0.16851787 0.032835137 0.14602487 -0.0056213336 -0.019468125 -0.2014001
-0.045759864 0.04809653 0.08558899 0.028200248 -0.029391475 -0.035720535 -0.027061906 0.055855546
0.017091902 -0.021196123 0.044220645 -0.07178111 0.04367878 0.049387686 -0.04426017 -0.03725997
-0.049835857 0.073323995 -0.0404847 0.012771912 0.07603469 0.021255402 -0.03148735 0.06270826
0.007936576 0.031135548 0.022449668 0.0069499477 0.002086246 -0.038457952 0.037957646 0.05383662
0.040239614 0.030129626 0.06543186 0.00075339084 -0.020864408 -0.03961736 -0.0010970087 -0.0066403123
-0.022454847 -0.012844848 0.013448586 -0.031435333 -0.023952372 0.004020337 0.019802919 -0.0072900066
-0.05610365 0.09504082 -0.010450052 -0.0053566713 -0.018339474 -0.030823924 -0.004734477 -0.035302334
0.0091025615 -0.043853074 -9.954695e-29 1.1623434e-38 -1.5604483e-25 -2.0314547e-27 -3.80436e-39 1.6093197e-38
4.54888e-40 -1.9047551e-34 -4.430579e-39 6.0854586e-30 8.846723e-33 -3.177846e-39 5.72804e-39 -4.7729755e-21
-2.2454479e-35 2.5330017e-38 -1.133875e-30 -4.9859776e-33 -3.238207e-39 -5.586725e-39 6.684575e-39 -4.526021e-34
8.542363e-39 -4.428752e-31 -1.267531e-32 1.3531095e-38 -4.837537e-39 8.550744e-39 -2.6634184e-26 1.4019227e-38
-1.1599041e-24 -9.324799e-26 -8.68204e-40 1.3418821e-38 -9.223665e-39 0.21490668 0.0899524 0.13460644
0.08490366 0.013709871 -0.11952233 0.07342221 -0.017765144 -0.23574667 0.021627756 0.06885565

layer_1.bias f4 [200]
00000000: b5b6 47be 20f5 153e f9da 6a3c da95 b3bd
00000010: f26d 7b3d dcdd 55bd eafa 00a4 2533 cb3d
00000020: 7a02 06bc 0d43 d0bb 45b6 0e3c 3207 a0bb
00000030: 876b 5b3d b316 483d 4204 c5ae 5383 863c
00000040: 6316 e7bc 9350 05bb 4d10 85bd b50c 18bc
00000050: d147 0c3e 5f86 453e 19a6 dd3c bc26 ba3b
00000060: 955f 28bd 9f74 0bb5 ee11 b0bc 01b3 9abb
00000070: f499 b9bd 1ef4 01bd 587e 4b3c c35a d93c
00000080: afac 11bc 38d1 913c 9a57 373c 1d77 31bd
00000090: 1a53 1f3e 24c3 5f3c 1fc9 f9bc 6034 1ebe
000000a0: 7efe cb3d b4a4 4898 fad3 4cbd d66f c63c
000000b0: 2ea3 dbbc 48bd 1bbd 2559 22bc 05de 6dbc
000000c0: 4f02 5bbd d31f ce3c 6bf2 7cbc d258 8cbc
000000d0: 1705 f2b7 3540 e2bc 8ae5 86bb e04e 423a
000000e0: 69aa 9d3c b149 873c 14fe 463c d32a 35bc
000000f0: 035e 88bb e3c6 0fbd 66be b5bd d87d 5c3d
00000100: f4bc 31bd 9d96 593d 6c0c 84bd 9b06 dab7
00000110: b36b a6aa 54e6 1fbe c7a1 a9b9 cd25 59bd
00000120: 116c 403d 94ed cba1 2c53 43bd d254 dd3c
00000130: ac41 463d 6be9 96bd 8bad 90bc 2c67 ab3d
00000140: 3d4b 76ba 0e38 05b5 720a a9ba 96e1 99bd
00000150: 0dd5 04bd 20f1 dbbc 30bc 90bd 10c2 8a21
00000160: 2c8f f3b7 b134 713c b3f4 673d 5284 42b9
00000170: a988 11bc 1e76 afba b9c6 61bd 7327 7a3b
00000180: 4d6f 29bc c2e4 efbc fb00 f9b8 533d 97bd
00000190: 89ec 8b3d cba9 5cbd 3204 5c3d e28c b5bd
000001a0: c320 873c efac 4b3c 458f 533d 37d9 8f3d
000001b0: 9e4e 3b3d f4ba 853c a4e5 96b9 5c0d f73c
000001c0: d5b2 9a3d 0889 29be 581b 28bc 201a 05bc
000001d0: fd5c 4bbc b831 c4ba a007 b4bd a8cc efbc
000001e0: b4ea cfb2 9f0c 0fbe 4deb a73c 4ef7 91b7
000001f0: c1aa b9b5 b386 b13c bf67 13bc 2f2e 963c
00000200: 1980 39be 6f8d d33c 17db 8abd 853d d9bc
00000210: 5997 00bc b1a2 8dbc 7165 54bd 7788 163d
00000220: c509 153e 5582 43ba 5748 50a6 3267 903e
00000230: 658b cb9d 3ec7 1cbc e294 6e3d bcbb f2ba
00000240: 8fb5 ba3d 3174 f1ba 73ab ee3c 9441 1dbd
00000250: 2a70 92b5 9b25 c33b cf7c 933c 45ca e1bd
00000260: fd06 c3bc 3c41 a0bb fcd6 42b7 c039 e0b2
00000270: a7f6 0dbb f0d8 a7b8 178c 56bc 2248 883e
00000280: 1901 693c b5ab a93c cd0b f69c 3e5e 1ebe
00000290: f2b4 eebc 4d9e 0ebe 2251 92be ab3a 58bd
000002a0: e3c5 f3bb 4907 933a 715c 6bbc 7888 24be
000002b0: 7429 4d3c c69b 59bd 5492 8cbc 3741 adbd
000002c0: 8c45 64be df05 123c 0416 023d 3250 85bc
000002d0: 0e78 0cbd eb0f 8bbd e327 a0bb b5ee d3b2
000002e0: 4379 babd aa28 d3b5 b03f 2eb9 f6d6 f8bc
000002f0: c8aa 85bb 1a39 a73d f7f8 19b9 5a6b 3ebd
00000300: 339f bebb 73ff 103d 95fb 9e3c 7b08 0eb6
00000310: 8641 f6bd 0bfe a1bd adfb 22bc 8cce 8ebd
-0.19503291 0.14644289 0.014334434 -0.08768816 0.06138415 -0.052213535 -2.7968108e-17 0.099218644
-0.008179301 -0.0063556493 0.008710449 -0.0048836702 0.053569343 0.048849773 -8.959279e-11 0.016420042
-0.028208917 -0.0020342215 -0.0649725 -0.009280373 0.13699271 0.1928954 0.02705674 0.005680887
-0.04110678 -5.195124e-07 -0.021492925 -0.004721046 -0.09062567 -0.03172695 0.012420259 0.026532536
-0.008891269 0.017799959 0.011190319 -0.043326486 0.15559044 0.013657365 -0.03049141 -0.15449667
0.0996065 -2.5932548e-24 -0.050006844 0.02422325 -0.026811209 -0.03802231 -0.009908949 -0.014518266
-0.053469 0.02516166 -0.015438656 -0.017132197 -2.8851018e-05 -0.027618507 -0.0041167187 0.0007412266
0.019246297 0.016514631 0.012145538 -0.011057573 -0.0041615977 -0.035101783 -0.08874206 0.05383095
-0.04339309 0.05312215 -0.06447682 -2.5990701e-05 -2.9562255e-13 -0.15615207 -0.00032354725 -0.053014565
0.04697806 -1.3818701e-18 -0.04768674 0.027017985 0.048402473 -0.0736874 -0.017660877 0.08369288
-0.00093953667 -4.962793e-07 -0.001289679 -0.0751373 -0.032429744 -0.026848376 -0.07067144 9.402612e-19
-2.9034527e-05 0.014722035 0.056629848 -0.00018550575 -0.00888268 -0.0013386642 -0.055121157 0.0038170486
-0.010341478 -0.029283885 -0.00011873428 -0.073847435 0.06832225 -0.053872865 0.05371494 -0.08864762
0.016495114 0.012431367 0.051650304 0.07023852 0.045729272 0.016324498 -0.00028781325 0.030157737
0.07553641 -0.1655618 -0.0102604255 -0.0081239045 -0.012412307 -0.0014968431 -0.08790517 -0.029272392
-2.4204702e-08 -0.13969658 0.020497942 -1.7400507e-05 -1.383327e-06 0.021670675 -0.008996903 0.018332569
-0.18115272 0.025824277 -0.06780069 -0.026518593 -0.007848584 -0.017289491 -0.051854555 0.036751237
0.14554508 -0.00074580807 -7.2262535e-16 0.28203732 -5.3877783e-21 -0.009568987 0.058247454 -0.0018519084
0.09116661 -0.0018421469 0.029134488 -0.03839262 -1.0910492e-06 0.0059554107 0.01800385 -0.11024908
-0.023807043 -0.004890589 -1.1613356e-05 -2.6103294e-08 -0.0021661909 -8.003588e-05 -0.013094923 0.26617533
0.014221453 0.02071176 -1.6281965e-21 -0.15465638 -0.029139016 -0.13927574 -0.28577524 -0.052790325
-0.0074393614 0.0011217381 -0.0143653015 -0.16067684 0.01252209 -0.053127073 -0.017159618 -0.08459704
-0.22292155 0.008912533 0.031759277 -0.016273592 -0.03429418 -0.067901455 -0.0048875674 -2.4672184e-08
-0.0910516 -1.573256e-06 -0.00016617659 -0.030375939 -0.0040791966 0.08165188 -0.00014683964 -0.046489097
-0.005817318 0.035399865 0.019407073 -2.1164585e-06 -0.12024216 -0.07909783 -0.0099476995 -0.069729894

layer_2.weight f4 [100, 200]
00000000: b6fd 07bd ca75 adbe b841 16bd eafd 423c
00000010: 5d01 2dba 9c3a 14bc 46c7 d592 404b c0bd
00000020: 2c48 bf3c 1e50 dc3c 0853 0fbd 2816 50b5
00000030: 7cfb 943d e493 abbd 83a3 8519 69de 9a3b
00000040: 20f5 2f3d b64e a23c 0454 14bd 62c3 7cb5
00000050: 4859 e33c d4ae 4fbd ef05 f03b 0fba 33b9
00000060: c129 9c3d b23f 7a12 4092 1e3b 8899 dfba
00000070: 5eaf 8ebd 7652 a43b bca4 c43b e4c8 46bd
00000080: 8a1d ac3c fd12 d4bb 5568 49ba b83d 0fbd
00000090: a55b 963d 64db 353b eee9 0b3d 1fdb 2a3d
000000a0: a85a 553c 47f4 0988 04cd 9bbc 8ea1 e23b
000000b0: 34f6 64ba 6abc 7d3d abb8 f63c 878e 803b
000000c0: 3a6f 4cbd a45e f939 50cb d5ba 1e3b 06bc
000000d0: 52ce f395 d4e8 a5bc 21ac b83b 3b9e 7f3b
000000e0: c6db 023d 53bf 5abc 4be6 483d 5892 b533
000000f0: baf4 27ba d041 85bc 02ee ddbd 9dda e63c
00000100: 27e5 40b9 9150 9b3a 4b81 883d f502 4c34
00000110: 7b70 1d80 c5a9 1cbd e7d4 3b2c 49ca 003c
00000120: 06f8 b33b 4ce2 3a80 b67a e8bb 98b8 cbbb
00000130: 4426 ef3c 32fa ae3d 54f9 373c 0f0d 153d
00000140: af25 99af 5d01 9926 e23b bebb 13b3 b8ba
00000150: 703c 95bd 94e9 baba c65d 89bb afe6 69a1
00000160: daec da36 3bcd 84b8 eb38 3e3c 8873 9b29
00000170: 74ae 973c 21e4 b0bc 016b ed3c a715 58bd
00000180: db0d 993c 918a 8e3b 3a08 b7ab 8d20 b4bc
00000190: 55b2 e63c b9b2 cf3d 2d1b 4a3e cdf1 8c3d
000001a0: f16e 193c bafe 16bd 6ca1 273c 83ea 563a
000001b0: 26a1 743c 33f0 12bd 30d2 9136 db94 18bc
000001c0: 34cc 3abd 3877 2f3d d13d 183b 459e d3b8
000001d0: 1821 f5bb 9f98 7abc d8fa 2d3d dc06 c2ba
000001e0: b158 7827 4a68 00bd 01e1 d23c fec6 a42f
000001f0: 613a 282f b9f4 143e feee 0e38 4ca9 803d
00000200: 08b1 63bd 10ce fb3c e1e6 a43c 6ee3 fd3c
00000210: 69c6 4a3b 800b 67bb 85a0 fcbd a99f a53b
00000220: 86c5 16be 50a5 9931 e81f 4524 4a74 d6bc
00000230: c8b2 aa04 2be1 e63b 5f65 c93c f861 fd35
00000240: e135 bb3c b7be 9d34 e199 2d3c 1181 fd3b
00000250: b544 0f35 b249 4c3c 1113 963b 1da8 b73d
00000260: 514c 893c 6c76 043d 1a98 5c2d dbb3 1900
00000270: 2d80 22bc 81a3 1637 98a0 703c 869e 283c
00000280: 6c8b 553d 8819 883b 3ab2 1f00 df7e f2bc
00000290: 6e1a 52ba 51a4 f33c 2952 bebc 7fa7 283d
000002a0: 2d12 64b7 4310 85b5 7399 18b8 ce82 1c3d
000002b0: e9eb 8d3c a211 1ebc 69f6 8b3b 5662 c43d
000002c0: b962 323d 6afa bbbc 883a b1bc 0c19 7e3b
000002d0: c72d 9a3c 5410 483e b6e6 f4a8 6494 1d11
000002e0: 3737 543d f743 3a35 c4e9 6b36 7a2b 323d
000002f0: 0006 c538 8011 8fbd 5ced 81b3 105a 043c
00000300: 45c9 8dbc 8e4b 173a 90a5 cebb 4932 8925
00000310: 9d44 843c 054d 12bd 4b29 2c3d 5ebb 153d
00000320: 4d30 17bd 4ffe 6f3c 92f9 aabc eda1 d53c
00000330: dc7e 553d c4c8 8c3b b076 1e9c 2214 42be
00000340: 7756 753c 7fd8 b93b fa08 4abd 60ad 81b8
00000350: 9a33 183e 181b 173d cf39 1026 a993 9fbc
00000360: 8bfc f13c 9e98 6d3c c748 8b3d edec 22ba
00000370: bb40 8f3d 6983 23bd 9813 aebc 93f5 05bd
00000380: 0521 123e e66e 1f21 3b86 c63b 2b5f c73a
00000390: b62b 1a3d 2b44 f13b f406 aa3a f80f 43bd
000003a0: ace7 803d 797f c6bc 1772 bbbc 2cab aebc
000003b0: 8f78 e13b 36e1 0bbd 6568 b8bb 1ed9 d43d
000003c0: 5bf1 9dbd 5225 3401 be8c 26bd e526 1f3c
000003d0: ab42 133c dc5a 733c e87a 263c d8ea 37ba
000003e0: 8cee b73c a85a b1bc 1dc6 babc 3c8c 43bc
000003f0: 9dc3 c199 f3be 0dbb 94c5 5dbc 4c8b ed3b
-0.033200942 -0.33878928 -0.036683768 0.011901358 -0.00065996294 -0.009047177 -1.3491315e-27 -0.09389353
0.023349844 0.026893672 -0.034991294 -7.751828e-07 0.07274529 -0.08377817 1.381792e-23 0.0047262204
0.04295838 0.019812923 -0.036212936 -9.4161635e-07 0.027752534 -0.05070384 0.007324926 -0.00017140082
0.076251514 7.89646e-28 0.0024196059 -0.0017059306 -0.069670424 0.005014713 0.006001083 -0.048531428
0.02101018 -0.00647199 -0.0007683088 -0.03497097 0.073416986 0.0027749175 0.03415864 0.041712876
0.013022102 -4.1514085e-34 -0.019018658 0.0069162315 -0.0008734197 0.061947264 0.030117353 0.0039232406
-0.04991076 0.00047563494 -0.0016311202 -0.008192806 -9.8472434e-26 -0.020252623 0.0056357537 0.0039004225
0.031947874 -0.013351279 0.04904775 8.455089e-08 -0.00064070115 -0.016266733 -0.10836412 0.028180415
-0.00018395913 0.0011849572 0.06665286 1.9000056e-07 -2.70358e-39 -0.038247842 2.6692483e-12 0.007860729
0.005492213 -5.407639e-39 -0.0070947064 -0.0062170736 0.029193051 0.08543815 0.011228878 0.036389407
-2.7857314e-10 1.0616877e-15 -0.0058054784 -0.0014091454 -0.07286918 -0.0014260286 -0.004192087 -7.924878e-19
6.5244794e-06 -6.332478e-05 0.01161025 6.903424e-14 0.018515803 -0.021593155 0.028981688 -0.052755024
0.018683365 0.0043500145 -1.3005215e-12 -0.021988178 0.028161207 0.101415105 0.19736929 0.06882057
0.009364829 -0.03686402 0.010231357 0.0008198397 0.014930999 -0.035873603 4.345806e-06 -0.009312834
-0.0456049 0.042838305 0.0023230205 -0.00010090744 -0.0074807517 -0.015295177 0.04247555 -0.001480307
3.4464993e-15 -0.031349458 0.025742056 2.997282e-10 1.5300251e-10 0.1454648 3.4078017e-05 0.06282291
-0.055588752 0.030737907 0.020129623 0.030992236 0.0030941016 -0.0035254657 -0.12335304 0.0050544334
-0.14723787 4.47168e-09 4.274459e-17 -0.026178498 4.0130993e-36 0.007045885 0.02458447 1.8878482e-06
0.02285284 2.9382292e-07 0.01059577 0.007736333 5.3371633e-07 0.012468742 0.0045799096 0.08967612
0.016760023 0.0323395 1.25393255e-11 2.360407e-39 -0.009918255 8.978765e-06 0.014686726 0.010291701
0.052134916 0.004153434 2.910836e-39 -0.029601512 -0.00080148026 0.029741438 -0.023232536 0.04117536
-1.3594091e-05 -9.914005e-07 -3.6382535e-05 0.038210683 0.017324405 -0.009647759 0.0042713177 0.095890686
0.04355118 -0.022946555 -0.021634355 0.0038772253 0.018820656 0.19537479 -2.7189497e-14 1.2430843e-28
0.05181047 6.93893e-07 3.5153798e-06 0.043498494 9.3948096e-05 -0.0698576 -6.050206e-08 0.008078113
-0.017307887 0.00057714514 -0.0063063577 2.3799786e-16 0.016145999 -0.035717983 0.042031568 0.03655564
-0.036911298 0.014648034 -0.020870958 0.026078189 0.052122936 0.004296394 -5.2431215e-22 -0.18952993
0.014974228 0.0056715603 -0.049324967 -6.183493e-05 0.14863434 0.036891073 5.003838e-16 -0.01947959
0.029539367 0.014501719 0.068009906 -0.0006215114 0.06994768 -0.039920244 -0.021249577 -0.0327049
0.14270408 5.401807e-19 0.006058482 0.0015210857 0.037639342 0.0073628626 0.0012972043 -0.04762265
0.06294188 -0.024230706 -0.02288155 -0.021321855 0.006880827 -0.034150325 -0.005627679 0.10392974
-0.077120505 3.3087555e-38 -0.040661566 0.009713863 0.008988063 0.0148532055 0.010161139 -0.00070158904
0.022452615 -0.021649674 -0.022799546 -0.01193529 -2.003474e-23 -0.0021628707 -0.013535876 0.0072492715

layer_2.bias f4 [100]
00000000: f3db 323d 47d4 37bd 3dbb 4c3c 895d f93c
00000010: 06a0 023d 47a4 b9bc fa86 55bd 2b7a ee3c
00000020: d6d0 a93b e481 2fbc e370 123d 1a27 85bc
00000030: cc3e 4cbd abf2 9e3c d558 56bc 0284 a2bc
00000040: d5a8 cabb 99db 56bc a07f 49b8 b262 1f3b
00000050: f590 843d 5598 12bd cd3b 3cbd 4d47 f6bb
00000060: 435c 3c3c e0a9 443c ec06 448d c7be bb3d
00000070: 5b47 86bb 0036 d93d 14f5 85b3 bf93 f6bc
00000080: 1f6b 003d cacf febd 1fce 34be 5e5d 749c
00000090: 668d 9abc 250e 8bbe 9817 1cbc fa1c 70bb
000000a0: bff9 abbc bc1d 0a3d f23d d23c 9071 0c3c
000000b0: 9180 46bc c88c 8ebd 0330 a9b7 c4de 19bd
000000c0: c97d 2ebc f28a 89bd 31d2 8fba dd73 d0bd
000000d0: fdff 0abd 38ed 1d3c 8e41 dc3c 28ad 14bd
000000e0: b3ab 54bd 5cab 03bc 5f19 cdbc f123 54b9
000000f0: 3fff 57bc ce4a 20be 9dd9 f8bc 2574 8cbc
00000100: d872 e9bc 7f69 1c3d fc9f 49bd ecfd a23c
00000110: a091 07bc f0af 4abd 29cf 85ba e883 42bd
00000120: b059 25bd 71f9 b3bb 7adc 3217 b45c 493d
00000130: 25bf 8c3d 36ff 8cbc 5094 9d3c 9dd7 0dbd
00000140: f984 11b3 464b 87bc d4ee 923c 7fcf 8ebd
00000150: ba8c 48bd b13d 013e 7003 37b9 7966 0a3c
00000160: 3460 81bd 19df c6bc ac8e 53bd a351 373d
00000170: 8406 34bd 8671 70bd 3b01 98bd 448b e63c
00000180: 171f b1bb fc1c a9b9 e188 64b1 6091 bfbb
0.04366679 -0.044880178 0.012495813 0.030440109 0.03189089 -0.022661341 -0.052130677 0.029110989
0.005182366 -0.010712121 0.03575219 -0.016253997 -0.049864575 0.019402822 -0.013082703 -0.019838337
-0.006184677 -0.01311388 -4.8040994e-05 0.0024320302 0.06472961 -0.035789806 -0.045955468 -0.007515824
0.011496606 0.012003392 -6.0405495e-31 0.09167247 -0.0040978617 0.10606003 -6.2378746e-08 -0.030099748
0.03135216 -0.12441976 -0.17656754 -8.08535e-22 -0.018866252 -0.2715923 -0.00952711 -0.0036638365
-0.020993112 0.033719763 0.025664303 0.008571997 -0.012115614 -0.06960446 -2.0168727e-05 -0.03756596
-0.010650107 -0.06715955 -0.0010972676 -0.10178349 -0.033935536 0.009639077 0.026886728 -0.036297947
-0.051921558 -0.008036461 -0.025036512 -0.00020231285 -0.013183414 -0.15653536 -0.030377204 -0.017145226
-0.028497145 0.038186546 -0.04922484 0.01989647 -0.008274466 -0.049484193 -0.0010208833 -0.047489077
-0.040368736 -0.005492382 5.7793183e-25 0.049160674 0.068723954 -0.017211538 0.01923576 -0.034629453
-3.388138e-08 -0.016515385 0.017936148 -0.069731705 -0.048962332 0.1262119 -0.0001745352 0.008447283
-0.063171774 -0.024276303 -0.051649734 0.04475559 -0.043951526 -0.058702014 -0.0742211 0.028142579
-0.0054053175 -0.00032255787 -3.3256173e-09 -0.0058461875

layer_3.weight f4 [5, 100]
00000000: 5dcd 343e c38f 283e 644d 933d c800 b0be
00000010: ea8f ecbd cf17 9fbd 9bae f83d a9c2 863e
00000020: 8eab 11bd 9f48 d9bd 9388 dcbd cbee fbbd
00000030: e387 873d f32d a2bd 9c99 0e3c eaf2 90bd
00000040: 7f8f 713e 1fb1 403e 0f2c d6b8 0756 eebd
00000050: 8a46 ef3d c1bd c1bd b337 45be 6f7f 913c
00000060: 9b33 b9bc 7dec 003e 6d1a 5d80 6ab4 0cbc
00000070: 9a1d d9be 9472 433d 72f5 87ae 7eb7 203e
00000080: b07c abbe 1453 83be adc4 d6be 80ad 7b80
00000090: 71fb 4abe 4967 72bf 7293 00bd e5b6 77bd
000000a0: ee68 b3bd 626b 083d dd7d 833d 9078 483d
000000b0: d4cf b13d 91b7 90be 11a3 9bb0 8341 603c
000000c0: 8f81 8c3e 7e53 333d c057 62bb 2132 d6bb
000000d0: 09fc a33d 648c 1ebd 916f 483d 720d 813d
000000e0: db11 41be f861 f13d d058 a5bd 51f7 e6ae
000000f0: c526 e6bc 5687 3dbe ef27 8f3d e039 103e
00000100: b497 d43d 31cb b8bd 69fe 1abe d244 f6bc
00000110: a760 07be 36b6 133e 3713 b4b7 b26b efbd
00000120: 40a7 27bb 47a5 5cbc f6b9 3e16 5aff 063e
00000130: d681 523e 250c 223d 045a aabd 5d80 38be
00000140: 7b87 6a2f dc1c 50be e231 f6bd 35a9 9d3d
00000150: 0e90 ffbb 19df 623e 92af 4bbb 1b5e 113d
00000160: e640 f7bd 3f35 4c3d 8643 49bc 11ad 2e3e
00000170: c236 2d3e 6e86 333e 8112 823b bdb6 39be
00000180: 82a9 4d3d de89 30b9 97d2 2f36 64df 663c
00000190: 0894 323e e4ac 3c3e 1734 72bc ac5f 47be
000001a0: 0a90 0abe 1fe6 77bd 7c4c 4d3e b270 fa3d
000001b0: 4368 02be 1078 8e3d 6709 34be 170f 8cbe
000001c0: aa49 8e3d 3ab7 fd3c f236 d1bc b598 6ebd
000001d0: 0747 053e 79a5 303e c04d dc37 04f5 c3bd
000001e0: 19e5 d83c 1be3 813c d0b3 84bd a743 eb3b
000001f0: aa7e dd3d b583 fa3d 4752 df00 6f71 1ebe
00000200: 20e5 b4be 28cb c7bd 9e3f f22d b433 d13d
00000210: 6ec3 2cbe f425 31bc 2707 febd f08b bf80
00000220: 1060 09be 52ff 31bd 8f8e 00bb 94c2 253e
00000230: 02bd d1bc 0e0c 673b 63cd bb3d 4419 f03c
00000240: 94b4 d63d aa14 b3be 0dc1 d9a6 f9bc 333e
00000250: b42a eabc 6214 9e3e 022b c7ba fd15 103e
00000260: cda7 143e 2f59 183d 50bd 03be f084 3b3e
00000270: d453 aabe 8194 143e dbd7 1fbe 4fc5 09b3
00000280: fd57 85bc 424e 0d3e 1586 4d3e 1cfe 113e
00000290: 42cd 213e 814f 1fbe cb24 ffbc 67b4 8a3d
000002a0: 8199 1cbe adda 573e d2a5 d2ba 1b81 993d
000002b0: 733a 91be 7c3f cd3c 8760 2717 09ba b83d
000002c0: 3e8d ca3c c3e7 4e3d 103b 22be ef92 9cbe
000002d0: d950 dfb5 f903 02be 6e28 a7be a9bb 203d
000002e0: 154e cebe c6a1 e4bc e3c8 02b8 08b5 b73d
000002f0: abc1 903d 605a b63d a8b8 103e 229b d33d
00000300: 83fa 383c f730 473e 671a 5b3e 06f2 24be
00000310: 854d cebd 3df7 963a 78f3 8cb1 4a9a 17be
00000320: 08c5 8d3e 1d26 a83e 542d a53d 0b92 aabe
00000330: 034d aebd 426f a3bd 0eed f03d 9e6e 563d
00000340: a727 acbd ad27 8e3d 51d9 0ebe 7e11 86be
00000350: 2cb4 3e3e d87d 7dbd aaa5 04bd 8630 803e
00000360: fe29 443d 8572 9b3d f758 d1b9 b881 01be
00000370: 4edb 0c3e 9a5a e33c 0b47 92bd cbf1 9ebb
00000380: aafc b53c d25c 493e 7fd0 8180 1cb5 98bc
00000390: 9ea3 fdbe 5684 063d 31f2 4daa 5ab1 673d
000003a0: 8bd3 18be 526d 893e 23e9 263e ae33 c603
000003b0: 963c 0abe 7e3f bc3d 7b95 cbbc 860a f73d
000003c0: 6190 64bd b42b b0bd a4e3 883d b859 563d
000003d0: edae 883d de68 5ebd 8db6 d7b2 b8d0 8f3d
000003e0: 7e88 c4bd badb 3f3e c6d5 9a38 313c b53d
000003f0: c9f8 773e 1f1e c2bd e45e 153d f2a8 633d
0.17656465 0.1646109 0.071924955 -0.34375596 -0.11550887 -0.07768213 0.12142678 0.2632039
-0.035563998 -0.106095545 -0.10768237 -0.123014055 0.06617715 -0.0791892 0.0087036155 -0.07077582
0.23589896 0.18817566 -0.00010212522 -0.11637502 0.11683376 -0.09460021 -0.19259529 0.01776096
-0.022607615 0.12590213 -8.550181e-39 -0.008587936 -0.42405397 0.047716692 -6.182689e-11 0.15694997
-0.33493567 -0.2564932 -0.41946927 -1.1358006e-38 -0.1982248 -0.9468885 -0.031390615 -0.060477156
-0.08760248 0.033305533 0.06420491 0.048943102 0.08682218 -0.2826505 -1.1324081e-09 0.013687494
0.27442595 0.043780796 -0.0034537166 -0.0065367376 0.08007056 -0.038708106 0.048934523 0.063013926
-0.18854468 0.11786264 -0.0807358 -1.0503121e-10 -0.028094659 -0.18508658 0.069900386 0.14084578
0.103804976 -0.09023131 -0.15136112 -0.030062113 -0.13220464 0.14424977 -2.146662e-05 -0.11690463
-0.0025581867 -0.01346714 1.5406757e-25 0.13183346 0.20557341 0.039562363 -0.0831795 -0.18017717
2.1330308e-10 -0.20323509 -0.12021233 0.07698289 -0.007799155 0.22155418 -0.003107999 0.035490137
-0.12072925 0.049855467 -0.012284165 0.17058207 0.1691542 0.1753175 0.003969491 -0.18136115
0.050210483 -0.00016836027 2.6199612e-06 0.014091346 0.17439282 0.18425328 -0.014782927 -0.1947009
-0.13531509 -0.060522195 0.20048708 0.12228526 -0.12735085 0.06956494 -0.17581712 -0.27355263
0.06947644 0.030971158 -0.025538895 -0.0582511 0.13015376 0.17250623 2.6262249e-05 -0.095682174
0.02647643 0.015855363 -0.06479609 0.0071796956 0.10815175 0.122321524 2.0508831e-38 -0.15472959
-0.35331059 -0.09755546 2.7540466e-11 0.1021494 -0.16871426 -0.010812271 -0.12403708 -1.759078e-38
-0.13415551 -0.043456383 -0.0019616222 0.16187507 -0.025602821 0.0035254988 0.09170034 0.029308923
0.10483661 -0.34976703 -1.5109726e-15 0.17552556 -0.028584816 0.30874926 -0.0015195312 0.14070888
0.14517136 0.037194427 -0.12865186 0.1831243 -0.3326708 0.14509775 -0.15609686 -3.207725e-08
-0.016277308 0.13799384 0.2007068 0.14257091 0.15800956 -0.15557672 -0.031145474 0.0677269
-0.15292932 0.21079512 -0.0016071147 0.07495328 -0.28364906 0.025054686 5.4082445e-25 0.090198584
0.024725553 0.050513994 -0.15842843 -0.3058085 -1.6638324e-06 -0.12696828 -0.32648033 0.039241467
-0.40293947 -0.02790917 -3.1181506e-05 0.08970076 0.07068189 0.089039564 0.14132941 0.103323236
0.011290195 0.19452272 0.2139679 -0.1610795 -0.100733794 0.0011517775 -4.1022155e-09 -0.1480495
0.27689385 0.32841578 0.08065286 -0.33314547 -0.085107826 -0.07980205 0.117639646 0.052351587
-0.084060006 0.06941161 -0.13950087 -0.2618522 0.18623418 -0.061887592 -0.032384552 0.2503702
0.04789161 0.07590202 -0.0003992987 -0.1264714 0.13755533 0.027753163 -0.071424566 -0.0048506013
0.022215206 0.19664314 -1.1921573e-38 -0.018641047 -0.49538893 0.03284105 -1.8291685e-13 0.05656562
-0.14924447 0.26841217 0.16299872 1.1649259e-36 -0.13499674 0.09191798 -0.024851551 0.12062554
-0.055801753 -0.08602086 0.06684044 0.052331656 0.066739894 -0.054299228 -2.5112309e-08 0.07022232
-0.09596346 0.18736163 7.383111e-05 0.08849371 0.24215998 -0.094784014 0.036467448 0.05558104

layer_3.bias f4 [5]
00000000: b82a acbc f72c 9f3d 972c d93d 5fe1 583c
00000010: 56e6 d63d
-0.021016464 0.07772248 0.10604208 0.013237326 0.10493152
