models/TD3_TradingEnv9_tts_42_predictor.pth (torch, 113503 bytes, 6 tensors)

layer_1.weight f4 [200, 35]
000000 30 a3 af 3e 1f 0a 22 bf 4c 5b c5 3e a5 21 bd 3e
       0.3430419 -0.63296694 0.38546216 0.3693973
000010 d7 49 1d 3f e1 f2 c6 3f a2 d5 79 3f 3b e7 84 bd
       0.61440796 1.5542871 0.975916 -0.06489416
000020 fc bd e5 bf db 47 af bc d7 18 d7 3d 7a e0 63 3f
       -1.7948604 -0.021396568 0.10502785 0.890144
000030 91 a1 43 bf e7 a3 a1 3e 0d f9 3c bd c8 8f 3d bf
       -0.76418406 0.3157036 -0.04613595 -0.7404752
000040 04 62 d0 be 2d 23 92 be 2c 6b b3 be 77 ef 0e 3e
       -0.4069978 -0.28542462 -0.35042703 0.13958536
000050 51 cf e1 bc 40 cd 8a 3d 39 3a c0 be bf 6f a9 be
       -0.027564676 0.067774296 -0.3754442 -0.33093068
000060 8b d0 81 be 25 45 6b 3f 86 c2 2a 3f a9 33 7d bc
       -0.25354418 0.9190238 0.6670307 -0.015454211
000070 fc 3a 8e bd 19 c3 11 c0 c3 1a 26 be e5 0a 5a 3d
       -0.06944844 -2.2775328 -0.16221146 0.053233046
000080 6b 3b ad bf d3 d2 95 3e fb 34 9b 3f 2c a8 e0 bb
       -1.3533758 0.2926241 1.2125543 -0.006855985
000090 e0 ee 13 be e7 cc cd bd b3 c0 9d 3d a6 9e dd 3e
       -0.14446592 -0.10048848 0.0770277 0.43285102
0000a0 ad 12 e3 bf 5e 9b c2 bd 70 30 8a be e8 0f a1 bf
       -1.7740074 -0.0950229 -0.2699008 -1.2582979
0000b0 9a 38 fa be 64 b6 9f be 9e 49 35 bf 1f 24 4f 3f
       -0.4887131 -0.3119384 -0.70815456 0.8091449
0000c0 6b c3 2c bf a7 1d ce 3e 41 4a 5a be 5a f9 13 be
       -0.67485684 0.40256998 -0.21317388 -0.14450589
0000d0 89 7f cb 3e 78 73 38 3c 7b 8d cf 3f cf 31 b8 3d
       0.3974574 0.011257999 1.6215051 0.08993875
0000e0 47 f3 85 3e 7a 51 38 be 42 09 9d 3d 11 75 ad 3e
       0.26162168 -0.17999831 0.076677814 0.33878377
0000f0 a7 ef 08 bf e2 6a 05 3f 6f bc ad be 3d 38 2a 3e
       -0.5349068 0.52116215 -0.33932826 0.16623016
000100 7f 36 0c c0 ac c6 ea bd cd 07 72 bc 68 92 76 3f
       -2.1908262 -0.11463675 -0.014772368 0.9631715
000110 8d d1 22 3f 28 96 b3 3e f5 41 f7 bd 9c e2 93 be
       0.63601 0.35075498 -0.12073127 -0.28883827
000120 cb 4f 30 3d 62 78 1e be ff 04 75 3d 6f e0 4d bd
       0.043044847 -0.1547561 0.059819218 -0.050262865
000130 12 9d 12 3e 00 11 58 bd a1 76 7d be b9 bc c1 bd
       0.1431773 -0.052750587 -0.24752285 -0.09459824
000140 31 22 b1 bd 2a d2 a4 bd b2 94 45 3e 16 29 b8 bd
       -0.086490996 -0.08047898 0.19295004 -0.089922115
000150 df 90 b2 3d 5f b8 52 be 86 c1 89 3d 9a 9d 89 3d
       0.08719038 -0.20578144 0.06726365 0.06719513
000160 2b 74 09 bd 38 0a 4b bd fc f9 4e 3d dc 7a 3f be
       -0.033558052 -0.049570292 0.050531372 -0.18699211
000170 ce b6 78 bc ba c1 73 3d 60 2f 6f be f6 7f 3f bd
       -0.015180303 0.059510924 -0.23357916 -0.046752892
000180 cb 4b 67 bd e5 f4 f5 bd 5c 8f 73 3d 0a 13 8b bd
       -0.056468766 -0.120096005 0.05946289 -0.06790741
000190 18 0f 93 3c f6 11 fb bc 4f 3a 09 3d fd d6 05 be
       0.017951533 -0.030648213 0.033502873 -0.13070293
0001a0 2b e8 9b 3d 92 63 25 be 33 99 36 bf 1b d6 19 be
       0.07612642 -0.16151264 -0.71327513 -0.15023081
0001b0 80 f7 24 be 1c 60 24 bf 8d 58 5b 3f 88 f9 52 3f
       -0.16110039 -0.6420915 0.8568199 0.82412004
0001c0 c8 89 4f 3c c2 ce 30 bf 47 49 04 3f cf f3 81 3d
       0.012667127 -0.6906549 0.5167431 0.06345331
0001d0 6f a6 86 3f 95 0a 4e bf eb 1f a2 bf 72 2a 9b be
       1.0519542 -0.80484897 -1.266599 -0.3030582
0001e0 1b 9c 75 be f2 50 79 be 3d fd da be de 48 c3 3e
       -0.23985331 -0.24347284 -0.4277133 0.3814153
0001f0 df a1 04 3e 86 63 d2 be b1 77 2d 3e f7 04 bd be
       0.12952374 -0.41091555 0.1694019 -0.3691785
000200 95 8e 8f 3e c6 a6 96 3e a6 c4 3c bf f8 be 03 3f
       0.2803847 0.29424113 -0.7373756 0.5146327
000210 10 d2 f5 be 44 c4 8b bd f8 58 7d bf 58 53 6e 3e
       -0.48011827 -0.06824544 -0.9896388 0.2327398
000220 f6 f4 2a 3e b7 b2 db 3d 6e d6 d8 3f 58 ad e6 3e
       0.16695008 0.107274465 1.6940439 0.45054126
000230 33 27 b9 be 99 d6 17 be 92 7c 40 be 73 b6 39 be
       -0.3616272 -0.14827956 -0.1879752 -0.18136005
000240 8b b8 27 3f dc fe e9 3e 1f f7 a9 bf 54 b9 37 3c
       0.65515965 0.45702255 -1.327854 0.011213619
000250 3a da 0c 3e 7b b8 4d 3e 5a 73 bb bd ca f5 19 bf
       0.13755122 0.20089905 -0.09152861 -0.6014067
000260 89 22 7e bd ae 3a 17 be 5e 54 d2 be 03 b3 80 be
       -0.062044654 -0.14768478 -0.41079992 -0.25136575
000270 7f 34 51 be f3 0e 91 be 3c 52 8b 3e 20 ef 57 bf
       -0.20430182 -0.28331718 0.27211177 -0.8434925
000280 2c ae 2d 3f 01 f7 1a bd 37 4e 69 3d 49 4b d6 3d
       0.6784389 -0.037833218 0.056959357 0.10463578
000290 56 11 dd bc 11 e4 b1 3e c9 e3 02 3c 21 87 21 3e
       -0.026985805 0.34744313 0.0079888785 0.15774204
0002a0 79 ee fc bd e8 07 5e be 4a f3 a7 3c 42 09 bb bd
       -0.123501725 -0.21682703 0.020501751 -0.09132625
0002b0 40 c9 22 bf 4d c7 6f 3f ad 5d 1c 3f fe da eb be
       -0.63588333 0.93663484 0.6108044 -0.46065515
0002c0 69 9f 32 3d 6f d2 e0 be 0b f8 19 bf d1 95 da be
       0.043609057 -0.43910548 -0.6014411 -0.42692426
0002d0 5c 5d 4c bf 8f 28 ad bf 81 c7 f3 3e ce 04 d1 3f
       -0.79829955 -1.3528003 0.47613147 1.6329591
0002e0 50 f2 1f 3f d1 dd ec 3e 29 e2 83 bf 51 d4 87 be
       0.62479115 0.46262982 -1.0303394 -0.26529172
0002f0 3d e0 89 be 23 5d 9e bb 23 cc a4 bf 75 de 41 3e
       -0.26928893 -0.00483288 -1.2874798 0.18932517
000300 43 79 8d 3e a7 23 5e be 80 6d 06 3f a5 ed 14 3f
       0.27631578 -0.21693288 0.52510834 0.58175117
000310 07 34 1e 3e 2b c8 c4 bd ab 96 04 be b8 ac a0 3e
       0.15449534 -0.096084915 -0.129481 0.31381774
000320 99 d7 29 3f 87 c7 24 3f 5a 9c 17 3f 61 b2 d4 3d
       0.663446 0.64366955 0.5922295 0.103855856
000330 c3 f8 a9 3e 2b 57 88 be 7c 08 8d bd e1 cb 4e bf
       0.33197603 -0.26629004 -0.06886384 -0.80779845
000340 3d 07 05 bf e4 97 5e 3f cf 2e 2a 3d bc a2 20 be
       -0.5196417 0.86950517 0.041548546 -0.15687078
000350 f5 d2 6a bd 73 ab 5c bd 98 96 24 3e 91 62 1e 3e
       -0.05733009 -0.053874444 0.16073072 0.15467288
000360 71 e9 b7 3d df 2e 0f 3e e3 2f 14 be de e3 ca ba
       0.08980072 0.13982724 -0.14471392 -0.0015479287
000370 2b ff e3 bd 8d f8 15 3e 61 87 1d be c2 63 08 be
       -0.11132654 0.14645596 -0.15383674 -0.13319305
000380 38 fc fb bd 01 67 8b bd 87 5f f9 bc b1 26 fa bd
       -0.12303966 -0.06806756 -0.030441059 -0.12214411
000390 bc b3 66 be 4e ea 88 bd fe 85 47 3c f4 37 eb 3d
       -0.225295 -0.06685315 0.012177942 0.114852816
0003a0 f0 38 98 3d 4f b7 2a be 46 55 1c bc 8a 08 ff 3d
       0.07432735 -0.16671489 -0.009541815 0.124528006
0003b0 f7 89 12 3d 36 23 24 be 93 fe c6 3d 39 61 4e bd
       0.035776105 -0.16029057 0.09716525 -0.050385688
0003c0 3a de e5 3d 6f 16 34 bc 6a 94 a4 bd 23 fc af 3d
       0.11224027 -0.010991677 -0.0803612 0.08593013
0003d0 17 14 d3 3d c0 e0 38 bf 64 07 3d bf 18 9a 35 bf
       0.10306566 -0.7221794 -0.738394 -0.70938253
0003e0 11 b6 bc be 4e e2 90 bf a6 34 94 bf ee 98 4d 3f
       -0.36857656 -1.1319063 -1.1578567 0.8031148
0003f0 1f b2 e0 3e 6f 5e cc bf e7 a1 9d 3e 87 52 1b 3f
       0.43885896 -1.5966319 0.30787584 0.606728

layer_1.bias f4 [200]
000000 ed 42 ab 3e 9a 57 0d bd c6 11 d3 bd ff 44 c6 be
       0.33449498 -0.03450737 -0.103061244 -0.38724515
000010 61 ff dd 3d 3d 50 cf be 24 16 25 be bf 3c 27 bf
       0.10839725 -0.40490904 -0.16121727 -0.65327066
000020 8d 95 e7 bd 4a d7 bc 3d 44 5d 1c bd 49 3b 25 be
       -0.113078214 0.09220751 -0.038174883 -0.16135897
000030 99 59 a0 be c6 9e 50 3e 3a e4 40 bd 49 9f 19 3e
       -0.31318358 0.20373067 -0.047092654 0.15002169
000040 f4 0f 1a bf 54 65 83 3d 98 f7 80 bd 34 0a 13 3f
       -0.6018059 0.06415811 -0.06297225 0.57437444
000050 86 05 1c be 76 4f cf 3d 25 aa d2 3d 58 14 a4 bc
       -0.15236482 0.10122578 0.10286359 -0.020029232
000060 40 48 44 3b 75 73 b2 3d 30 7b f9 3e 23 2f 30 be
       0.002995029 0.08713428 0.48726797 -0.17205481
000070 cf 3b ac bd 61 62 0d 3d c3 a9 a1 bd a8 54 a9 3d
       -0.08409845 0.03451765 -0.078937076 0.082681
000080 6a c3 7d bd 36 33 84 3e b0 ae 74 bd 4d 3e 1b 3e
       -0.06195394 0.2582032 -0.059736907 0.15160485
000090 12 b7 0f be f6 bb 0c be f4 9b 17 bd 7f ad c0 be
       -0.1403468 -0.13743576 -0.037013963 -0.37632367
0000a0 66 31 27 be f8 44 03 be 75 38 a0 be c9 68 4a 3e
       -0.16327438 -0.12819278 -0.31293073 0.19766535
0000b0 44 20 b0 3d ef c0 ed bd 94 fa dd 3d bf 81 cb bd
       0.08599904 -0.11609065 0.108388096 -0.099368565
0000c0 35 5f ff bd 11 a7 82 be fa 53 6e 3d ef 5d 0f 3f
       -0.12469331 -0.25518087 0.058185555 0.56002706
0000d0 ec fe 39 3e c5 97 88 3d 63 fa 3d 3e 4b fc 47 be
       0.18163651 0.06669573 0.18552546 -0.19529836
0000e0 b9 f4 a9 3d 4c c4 1f be 8b f3 89 3c 44 3a 81 3c
       0.0829863 -0.15602225 0.016839763 0.015774854
0000f0 2f 7f a8 bd 70 ff f2 bd 40 9d 63 bc ff fc 10 be
       -0.08227383 -0.11865127 -0.013892472 -0.1415901
000100 60 07 ae 3d 82 ca 14 be 84 d1 13 bd 6e b4 e1 3d
       0.084975004 -0.14530376 -0.03608848 0.11020742
000110 09 21 bc be b8 cb 4d 3d 91 51 75 be 43 11 12 bd
       -0.36743954 0.05024311 -0.23956896 -0.035660993
000120 68 0b 12 bd 6b dc cf bd 53 f8 65 3e a0 9f 8d 3d
       -0.03565541 -0.10149463 0.2245801 0.06915212
000130 35 bb b7 bd 53 6d 9b 3d 09 11 9c 3e 2a 8a 91 3d
       -0.08971254 0.07589211 0.30481747 0.07106431
000140 e3 0d b0 3d 30 e9 75 be 6a e5 7d 3d e1 79 31 3e
       0.08596399 -0.24014735 0.061986364 0.1733165
000150 4c 9c f4 bd 00 7e 6b 3e bf 66 fc bb 89 22 10 be
       -0.11943874 0.22997284 -0.007702678 -0.14075674
000160 88 d0 4f be 64 67 6d 3e e4 fa f6 3d c9 6a c4 3e
       -0.20294392 0.23183972 0.12059572 0.3836272
000170 3c 14 b7 bd 63 e0 22 bd c5 20 97 bd a4 c3 71 bd
       -0.08939406 -0.039764773 -0.07379297 -0.059024468
000180 2b f0 de bc 8a 79 5c 3d e0 81 fb 3d 93 7c f0 3c
       -0.02721413 0.053826846 0.12280631 0.029356277
000190 3b 0d b4 3d d9 48 fb 3e dd 5a 11 3d 4a 13 82 3e
       0.08791586 0.49079016 0.035487045 0.2540534
0001a0 42 55 8c bd 11 2a 79 be c0 15 15 be 23 c9 db bd
       -0.06852199 -0.24332453 -0.14559078 -0.10731723
0001b0 52 19 d5 3c c5 58 e3 3d 2d e8 e8 3e d4 42 53 bc
       0.02601305 0.11100916 0.45489636 -0.012894351
0001c0 99 c4 3c 3d 6c ec ea be 17 d2 1b be a2 ae 82 bc
       0.046085928 -0.458835 -0.15216862 -0.015952412
0001d0 d2 28 03 3e 72 a5 8d bc 50 86 90 be 7c 8e 0e be
       0.1280854 -0.017290805 -0.28227472 -0.13921541
0001e0 31 c1 08 bd 1b b1 f4 bc 9e 83 0c be eb a3 71 be
       -0.033387367 -0.029869607 -0.13722083 -0.23597686
0001f0 83 cf bc 3b 0e b3 ce 3a 5f 49 76 3d 1e 51 27 bd
       0.005762042 0.0015769915 0.060128566 -0.040848844
000200 68 c6 c3 bc 32 c6 a8 3e 97 fe 54 bd e8 8c 07 bf
       -0.023898318 0.3296371 -0.05200061 -0.5294938
000210 34 07 3b 3e 97 89 c2 bd 0c 3a 42 bd 7c 5c e2 3d
       0.18264467 -0.094988994 -0.04741864 0.11052796
000220 13 70 a9 bc 2b e8 0c be 6c cf 9a bd f5 b6 1d be
       -0.020683324 -0.1376044 -0.07559094 -0.15401824
000230 a5 9a 9c bd 80 7c 14 3c 50 51 f9 3b 10 3a 10 bd
       -0.076466836 0.009062886 0.00760857 -0.035211623
000240 a9 0b 93 3e 12 7f 6c be 24 b4 43 3e e8 a0 43 3e
       0.28719833 -0.23095348 0.19111687 0.1910435
000250 e3 8a 21 be c0 4c 17 bc 6e db 23 be c6 e0 0c 3e
       -0.15775637 -0.009234607 -0.16001675 0.1375762
000260 df 9e 16 be e1 dc 00 be 2a 5f 6e bd 00 f0 23 3e
       -0.14709042 -0.12584259 -0.058196224 0.16009521
000270 2f 9b ed 3e cd 8a 83 3d ce bb 2c be 0f 14 0e be
       0.46407458 0.064229585 -0.16868517 -0.13874839
000280 70 80 e6 3c c7 d5 95 bd dc e5 91 3e 55 ed 85 3d
       0.028137416 -0.073161654 0.2849568 0.06539408
000290 5b 98 11 be 92 dc 61 bd 6c 79 ed bb 4d 50 73 3e
       -0.14218275 -0.055141993 -0.0072471406 0.23761101
0002a0 7e 1b b7 3d 23 de 55 bd 1e 04 54 3d a4 72 cb bd
       0.089407906 -0.0522138 0.05176174 -0.09933975
0002b0 1a bf 0b 3e 49 13 ca 3e f1 04 dc be b3 16 45 3d
       0.13647118 0.39467838 -0.4297252 0.04811735
0002c0 bc b4 37 3e 81 a5 83 3e 58 d2 77 bc 9c 94 66 be
       0.17940038 0.25712207 -0.015125833 -0.22517627
0002d0 69 22 33 be af 2d fc 3e e1 0b 3f 3e 4a 73 b4 3e
       -0.17493595 0.49253604 0.18656875 0.3524421
0002e0 f6 8f 88 be c0 ba 28 bd 2f 01 48 3e b2 2e b2 bd
       -0.26672333 -0.041193724 0.19531702 -0.08700313
0002f0 89 2c 3f 3e f3 ba 10 bc 8a 21 1c be 11 c7 19 be
       0.18669333 -0.008833635 -0.15247169 -0.15017344
000300 cb fa 80 3d bb 30 d4 bd 62 be 1d be 21 5c a5 be
       0.06297835 -0.10360857 -0.15404657 -0.3229685
000310 d0 ce 20 3d f8 a5 44 be fb bd 09 3e bb 83 11 be
       0.03925973 -0.19203937 0.13451378 -0.14210407

layer_2.weight f4 [100, 200]
000000 e4 86 e4 3e 10 c7 5e c0 48 66 3f 3d 2b 55 30 be
       0.44634163 -3.4808998 0.046728402 -0.17219989
000010 3a 6d e8 be 7c 79 9d bd d2 5c fd bc 1f 0b c1 be
       -0.45395833 -0.07689187 -0.03092805 -0.37703797
000020 3e 9a 66 3d 22 15 3e 3d ac 83 19 3e f4 51 6f bd
       0.05629944 0.046406873 0.14991635 -0.058427766
000030 7c 76 8c bf 51 38 33 c0 e8 a4 74 bc 60 f0 09 c1
       -1.0973659 -2.8003123 -0.014931895 -8.621185
000040 85 bb bf bf 45 c5 90 3d ae b4 9e c0 fa 0e a1 bf
       -1.4979101 0.07068876 -4.9595556 -1.2582695
000050 18 ab 4d 3d 1e b4 f3 3d 1e 9a 07 3e 30 4f aa bb
       0.050211996 0.11899589 0.13242385 -0.005197428
000060 58 17 f3 3c 7a 0b d4 bd 23 df 96 bf f1 d3 1a bd
       0.029674217 -0.103537515 -1.1786846 -0.03779978
000070 10 a2 5b bc dc b7 ac bd 60 47 cf bc 2c 2e 87 bd
       -0.013405338 -0.08433506 -0.025302589 -0.066006035
000080 26 6d 53 bd 54 78 02 be 30 d3 0d c0 7c 87 a7 3d
       -0.051617764 -0.12741214 -2.2160149 0.081801385
000090 80 ee 2c 3a 70 cf 78 be bb e9 68 bd 33 c7 5d bf
       0.00065968186 -0.24297881 -0.056863528 -0.8663208
0000a0 3f da a6 be 40 c8 27 3c 54 c6 a3 bf e1 00 99 c0
       -0.32588384 0.010240614 -1.27949 -4.7813573
0000b0 fa 5c 4f 3d df 61 87 3d 33 49 13 bc 8e 21 c8 bd
       0.05062578 0.06610464 -0.00898962 -0.09772025
0000c0 f4 f8 de ba c6 b5 ee c0 5c 40 5c 3d f3 b3 92 c0
       -0.001701145 -7.459689 0.053772315 -4.5844665
0000d0 bb 49 7a bf 85 4b 27 3e ce 52 f8 be d2 e3 0a 3e
       -0.97768754 0.16337402 -0.48500675 0.13563469
0000e0 09 f6 a9 3d eb cd 3b 3d d1 b4 3e 3e 15 b0 30 bc
       0.082988806 0.045850676 0.18623663 -0.010784169
0000f0 e6 c9 13 3d f6 d7 19 3d 10 d3 2f 3c 96 99 32 bd
       0.036081217 0.037559472 0.010731474 -0.043603502
000100 9e 43 8b bd ad 31 b0 bd bc 85 09 c0 94 ae c9 bf
       -0.06800006 -0.08603225 -2.1487875 -1.5756402
000110 3d 2b 95 3e 07 f9 be 3a cc 82 6c c0 45 4b 31 3d
       0.2913455 0.0014570066 -3.6954832 0.043284673
000120 b5 79 8f 3d a3 1c c1 bd 5a cb be ba ee fb 69 bd
       0.07005636 -0.0942929 -0.0014556453 -0.057125024
000130 b5 14 ff 3c a9 2b d1 bd 13 84 3b be 9e 61 c4 bd
       0.031137804 -0.10213406 -0.18312101 -0.095889315
000140 d5 c2 e8 3d b3 51 5c c0 b2 28 57 bc 54 83 d0 be
       0.11365286 -3.4424865 -0.013132261 -0.40725195
000150 32 0f ce bc d6 02 80 bb b9 98 fe c0 35 84 6a bd
       -0.02515373 -0.003906588 -7.956143 -0.05725499
000160 fa da 32 3d a6 52 30 3c 52 c5 38 3c a4 40 99 c0
       0.043665864 0.010761892 0.011277514 -4.7891407
000170 6a ee af 3d 50 81 8d 3d fd 12 5b 3e ba 26 3e bd
       0.08590396 0.0690943 0.21393962 -0.04642365
000180 da c6 dc bd db 1f a3 c0 3f ce 9b bd 57 d9 16 bf
       -0.107801154 -5.0976386 -0.07607698 -0.58925384
000190 2f a4 f3 bd 2f a4 1a 3d 17 2e 4b bd cd fd 5c 3d
       -0.1189655 0.037754234 -0.0496045 0.05395298
0001a0 f5 a4 d0 bd f3 48 95 be 94 ae 6e bd a3 99 ae bb
       -0.10187713 -0.29157218 -0.05827196 -0.0053283735
0001b0 d6 97 ce bd 55 ed 1d 3f f8 08 4b be 96 5d d5 be
       -0.10087554 0.61690265 -0.1982764 -0.41672963
0001c0 2c 85 8c be 25 18 3c 3d b0 1e 48 bb 05 ee a6 ba
       -0.27445352 0.045921464 -0.003053587 -0.001273573
0001d0 1b 0b 1e be a4 d0 17 be a1 17 06 3c 6b 3d ce bb
       -0.15433924 -0.14825684 0.0081843445 -0.0062939427
0001e0 77 2a 3f bc c3 79 c8 bd 01 a8 73 ba e0 ad 64 3e
       -0.011667839 -0.09788849 -0.0009294749 0.22331953
0001f0 fb b4 ad 3d 69 f3 8d be 86 14 c0 bc 87 56 b2 3e
       0.08481785 -0.2772477 -0.023447286 0.3483164
000200 b5 bf 42 bf 05 40 6d bf 40 a9 9a c0 a8 bf 2a be
       -0.7607377 -0.9267581 -4.8331604 -0.16674674
000210 e9 ed 24 be 74 78 d7 3c 1d 15 a5 c0 6e 5a 5b 3d
       -0.1610638 0.026302554 -5.1588273 0.053553037
000220 be 94 58 bb 73 80 1b bd 0b a0 52 3e 07 0a de bc
       -0.0033047642 -0.037964296 0.20568864 -0.02710439
000230 5c 1b 10 c0 40 32 e9 bc 6a f1 8d bd 80 2d 93 3a
       -2.25167 -0.028466344 -0.06930812 0.001122877
000240 f4 ca d1 bf 2c 81 77 c0 bb 7c 0b 3e 34 8c e0 c0
       -1.6390061 -3.867259 0.136218 -7.0171146
000250 c3 7a 3e 3d c8 ca 15 bd dd 3e be bc 00 a7 38 3a
       0.046503793 -0.03657034 -0.023223335 0.0007043928
000260 b6 e6 2e 3d c4 83 58 bc 8b cc 17 bc ac f1 f2 bf
       0.04270049 -0.013215009 -0.009265075 -1.8980002
000270 a3 02 d8 bf ca aa a0 3c 94 93 30 3d e0 98 30 bb
       -1.6875805 0.019612689 0.04310949 -0.002694659
000280 4e 5d 87 3d ac d6 ef 3c 50 56 5f bf 01 77 56 3e
       0.06609593 0.029277168 -0.8724108 0.20943834
000290 ca 5f c1 bd 42 05 85 bd 1d ed f2 be f4 07 bd be
       -0.094420984 -0.064951435 -0.47446528 -0.3692013
0002a0 9b 18 da 3c e8 21 68 be 76 01 3b bd 5f b2 c9 3c
       0.02662306 -0.22669184 -0.04565569 0.024621187
0002b0 68 6a ce 3d dc 2b 29 bf 5d 1a c8 be cb e8 93 3d
       0.10078889 -0.6608255 -0.39082614 0.07222136
0002c0 c2 9e de 3e 39 62 8e bf de 9d 58 bf 7d 0c a6 bd
       0.43480498 -1.1123725 -0.84615886 -0.08107851
0002d0 76 c7 d4 bd e6 85 50 bd bf 48 c2 be 55 c8 87 c0
       -0.10389607 -0.050908946 -0.37946126 -4.2432046
0002e0 b1 63 78 3d 59 55 00 bd db eb 2c bd 8a 90 95 bc
       0.060641948 -0.031331394 -0.042217117 -0.018257398
0002f0 56 ff b7 bf 4f f5 c3 3d 22 82 36 3d f4 36 d5 bc
       -1.4374797 0.09568273 0.044557698 -0.02602718
000300 06 db 07 bd 2a fb 80 bc ec 30 8f be d2 3f 08 bd
       -0.03316786 -0.015744764 -0.27967012 -0.03326399
000310 44 d0 df 3c e2 d2 84 3d 32 0c dc 3d 7e 8a 5c bd
       0.027320988 0.06485535 0.107445136 -0.053843014
000320 23 9e e7 bb 52 76 22 bd b9 f3 95 3d 85 3c 1d c0
       -0.007068412 -0.03966362 0.07321877 -2.4568188
000330 d7 16 86 3e b3 73 a5 be 7b 46 90 3d 11 a2 06 bf
       0.261893 -0.32314834 0.07044693 -0.52591044
000340 9c 39 b2 3c 47 b7 b2 bd 3f 11 64 3f 82 3d 81 3d
       0.021755986 -0.08726364 0.89088815 0.0631056
000350 d7 04 e0 3d 29 88 32 3b 63 70 80 bd 81 0e 9a be
       0.10938423 0.0027241802 -0.06271436 -0.3008919
000360 9d b2 60 c0 c2 5c b9 bb 00 a7 61 bd 48 9b 21 be
       -3.5109017 -0.0056568095 -0.055090904 -0.15781891
000370 80 d3 dd ba 7b 59 ea 3d c3 38 9c be 27 ef 88 3d
       -0.0016923994 0.11442848 -0.30512056 0.0668624
000380 9f da 6b bd 2b d5 9b 3e 4d 8a 24 bf 71 03 9d ba
       -0.05758154 0.30436072 -0.6427353 -0.0011979175
000390 e0 53 43 3d 9a 84 b5 c0 73 f2 bc c0 18 18 ad bd
       0.04768741 -5.6724367 -5.904596 -0.08451861
0003a0 b0 7b 19 3d b9 3e 34 be a2 d4 c5 3d 5f bf d8 bf
       0.037471473 -0.17602052 0.09659697 -1.6933402
0003b0 b0 00 be bb 78 d5 1c bf a7 a4 4a bd 59 ac bb bf
       -0.005798422 -0.6126323 -0.04947343 -1.4661971
0003c0 1d 47 93 c0 d6 0d 64 3d 60 ac ac bd 97 a4 3d be
       -4.602431 0.055677257 -0.084313154 -0.18519817
0003d0 94 0c f2 3c 90 2a df 3b 0e 45 4f 3d 2e 39 2d be
       0.029547013 0.006810494 0.050602965 -0.16916344
0003e0 17 c9 c1 3c 24 41 c3 bf 51 13 4c be 6f dc 6c bd
       0.023655457 -1.5254254 -0.19929244 -0.05782741
0003f0 38 d0 64 3d 36 30 4f be 28 cf 92 be f3 09 48 be
       0.055862635 -0.20233235 -0.28673673 -0.19535045

layer_2.bias f4 [100]
000000 d8 b0 80 3e de ad 40 3e ea e4 eb 3d 8f 78 75 3e
       0.2513492 0.18816325 0.11518271 0.2397177
000010 ed 39 cd 3d 6a 25 52 3e 20 de 9d 3d 14 a0 91 3e
       0.10020814 0.20522085 0.077083826 0.28442442
000020 84 92 69 3e e9 42 0c 3e 1f 65 af 3d 4a f7 75 3e
       0.22809798 0.13697399 0.08564209 0.24020115
000030 10 48 70 3e 53 a9 10 3e bf 8f e5 3d db 68 d0 3d
       0.2346499 0.14127092 0.11209058 0.101762496
000040 d7 09 ea 3d e0 8e 0d 3e 8e ec 00 3e 8d 3e ba 3d
       0.11427658 0.13824034 0.12590238 0.09093962
000050 bf 07 e7 3d 72 eb 1d 3e 73 7e 3e 3e 79 d0 a5 bd
       0.11280774 0.15421847 0.18602924 -0.08096404
000060 57 78 41 3d 00 be 75 3d 90 14 87 ba f3 60 fc 3d
       0.047233906 0.05999565 -0.0010305811 0.12323179
000070 72 12 f7 3d 24 32 b5 3d a3 2e 1a be 08 7e 47 3e
       0.12064065 0.08847454 -0.15056853 0.19481671
000080 0f 17 61 3e 84 6d 5a 3e 02 81 21 3e 9f 3e 48 3e
       0.21981452 0.2133084 0.15771869 0.19555138
000090 b7 66 e8 3d 81 c6 31 3e 51 76 b9 bb 9f d5 0d 3e
       0.11347716 0.1736088 -0.0056598564 0.13851021
0000a0 1e cd 2d 3e 1c 22 e7 bb 4d f6 2e 3e a9 f6 8b 3e
       0.16972777 -0.0070536267 0.17086144 0.27336624
0000b0 25 16 08 3e 5e da b4 3c 32 50 6b 3d 48 ae ba 3d
       0.13289697 0.022076782 0.057449527 0.09115273
0000c0 ee a7 1c 3d a9 4e 52 3d 96 25 0b 3e 88 ce f9 bc
       0.038246088 0.051344547 0.13588557 -0.03049399
0000d0 26 f8 c4 3d 2b e4 a2 3d ef 69 f9 3c 81 a8 f5 3d
       0.09617643 0.07953676 0.03044602 0.1199503
0000e0 14 7f a3 3d 7b 1d 81 3e da 00 92 3e 75 9a 26 3e
       0.079832226 0.25217804 0.28516275 0.16269858
0000f0 1f cc 64 3e b0 4b a2 3d 6c f7 a5 bd 25 3b 0e 3e
       0.22343491 0.079245925 -0.081038326 0.1388975
000100 8b 27 1b 3e 12 dc 0a 3d 7e d7 56 bd fb 39 40 3d
       0.15151803 0.03390128 -0.052451603 0.046930294
000110 1b c4 39 bd b1 9d bd 3d d0 99 a4 3d 82 c4 be 3d
       -0.045353036 0.09258593 0.0803715 0.09314825
000120 3e b9 90 3d 3b fa ab 3d a9 6d 20 3e c3 9c 37 3e
       0.07066582 0.08397337 0.15666832 0.17930894
000130 77 7c cd 3d b0 39 18 3d 10 21 82 3e c3 bb 29 3e
       0.100335054 0.03716439 0.2541585 0.16575532
000140 c4 38 02 3e d5 e0 3f 3e 30 e5 39 3e 1b b2 14 3e
       0.12716967 0.1873811 0.18153834 0.14521067
000150 70 14 02 be 00 eb df 3c 95 49 af 3c 1e d1 35 3e
       -0.12703109 0.027333736 0.021397391 0.17755553
000160 a5 f5 0e 3e be 29 7b 3d 53 3e 1f 3e b9 92 60 3e
       0.13960893 0.061319105 0.15551119 0.2193097
000170 b7 b1 f7 3d 0d ba c2 3d e3 f5 f4 3d 98 33 01 3e
       0.12094443 0.095081426 0.11960962 0.12617338
000180 e9 88 12 3e b8 86 83 3e 75 bd 2a 3e ea 52 26 3e
       0.1431004 0.2568872 0.16673835 0.16242567

layer_3.weight f4 [5, 100]
000000 51 0a f2 bd 7e 34 90 3d f4 8f 4e 3b 54 4b 87 3d
       -0.11818374 0.07041262 0.0031518908 0.066061646
000010 15 5e d7 bd e2 94 37 3e fc 49 fa 3c b1 11 31 bd
       -0.105159916 0.17927888 0.030552857 -0.043229762
000020 e6 63 0e be db 08 4f bd 74 76 4b 3d 41 df f6 bd
       -0.13905296 -0.050545555 0.049673513 -0.12054301
000030 70 98 6f b8 19 8b c8 3c c9 c7 d0 bb c8 b5 2d 3d
       -5.712401e-05 0.02448039 -0.0063714725 0.04240969
000040 a3 84 6b 3d ad 45 ea bc 10 93 22 bc 6e 34 84 3d
       0.05749954 -0.028597677 -0.009922758 0.06455313
000050 6c 36 81 bd 8f d8 b5 bd f1 f5 24 3d 6f d6 0e 3e
       -0.06309208 -0.08879196 0.04027361 0.13948987
000060 0d 49 83 bb 65 ed e8 bb c8 99 29 3d f5 c0 40 bd
       -0.004006511 -0.0071083778 0.041406423 -0.04705902
000070 1d 3a 32 3e 75 5c 16 3e b0 c6 93 3c 26 16 b4 3c
       0.17404981 0.14683707 0.018039078 0.021983217
000080 be 93 16 be 21 35 2d bc 27 bb c2 bb 60 8f 67 bd
       -0.14704797 -0.010571749 -0.0059427205 -0.056533217
000090 a9 5b 58 3d e0 c8 31 3d 9b 0f bb bc 48 ad 4e bd
       0.05282179 0.04340446 -0.02283459 -0.050458223
0000a0 c6 27 91 3d dc 96 01 bd 79 29 6b 3c 1f c4 f5 3c
       0.07087664 -0.03163801 0.01435315 0.030000744
0000b0 f3 f5 35 be 41 42 04 3d 7b 92 23 be c3 20 27 bd
       -0.17769603 0.032289747 -0.15973847 -0.04080273
0000c0 df 42 3e 3c 7f da 3f bc 1b 87 9f 3d fc c4 87 3d
       0.011612623 -0.011709808 0.07789441 0.06629369
0000d0 d1 5e 6e bd 1e 1a d9 bd cc 11 8a bd dc 0b 23 bc
       -0.058195893 -0.106006846 -0.06741676 -0.009951558
0000e0 3e 76 0c be 4f 50 0a 3e 34 6f 59 bd ba 49 59 3c
       -0.13716981 0.13507198 -0.053084567 0.013262207
0000f0 11 8d fa bd 3b 69 53 3d 43 95 13 3e 94 02 71 3d
       -0.122339375 0.051614027 0.14412408 0.05884035
000100 9f 51 3f 3d 1e 2b f3 3c 4c ff 81 3d 09 aa 3b 3b
       0.0467087 0.029683646 0.06347522 0.0028635284
000110 cb 01 66 ba 8b 67 ad 3c 6d 3f ca 3d 6d 1f 99 3c
       -0.0008774071 0.021167537 0.09875379 0.018691743
000120 c9 7f b7 bd e2 65 23 3d 69 86 51 bd cd 86 52 bd
       -0.0895992 0.039892085 -0.051153574 -0.051398087
000130 02 29 b7 bc d5 0b 2e be f4 4a be 3d a3 fa fb bd
       -0.022358421 -0.16996701 0.0929164 -0.123036645
000140 e5 48 95 bc fd 44 3a bd 5f 82 cd 3c 93 c3 3a bc
       -0.018223235 -0.04547595 0.02508658 -0.011399168
000150 a4 b0 32 bc f4 87 21 bc a1 18 19 bd f7 cf 26 3d
       -0.010906372 -0.009859074 -0.037377004 0.040725674
000160 89 73 b2 3d 14 1e 1f bd e2 cb 7c bd 95 ba 05 3e
       0.08713443 -0.038847044 -0.061717875 0.13059457
000170 d9 d8 56 3d 1b 6d 70 bb 83 20 38 3b 4d 25 ad 3c
       0.052452896 -0.0036686126 0.002809555 0.02113595
000180 a6 b3 18 3e da fe 09 be 89 d5 d0 3c 25 bd 6e 3d
       0.1491228 -0.13476124 0.025492446 0.05828585
000190 f2 19 f3 bd 5e 5d 84 bc 6c 0f a3 bd 73 7b 8d 3c
       -0.11870183 -0.016157802 -0.07961926 0.01727078
0001a0 a4 e0 b9 bd d8 dc 55 3d e3 1f da bd 86 30 20 be
       -0.0907605 0.052212566 -0.10650613 -0.1564351
0001b0 ea 2d 18 be f1 26 91 3c 9e ec 73 39 8f d3 a4 bd
       -0.14861265 0.017718764 0.00023262433 -0.08048164
0001c0 3c d3 93 3b 5c 7d 87 39 dc fe d1 3d 33 3b 73 bc
       0.004511265 0.00025842607 0.10253689 -0.014845657
0001d0 0d 2c 4e 3e c8 b3 9b 3c c5 da f5 bb be 32 8b 3d
       0.20133992 0.019006625 -0.007502886 0.06796788
0001e0 4d f0 ac bd 25 ce e6 bc 76 c7 d6 3d e7 ed 1c bc
       -0.08444271 -0.02817447 0.10487263 -0.009578205
0001f0 af a2 ac bd a5 30 17 3e 16 c7 fc 3d bb d5 c6 bd
       -0.08429467 0.1476465 0.1234266 -0.097087346
000200 ea ec 21 3e fb ef b1 3d e9 40 88 bc 21 02 4d 3d
       0.15813032 0.08688351 -0.016632514 0.05005086
000210 67 31 0e be 8a 50 32 be ad df b3 3d 31 29 86 bd
       -0.13886033 -0.17413536 0.08782897 -0.065508254
000220 8b 42 4a 3e 80 fd 8a bd ed 23 ff bc 30 9d a7 bd
       0.19751947 -0.067866325 -0.03114506 -0.08184278
000230 e2 d4 8c bd 7b fc c8 3c 7d ef 5c bd 41 b9 d6 3c
       -0.06876542 0.024534455 -0.05393933 0.026211383
000240 36 45 c0 bc 56 10 0d bc d6 8a 3b be 45 6b 56 bc
       -0.023470502 -0.008609852 -0.1831468 -0.0130870985
000250 65 a6 82 bd d4 fb 54 be 9b 58 2c be 12 22 fa 3d
       -0.063793935 -0.2079919 -0.16830675 0.1221353
000260 6a 51 b2 bd e6 46 b3 bd eb 7e 27 be 5a b3 a9 bd
       -0.08706935 -0.08753757 -0.16357009 -0.08286162
000270 3d c1 1b be 1e 1b 86 3e 48 ff 2e be e6 f6 1a bd
       -0.15210433 0.26192564 -0.1708957 -0.037833117
000280 b2 76 14 3e 25 fb 04 3c 16 cb 65 3d 9c f5 6d 3e
       0.14498404 0.008116518 0.05610188 0.23238224
000290 78 11 4f 3e 3b e8 c9 3c fd aa 99 3d 8b 01 ed 3d
       0.20221508 0.024646869 0.075033166 0.1157256
0002a0 6f 28 a1 bd eb fd 3b 3d c0 b6 27 3e 63 ec 8e 3e
       -0.0786904 0.045896452 0.16378307 0.27914724
0002b0 fe 1d 56 bc de 3c 85 3d 1e b0 01 3d 88 fb 16 bd
       -0.013068674 0.0650575 0.0316621 -0.036860973
0002c0 57 37 be 3d 2d 02 84 bd 0b ab 1d 3e 90 75 e0 3b
       0.09287899 -0.064457275 0.15397279 0.006849952
0002d0 73 c4 5a 3d a9 e8 ff bd 7b dc a7 3a 93 43 cb 3d
       0.053410005 -0.12495548 0.0012806797 0.09924998
0002e0 1c f1 69 bc c3 66 89 3d 30 12 32 3e 20 54 1c 3d
       -0.014278676 0.06709053 0.1738975 0.038166165
0002f0 ac 3c d4 3d 43 d2 2a 3e 42 5e d9 bc 07 ad 43 3e
       0.10363135 0.16681771 -0.026534203 0.19108973
000300 6e 85 b3 3d ec 75 d8 bd 3d 39 02 bc d3 4d 9f 3d
       0.08765684 -0.10569367 -0.007948217 0.07778516
000310 18 28 01 3e 33 e8 10 be fc a4 3d be 13 bb 03 be
       0.12612951 -0.14151077 -0.18519968 -0.12864332
000320 dc 44 1e be 7c 49 10 3e 8e 0d 19 be 0a b5 af 3d
       -0.15455955 0.14090532 -0.14946577 0.08579452
000330 e7 a6 70 3d 08 7b 0c 3e 0d e2 a0 3d 4f 63 a2 3d
       0.05875292 0.13718808 0.07855616 0.07929098
000340 ed a1 58 be 6e ca bd 3d 2e e5 3c be 60 2b 74 be
       -0.2115552 0.09267126 -0.184468 -0.23844671
000350 0f 5b 5c 3e 87 cb 29 3e 63 2b 19 be 71 1e 85 be
       0.21519111 0.16581546 -0.14957957 -0.25999787
000360 5e c9 ce bb d7 72 30 3e 61 9b 1f be 0f ee ef 3d
       -0.006310626 0.17231308 -0.15586616 0.11715328
000370 c7 05 df bc 81 d7 db bd ee 47 25 3e 55 d5 a4 bd
       -0.027224435 -0.107344635 0.1614072 -0.08048502
000380 e4 a5 e1 bd ea 1c 98 ba be 79 03 bd ef 05 28 bd
       -0.11017969 -0.0011605297 -0.032098524 -0.041021284
000390 f4 f8 e5 3b b3 28 9a bd a2 aa dc 3d 34 c6 3b 3e
       0.007018203 -0.07527294 0.10774733 0.18337327
0003a0 0d 96 95 bd f0 84 90 be fb 70 e9 3c e8 eb 31 be
       -0.073040105 -0.28226423 0.028496256 -0.17375147
0003b0 3b 2d 99 be 00 17 e4 bd 83 aa 1b be c3 3b e8 bd
       -0.2991732 -0.111371994 -0.15201764 -0.11339524
0003c0 d5 41 90 3d 26 70 c8 3d e0 a4 97 be a2 90 21 3e
       0.070438065 0.097870156 -0.29617977 0.1577783
0003d0 a1 2b 97 bd 7f 1b a0 bd fb 88 6e 3e ec e3 8b 3e
       -0.073813684 -0.078177445 0.23294441 0.27322328
0003e0 52 93 1e be 7e 89 d8 3c 38 17 06 3e 99 eb 89 bd
       -0.15485886 0.026432749 0.13094795 -0.0673439
0003f0 88 15 e3 3d 49 fd 2e be ab c8 ef 3a e7 6e 94 3c
       0.11088091 -0.17088808 0.0018294057 0.018119289

layer_3.bias f4 [5]
000000 b0 fc 7f b9 85 a2 26 3c a8 62 12 bd 4d 66 10 bc
       -0.00024412828 0.010170584 -0.035738617 -0.008813453
000010 09 0b bf ba
       -0.0014575432
